DigitalRecognition-master/model_params/fc.pt (torch, 664663 bytes, 6 tensors)

layer1.0.weight f4 [256, 560]
000000 14 ed 80 bc c0 ea ce 3c 51 8c d9 bc 56 0e 19 3d
       -0.015738048 0.025258422 -0.026556166 0.037367187
000010 44 de 0e bc 9e cc 12 3d 00 93 bc 3c 60 08 c0 3a
       -0.008719984 0.03583967 0.023019314 0.0014650933
000020 fa 12 1f bd f0 16 b4 3c 9c 4e ad 3c 0c fa 0c 3d
       -0.038836457 0.021983594 0.021155648 0.03441815
000030 ec 04 fc 3c 48 6c 82 3c 12 c5 00 bd d5 51 1d bd
       0.030764066 0.015920773 -0.03143794 -0.03840812
000040 de 67 73 bc b5 df 1e bd c6 cf 49 bc f4 6d 1f bc
       -0.014856307 -0.038787562 -0.012317603 -0.009730805
000050 40 72 73 3b d0 f5 1c bd 2c 01 b6 bc 08 fb 29 bc
       0.0037146956 -0.038320363 -0.022217356 -0.010374792
000060 10 3f 48 3b a4 dc 81 3c a2 83 9f bc ca 66 82 3c
       0.0030555166 0.01585228 -0.019471947 0.015918154
000070 c8 b8 1c bc 9c 73 1d 3d 19 ab d2 bc a8 f5 af 3c
       -0.00956554 0.03844033 -0.025716351 0.021479443
000080 c4 22 15 bc 98 7a 98 3b 80 64 85 b9 e2 55 02 3d
       -0.009102527 0.004653286 -0.00025442615 0.031820185
000090 90 d5 7e bb e4 8f b6 3c bc 37 ac 3c 6a 9d 43 bc
       -0.0038884617 0.02228541 0.02102267 -0.011939386
0000a0 20 3b e2 bc 5c 2c ef bc 92 10 dd bc 90 91 ab 3c
       -0.027616084 -0.029195957 -0.02698544 0.020943433
0000b0 00 49 1f bc a0 11 26 3d 60 35 04 3b bd 59 13 bd
       -0.009721994 0.040544152 0.0020173416 -0.035974253
0000c0 5e 41 8a 3c 00 ac bb 3c c8 99 6a 3c 20 ad c3 bc
       0.016876873 0.022909164 0.014318891 -0.023886263
0000d0 50 a0 e0 3c 14 c9 14 bc b0 d0 da 3c 30 b3 05 3d
       0.027420193 -0.009081144 0.026710838 0.03264159
0000e0 b6 3c 1f 3d ea d0 41 bc 40 02 dd bc c8 93 41 3c
       0.038876258 -0.011829594 -0.026978612 0.011815019
0000f0 a0 84 51 bb a0 5d 93 bb a4 95 15 bc 50 7d 38 3c
       -0.003196992 -0.004497245 -0.009129915 0.011260346
000100 ae fc 20 3d 8f fb cd bc 64 ea ad 3c 58 18 e2 bb
       0.039303474 -0.025144367 0.02122993 -0.0068998747
000110 9a 56 1a bd 18 fc 0d 3d 4f 80 e2 bc 20 ef f5 3c
       -0.037680246 0.034664243 -0.027649073 0.03002125
000120 c4 4b 1a bd 3e ff 44 bc d3 32 ab bc c0 2d a1 3c
       -0.037669912 -0.012023745 -0.020898258 0.019675136
000130 f8 9f 62 3c 19 38 be bc 40 4a 7c 3c 14 2a 56 3c
       0.013832085 -0.023220109 0.015398562 0.013071556
000140 08 d6 c2 3b 32 d6 b9 bc c0 93 1d 3d b5 ca 28 bd
       0.0059459247 -0.022685144 0.038470984 -0.04120894
000150 78 13 82 bc 24 d6 d4 bc d0 c0 25 bc 78 bb ff 3c
       -0.015878424 -0.025981016 -0.010116771 0.031217322
000160 48 33 e3 bc 50 52 08 3d ec df cb 3c b0 ed d6 3b
       -0.027734414 0.033281624 0.024887048 0.0065590963
000170 60 2d 11 bc cc f1 86 bc b8 9b b4 3c 42 48 82 3c
       -0.008860916 -0.01647272 0.022046909 0.015903596
000180 8c 7d 25 3d 07 14 2c bd 02 36 17 bd d9 cd 71 3b
       0.040402934 -0.042011287 -0.03691674 0.0036896376
000190 2c cf 08 bc 53 a7 b6 3c d7 7d 76 3c 0e 90 a4 3c
       -0.008350175 0.022296583 0.015044651 0.020088222
0001a0 94 91 be bb 66 81 0d bd d5 4b d3 bb bb c6 d3 bc
       -0.005815694 -0.034547232 -0.006448249 -0.025851598
0001b0 a4 f6 8d 3c ee 11 23 3d 16 fd 99 bc 03 55 93 bc
       0.017329521 0.03981202 -0.018797439 -0.017984873
0001c0 45 87 5f bb c0 f8 32 bc f9 33 fa bc 01 4f 02 bc
       -0.0034107727 -0.010923564 -0.03054236 -0.007953406
0001d0 b2 66 b0 3c c2 ae 0e 3c 13 bb 97 bc 60 f8 60 bc
       0.021533344 0.008708658 -0.018521821 -0.013731092
0001e0 b2 f4 ee 3c b4 2b 96 3c a9 c4 90 bc b0 f0 be 3c
       0.029169414 0.018331386 -0.0176719 0.023308128
0001f0 85 eb e0 bc 23 f6 1b 3d 72 37 df 3c 7f 28 aa 3c
       -0.027456054 0.03807653 0.027248118 0.020771263
000200 24 a4 df 3c 39 3c c9 3c 31 80 0c bc 3e cd 9e bc
       0.027299948 0.02456485 -0.008575485 -0.019384976
000210 f5 52 f6 bc be ce 6e 3b 0d 3b c7 3c 4d 25 e9 3c
       -0.030068854 0.0036439146 0.02432015 0.02846017
000220 42 1c e1 3c a3 70 97 3c 90 62 ba 3c 00 ed 21 bd
       0.027479295 0.018486327 0.022752076 -0.03953266
000230 2c b9 09 bd 1c cd 24 bd 2d 5c 0c 3c 8e 31 a3 3c
       -0.03362386 -0.04023467 0.008566898 0.01992109
000240 76 a4 28 3d c6 81 ba 39 37 72 1f 3d c7 e2 2a bc
       0.041172467 0.00035573373 0.038927283 -0.0104300445
000250 6d ae 55 bc e0 3a 07 3d 0a 2c 52 3c 79 6f 26 3d
       -0.013042075 0.033015132 0.012827883 0.040633652
000260 c1 5d e4 bc 63 be c0 3c 01 5d 92 3c 46 24 a5 bb
       -0.027876737 0.023528283 0.017866613 -0.0050397245
000270 74 cc 16 3d 98 c2 0d bc df b7 87 bc 11 63 5d bc
       0.036816075 -0.008652352 -0.016567169 -0.013512389
000280 4c cd af 3c 28 49 07 bd 4a 7f 0f bd a1 ec 73 3c
       0.021460198 -0.03302875 -0.0350335 0.01488796
000290 96 30 e6 bc 15 7f 2f 3c ec f8 46 3b 3b d9 ea 3b
       -0.02809934 0.010711451 0.0030360771 0.007167009
0002a0 7a df ae bc 4d c1 72 bb 1d 70 b6 b9 52 ee f9 3c
       -0.021346796 -0.0037041486 -0.00034797276 0.030509148
0002b0 2d 91 0f bd 37 bb 81 bc 1e db ae 3c 9c cd d2 bc
       -0.03505056 -0.015836341 0.021344718 -0.025732808
0002c0 67 ba 9c 3c 32 53 c3 bc 7c 68 df bc 1f 3b 1c 3d
       0.019131852 -0.023843382 -0.027271502 0.03814232
0002d0 36 a4 27 bc 21 02 d5 3c ec b9 06 bd b2 b6 54 3c
       -0.010232022 0.026001992 -0.032892153 0.012983011
0002e0 4f c4 03 bd e3 09 86 3c f9 24 e3 bc f2 7b ac bc
       -0.032169636 0.016362136 -0.02772759 -0.021055195
0002f0 2b 95 1e bd dd a5 a8 bc 03 26 cb 3c 9b dd fb 3c
       -0.038716476 -0.020586902 0.024798399 0.030745318
000300 ee 7d 7f 3c e8 94 65 3a 2b 37 e6 bb ed 61 8b 3b
       0.015593989 0.00087578455 -0.0070256195 0.004253617
000310 6a f7 a7 bc 5a c0 9f bc a7 59 a9 3c d6 ae 50 3c
       -0.020503718 -0.0195009 0.020672632 0.012736997
000320 25 e6 80 3c b0 c1 12 3d 49 d7 1d bd 9a 35 1b 3c
       0.015734741 0.035829246 -0.03853539 0.009473229
000330 86 bc 28 bc 46 75 0f 3c 74 06 f6 3a 16 4e 30 bb
       -0.010298854 0.0087559875 0.0018770234 -0.0026902012
000340 3c f1 11 3d 95 75 ba 3b 21 a1 25 bd 3e 15 80 3c
       0.03563045 0.0056902864 -0.040436868 0.015635129
000350 3e 0a 08 bd 21 2e d4 3c cd a1 7f bc d2 cf 5a bc
       -0.033212893 0.025900902 -0.015602541 -0.013355212
000360 6e d9 c3 3c f9 27 86 3c ec f5 15 bb 0c 8a a2 bc
       0.02390739 0.016376482 -0.0022882177 -0.019841217
000370 73 93 da 3c 37 06 18 bd 61 03 a1 3c 26 ae 80 bc
       0.026681637 -0.037115302 0.019654932 -0.01570804
000380 04 3d ab 3c 1a 1f 3a 3c ca a3 8d bc 9b 50 23 bd
       0.020903118 0.011359954 -0.017290015 -0.039871793
000390 0a 1e 39 bb 70 55 11 3d 0b 49 83 bc 2f ae 0f 3d
       -0.0028246664 0.03548187 -0.01602604 0.035078224
0003a0 33 92 2d bb 2a 71 3d 3c d0 fe c7 3c b1 71 96 bc
       -0.0026484847 0.011562625 0.024413496 -0.01836476
0003b0 e4 a4 f7 bc 43 64 1b bd 11 54 af 3c cf f5 f9 bb
       -0.030229993 -0.037937414 0.02140239 -0.0076281796
0003c0 28 24 06 3d 1e a6 bf bc 8e f4 fe bc f4 47 6a bc
       0.032749325 -0.02339464 -0.031122472 -0.0142993815
0003d0 75 ec 63 bc ab 58 32 bd f1 8b d3 3c 2c 14 91 3c
       -0.013911356 -0.04354159 0.025823565 0.017709814
0003e0 c6 02 df bc e2 7d 2d bd 0c 87 36 bd 9f ef cf bc
       -0.027223002 -0.04235638 -0.044562384 -0.025382815
0003f0 4d 84 98 3c be d6 bc bc d4 b2 9b bc c7 52 bc 3c
       0.018617773 -0.023051616 -0.01900617 0.02298869

layer1.0.bias f4 [256]
000000 e4 bd 20 3d 21 d4 67 3b 4c e7 b4 3c 08 fe 22 3d
       0.039243594 0.0035374241 0.022082947 0.039793044
000010 db 56 3d 3c c5 c1 32 3c 97 e5 e8 bb 60 81 d8 3a
       0.0115563525 0.010910456 -0.0071074474 0.0016518049
000020 9a 6c 02 3c 3e 56 8a bc 27 07 e2 bb 58 61 09 3b
       0.007960463 -0.016886827 -0.0068978253 0.0020962562
000030 01 11 c6 ba e1 1e 17 3c a1 e2 d0 bc da e6 6b 3c
       -0.0015111269 0.009223671 -0.02549869 0.014398301
000040 f7 65 19 3b ee 2e a6 bc 8c 90 00 bd 5e 28 9e 3c
       0.0023406723 -0.02028605 -0.03138785 0.019306358
000050 5c 46 ed 3c 1a 31 11 bb eb f8 2d 3b e7 16 1e 3d
       0.028964214 -0.002215451 0.0026546072 0.03859606
000060 99 e6 0d bd 84 66 eb bc 42 9f e2 ba c1 ef 8e 3c
       -0.034643743 -0.028735407 -0.0017289894 0.017448308
000070 1b d1 69 3b c0 4f 04 bd 80 67 95 b9 34 7a 67 3c
       0.0035677615 -0.032302618 -0.00028496608 0.014128257
000080 b0 af ce 3b da 00 0e 3d 58 ad e9 3c 14 19 0b bd
       0.0063075647 0.03466878 0.02852504 -0.033959463
000090 ef a9 0d bd 1f 55 d0 bb 7d 66 16 3c 00 7a 9b 39
       -0.03458589 -0.0063578035 0.009179709 0.000296548
0000a0 8b 09 90 bc 8d 90 15 3d dd cd b6 3c 49 ce 6e 3c
       -0.017582675 0.036514807 0.02231496 0.014575549
0000b0 f9 24 d3 bc f8 5f 07 bd 05 a1 b2 bc 81 05 47 3c
       -0.025774466 -0.033050507 -0.021805296 0.012147308
0000c0 1d b9 c2 3c 7f 5d f9 bc dc d3 3e 3c 7c 36 05 3d
       0.02376991 -0.03044009 0.011647191 0.032522663
0000d0 38 64 28 3d 8e f5 36 bc d0 e5 af bb ef 86 2c bc
       0.0411112 -0.011166943 -0.005367972 -0.010530218
0000e0 b2 10 76 3c 3c ad 9d bb 54 34 26 3d 77 6d 74 3c
       0.015018629 -0.004811911 0.040577248 0.014918677
0000f0 3e e8 6e 3c 14 b1 7c 3b 7c 08 ab 3c 80 78 8f 3c
       0.014581738 0.0038557695 0.02087807 0.017513514
000100 7f cd d5 bc 6a b9 fe bc 66 26 47 bc 44 bd 91 ba
       -0.026098965 -0.031094272 -0.012155151 -0.0011119028
000110 e2 60 bc bc 5d be d8 3b 48 48 08 bd 16 0e dc bc
       -0.022995416 0.00661449 -0.033272058 -0.026862185
000120 16 20 a9 3c 69 f1 1c 3c b8 a9 82 bb 1c 31 ba 3c
       0.020645183 0.009579041 -0.003987517 0.022728495
000130 b9 a7 0f bd 89 f3 0b bd e1 8a a8 3b b4 3c f7 bc
       -0.035072062 -0.0341678 0.005143509 -0.030180313
000140 ca 40 30 3b 74 12 52 bc b4 55 fd 3c 3c 39 5d 3c
       0.0026894086 -0.012821782 0.030924655 0.013502415
000150 e6 da 74 bc 97 62 a3 3b e0 98 1e 3d 5a 70 06 3d
       -0.014944768 0.004986118 0.03872001 0.03282199
000160 5c 0f 0a bd a0 30 bf 3c d2 82 7c bc 0c 33 6b 3b
       -0.033706054 0.023338616 -0.015412049 0.003588858
000170 28 ca 92 bc 4c 50 4f 3c d5 e3 f2 bc cc e9 ab bc
       -0.017918661 0.012653422 -0.029649654 -0.020985506
000180 bd bc 2c bd cc 4e 14 3c 70 a9 8c bc b9 de 91 bc
       -0.042172182 0.00905199 -0.017170638 -0.017806398
000190 e2 ff 25 3d 57 a9 1d 3d e2 33 81 3c fc d0 49 36
       0.040527232 0.038491573 0.01577181 3.007298e-06
0001a0 94 0c ce 3c 44 f5 02 3c 32 16 d3 3c a8 f6 d2 3c
       0.025152482 0.007993046 0.02576742 0.02575238
0001b0 0a 3d 1c 3d d0 0c c9 bc d8 20 a3 3c 15 b4 fd bb
       0.03814415 -0.024542242 0.019913122 -0.0077424147
0001c0 dc 99 18 bd e3 34 ec bc 9c 83 39 3c ec 50 08 3d
       -0.037256107 -0.028833812 0.011322882 0.033280298
0001d0 69 fa c2 3c 5a 0b 2d 3d 11 a2 05 3d 04 ba 6b bc
       0.023801045 0.042247154 0.03262526 -0.014387611
0001e0 df f4 9e 3b 54 79 67 bc 7b fc 03 3d da 16 4f bc
       0.0048509683 -0.014128048 0.032223206 -0.012639726
0001f0 80 63 e6 b9 77 ca 8b 3c 0f db fa 3b 8c 9c e4 3c
       -0.00043943152 0.017064316 0.0076555084 0.027906679
000200 f4 db 10 bc cf c4 14 3b 39 40 62 bc 3b 6b f5 3c
       -0.008841503 0.0022700315 -0.013809257 0.029958358
000210 34 16 41 3c e4 6c b1 3c 87 46 93 bc d4 4b 1d 3d
       0.011785079 0.021658368 -0.017977966 0.038402393
000220 8c 42 f2 3c ad a9 cb bb e7 0c 2f 3c 4c ac ff bb
       0.029572748 -0.0062152953 0.0106842285 -0.007802522
000230 bc 56 44 bc 5f 01 5e bc 30 ca 62 bb 80 b8 15 3d
       -0.01198357 -0.013550132 -0.0034605376 0.036552906
000240 89 d6 18 bd 84 d9 e3 bc 67 a9 d0 3c f1 56 f6 bc
       -0.03731397 -0.02781368 0.025471402 -0.030070754
000250 ff f9 c4 bc e5 71 fe bc b8 21 6f bc a0 21 ab bc
       -0.024044989 -0.031060169 -0.0145954415 -0.020890057
000260 64 b7 f5 bc ca 26 aa 3b cf 7b 7b 3c 8a fe 56 3c
       -0.029994674 0.0051926123 0.0153493425 0.01312221
000270 7a c3 e0 3c a6 f0 17 3b e6 d0 5d bc e5 d2 3a bb
       0.02743696 0.002318421 -0.013538575 -0.002850705
000280 d1 00 e2 3c b9 18 33 bc b1 5c 1e bd 74 73 92 bc
       0.02758828 -0.010931187 -0.038662616 -0.017877318
000290 92 fb 22 bd c4 4e b0 bc 8b 53 0d 3d 81 9d 0c 3d
       -0.039790697 -0.021521933 0.0345035 0.034329895
0002a0 47 45 b6 bc 84 20 58 bc 9f b0 da bc d9 fe 0d 3d
       -0.02224983 -0.013191346 -0.026695548 0.03466687
0002b0 38 84 19 3d 26 36 16 bd e1 9f ab 3b 83 89 02 bd
       0.03747961 -0.036672734 0.005237565 -0.031869423
0002c0 51 1c b5 bc 48 0e f0 bc c0 27 1f 3d e6 78 63 bc
       -0.022108229 -0.029303685 0.038856268 -0.013883805
0002d0 cb ef 64 3c 3c 9d 82 3c b6 c4 72 bb c8 ca 0f bc
       0.013973187 0.015944116 -0.0037043518 -0.008776374
0002e0 32 e2 cc 3c c2 0b 1c 3d 5a 89 f8 bc db f5 ee bc
       0.025010202 0.03809715 -0.030338932 -0.029169967
0002f0 ee 22 24 bd f9 03 eb bc 11 90 96 3c bb f9 8b bb
       -0.040072374 -0.028688418 0.018379243 -0.0042717136
000300 68 35 80 bc e0 c2 15 3d 5f b5 c5 3a 16 2b f8 3c
       -0.015650466 0.0365628 0.001508396 0.030293982
000310 d0 c8 cc 3c ac 79 0e bd 49 bc c4 3c 07 f6 6b bc
       0.024998099 -0.034784004 0.024015563 -0.014401919
000320 05 b0 f5 bc 26 ca 1b bd ad 4a 0c bd 39 67 1d 3d
       -0.02999116 -0.03803458 -0.034250904 0.03842852
000330 cd 51 95 bc 60 28 49 3b a5 a7 04 bd 73 6e ab bb
       -0.018227482 0.0030694231 -0.03238644 -0.0052316724
000340 0d e9 1b bd 6f 35 0f bd 41 cf ef 3c 9b dd 68 3b
       -0.03806405 -0.034963068 0.029273631 0.0035532478
000350 2f f0 3b 3c 32 8f d0 bb 2e 9c ce bc 81 e2 7c 3c
       0.011470838 -0.0063647265 -0.025220957 0.015434862
000360 f4 27 25 bd a1 42 26 3d 0e 41 78 bc 2c 6e 00 3c
       -0.040321305 0.040590886 -0.015152229 0.007838767
000370 10 b7 92 3c 4a cc 9f bc e9 af dc ba 07 81 09 bd
       0.017909557 -0.019506592 -0.0016837093 -0.033570316
000380 f0 88 dd 3b e7 1e ed 3c 64 8c 59 bc 64 0d 89 3c
       0.006760709 0.0289454 -0.013278101 0.016730018
000390 d3 88 d8 bc 50 4b 1b 3d 03 1d 8a bc 65 f7 24 3a
       -0.02643243 0.03791362 -0.016859537 0.0006292968
0003a0 dc 5f d3 3c 34 d6 34 3b 58 44 aa 3c 11 d1 12 bd
       0.025802545 0.0027593495 0.020784542 -0.035843913
0003b0 e0 1a fd ba f0 a2 1f 3d fb 8e 03 3c 0b f2 a5 3b
       -0.0019310378 0.03897375 0.008029695 0.005064254
0003c0 78 21 17 bc 51 bb 1d 3c f9 8b 3c b9 89 44 1d bd
       -0.009224288 0.009627179 -0.00017981221 -0.03839544
0003d0 df 2a 8d 3c 70 bf 0f 3b 8c 86 e7 ba 39 dc 8b bb
       0.017232357 0.0021934174 -0.0017664 -0.004268196
0003e0 f0 a2 32 bc ff 79 f1 3c f7 fa 71 3c aa 0e 06 3d
       -0.010903105 0.029477118 0.014769307 0.03272883
0003f0 00 5b 5a 39 f4 d4 01 3d 3f 32 02 bd e7 5e 24 bd
       0.00020824 0.03169723 -0.0317862 -0.04012957

layer2.0.weight f4 [84, 256]
000000 84 f9 95 bc 36 12 7c bd 20 b7 4f 3d 38 ae 99 bc
       -0.018307455 -0.061540805 0.05071175 -0.018759832
000010 ca aa 5b bd 40 c2 e0 ba 8e 5b 55 bd c0 cf b5 bb
       -0.053629674 -0.0017147735 -0.052089266 -0.0055484474
000020 f4 d6 8d 3c 48 23 fd bc 70 ef 9d 3b 90 df 78 3c
       0.017314412 -0.030900612 0.004819803 0.01519002
000030 d4 98 4f bd cc 3e b0 bc 10 ab 0b 3c 50 60 d1 bb
       -0.050682858 -0.021514319 0.008524671 -0.006389655
000040 70 eb 3b bd 80 b0 ba bc 28 51 2a bc 4c 9c aa bc
       -0.045878828 -0.02278924 -0.010395326 -0.020826481
000050 8c 5d 3e 3d 30 3a 54 3c 7c 0b 71 bd 00 83 55 bc
       0.046475932 0.012953326 -0.058848843 -0.013031721
000060 e0 2f 8e bc d0 cc 74 bd 50 2c a3 3b 8e af 1a 3d
       -0.017356813 -0.059765637 0.0049796477 0.03776508
000070 c8 e5 c6 3c 80 b8 4d 3a 5c 21 a5 bc ec 15 30 bd
       0.02427949 0.0007847622 -0.020157509 -0.042989656
000080 cc 1a ea bc 3c fb ac bc 20 a4 5b 3b 5c de 82 bc
       -0.02857723 -0.021115892 0.0033514574 -0.01597517
000090 bc 90 18 3d 00 7c 1c 3a fa 1f 1a 3d 8a ab 4d bd
       0.037247404 0.0005969405 0.03762815 -0.05021242
0000a0 f2 e4 22 3d e8 88 21 bc 7a 1b 1c bd 80 f6 5f bc
       0.03976912 -0.009859301 -0.03811214 -0.01366961
0000b0 08 c0 e0 3c a0 3e 6f bb f8 af 2f 3c 46 fd 2a 3d
       0.027435318 -0.0036505833 0.010723107 0.041745447
0000c0 aa ad 25 3d 44 8c 1e bd 4c 5b 57 3d f4 a6 6d bd
       0.040448822 -0.038707986 0.0525773 -0.058020547
0000d0 20 ea 2f 3d ac da 3f bd b0 0c 39 3c 80 31 48 bb
       0.04294789 -0.0468394 0.011294529 -0.0030547082
0000e0 96 21 35 3d 56 3b 5b 3d e0 fa 31 bc ae 2c 12 bd
       0.044221483 0.053523384 -0.010863036 -0.03568714
0000f0 bc fb b1 bc 9a 98 2e bd 22 d6 2b 3d ca d0 47 3d
       -0.021726482 -0.042626 0.04195226 0.0487831
000100 9c 4d 54 3d 08 97 02 3c 98 68 6a 3c e6 00 6c 3d
       0.051831827 0.007970579 0.014307164 0.057618044
000110 fa 1b 2c bd 00 2a 6b ba 20 bf 51 3d d0 b5 b5 bb
       -0.042018868 -0.0008970797 0.05120766 -0.0055453554
000120 d6 e1 7f 3d a0 7d a9 3c c8 64 43 3c fa cb 45 3d
       0.062471233 0.020689785 0.011925884 0.04829023
000130 f8 ed a2 3c 00 58 cf b8 cc 77 d5 3c 30 80 35 bc
       0.019888863 -9.8869205e-05 0.0260581 -0.011077926
000140 8a fc 57 bd 38 da 23 bc 14 d9 2a 3d 7c ef ae bc
       -0.052731074 -0.010000758 0.041710928 -0.02135443
000150 d0 18 bc bb 76 46 2a bd 14 08 dc 3c e8 9d 02 bd
       -0.0057402626 -0.041571103 0.02685932 -0.031888872
000160 b0 e8 23 bc 20 d5 04 3c 6e e3 66 bd f0 f4 2e 3c
       -0.0100042075 0.008107454 -0.056369238 0.010678515
000170 90 f9 87 bb a0 bd 94 3c ca 13 46 3d 94 d8 38 3d
       -0.004149623 0.018156826 0.048358716 0.04512842
000180 14 70 d6 bc 4e 0e 2b bd 4e 94 3a 3d b8 65 60 bd
       -0.02617649 -0.04176169 0.04555159 -0.054784507
000190 a0 92 10 bd 08 b2 e8 3c a4 e3 39 bd 84 ce c5 3c
       -0.035296082 0.028405204 -0.04538311 0.024146326
0001a0 d8 56 12 3c ea f4 69 3d 42 83 78 3d 00 03 cb 39
       0.008931838 0.057118334 0.060672052 0.00038721412
0001b0 c8 be ef bc 6a 66 24 3d c0 b1 6b bb a4 c6 7c bd
       -0.029265776 0.040136732 -0.0035964102 -0.061712876
0001c0 44 c7 6f 3d fc 41 56 3d 34 d0 71 3d a8 91 29 3c
       0.058539644 0.05230902 0.05903645 0.010349669
0001d0 1a d0 49 3d 0e ea 6e bd 68 a9 8a 3c 84 35 bb 3c
       0.049270727 -0.05832868 0.016926482 0.022852667
0001e0 b8 ee 88 3c 08 7c 44 bd f8 23 75 3c 54 53 cf 3c
       0.016715392 -0.047969848 0.014962189 0.025308289
0001f0 18 11 02 bd 10 26 0e 3c 40 aa 31 bc e8 6e ef 3c
       -0.031754583 0.008676067 -0.010843813 0.029227689
000200 ca 43 34 bd 98 77 0b bc 88 40 98 3c 38 84 5c bd
       -0.04400996 -0.0085124 0.018585458 -0.05383703
000210 c8 8a 26 3d f2 a9 5a 3d 6e d7 33 bd a8 0c 5b 3c
       0.040659696 0.05338473 -0.04390662 0.013369717
000220 74 17 27 bd 88 89 ee bc 9a a2 1e bd 70 87 df bb
       -0.04079385 -0.029118314 -0.038729288 -0.0068215653
000230 b6 33 6b 3d c0 fd 70 3c 64 26 3b 3d 88 02 f4 3c
       0.057422362 0.014708936 0.04569091 0.029786363
000240 46 b8 2a 3d b8 8f ad 3c 6c d5 98 3c 2c dd 64 bd
       0.041679643 0.021186695 0.018656455 -0.05587499
000250 10 85 ef 3c 40 93 a7 bb e0 b4 1a 3c a4 63 f8 bc
       0.029238254 -0.005113989 0.009442538 -0.03032095
000260 66 a2 14 bd 80 62 1e 3c de 82 71 bd 10 2e 8e bc
       -0.036287688 0.009667039 -0.058962695 -0.017355949
000270 42 ce 40 bd b8 f1 72 bd 06 97 3d 3d 9a a6 2d bd
       -0.047071703 -0.059312552 0.046286605 -0.04239521
000280 60 01 68 3d f0 1e 92 bc f8 03 05 bd 36 b7 4e 3d
       0.056641936 -0.017837018 -0.032474488 0.050467692
000290 b0 9c c7 3b 48 bd de 3c b2 9b 25 bd b6 d1 1c bd
       0.0060916767 0.027189866 -0.040431686 -0.038285933
0002a0 cc 37 57 bd a8 c7 a3 bc 6a 06 5e 3d d4 61 34 3d
       -0.052543446 -0.019992664 0.054205336 0.04403861
0002b0 22 6a 1d bd f2 d8 61 bd 78 2d 2e bd 3c c9 ca 3c
       -0.038431294 -0.055138536 -0.04252383 0.02475416
0002c0 a8 9a 13 bc b0 2a 27 bd ba 67 21 3d 80 d3 08 bb
       -0.009009041 -0.040812194 0.039405562 -0.0020878017
0002d0 98 29 32 3d a0 9a 3d bc 38 46 86 bc 34 84 ae 3c
       0.0434967 -0.01157251 -0.016390905 0.021303274
0002e0 54 15 f2 bc f0 cc 39 3d 74 55 db bc d8 3f 0d bc
       -0.029551186 0.04536146 -0.026774146 -0.008621179
0002f0 50 20 3f bd 60 c2 68 3d c0 57 8d 3a a0 21 fa 3b
       -0.046661675 0.056825995 0.0010783598 0.007633403
000300 58 e2 5c bd b8 49 7b 3c ac 7a 6c 3d 2c 42 94 3c
       -0.053926796 0.0153374 0.057734177 0.01809796
000310 b6 77 5d 3d 48 df f9 bc 60 0f 44 3b 40 dd 58 3b
       0.054069243 -0.030501977 0.002991639 0.003309086
000320 e8 55 12 bc 78 c3 59 3d 70 2b 11 3d be d2 2e bd
       -0.008931614 0.05316493 0.035441816 -0.04268145
000330 3e 72 27 bd f8 c1 70 3d 28 76 0a 3c 7e b3 09 bd
       -0.040880434 0.058778733 0.008451022 -0.033618443
000340 e0 7b 3b 3d 40 e4 6c bd b0 d5 a2 3b ba b9 79 bd
       0.045772433 -0.057834864 0.004969321 -0.06096814
000350 10 6a 09 bd f4 55 a1 bc e0 07 8f 3b 20 41 2c bc
       -0.033548415 -0.019694306 0.0043649524 -0.010513574
000360 02 8d 55 bd 7c aa 1f bd c4 4a a1 bc 08 f4 38 bd
       -0.05213643 -0.038980946 -0.019688971 -0.0451546
000370 34 a7 05 bd 54 c0 0b bd 38 d0 00 3c 28 01 bd 3c
       -0.03263016 -0.034118965 0.007862143 0.02307184
000380 7e 02 18 3d 40 b0 a2 3b d0 2e e9 bb b8 f9 eb 3c
       0.03711175 0.0049648583 -0.007116176 0.028805599
000390 40 2f 9d 3a cc 41 82 bc 68 93 44 3c be 3f 34 bd
       0.0011992231 -0.015900515 0.011998035 -0.0440061
0003a0 40 ae c3 ba 28 43 36 bd 80 0f d8 3a 24 a1 09 bd
       -0.001492925 -0.04449764 0.0016484112 -0.03360094
0003b0 04 3f ee 3c bc 71 8b bc 64 01 9e bc 9e f0 28 3d
       0.029082783 -0.017022006 -0.019287772 0.041245095
0003c0 0c 19 aa bc 84 21 e0 bc 30 a6 91 3c 40 1c 61 3b
       -0.020763896 -0.027359731 0.01777944 0.0034349114
0003d0 7c bd ea 3c d8 aa 23 3c a6 b4 30 3d 58 92 fe bc
       0.028654806 0.009989463 0.04314103 -0.031075642
0003e0 5c 60 66 3d ea e6 6d 3d f8 18 9c bc c8 c7 38 bd
       0.05624424 0.058081545 -0.019054875 -0.0451124
0003f0 88 d5 e8 3c fc 20 68 bd c4 0a 81 bc 5a d6 77 bd
       0.028422132 -0.05667208 -0.015752204 -0.060507156

layer2.0.bias f4 [84]
000000 e0 42 86 bc 05 7e 9e ba 6f d3 a2 3c f1 3d 55 bd
       -0.01638931 -0.0012092 0.01987621 -0.052061025
000010 18 cc 34 bc 00 d9 62 3d 38 c7 34 bc 50 79 da bc
       -0.011034988 0.05538273 -0.011033826 -0.026669174
000020 29 5d 5c 3d 56 a8 b8 ba eb b3 27 bd 69 6c a4 3c
       0.053799782 -0.0014088254 -0.040943068 0.020071225
000030 fa 3b 1b 3d 63 f1 1c bd 87 d3 3d 3d 07 61 65 bd
       0.037898995 -0.03831614 0.046344306 -0.056000736
000040 ca 8c 50 3c 08 4d 9f bc 0b c4 63 3d 62 29 15 3d
       0.012728879 -0.019445911 0.055606883 0.03641642
000050 f0 d6 f8 39 38 79 09 3d 0f ff b8 bb ac 1b 84 3c
       0.00047462387 0.03356287 -0.0056456397 0.016126476
000060 79 f0 4c bc cc aa 08 bd cb 2a 85 39 20 71 1e 3d
       -0.012508505 -0.03336601 0.0002539962 0.038682103
000070 f2 16 73 3d f0 e0 75 3d e0 bb 53 3b 0e 49 54 3d
       0.059348054 0.06002897 0.0032308027 0.051827483
000080 07 32 0f 3c a0 12 81 bc e8 f0 06 bd 3a a8 34 bc
       0.008739955 -0.015755951 -0.03294459 -0.011026436
000090 c4 e0 57 3c 8f 53 24 bb e8 14 6c 3d 0f 9d 2e 3c
       0.013176147 -0.002507422 0.057637125 0.010657563
0000a0 ea 47 5e 3d 04 cb e7 bb 30 99 c0 3c a0 28 8f bc
       0.0542678 -0.007073762 0.023510545 -0.017475426
0000b0 6d eb 28 bd cb 2c 69 3d 9c b2 39 bd c0 07 d2 3a
       -0.041240145 0.056927484 -0.04533635 0.0016024038
0000c0 48 58 bd 3c ef 9e 26 bd 0b 31 86 3c ce 20 22 bd
       0.023113385 -0.040678915 0.016380807 -0.039582066
0000d0 36 02 12 3d 4c 3b 0f bd 50 30 9c bb 81 b8 67 3d
       0.03564664 -0.03496866 -0.0047665015 0.05657244
0000e0 fa f6 86 3c 86 54 03 3d 91 9e 79 3d 7e 07 65 bd
       0.01647519 0.03206303 0.060942236 -0.05591535
0000f0 49 92 5e bd 71 5b 66 3d 0f c3 ee bc 2c 4c 4a 3c
       -0.054338727 0.05623955 -0.029145746 0.012347262
000100 80 97 dd 3c a9 d1 0b bd 83 6e 6d bc 40 69 64 3c
       0.02704978 -0.034135494 -0.01449168 0.013941109
000110 16 26 f2 3b 5d 32 78 bd d8 db 00 bc 02 01 00 3d
       0.007389794 -0.060594905 -0.007864915 0.03125096
000120 a9 93 33 bd 24 4a 8f 3c dc 36 af bc 36 96 18 3d
       -0.04384199 0.017491408 -0.021388464 0.037252627
000130 da c1 34 bd 7a 27 38 bd 40 1a 13 bb 08 22 75 3d
       -0.044130184 -0.044959523 -0.0022446066 0.059846908
000140 3e fd 65 3c 34 75 8d 3c 73 ba 7d 3d 7c 74 09 3d
       0.014037428 0.0172678 0.06194539 0.033558354

layer3.0.weight f4 [5, 84]
000000 23 7b 9e 3d 1c 1f d5 bd bb 00 08 bc 4d 19 87 bd
       0.0773833 -0.10406324 -0.008300955 -0.065966226
000010 4c c0 90 3d 90 93 69 bc f7 53 b8 bd 81 e9 ba bd
       0.07067928 -0.014256373 -0.0900039 -0.091265686
000020 65 8e 96 3d 1d 5d 27 bc aa bf 09 3c ce 05 13 3c
       0.07351378 -0.010215071 0.008407513 0.008973552
000030 ac 95 a1 3c ce 73 80 bd 0d e6 c4 3d 70 0f 85 bc
       0.01972469 -0.06272088 0.09614191 -0.016242713
000040 39 f9 93 bd 7e c0 0e bc a7 95 d5 3c cc e3 34 3d
       -0.0722527 -0.008712886 0.026072336 0.044162557
000050 ac 3a c0 bc 3b ac 0e bd 50 d3 d2 3b 70 55 86 3d
       -0.023465477 -0.03483222 0.006433882 0.06559265
000060 78 b3 92 bd 43 0b 0a bd ba 3f c8 3d 9e 2c 62 3d
       -0.07163137 -0.033702146 0.0977778 0.05521833
000070 34 0c 88 bd b8 e4 78 bc 1f cd 59 3d cc e0 0c 3d
       -0.066429526 -0.01519125 0.053174134 0.03439407
000080 9a d7 c9 3c 0e bb 47 3d 47 ed c1 3d 87 21 46 bd
       0.02463894 0.048762374 0.09469085 -0.048371818
000090 80 b1 fb bb b1 fd 10 bd 48 c7 81 3d 71 f2 d6 3d
       -0.0076810718 -0.03539819 0.06336838 0.10495461
0000a0 bf a7 b0 3d 0d 55 bd 3d da 2a 1d 3d b0 19 dc bb
       0.08625745 0.09244738 0.038370945 -0.0067169294
0000b0 0b a2 66 bd 0f 88 ad bd e0 fb 5b 3b a2 d6 20 bd
       -0.05630688 -0.08473217 0.0033566877 -0.03926719
0000c0 99 22 d8 3d 6f 9e 8d bd 5f b3 c1 3d 81 f6 b3 3d
       0.10553474 -0.069149844 0.094580404 0.08787251
0000d0 55 ee 69 bd 73 1a a3 3d 61 d8 dd bd d6 15 b3 3c
       -0.057112057 0.07964029 -0.108322866 0.021860998
0000e0 2d 38 53 bd 79 95 ca bd a3 a8 25 3d 2f ae 8e bd
       -0.051567245 -0.09891791 0.040444028 -0.06966817
0000f0 6a 81 90 3c 1c 8d d7 3c bd d3 08 bd 16 fb 31 bd
       0.017639834 0.026312403 -0.033405054 -0.043452345
000100 44 3c 85 bd af f6 44 bd a9 72 17 bd 2e 43 dd bd
       -0.065056354 -0.04808682 -0.036974583 -0.10803829
000110 ba 9a 0b 3d 4a 0b a8 bd a8 64 55 bc 0a 10 05 bc
       0.034083106 -0.08205278 -0.013024487 -0.0081215
000120 22 f4 d1 bc 39 3d bd bb ff f7 9f bd fe 94 50 3d
       -0.025629107 -0.0057751206 -0.078109734 0.05092334
000130 bc ef b0 bd 6f 91 c9 3c 40 fd d4 ba 5b 9b 26 3d
       -0.08639476 0.024605481 -0.0016249791 0.040675502
000140 87 0d 5b bd 27 0c 0b bd 43 fe ec bb b4 70 54 bd
       -0.053479698 -0.033947136 -0.007232459 -0.051865295
000150 00 48 73 3b 46 eb 36 bd a4 8f 83 bd 84 d8 bd bd
       0.0037121773 -0.044657968 -0.06423882 -0.09269813
000160 e7 a5 39 bd e0 1d 17 bc 34 12 25 3d b0 4d fb bd
       -0.045324232 -0.009223431 0.040300563 -0.12270677
000170 8c 8c d1 3d 16 dd b8 bc 8b de 86 3d c5 8b 2d bc
       0.10231885 -0.02256636 0.065854155 -0.010592406
000180 57 58 04 3c 65 69 8a 3b c8 21 cc bd 42 15 02 bd
       0.0080777025 0.00422399 -0.09967381 -0.031758554
000190 ff e9 ce bd f2 04 07 bd f9 cf ad 3d f4 7c 2b bd
       -0.10103225 -0.0329637 0.08486933 -0.04186721
0001a0 13 96 b6 3d 14 87 7d 3d 08 2c 57 bc c2 9d bf 3d
       0.08915343 0.0618964 -0.013133056 0.09356262
0001b0 d1 ab 6e 3d 59 c4 14 bd 1f 6c 55 bd 9e 7f 75 3d
       0.058269326 -0.036320064 -0.052105065 0.05993616
0001c0 24 fe b6 bc d3 fe 23 3d a1 21 3a 3c 4a cb cb 3d
       -0.02233798 0.04003794 0.011360557 0.09950884
0001d0 1f 33 01 3d 7e da ce bd 83 f1 82 3c 15 8a c3 bb
       0.031542893 -0.10100268 0.015984302 -0.0059673884
0001e0 54 0f d7 3d 4e a7 be 3d 8c 47 2a 3d 75 22 68 bc
       0.105009705 0.093092546 0.04157214 -0.014168371
0001f0 ae d6 66 3d d4 1d aa 3c b2 4f 47 3d 83 d2 a4 3d
       0.05635708 0.020766176 0.048659988 0.080479644
000200 19 2e 0e bc 66 76 5b 3b de 0e cc bd a2 0c 00 bd
       -0.008677983 0.003348732 -0.09963773 -0.031262048
000210 ba cc a9 bc 2d 5c 26 bd bc 1f 56 3c 44 d5 16 bd
       -0.020727504 -0.04061525 0.0130690895 -0.03682448
000220 01 0d 87 3d c0 55 8c 3a 9b e1 bf bd 32 7f 95 3d
       0.06594277 0.0010706708 -0.09369203 0.07299651
000230 4e 8f c9 bc 8d c1 95 bd 85 c2 f1 3c 55 9b 5d bd
       -0.024604466 -0.073123075 0.0295117 -0.054103214
000240 5a 08 9d 3d f8 10 4a bd a9 c8 86 3d de bd bf bd
       0.076676086 -0.04933259 0.06581242 -0.09362386
000250 43 76 ce bd 7f d5 ce 3d 69 fe 2b 3d 7c 81 4c bd
       -0.100811504 0.10099315 0.04199067 -0.049928173
000260 59 55 af bd 78 72 ee 3d ab 39 d7 3d 33 d2 dc bd
       -0.08561201 0.11642927 0.10509046 -0.1078228
000270 80 54 bf bc ea e0 12 bc 26 1b 35 bd cd 38 92 3d
       -0.023355722 -0.0089647565 -0.044215344 0.0713974
000280 08 8a b1 bd 2d b7 b2 3d 47 8d 46 bd 7a 59 e6 3d
       -0.086689055 0.08726344 -0.048474576 0.11247535
000290 af dd 81 3b 15 b3 65 3d 35 f7 84 3d c0 7b fd 3c
       0.0039631943 0.05607899 0.064924635 0.030942798
0002a0 09 03 de 3d bd 54 ba 3d 95 7d 27 bb fa 78 4c 3d
       0.10840423 0.09098194 -0.002555703 0.04992006
0002b0 9f 01 b6 3d e4 20 aa 3c 76 17 91 bd 7d ed a7 3d
       0.08887028 0.020767637 -0.07084553 0.08199594
0002c0 b2 53 93 3d 73 1b 8c bc 58 7e 75 bd 7c d3 84 3d
       0.07193698 -0.017102933 -0.059934944 0.0648565
0002d0 0d 56 53 3c 04 2a 29 bd a6 21 2f bc 1e 8e 39 3d
       0.012898934 -0.041299835 -0.010689175 0.04530155
0002e0 28 6b 9a bb 3e fb 8f 3d d1 68 6e 3d 0d 10 c9 bd
       -0.004712481 0.070303425 0.05820543 -0.098175146
0002f0 4c 39 2c bd 37 dc 0d 3d a2 f4 2a bd de 01 19 3b
       -0.04204683 0.03463384 -0.041737206 0.002334706
000300 f2 c3 85 3d c5 57 a9 bd be 4a b4 bd 9b 32 dd 3d
       0.06531514 -0.08268694 -0.088033184 0.10800668
000310 3b 16 74 bd 00 58 c6 3c a5 2e b8 3d a1 3c c1 bc
       -0.059591513 0.024211884 0.08993272 -0.02358848
000320 0e a5 fd bc 67 ad 90 3d b5 b3 d6 bd d5 99 0e 3d
       -0.030962493 0.07064324 -0.10483495 0.034814674
000330 b2 01 3e 3c f8 b7 02 3d 13 3c 8c bd 8c 96 92 3d
       0.011597084 0.031913728 -0.06847396 0.07157621
000340 f5 bd a9 3d 8f 39 a0 3d 8f db 5f 3d 66 4d 49 3d
       0.082881846 0.078234784 0.054652747 0.04914608
000350 a3 b0 25 bc 1f 54 91 3d ef 05 bb bd 3c a5 8e bc
       -0.010112914 0.07096123 -0.09131991 -0.017412774
000360 7f 83 15 3d 75 03 66 bd 40 e1 bd bc 8e da 2e 3d
       0.036502358 -0.05615564 -0.023178697 0.0426889
000370 43 70 40 3d c0 e7 9b bd 55 c4 c7 3d 6e a5 f1 bc
       0.04698206 -0.07612562 0.09754244 -0.029497828
000380 c5 d2 30 3d 82 62 05 3d 22 bc a5 bd 42 bd 1d 3d
       0.043169755 0.032564647 -0.08092524 0.03851057
000390 63 e1 2a 3d e7 f5 cb bd d7 a6 6f 3d b2 e9 85 3d
       0.04171885 -0.099590115 0.05850872 0.065387145
0003a0 42 9c 27 3d 1c 52 97 bc 4d 95 ab 3d cd b9 8a bc
       0.040920503 -0.01847177 0.08378086 -0.0169343
0003b0 3d 51 87 3d 71 47 67 3d 34 42 8e 3c 6e 1c a5 3d
       0.06607292 0.056464616 0.017365552 0.08062063
0003c0 e3 80 5a bd fa 54 77 bd 94 0b 87 bd 2b d3 c7 3c
       -0.053345572 -0.060383774 -0.06594005 0.024392685
0003d0 46 13 a4 3c 5e 52 32 bd 38 17 0b bc 85 21 3d 3d
       0.020028722 -0.043535583 -0.0084894225 0.046174545
0003e0 32 27 d7 bd a3 40 2c 3d 54 e3 3f bb 70 c9 bf 3d
       -0.10505523 0.04205383 -0.0029279785 0.09364593
0003f0 88 d8 49 bc a0 08 c7 3d 02 9f c8 bd e4 86 b9 3d
       -0.0123196915 0.09718442 -0.09795953 0.090589315

layer3.0.bias f4 [5]
000000 6a 65 59 3d f2 2f 4f bd b8 90 59 bb cc 0e ff bc
       0.05307523 -0.050582834 -0.0033197831 -0.031134985
000010 72 1c 8b bd
       -0.06792535
