DigitalRecognition-master/model_params/fc.pt (torch, 664983 bytes, 6 tensors)

layer1.0.weight f4 [256, 560]
-0.039171264 -0.0002293177 -0.012629768 0.03113091 -0.0351248 0.007791493 0.019955661 0.0128688775
0.023728602 -0.02031975 0.03983338 -0.039886817 2.519765 2.5161033 2.5056033 2.5743535
0.032269657 -0.0066692084 0.029108293 -0.032170337 0.012192208 -0.038106803 -0.02596477 -0.04010398
-0.016863847 0.040634505 5.550796 5.5572085 5.5332556 5.5122724 5.5676436 5.566611
5.530423 0.02467496 0.008579392 0.0044778287 0.023559451 -0.027061025 -0.015852978 -0.004864242
-0.035841644 0.020993985 -0.027724626 0.038578555 -0.015776625 -185792.55 -509750.22 -509750.28
-509750.25 -509750.3 -509747.72 -1.3488971e+06 -1.3488971e+06 -1.3488971e+06 -1.0249456e+06 -1.02494744e+06
0.041726634 0.038052358 0.008311838 -0.0081776455 0.031942286 0.000514552 -0.030587137 0.04055828
0.0015546232 -509750.22 -509750.22 -1.1578808e+06 -1.1578806e+06 -1.1578781e+06 -1.1578781e+06 -1.9970275e+06
-1.9970275e+06 -1.3488971e+06 -1.3488996e+06 -1.02494744e+06 0.004508421 0.0101018995 3.348291e-05 -0.015363881
0.027232021 -0.040681664 0.010526232 0.03201799 0.012617711 -509750.25 -1.1578806e+06 -1.1578781e+06
-1.1578781e+06 -509747.75 -509747.72 -1.3488971e+06 -1.9970275e+06 -1.9970275e+06 -1.3488996e+06 -1.3488996e+06
0.0075106174 -0.004212357 0.036746494 0.031874113 -0.022451747 0.00608081 -0.0026355237 0.023220547
-648130.44 -1.1578781e+06 -1.1578836e+06 -509753.28 -509753.3 -185795.55 -1.3489026e+06 -1.348897e+06
-1.348897e+06 -1.9970275e+06 -1.9970301e+06 -1.3488996e+06 0.033229597 0.021278791 0.032737657 0.025412902
0.012058038 0.020128824 0.00020420179 -0.009552166 -648130.44 -509753.28 -185795.58 -185795.55
2.5566118 -839146.8 -839146.8 -839146.8 -1.1630989e+06 -1.163099e+06 -1.811232e+06 -1.8112319e+06
-972088.1 -648130.44 -648130.5 -648130.44 0.05971941 -0.0088096745 -0.0012880526 0.016208194
-648130.44 -185795.6 -185795.53 -185795.55 2.524189 -839146.8 -839146.75 -839146.8
-1.163099e+06 -1.163099e+06 -1.1631015e+06 -1.8112319e+06 -972088.1 -0.005370017 -0.012170402 -648130.44
0.006986022 0.02978567 -0.034474388 0.019689195 -648130.44 -185795.53 -185795.56 -185795.56
-839149.3 -839146.75 -839146.8 -839146.8 -839141.25 -1.163099e+06 -1.1631015e+06 -1.1631015e+06
-323957.72 0.028837822 -0.01944285 -648130.44 0.021752082 -0.0018836111 0.00797873 0.0025751293
-648130.44 -185798.08 -185798.12 -185798.1 -839149.3 -839146.8 -839146.8 2.5099535
-1.163099e+06 -1.163099e+06 -1.1631015e+06 -1.1631015e+06 -323957.66 -324065.2 -648130.44 -648130.44
0.013441224 -0.006070353 0.009375494 0.023324922 -648130.44 -185798.08 -185798.1 -1.0249475e+06
-1.0249475e+06 -1.02494494e+06 -185795.6 -185793.92 -1.1630989e+06 -1.8112294e+06 -1.8112319e+06 -1.8112374e+06
-648130.44 -648130.5 -648130.5 -648130.5 0.013340872 -0.010279436 -0.04096402 0.0021083243
-648126.5 -833928.56 -1.6730724e+06 -1.0249419e+06 -1.0249419e+06 -1.0249394e+06 -185789.98 -185790.06
-1.9970275e+06 -1.6729649e+06 -1.1631034e+06 -1.163107e+06 -0.00040531158 -0.029825954 -0.0008004494 0.0039742403
-0.040816806 0.03233867 0.018155657 -0.018771179 -185798.1 -185798.11 -1.6730722e+06 -1.6730724e+06
-1.02494194e+06 -185789.98 -185790.06 -509747.75 -1.9970275e+06 -1.3489051e+06 -1.3489052e+06 -1.163107e+06
00000000: 0c72 20bd 0075 70b9 16ed 4ebc 4006 ff3c
00000010: 06df 0fbd c84f ff3b 0e7a a33c fcd7 523c
00000020: 7c62 c23c 9b75 a6bc 5428 233d 5c60 23bd
00000030: d443 2140 d607 2140 ce5b 2040 35c2 2440
00000040: 302d 043d 6089 dabb 8474 ee3c 0bc5 03bd
00000050: d4c1 473c e115 1cbd 12b4 d4bc 1244 24bd
00000060: 0d26 8abc 5e70 263d 1fa0 b140 a7d4 b140
00000070: 6e10 b140 8964 b040 232a b240 ad21 b240
00000080: 3af9 b040 2423 ca3c 9490 0c3c c0ba 923b
00000090: c0ff c03c 15af ddbc 1bde 81bc 3864 9fbb
000000a0: b0ce 12bd 94fb ab3c c11e e3bc 8c04 1e3d
000000b0: fb3d 81bc 2370 35c8 c7e6 f8c8 c9e6 f8c8
000000c0: c8e6 f8c8 cae6 f8c8 77e6 f8c8 09a9 a4c9
000000d0: 09a9 a4c9 09a9 a4c9 1a3b 7ac9 373b 7ac9
000000e0: 8ce9 2a3d cadc 1b3d 602e 083c 88fb 05bc
000000f0: ead5 023d 00e3 063a e091 fabc 7020 263d
00000100: 80c4 cb3a c7e6 f8c8 c7e6 f8c8 c657 8dc9
00000110: c557 8dc9 b157 8dc9 b157 8dc9 1cc7 f3c9
00000120: 1cc7 f3c9 09a9 a4c9 1da9 a4c9 373b 7ac9
00000130: 60bb 933b 7082 253c 0070 0c38 cab8 7bbc
00000140: b015 df3c d1a1 26bd 3876 2c3c 4c25 033d
00000150: 84ba 4e3c c8e6 f8c8 c557 8dc9 b157 8dc9
00000160: b157 8dc9 78e6 f8c8 77e6 f8c8 09a9 a4c9
00000170: 1cc7 f3c9 1cc7 f3c9 1da9 a4c9 1da9 a4c9
00000180: a01b f63b d007 8abb 7e83 163d 6e8e 023d
00000190: baec b7bc 8841 c73b c0b8 2cbb 0439 be3c
000001a0: 273c 1ec9 b157 8dc9 dd57 8dc9 29e7 f8c8
000001b0: 2ae7 f8c8 e370 35c8 35a9 a4c9 08a9 a4c9
000001c0: 08a9 a4c9 1cc7 f3c9 31c7 f3c9 1da9 a4c9
000001d0: c21b 083d dc50 ae3c ec17 063d b82e d03c
000001e0: 148f 453c 34e5 a43c 001f 5639 b080 1cbc
000001f0: 273c 1ec9 29e7 f8c8 e570 35c8 e370 35c8
00000200: 879f 2340 adde 4cc9 adde 4cc9 adde 4cc9
00000210: d7fa 8dc9 d8fa 8dc9 0019 ddc9 ff18 ddc9
00000220: 8253 6dc9 273c 1ec9 283c 1ec9 273c 1ec9
00000230: 579c 743d 7456 10bc e0d3 a8ba 0cc7 843c
00000240: 273c 1ec9 e670 35c8 e270 35c8 e370 35c8
00000250: 508c 2140 adde 4cc9 acde 4cc9 adde 4cc9
00000260: d8fa 8dc9 d8fa 8dc9 ecfa 8dc9 ff18 ddc9
00000270: 8253 6dc9 f8f6 afbb 5e66 47bc 273c 1ec9
00000280: 00eb e43b 1401 f43c 0435 0dbd 3c4b a13c
00000290: 273c 1ec9 e270 35c8 e470 35c8 e470 35c8
000002a0: d5de 4cc9 acde 4cc9 adde 4cc9 adde 4cc9
000002b0: 54de 4cc9 d8fa 8dc9 ecfa 8dc9 ecfa 8dc9
000002c0: b72e 9ec8 4c3d ec3c 9d46 9fbc 273c 1ec9
000002d0: 6c31 b23c 80e3 f6ba 38b9 023c 80c3 283b
000002e0: 273c 1ec9 8571 35c8 8871 35c8 8671 35c8
000002f0: d5de 4cc9 adde 4cc9 adde 4cc9 14a3 2040
00000300: d8fa 8dc9 d8fa 8dc9 ecfa 8dc9 ecfa 8dc9
00000310: b52e 9ec8 263c 9ec8 273c 1ec9 273c 1ec9
00000320: 9438 5c3c d0e9 c6bb ac9b 193c e813 bf3c
00000330: 273c 1ec9 8571 35c8 8671 35c8 383b 7ac9
00000340: 383b 7ac9 0f3b 7ac9 e670 35c8 7b70 35c8
00000350: d7fa 8dc9 eb18 ddc9 ff18 ddc9 2b19 ddc9
00000360: 273c 1ec9 283c 1ec9 283c 1ec9 283c 1ec9
00000370: ac93 5a3c 146b 28bc e3c9 27bd d02b 0a3b
00000380: e83b 1ec9 8998 4bc9 833b ccc9 de3a 7ac9
00000390: de3a 7ac9 b63a 7ac9 7f6f 35c8 846f 35c8
000003a0: 1cc7 f3c9 2738 ccc9 fbfa 8dc9 18fb 8dc9
000003b0: 0080 d4b9 8f55 f4bc 40d5 51ba 583a 823b
000003c0: 862f 27bd 8e75 043d 2cbb 943c 04c6 99bc
000003d0: 8671 35c8 8771 35c8 823b ccc9 833b ccc9
000003e0: df3a 7ac9 7f6f 35c8 846f 35c8 78e6 f8c8
000003f0: 1cc7 f3c9 49a9 a4c9 4aa9 a4c9 18fb 8dc9

layer1.0.bias f4 [256]
-7831.4575 -5.9846287e+10 0.028168062 -0.09082181 -173783.4 -8442.749 -0.04346682 -214.9795
-0.0020751196 -0.034576394 0.026157167 0.018431038 0.031190988 -0.018772766 -0.21593264 0.020252956
0.00060753524 -386.86356 0.007243315 -0.05471429 -0.16453026 -246.73822 -0.20491058 -14450.32
-21386.102 -567.9597 -84725.45 -1.2997491e+10 -60.52011 0.023529327 -0.0055852258 -0.009117316
-0.08527961 -0.039367236 -0.025014598 -0.03999431 -0.3810199 -0.11604885 -0.084042266 -0.003894991
-0.021770403 -25.539114 -0.12561761 -0.009663129 -0.1440248 0.006012174 0.041403577 -0.018304538
-1.827967e+10 -0.0064585037 -0.040923823 -3526.0837 0.006124508 -0.30653617 -73.139854 0.025708098
-13954.459 -0.012404951 -1516.988 0.0027351726 -7505.375 -0.03406332 0.032804254 -0.006603281
-0.030015685 -0.020034125 0.040113352 0.01778156 -0.04866136 0.009358999 0.020292783 -5.590877e+07
-0.02539596 -6.152361e+09 -0.3734982 -0.051743545 -76506.69 -0.005940611 -0.030758023 -33.001175
-447.05807 -0.0771045 -0.032372072 0.040419083 -0.0037698545 -0.12362576 -20019.31 0.0059948396
-0.039764486 -0.23121786 0.041018408 -0.18296967 0.026287152 -0.11432019 -0.05368973 -0.11893766
-0.2777858 -0.032271203 -0.23568855 -0.0073497966 -0.18223538 0.016646542 -0.156723 -0.20502385
-0.008106088 -4.8264832e+08 0.0030352883 -0.03232707 -0.030835355 -5341.478 0.03605932 -0.03689414
-0.02392027 -0.008041528 0.020350017 -0.041011877 -0.07484506 0.011225068 0.015207779 -0.024539093
-2.7365417 -0.3040568 -6.614235 -0.08030185 -157691.3 -0.022565681 0.024710022 -0.038485385
-29.706001 0.0069425614 -0.3995447 0.021975106 0.013032565 -29061.982 -20015.506 0.0120110465
-0.0016775738 -0.008341786 -0.07498058 -92849.69 -0.10854407 0.0023928336 0.035294816 0.016658472
-0.0041242237 -0.013229811 0.018474674 -80746.484 -0.21741396 0.0019882298 -0.034423288 -11633.418
-370.2815 -0.023861438 0.004642092 -42.513092 -0.13926315 -0.010339699 -0.032533985 0.010861425
-1.4078127e+09 -0.3026993 -0.032984246 -0.030055394 -0.089114316 -0.036386263 0.010910476 -0.26810184
-3737.9282 -0.1087736 -0.04923535 0.039101485 -12040.546 -0.070615225 -0.23795283 -0.017739512
0.03620129 -0.039567392 -9821.5 0.02931962 -325.94556 -0.26213792 -7.923576e+08 -0.044374418
0.029893331 -0.03622825 -0.033533923 -0.27096182 0.0039848676 0.020263327 -0.017852599 -0.039875194
-0.08316801 0.01982314 -0.035587616 -0.10155272 -0.017308649 -4624.716 -0.24078615 -0.015384681
-167333.88 -398.7717 -0.028411623 -0.09697275 -0.03171264 -0.033781424 -0.034268696 -2.6313847e+10
-209.8791 0.024338989 -3.5805967e+09 -2696.5718 0.021421963 0.036445957 0.03000067 -14015.477
0.030048408 -0.0021952651 -0.027717704 -0.05947642 -0.042620838 -0.034913987 -0.003923862 -0.04533179
-0.0667151 -0.07614928 0.0140174115 -0.046984535 -0.027696665 -0.030516416 -158132.92 -0.014786559
-0.0010041591 -0.033715315 -0.19218066 -0.100474335 -1.9690962 -0.028106725 -128.74634 -0.030213548
-0.018750157 -3.2185308e+06 -0.04891911 -0.16533822 -8.3309445e+09 -278.43884 -188.01212 0.04053007
-0.042224362 -0.036028713 -0.019967424 -0.034284983 -0.026849508 -0.09620285 -21057.969 -0.01823819
00000000: a9bb f4c5 def1 5ed1 b5c0 e63c c900 babd
00000010: dab5 29c8 ffea 03c6 440a 32bd c1fa 56c3
00000020: bbfe 07bb fa9f 0dbd 8e47 d63c b0fc 963c
00000030: 3e84 ff3c 58c9 99bc 721d 5dbe 87e9 a53c
00000040: 0043 1f3a 896e c1c3 5559 ed3b 171c 60bd
00000050: 9f7a 28be fcbc 76c3 14d4 51be 48c9 61c6
00000060: 3414 a7c6 6cfd 0dc4 ba7a a5c7 7ead 41d0
00000070: 9814 72c2 93c0 c03c 4504 b7bb cc60 15bc
00000080: 13a7 aebd 8a3f 21bd 6aeb ccbc 13d1 23bd
00000090: 0a15 c3be 05ab edbd 5a1e acbd 1b43 7fbb
000000a0: d857 b2bc 1b50 ccc1 e7a1 00be 1a52 1ebc
000000b0: 3d7b 13be c501 c53b cc96 293d 66f3 95bc
000000c0: b431 88d0 dba1 d3bb bd9f 27bd 5761 5cc5
000000d0: 19b0 c83b 4ff2 9cbe 9b47 92c2 ca99 d23c
000000e0: d609 5ac6 233e 4bbc 9e9f bdc4 9540 333b
000000f0: 008b eac5 fb85 0bbd c15d 063d 5660 d8bb
00000100: 74e3 f5bc 9b1e a4bc e64d 243d a2aa 913c
00000110: 2251 47bd 7d56 193c 0d3d a63c 6846 55cc
00000120: 300b d0bc ca5a b7cf 283b bfbe 0af1 53bd
00000130: 586d 95c7 75a9 c2bb 40f8 fbbc 3401 04c2
00000140: 6f87 dfc3 f7e8 9dbd 9498 04bd 7b8e 253d
00000150: aa0f 77bb 812f fdbd 9f66 9cc6 5c70 c43b
00000160: 16e0 22bd 60c4 6cbe eb02 283d 675c 3bbe
00000170: 2758 d73c b420 eabd c3e9 5bbd 9695 f3bd
00000180: f139 8ebe cf2e 04bd 5758 71be 90d6 f0bb
00000190: e99b 3abe 545e 883c fe7b 20be c6f1 51be
000001a0: 66cf 04bc 0825 e6cd b0eb 463b 6469 04bd
000001b0: 6d9a fcbc d3eb a6c5 f0b2 133d 4f1e 17bd
000001c0: 71f4 c3bc 9dc0 03bc 14b5 a63c 12fc 27bd
000001d0: 5e48 99bd 59e9 373c 0c2a 793c 3506 c9bc
000001e0: 8023 2fc0 55ad 9bbe d0a7 d3c0 4c75 a4bd
000001f0: d3fe 19c8 aadb b8bc ac6c ca3c daa2 1dbd
00000200: e4a5 edc1 6d7e e33b 1f91 ccbe 2305 b43c
00000210: 8a86 553c f70b e3c6 035f 9cc6 fbc9 443c
00000220: 09e2 dbba fdab 08bc 6b8f 99bd d858 b5c7
00000230: 5a4c debd 16d1 1c3b 4c91 103d 5977 883c
00000240: 7f24 87bb d9c1 58bc 3358 973c 3eb5 9dc7
00000250: c4a1 5ebe f64c 023b 6fff 0cbd acc5 35c6
00000260: 0824 b9c3 1079 c3bc b11c 983b 680d 2ac2
00000270: 009b 0ebe d767 29bc 5b42 05bd 1ef4 313c
00000280: 09d3 a7ce 67fb 9abe 7d1a 07bd bb36 f6bc
00000290: 9181 b6bd c309 15bd dac1 323c a544 89be
000002a0: da9e 69c5 b1c4 debd 02ab 49bd e128 203d
000002b0: 2f22 3cc6 b79e 90bd e8a9 73be 7452 91bc
000002c0: ce47 143d 6b11 22bd 0076 19c6 b32f f03c
000002d0: 08f9 a2c3 f136 86be ace9 3cce f3c1 35bd
000002e0: dce2 f43c 1364 14bd de5a 09bd 82bb 8abe
000002f0: 7e93 823b 47ff a53c 9d3f 92bc 2c54 23bd
00000300: fd53 aabd 2364 a23c 52c4 11bd dffa cfbd
00000310: deca 8dbc ba85 90c5 a590 76be 0710 7cbc
00000320: 7869 23c8 c762 c7c3 7ebf e8bc a699 c6bd
00000330: 1de5 01bd 645e 0abd 555d 0cbd ae0d c4d0
00000340: 0de1 51c3 8f62 c73c 926b 55cf 2689 28c5
00000350: 1d7d af3c 5b48 153d f7c3 f53c e8fd 5ac6
00000360: 1428 f63c 70de 0fbb 3d10 e3bc 8c9d 73bd
00000370: 3093 2ebd f801 0fbd bd93 80bb d4ad 39bd
00000380: eda1 88bd 27f4 9bbd 49a9 653c db72 40bd
00000390: 1ee4 e2bc 90fd f9bc 3b6d 1ac8 5343 72bc
000003a0: fd9d 83ba 1219 0abd 02cb 44be 7dc5 cdbd
000003b0: 580b fcbf 1340 e6bc 10bf 00c3 6782 f7bc
000003c0: ee99 99bc 8b71 44ca 685f 48bd 6c4e 29be
000003d0: 1048 f8cf 2c38 8bc3 1a03 3cc3 dc02 263d
000003e0: 74f3 2cbd d892 13bd b992 a3bc 696e 0cbd
000003f0: 80f3 dbbc 0006 c5bd f083 a4c6 4268 95bc

layer2.0.weight f4 [84, 256]
-641.2277 -0.23471524 -0.018633984 0.057737626 -229.72684 -8.184695 -0.019372039 0.26458052
0.04992599 0.050660454 -0.05816167 0.024904788 0.051431052 -0.036471866 0.051273517 0.017436229
0.013423532 0.59695464 0.06186819 0.013306767 0.018321633 0.36437592 -0.0071461126 -237.40614
-150.31804 0.39668262 -75.15058 -1.0229664 -56.212566 -0.016970053 -0.06235625 0.05643653
-0.05217366 0.00025757402 -0.003091924 0.018056162 -0.059774205 -0.03609725 0.016552225 -0.035520338
-0.038134277 0.053398095 0.0388429 -0.027685888 0.018027514 0.015803725 -0.040463842 0.026757061
-0.11536643 -0.022522293 0.048001766 -176.35793 -0.027965412 -0.052622713 0.009245351 0.019973181
-11.645073 0.0432861 -0.021305695 0.028848939 -32.262127 -0.04307642 -0.002279602 -0.008439861
0.028102137 0.012904741 0.005708657 0.0061985254 -0.0506156 -0.04552707 -0.040345438 -5.4686807e+09
0.0019367188 0.041474946 -0.04299259 -0.008925684 -631.7478 0.048131675 -0.0049006566 -0.93536395
0.11725202 0.06179905 0.020321138 0.0039551184 0.058330223 -0.025869727 -364.84143 0.0119212195
-0.04615044 -0.045891434 -0.042205304 -0.030736066 0.05130899 -0.009998508 0.04982003 0.036464438
0.016816363 0.013450675 0.004856378 0.015069969 0.040852338 -0.0044856817 -0.022504106 0.02877988
-0.05501873 -0.02235472 -0.040919527 -0.024153046 0.029090263 -2.0216799 0.0232348 0.012994736
-0.00035504997 0.0273389 -0.025424272 0.05973754 -0.023870915 -0.01030767 0.061438866 -0.025567219
0.023553737 -0.056219243 -2.0103421 0.00443732 -135.90494 -0.024038441 0.05991046 0.0490039
0.0618698 -0.02269335 0.04341489 0.04332941 0.043216884 -545.1599 -463.52924 -0.03997924
0.015658505 -0.055779763 0.029465571 -98.18024 -0.046073288 0.007271409 -0.03440184 -0.017233416
-0.032325305 -0.036774434 -0.048911445 -225.13254 0.018042788 -0.0043852553 0.03641762 -162.9867
-0.26567414 0.033892035 -0.017323174 -0.008645184 -0.0026135966 -0.016896233 0.0029877946 -0.031169139
-9.68886e+09 -0.028518885 0.04075098 -0.003779903 -0.058793657 0.024439894 0.061993137 -0.04618402
-0.013446182 -0.013596185 -0.040414438 -0.036926575 -13.3086605 0.05298567 -0.03713747 -0.03796678
0.025058433 -0.018723167 -342.9989 0.036582775 0.015779965 -0.040017553 -0.07441742 0.011733986
-0.005204104 0.043767847 -0.044062287 0.018168919 -0.027291812 -0.0378125 -0.018788204 -0.032728955
-0.024165489 -0.040815026 0.0028120875 0.04184877 -0.021769263 -0.048408672 0.04341793 -0.052360862
-414.22794 -0.061338857 0.02569794 0.0043665245 0.028305829 -0.0053328574 -0.012611501 -0.5686565
0.798902 -0.02179277 -4.1610375e+10 0.062243544 -0.0016479641 -0.042452335 -0.062069863 -384.04233
0.0038547441 0.05700262 -0.040426984 0.002511084 -0.054891095 0.044289343 -0.037374303 -0.034186862
-0.0016261265 -0.0324056 -0.05027482 -0.056652546 -0.017907627 -0.06228213 -263.94778 0.0143772885
-0.060541123 -0.041055046 0.035395548 -0.056251667 0.017756402 -0.044702455 -0.05605869 0.014957197
0.0066632554 240.9266 0.047656387 -0.0267874 -1.0232445e+10 -162.85118 -0.043512665 -0.017463744
0.028069995 0.03485585 -0.036898054 -0.011410296 -0.009118244 0.044530645 -177.1209 -0.04010187
00000000: 934e 20c4 3159 70be 4ca6 98bc 4a7e 6c3d
00000010: 12ba 65c3 83f4 02c1 1cb2 9ebc 1977 873e
00000020: 327f 4c3d 5681 4f3d ee3a 6ebd 2005 cc3c
00000030: 5ea9 523d 8663 15bd 2e04 523d 6cd6 8e3c
00000040: 60ee 5b3c 05d2 183f 8069 7d3d a004 5a3c
00000050: 4017 963c 7b8f ba3e f029 eabb f967 6dc3
00000060: 6b51 16c3 fc19 cb3e 194d 96c2 90f0 82bf
00000070: abd9 60c2 c804 8bbc 4469 7fbd fe29 673d
00000080: 0cb4 55bd 000b 8739 e0a1 4abb 84ea 933c
00000090: ccd5 74bd b6da 13bd 8898 873c c67d 11bd
000000a0: b032 1cbd f6b7 5a3d bc19 1f3d 84cd e2bc
000000b0: 70ae 933c d076 813c 6abd 25bd a031 db3c
000000c0: 3c45 ecbd ac80 b8bc 809d 443d a15b 30c3
000000d0: b817 e5bc ea8a 57bd d079 173c cc9e a33c
000000e0: 3852 3ac1 c44c 313d 4889 aebc 9c54 ec3c
000000f0: 6b0c 01c2 e670 30bd 6065 15bb 5847 0abc
00000100: 7436 e63c 686e 533c b00f bb3b 001d cb3b
00000110: 4e52 4fbd 987a 3abd 4241 25bd b9fa a2cf
00000120: 80d9 fd3a a2e1 293d 0019 30bd 083d 12bc
00000130: dcef 1dc4 b825 453d b095 a0bb 0374 6fbf
00000140: d421 f03d 0021 7d3d 8478 a63c f099 813b
00000150: aceb 6e3d c0ec d3bc b46b b6c3 3851 433c
00000160: 3e08 3dbd a8f8 3bbd 78df 2cbd 34ca fbbc
00000170: 6029 523d c8d0 23bc 1610 4c3d bc5b 153d
00000180: 78c2 893c 3860 5c3c 4022 9f3b 08e8 763c
00000190: c854 273d a0fc 92bb 885a b8bc c8c3 eb3c
000001a0: 525b 61bd 3f21 b7bc 3c9b 27bd 9cdc c5bc
000001b0: b44e ee3c 3463 01c0 e856 be3c e0e7 543c
000001c0: 0026 bab9 d4f5 df3c 9046 d0bc 5aaf 743d
000001d0: f08c c3bc 80e1 28bc 52a7 7b3d 5872 d1bc
000001e0: c4f3 c03c 2646 66bd 72a9 00c0 f066 913b
000001f0: aae7 07c3 44ec c4bc ac64 753d 50b8 483d
00000200: 306b 7d3d 68e7 b9bc d0d3 313d 2e7a 313d
00000210: 3004 313d 3c4a 08c4 bec3 e7c3 46c1 23bd
00000220: 4446 803c 5279 64bd c861 f13c 485c c4c2
00000230: 58b7 3cbd 0045 ee3b f2e8 0cbd 182d 8dbc
00000240: 8a67 04bd caa0 16bd 5e57 48bd ee21 61c3
00000250: 78ce 933c 30b2 8fbb a42a 153d 98fc 22c3
00000260: 7106 88be 60d2 0a3d 54e9 8dbc 88a4 0dbc
00000270: e048 2bbb f869 8abc e0ce 433b 6c56 ffbc
00000280: 1160 10d0 70a0 e9bc 80ea 263d 40b8 77bb
00000290: 9ed1 70bd 2c36 c83c 84ec 7d3d 742b 3dbd
000002a0: 604d 5cbc 88c2 5ebc 9c89 25bd 5240 17bd
000002b0: 46f0 54c1 8007 593d 761d 18bd 0e83 1bbd
000002c0: 5847 cd3c 5461 99bc dc7f abc3 d2d7 153d
000002d0: fc44 813c 72e9 23bd 2968 98bd e83f 403c
000002e0: 3087 aabb ea45 333d a87a 34bd fcd6 943c
000002f0: 1493 dfbc 48e1 1abd b8e9 99bc cc0e 06bd
00000300: b4f6 c5bc a82d 27bd 004b 383b 9e69 2b3d
00000310: 7455 b2bc 2c48 46bd 00d7 313d 5878 56bd
00000320: 2d1d cfc3 743e 7bbd 7c84 d23c 1015 8f3b
00000330: a0e1 e73c 40bf aebb 78a0 4ebc 7993 11bf
00000340: d784 4c3f c086 b2bc bf02 1bd1 16f3 7e3d
00000350: 8000 d8ba 80e2 2dbd f83c 7ebd 6b05 c0c3
00000360: e09f 7c3b 947b 693d c496 25bd 0091 243b
00000370: 7cd5 60bd be68 353d cc15 19bd 8607 0cbd
00000380: c023 d5ba bcbb 04bd f8ec 4dbd 800c 68bd
00000390: 04b3 92bc 8c1b 7fbd 51f9 83c3 b88e 6b3c
000003a0: f8f9 77bd 5629 28bd ecfa 103d 2668 66bd
000003b0: e075 913c ec19 37bd cc9d 65bd 080f 753c
000003c0: 7057 da3b 36ed 7043 5833 433d 4071 dbbc
000003d0: ae79 18d0 e7d9 22c3 563a 32bd 2010 8fbc
000003e0: 0cf3 e53c 02c5 0e3d 6a22 17bd 40f2 3abc
000003f0: b064 15bc c465 363d f31e 31c3 dc41 24bd

layer2.0.bias f4 [84]
-65.06289 -18062.598 -1.5702614e+06 -58.75298 -35903.87 -8063.0996 -223.78502 -42.770855
-0.59387815 -214134.17 -32571.238 -153.0015 -254.02097 -1.4160016e+06 -15660.6875 -329.65088
-389851.03 -14630.273 -2746.5613 -42897.12 -12451.633 -2.5774305e+06 -163.88097 -58303.637
-37123.3 -22.572155 -98944.87 -9.898203e+06 -79218.734 -360.23166 -22028.836 -336.35184
-98.9605 -1306.3016 -147.97943 -62.818375 -165.64421 -526181.3 -343.18655 -32479.693
-22867.043 -2006.7338 -46030.832 -31931.53 -7826.4883 -8.206584e+06 -317254.53 -0.21551713
-96.2863 -186.55226 -41.976192 -16.513035 -9.877972e+07 -6141.682 -156.72658 -6630.0986
-271.65866 -213.53787 -9.505764e+06 -4360.642 -17.750916 -458.4404 -7.497797e+06 -248700.73
-12556.15 -57475.37 -1015.0157 -2.149584e+06 -444.67157 -594.8978 -133221.1 -448656.28
-59828.85 -2.512718e+06 -35245.805 -483.20264 -10931.644 -10.468385 -118267.06 -47573.754
-73169.016 -291403.53 -36854.15 -157.72156
00000000: 3320 82c2 321d 8dc6 abae bfc9 0d03 6bc2
00000010: df3f 0cc7 ccf8 fbc5 f7c8 5fc3 5b15 2bc2
00000020: 6608 18bf 8b1d 51c8 7a76 fec6 6200 19c3
00000030: 5e05 7ec3 0dda acc9 c0b2 74c6 50d3 a4c3
00000040: 615b bec8 1899 64c6 fba8 2bc5 1f91 27c7
00000050: 888e 42c6 5a50 1dca 87e1 23c3 a3bf 63c7
00000060: 4d03 11c7 c693 b4c1 6f40 c1c7 db08 17cb
00000070: 5eb9 9ac7 a71d b4c3 ac19 acc6 092d a8c3
00000080: c7eb c5c2 a749 a3c4 bcfa 13c3 0446 7bc2
00000090: eba4 25c3 5576 00c9 e197 abc3 63bf fdc6
000000a0: 16a6 b2c6 7bd7 fac4 d5ce 33c7 0f77 f9c6
000000b0: e893 f4c5 f071 faca d1e8 9ac8 86b0 5cbe
000000c0: 9692 c0c2 618d 3ac3 9fe7 27c2 b21a 84c1
000000d0: 4968 bccc 75ed bfc5 01ba 1cc3 ca30 cfc5
000000e0: 4fd4 87c3 b289 55c3 e40b 11cb 2345 88c5
000000f0: e001 8ec1 5f38 e5c3 8ad0 e4ca 2fdf 72c8
00000100: 9a30 44c6 5f83 60c7 01c1 7dc4 4033 03ca
00000110: f655 dec3 76b9 14c4 4619 02c8 0912 dbc8
00000120: dab4 69c7 385d 19ca cead 09c7 f099 f1c3
00000130: 93ce 2ac6 817e 27c1 88fd e6c7 c1d5 39c7
00000140: 82e8 8ec7 7149 8ec8 26f6 0fc7 b8b8 1dc3

layer3.0.weight f4 [6, 84]
590914.94 7.21061e+14 7.581822e+07 1106.5815 1.0412049e+06 716718.5 -0.16509454 100732.81
272.05328 1.2264411e+06 4.5919213e+14 1.4316442e+06 655.02234 2.0778088e+10 1.9412072e+10 835.78546
1.2417582e+06 2.3290096e+15 1.0522392e+06 1.0084974e+06 73377.57 1.6840693e+08 319644.2 402503.12
969598.1 3.0724864 769330.94 5.318628e+09 874447.9 30625.455 13.273485 29896.6
1.0669576e+06 9.32554e+14 0.58715355 127.14318 3.357945e+08 682691.75 553.1808 924913.9
119773.53 89186.41 1.0451685e+06 1.1153261e+06 4.2455678e+14 5.668796e+08 1.0212756e+06 2.755808
6.535414e+09 464.59048 786.7892 16.257534 6.0220435e+08 46380.35 1.3417026e+06 112.796646
1.4443848e+06 4.0050595e+08 7.384116e+07 146091.28 324.6233 259931.17 5.0175824e+08 27.679506
1.0864015e+06 702726.6 7406.461 8.749893e+09 1109.8531 0.32262596 947825.44 8.321921e+08
443825.6 5.2619504e+07 757763.56 1.03311294e+06 483863.3 216.08089 954819.1 1.21031e+06
430534.72 222284.77 206910.11 19.707731 -824616.5 1.02117834e+15 1.06710824e+08 -0.010362478
-1.139024e+06 -1.6067388e+06 4579.1885 -98829.586 37.257706 2.0519008e+06 6.5008504e+14 -3.3004972e+06
650141.6 -5.227893e+10 2.7466273e+10 702632.94 -735273.4 3.2979223e+15 -2.1179335e+06 -1.964666e+06
133413.9 -2.70622e+08 -766490.94 -991487.9 -1.1263229e+06 137.07425 -1.5286616e+06 -1.2822402e+10
-2.3292622e+06 -32737.148 263327.06 -29896.6 -2.65588e+06 1.3207008e+15 3168.7915 2.0477984
5.545534e+08 1.721726e+06 1.5402846 -1.1529668e+06 -523321.6 -89186.26 1.408107e+06 -1.2760478e+06
6.011883e+14 -9.712609e+08 -776334.44 38.17312 9.2469e+09 1.1986161e+06 -0.09596973 451.7714
9.993598e+08 -34022.76 -2.932161e+06 29466.975 -3.2216132e+06 6.627126e+08 1.2109469e+08 216774.75
-0.0047892514 -468018.8 -8.34343e+08 2.9533322e+06 -1.6413345e+06 458642.4 -15262.553 -2.193352e+10
984123.1 -91739.17 -2.3004315e+06 -2.0708436e+09 -976998.2 7.444887e+07 -468644.5 -2.4846208e+06
-1.4475315e+06 -0.0009433312 -1.7291934e+06 -1.1549751e+06 -1.4814049e+06 1.0505859e+06 -761472.75 4089.1414
182670.95 155361.8 0.07401363 6321.3013 1.1408121e+06 617480.7 -19884.76 -8308.379
-376.01086 1.9757955e+06 303640.44 1.3554765e+06 -2.718161e+06 2.4193094e+10 -2.6816465e+06 -2.8837335e+06
-7.352652e+06 132066.39 808103.6 -120822.02 118505.516 1.4762115e+08 380534.2 485518.34
1.1652348e+06 -760.6589 555895.9 6.0207427e+09 1.073499e+06 -1151.8462 -1.1106231e+06 -0.05707657
1.1665866e+06 2057.835 -13142.736 606.94965 5.4268474e+08 -1.1191611e+07 2950.4019 1.0771939e+06
283612.22 0.8831323 0.026714407 1.0833709e+06 63567.68 5.332682e+08 -5.8680525e+06 -133.72249
-16805.537 -5.060947e+06 4513.6196 -1909.9891 9.718025e+08 148381.78 1.1706138e+06 -199928.86
1.2626462e+06 6.468821e+08 1.1912904e+08 245136.73 1899.3646 180615.58 4.5743872e+08 -1.2547705e+07
826963.8 752740.9 7856.32 1.0168239e+10 -4.1237405e+06 64346.383 994461.4 9.619211e+08
396940.03 2033.38 723310.1 1.0814634e+06 722097.6 1132.235 580554.2 1.2225395e+06
792622.1 -6.1496455e+06 430890.75 -17227.707 312.5187 -2.028996e+15 -2.1260624e+08 -10201.326
00000000: 2f44 1049 46f3 2358 9e9c 904c 9c52 8a44
00000010: 4e33 7e49 e8fa 2e49 8b0e 29be 68be c447
00000020: d206 8843 49b6 9549 00d1 d057 e2c2 ae49
00000030: 6ec1 2344 0fcf 9a50 97a1 9050 45f2 5044
00000040: f294 9749 8d63 0459 7a72 8049 1637 7649
00000050: c950 8f47 f99a 204d 8613 9c48 e488 c448
00000060: e2b7 6c49 9ea3 4440 2fd3 3b49 e981 9e4f
00000070: fe7c 5549 e942 ef46 3260 5441 3391 e946
00000080: 6d3e 8249 c909 5458 b24f 163f 4f49 fe42
00000090: 8a1e a04d 3cac 2649 924b 0a44 1ecf 6149
000000a0: c4ee e947 3431 ae47 082b 7f49 f125 8849
000000b0: ea10 c157 9627 074e ba55 7949 295f 3040
000000c0: 40c5 c24f 954b e843 82b2 4444 6e0f 8241
000000d0: a393 0f4e 5a2c 3547 35c8 a349 e297 e142
000000e0: 0651 b049 e3f9 be4d 41d7 8c4c d2aa 0e48
000000f0: c84f a243 cbd6 7d48 c941 ef4d a16f dd41
00000100: 0c9e 8449 6a90 2b49 b073 e745 3162 0250
00000110: 4dbb 8a44 3b2f a53e 1767 6749 fa68 464e
00000120: 33b6 d848 3cba 484c 3900 3949 8f39 7c49
00000130: ea42 ec48 b514 5843 321c 6949 30be 9349
00000140: d738 d248 3113 5948 870f 4a48 6fa9 9d41
00000150: 8852 49c9 6730 6858 e588 cb4c 62c7 29bc
00000160: 800a 8bc9 9622 c4c9 8219 8f45 cb06 c1c7
00000170: e407 1542 e679 fa49 eecf 1358 4572 49ca
00000180: dab9 1e49 13c1 42d1 c2a3 cc50 8f8a 2b49
00000190: 9682 33c9 1677 3b59 b644 01ca d0d3 efc9
000001a0: 7a49 0248 ea0a 81cd af21 3bc9 fe0f 72c9
000001b0: 977d 89c9 0213 0943 ad9a bac9 9511 3fd0
000001c0: b92a 0eca 4cc2 ffc6 e293 8048 3391 e9c6
000001d0: 201a 22ca 7425 9658 aa0c 4645 210f 0340
000001e0: 4137 044e f02b d249 0c28 c53f 36be 8cc9
000001f0: 3387 ffc8 2131 aec7 58e3 ab49 7ec4 9bc9
00000200: c4b1 0858 1091 67ce e788 3dc9 46b1 1842
00000210: 20ca 0950 c150 9249 c78b c4bd bde2 e143
00000220: 1544 6e4e c3e6 04c7 04f7 32ca f335 e646
00000230: b5a1 44ca c400 1e4e 44f8 e64c b0b1 5348
00000240: 27ef 9cbb 5a86 e4c8 41ec 46ce d141 344a
00000250: b45b c8c9 4df2 df48 367a 6ec6 df6a a3d0
00000260: b243 7049 962d b3c7 3e68 0cca 22dd f6ce
00000270: 6386 6ec9 fdff 8d4c 90d4 e4c8 33a6 17ca
00000280: 5cb3 b0c9 e349 77ba 4b15 d3c9 f9fc 8cc9
00000290: e7d5 b4c9 cf3e 8049 0ce8 39c9 4392 7f45
000002a0: bd63 3248 73b8 1748 7594 973d 698a c545
000002b0: 6142 8b49 8bc0 1649 8559 9bc6 84d1 01c6
000002c0: 6401 bcc3 9c2f f149 0e43 9448 a476 a549
000002d0: 44e7 25ca aa40 b450 baac 23ca 5602 30ca
000002e0: 9862 e0ca 99f8 0048 7a4a 4549 03fb ebc7
000002f0: c274 e747 52c8 0c4d c6ce b948 cb11 ed48
00000300: 963d 8e49 2b2a 3ec4 7eb7 0749 9f6e b34f
00000310: d80a 8349 14fb 8fc4 f992 87c9 1fc9 69bd
00000320: d567 8e49 5c9d 0045 f25a 4dc6 c7bc 1744
00000330: d962 014e 3bc5 2acb 6e66 3845 4f7e 8349
00000340: 877b 8a48 f514 623f 2cd8 da3c 573f 8449
00000350: ae4f 7847 3748 fe4d 2914 b3ca f5b8 05c3
00000360: 134b 83c6 a672 9aca f50c 8d45 a7bf eec4
00000370: 1eb2 674e 72e7 1048 aee5 8e49 373e 43c8
00000380: b221 9a49 8d3a 1a4e 7a38 e34c 2f64 6f48
00000390: ab6b ed44 e561 3048 b01f da4d 7976 3fcb
000003a0: 3de5 4949 4ec6 3749 8f82 f545 c184 1750
000003b0: 72b1 7bca 625a 7b47 d6c9 7249 0157 654e
000003c0: 81d1 c148 292c fe44 e296 3049 bb03 8449
000003d0: 1a4b 3049 8587 8d44 a3bc 0d49 5c3c 9549
000003e0: e282 4149 1bac bbca 5865 d248 6a97 86c6
000003f0: 6542 9c43 8eab e6d8 d2c1 4acd 4e65 1fc6

layer3.0.bias f4 [6]
-0.029622735 -0.027216485 -0.03307124 0.050567962 -0.2049903 0.088869065
00000000: 61ab f2bc 1bf5 debc b575 07bd 5a20 4f3d
00000010: fae8 51be fc00 b63d
