DigitalRecognition-master/model_params/GDUT＿net_6.pt (torch, 664983 bytes, 6 tensors)

layer1.0.weight f4 [256, 560]
0	0xbcf43e8c	-0.02981498
1	0xbd2bc72e	-0.041938
2	0x3c96eaa6	0.018422436
3	0xbbc823e8	-0.006107796
4	0xbcb6f975	-0.022335747
5	0xbd03fdac	-0.032224342
6	0xbbe2a880	-0.0069170594
7	0x3c805452	0.015665207
8	0x3d22390a	0.039605178
9	0x3cf897fc	0.03034591
10	0x3c31e76c	0.010858398
11	0x3cfa58c8	0.030559912
12	0xbbc10f30	-0.005891703
13	0x3d1ba76c	0.038001463
14	0xbcde7df2	-0.027159665
15	0xbc10abd0	-0.008830026
16	0x3cc68eb0	0.02423796
17	0xbb074580	-0.002064079
18	0xbcc5de5f	-0.024153886
19	0xba788a40	-0.000948105
20	0xbd0ae71a	-0.033911802
21	0xbcf4e4bd	-0.029894227
22	0xbbefee60	-0.0073221177
23	0xbbad1d78	-0.005283054
24	0x3cce2688	0.025164858
25	0x3ca6fbac	0.020383678
26	0xbc9d243b	-0.019182315
27	0x3ab63240	0.0013900474
28	0xbc622b32	-0.013804244
29	0xbb2c02d0	-0.0026246794
30	0xbcd793d2	-0.026315603
31	0x3c9e1040	0.019294858
32	0x3ce1afc4	0.027549632
33	0xbc95c423	-0.018282002
34	0xbb8eeb50	-0.0043615475
35	0x3c39fe4c	0.011352133
36	0x3bb11320	0.005403891
37	0x3d1cf526	0.03831973
38	0x3c5a031c	0.013306405
39	0x3b15ddf0	0.002286788
40	0x3c9612fe	0.018319603
41	0x3c11e724	0.008905206
42	0xbb5341b0	-0.0032235198
43	0xbc9e6a97	-0.019337935
44	0xbbc8e928	-0.00613131
45	0x3ca76aac	0.020436607
46	0xbc3ac07a	-0.011398429
47	0x3c85b060	0.016319454
48	0x3cc2b588	0.023768201
49	0xbcd1e547	-0.025622023
50	0x3ca6ee3c	0.02037727
51	0x3ca69980	0.020336866
52	0xbd00ba51	-0.031427685
53	0x3c6d29a8	0.014475264
54	0x3d2c4448	0.042057306
55	0x3c7ad238	0.015308909
56	0xb9b92d80	-0.0003531985
57	0xbd0e48d6	-0.03473743
58	0x3b015980	0.0019737184
59	0x3ce60de4	0.028082795
60	0xbd0a9d6f	-0.033841547
61	0xbcfa0f7d	-0.030524964
62	0xbc25cf4c	-0.010120224
63	0x3c0434a4	0.008069191
64	0x3ceae918	0.0286756
65	0xbb1c9200	-0.0023890734
66	0xbd2bd374	-0.041949704
67	0xbbdd8030	-0.006759666
68	0xbd1c9254	-0.038225487
69	0xbbe056f8	-0.006846305
70	0x3ba3bd08	0.0049968995
71	0xbb292aa0	-0.002581276
72	0xbcbda4ab	-0.023149809
73	0x3cfce540	0.030871034
74	0xbd14a08f	-0.036285933
75	0x3bd32038	0.0064430498
76	0xbc041ca8	-0.008063473
77	0x3cedf658	0.02904813
78	0xbd086039	-0.03329489
79	0xbcf4f13f	-0.029900191
80	0x3d09b9f6	0.03362461
81	0xbcc09d85	-0.023512611
82	0xbc92ce44	-0.01792062
83	0xba990ae0	-0.0011676215
84	0xbc17c3f4	-0.009263027
85	0xba19ccc0	-0.0005866997
86	0xbc9dca9c	-0.01926165
87	0xbca7b402	-0.020471577
88	0xbcccd7a2	-0.025005165
89	0xbc4e4888	-0.012590535
90	0xbd014313	-0.031558108
91	0x3d2833d8	0.041065067
92	0x3c4ec964	0.012621257
93	0xbb1a9250	-0.0023585744
94	0x3c0ecb44	0.0087154545
95	0xbbebc7e8	-0.0071954615
96	0xbc6f6306	-0.014611011
97	0x3c199b8c	0.009375464
98	0x3c58e9e8	0.013239361
99	0xbbacc310	-0.0052722767
100	0xbc29a120	-0.010353357
101	0x3ce12094	0.027481355
102	0xbca9c034	-0.020721532
103	0x3d1eeb3c	0.038798556
104	0xbba3e0d0	-0.005001165
105	0x3d29d996	0.04146727
106	0x3c62d0dc	0.013843741
107	0x3cbc5f24	0.022994585
108	0x3cc22e3c	0.023703687
109	0x3cbaa988	0.022785917
110	0xbd0e894a	-0.034798898
111	0x3c9207fe	0.017826077
112	0xbce51215	-0.027962724
113	0xbc108600	-0.008821011
114	0xbd1b459f	-0.037908193
115	0xbd1ac7e1	-0.037788276
116	0x3b7b0c00	0.0038306713
117	0xbc70d6d8	-0.01469966
118	0xbb950a88	-0.0045483746
119	0xbc920d5f	-0.017828641
120	0x3d2580b8	0.04040596
121	0xbc89ddd2	-0.016829405
122	0x3ac5e3e0	0.0015097819
123	0xbcb8ad28	-0.022543505
124	0x3c166d04	0.009181265
125	0xbc5cd3b6	-0.01347821
126	0x3b9b2c28	0.0047354884
127	0x3d26dab2	0.040735908
128	0xbcf31b88	-0.029676214
129	0x3ced1b34	0.028943636
130	0x3c87c856	0.01657502
131	0x3d06e6c6	0.032934926
132	0xbcdb884e	-0.026798394
133	0xbcaf7887	-0.021419777
134	0xbd152858	-0.036415428
135	0x3cc5fefc	0.024169438
136	0xbbc5c350	-0.006035246
137	0xbb10d450	-0.0022099204
138	0xb9958200	-0.00028516352
139	0x3d1ce194	0.038301066
140	0x3b9e9190	0.0048391297
141	0x3cc1eca0	0.023672402
142	0x3cfae13c	0.030624978
143	0xbcb590e8	-0.022163823
144	0xbc4b6d9a	-0.012416268
145	0xba2d8300	-0.0006618947
146	0xbd1b999a	-0.037988283
147	0xbc4792e2	-0.012181016
148	0x3d1b1efc	0.037871346
149	0x3d25147a	0.04030273
150	0xbbdcc150	-0.006736912
151	0xbd1b7f26	-0.037963055
152	0x3d032f18	0.032027334
153	0x3c58a5c4	0.013223115
154	0xbbb6d2d0	-0.00557933
155	0x3d006098	0.03134212
156	0x3d1d2b3c	0.03837131
157	0xbc15a298	-0.009133004
158	0xbafcb780	-0.0019280761
159	0x3c82ad2c	0.015951715
160	0x3cb67d54	0.022276558
161	0xbbe02148	-0.006839905
162	0xba31eac0	-0.00067869946
163	0xbcf77a30	-0.03020963
164	0x3c12717c	0.00893819
165	0xbcb4a7ac	-0.022052608
166	0x3d1c8f24	0.038222447
167	0x3cd8ba80	0.026456118
168	0x3c372c90	0.011180058
169	0x3d1d53c2	0.038409956
170	0xbc8dba38	-0.01730071
171	0x3b2beb10	0.0026232637
172	0xbcdbe41a	-0.026842166
173	0x3c324c90	0.010882512
174	0x3c63478c	0.013872039
175	0xbc88739e	-0.016656693
176	0xbcb9a2ac	-0.022660576
177	0xbd10df82	-0.035369404
178	0xbcfbfafa	-0.030759323
179	0x3c6ab168	0.0143245235
180	0xbb1eaeb0	-0.0024213009
181	0x3cabae10	0.020957023
182	0xbce6c714	-0.0281711
183	0x3cf43b0c	0.029813312
184	0xbc1b5a6c	-0.0094820075
185	0xbd2be9f3	-0.04197116
186	0xbc1babe0	-0.009501427
187	0xbb7f51e0	-0.0038958713
188	0x3d050420	0.032474637
189	0xbd1abe32	-0.03777904
190	0xbc8ed4ff	-0.017435549
191	0x3c080058	0.008300863
192	0x3d2cd112	0.042191572
193	0xbc8682c9	-0.016419785
194	0xbc60dda2	-0.013724716
195	0x3bcdf308	0.006285075
196	0xbc692134	-0.014229108
197	0xbcfbe6d2	-0.030749712
198	0xbc9e19cb	-0.019299408
199	0x3d1809ce	0.037118725
200	0x3b1c0140	0.0023804456
201	0x3d010c18	0.031505674
202	0x3c80fc28	0.015745237
203	0xbc15dd4c	-0.009147
204	0xbd2be61e	-0.041967504
205	0x3cffda20	0.03123194
206	0x3c98dcf4	0.018660046
207	0xbb8a1e90	-0.004215069
208	0x3c53865c	0.012910452
209	0x3cbe9b58	0.023267433
210	0xbd07d0c2	-0.03315807
211	0x3c91eb52	0.017812405
212	0x3cd495d0	0.025950342
213	0xbcbc7152	-0.023003254
214	0x3d1bba7a	0.038019635
215	0xbd0fbc03	-0.03509141
216	0x3a62e400	0.00086551905
217	0x3c8c83f6	0.017152768
218	0x3d2c968a	0.042135753
219	0xbcfa170b	-0.030528566
220	0x3c88a380	0.016679525
221	0x3d0706c6	0.032965444
222	0xbd100a7c	-0.03516625
223	0x3c233e50	0.009963587
224	0xbcda1735	-0.026622394
225	0x3d285490	0.04109627
226	0x3c905dd0	0.017622858
227	0xbc5850ba	-0.01320284
228	0x3ab233c0	0.0013595745
229	0xbcb9afe6	-0.022666883
230	0xbbd01650	-0.006350316
231	0xbb936c28	-0.004498977
232	0x3c87f558	0.016596481
233	0xb9de5d00	-0.0004241243
234	0xbcc07638	-0.023493871
235	0x3ceef35c	0.029168777
236	0x3cf7f33c	0.03026735
237	0x3cc59ae8	0.024121717
238	0xbbf002f0	-0.007324569
239	0x3cf4ffd4	0.029907145
240	0x3c3e57b4	0.01161759
241	0x3c7162d4	0.014733035
242	0x3d179a2e	0.03701227
243	0x3c882156	0.016617458
244	0xba0f2040	-0.0005459823
245	0xbca7d2a2	-0.02048618
246	0x3ca5daac	0.020245872
247	0x3ce3862c	0.02777394
248	0xbcdf1dd9	-0.027235912
249	0x3d1bf2a2	0.03807319
250	0xbc195ee4	-0.009361003
251	0xbd2cbaeb	-0.042170446
252	0xbc92dedd	-0.017928535
253	0x3bf8b0f8	0.0075894557
254	0xbc7ccca0	-0.015429646
255	0x3d20292c	0.039101765

layer1.0.bias f4 [256]
0	0xbcfa12ea	-0.030526597
1	0xbc9d4295	-0.019196788
2	0xbc3fe24e	-0.01171167
3	0xbca00745	-0.019534716
4	0xbc57eb73	-0.013178694
5	0x3d23476e	0.039863043
6	0x3d0bd56e	0.03413909
7	0xbd1d906b	-0.038467806
8	0xbc0228c0	-0.007944286
9	0xbd68edf0	-0.05686754
10	0xbc6001ba	-0.013672287
11	0xbbf097f4	-0.007342333
12	0x3c772f8e	0.0150870215
13	0xbc9e3044	-0.019310124
14	0xbc35955e	-0.011082975
15	0xbc4ce713	-0.012506264
16	0xbc71ce68	-0.014758684
17	0xbd54d3fb	-0.051959973
18	0xbcb91a79	-0.022595631
19	0xbd87c660	-0.06629634
20	0xbd1919aa	-0.03737799
21	0x3c250ac8	0.010073371
22	0xbbd09814	-0.0063657854
23	0x3b148049	0.0022659472
24	0x3d8b40d8	0.06799477
25	0x3d6f6d0a	0.058453597
26	0xbcc5d9ed	-0.024151767
27	0xbd8c55ec	-0.06852326
28	0xbd99e91b	-0.075151645
29	0xbd83586b	-0.06413349
30	0xbccef890	-0.025265008
31	0xbc4f9a6b	-0.012671093
32	0xbce68291	-0.02813843
33	0x3c43c8f3	0.0119497655
34	0xbc478296	-0.01217713
35	0xbd52c11d	-0.0514537
36	0x3c062aac	0.008188885
37	0xbd7e024e	-0.062013917
38	0xbc8f836f	-0.017518727
39	0x3d7a0090	0.061035693
40	0xbb5f97fe	-0.0034117694
41	0xbd1fd2ec	-0.03901951
42	0xbd68a70b	-0.05679993
43	0xbc82430d	-0.015901113
44	0xbc9523ce	-0.01820555
45	0xbc4e1d2f	-0.0125802
46	0x3c883d1c	0.016630702
47	0xbc7815c0	-0.015141904
48	0xbda9f13d	-0.08297966
49	0x3cc74c6d	0.024328435
50	0xbca3668f	-0.019946365
51	0xbdaba2f6	-0.08380692
52	0xbd09be84	-0.033628955
53	0x3d08debb	0.033415537
54	0xbcc3d14c	-0.023903511
55	0xbd7b76c6	-0.061392568
56	0x3ca8bdfc	0.020598404
57	0x3aeb8c0e	0.0017970817
58	0xbd080201	-0.033205036
59	0xbd38e46e	-0.045139723
60	0xbcf87b6f	-0.030332295
61	0x3cfd45e8	0.030917123
62	0xbd2d3726	-0.04228892
63	0x3d076b2e	0.0330612
64	0xbd093736	-0.03349992
65	0x3d11dd1c	0.035611257
66	0xbd08a8bd	-0.033364046
67	0xbd6517b7	-0.05593082
68	0x3dec0a96	0.115254566
69	0xbc1d22c1	-0.0095908055
70	0xbd8750f6	-0.06607239
71	0xbd24682c	-0.04013841
72	0x3bc0dfa9	0.0058860374
73	0xbcf79422	-0.030222002
74	0xbda7df2f	-0.08196866
75	0xbda05053	-0.07827821
76	0x3d37de4f	0.044889744
77	0xbd1af986	-0.03783562
78	0xbbd4bec8	-0.0064924695
79	0x3bad692b	0.005292078
80	0xbcfcf591	-0.030878814
81	0x3c8c8658	0.017153904
82	0xbdad43fb	-0.08460232
83	0xbdac75f1	-0.08420933
84	0xbcccb174	-0.02498696
85	0xbdaebd38	-0.08532184
86	0x3da57349	0.080786295
87	0xbd6ad81d	-0.057335008
88	0xbce60b78	-0.02808164
89	0xbd8b3349	-0.06796891
90	0xbc885917	-0.016644044
91	0xbdacf3a0	-0.08444905
92	0x3cbb0dbd	0.0228337
93	0xbcb0b844	-0.02157224
94	0xbd4886f4	-0.048956826
95	0xbd207ba4	-0.039180413
96	0xbc02ab8b	-0.007975469
97	0xbd4ac7c4	-0.049506918
98	0xbdad98e8	-0.0847643
99	0x3afdba5c	0.0019357908
100	0x3d1606aa	0.03662745
101	0xbd9b01f0	-0.07568729
102	0xbd8f9607	-0.07011037
103	0x3c84a94a	0.016194005
104	0xbd2729d7	-0.040811386
105	0x3d7852c0	0.06062579
106	0xbb90ba9b	-0.0044167764
107	0x3cbddcbc	0.023176543
108	0x3cb46392	0.022020135
109	0xbd1a9e4e	-0.037748627
110	0xbcb57583	-0.02215076
111	0xbcf1c8e1	-0.029514732
112	0x39f50c00	0.00046738982
113	0x3cc6cb07	0.024266733
114	0x3cd4c440	0.025972486
115	0xbda42e2c	-0.08016619
116	0x3b107203	0.0022040613
117	0xbbec1de3	-0.007205711
118	0xbd8ea32a	-0.06964715
119	0x3b965b79	0.004588541
120	0xbd264c81	-0.040600304
121	0xbcc67932	-0.024227712
122	0x3d353529	0.04424015
123	0xbda637d5	-0.08116118
124	0xbdab5281	-0.08365346
125	0x3ceb6010	0.02873233
126	0xbd1d4797	-0.03839835
127	0xbbad67a8	-0.005291898
128	0x3cb8a1d6	0.022538107
129	0x3cb96ead	0.022635782
130	0xbcac45d2	-0.021029387
131	0x3d0d915b	0.03456245
132	0xbd879f6d	-0.06622205
133	0xbcefe29c	-0.02928286
134	0x3d4133db	0.047168594
135	0xbbfd022a	-0.0077212052
136	0xbdaf443b	-0.08557936
137	0xbdcf02b9	-0.10107941
138	0x3d29bd5c	0.041440353
139	0xbd8be78a	-0.06831272
140	0xbc9429fa	-0.018086422
141	0x3cf250af	0.029579489
142	0xbd225ec7	-0.039641168
143	0xbda4ba7e	-0.08043383
144	0x3a580f25	0.0008242003
145	0xbda8fe36	-0.08251612
146	0x3db9276e	0.09040724
147	0xbd775c16	-0.060390554
148	0x3bbe09d5	0.005799512
149	0xbc7cc45c	-0.015427675
150	0xbc929184	-0.017891653
151	0xbd408e13	-0.047010493
152	0xbd45f63e	-0.048330538
153	0xba85758c	-0.0010182126
154	0xbd6b1523	-0.057393204
155	0xbd4ca038	-0.049957484
156	0xbdbbca6e	-0.0916947
157	0x3c5d587e	0.013509868
158	0x3c29f76b	0.01037393
159	0xbb917d45	-0.004439982
160	0xbd1f3da0	-0.03887713
161	0xbd352c8f	-0.044231948
162	0x3dc1fb89	0.09471805
163	0xbda0bf6b	-0.0784901
164	0xbcc0e60f	-0.0235472
165	0xbcd906bd	-0.02649247
166	0xbd165fff	-0.036712643
167	0xbd1eb8e7	-0.038750555
168	0xbc69e5b8	-0.014275961
169	0xbd8a91b6	-0.067660734
170	0xbd8b670e	-0.068067655
171	0xbce7b50a	-0.028284568
172	0xbd12a816	-0.03580483
173	0x3cb15cc5	0.021650681
174	0xbc620b48	-0.013796635
175	0xbd8d5bc5	-0.06902269
176	0xbd215e04	-0.0393963
177	0xbc4c63a5	-0.012474929
178	0x3ce4694a	0.027882237
179	0xbd26593c	-0.040612444
180	0xbd120823	-0.03565229
181	0xbc055be2	-0.008139582
182	0xbbee8c48	-0.0072799064
183	0xbc3747c7	-0.011186547
184	0x3d50d2c5	0.050982255
185	0xbd0353db	-0.032062393
186	0xbd717ced	-0.05895703
187	0xbbcf2e7b	-0.0063226796
188	0xbc839b56	-0.01606528
189	0x3b0e9bd0	0.0021760352
190	0xbda655bc	-0.08121821
191	0xbc8a91ff	-0.01691532
192	0xbd12db3c	-0.03585361
193	0x3c7d53b2	0.015461849
194	0xbc846e70	-0.016165942
195	0xbacf7e40	-0.0015830472
196	0xbd6ec7d5	-0.058296043
197	0xbc186413	-0.009301203
198	0xbd26b166	-0.040696524
199	0x3c4afd18	0.012389444
200	0x3cf4af44	0.02986873
201	0x3ce67292	0.028130803
202	0xbc476ad8	-0.01217147
203	0xbd791299	-0.06080875
204	0x3c4aa02c	0.0123672895
205	0x3d0e81e6	0.03479185
206	0x3dc399c4	0.09550813
207	0xbd47085c	-0.048591956
208	0xbbe91b81	-0.0071138744
209	0x3d014cca	0.031567372
210	0xbd153f1f	-0.03643715
211	0xbbc24bd9	-0.005929452
212	0xbb6ba2cb	-0.0035955186
213	0x3d386e7f	0.045027252
214	0xbd749659	-0.059713695
215	0x3d2d00df	0.04223716
216	0xbd0ff08c	-0.035141513
217	0xbced7849	-0.02898802
218	0xbda11591	-0.078654416
219	0x3d469bff	0.048488613
220	0xbd264698	-0.040594667
221	0xbcb1bc09	-0.021696107
222	0xbcfd042c	-0.030885778
223	0xbc452f73	-0.012035239
224	0xbca59a7b	-0.020215264
225	0xbd980388	-0.074225485
226	0x3d876e87	0.06612878
227	0xbce93b74	-0.028470732
228	0xbca81c7e	-0.020521399
229	0xbd77fb22	-0.060542233
230	0xbda5e7cc	-0.08100852
231	0x3d2a6ace	0.041605763
232	0x3bafe5e7	0.0053679827
233	0xbd33d203	-0.043901455
234	0xbd7ec235	-0.06219693
235	0xbd587062	-0.05284155
236	0xbbdf1f68	-0.006809164
237	0xbd273244	-0.04081942
238	0xbd42e847	-0.0475848
239	0xbd22cbe7	-0.039745238
240	0xbd104639	-0.03522322
241	0xbd5f5fdc	-0.054534778
242	0xbd028afc	-0.031870827
243	0xbc870c0a	-0.016485233
244	0x3d6b9e70	0.057524145
245	0x3be9c7b0	0.0071344003
246	0xbcf1074c	-0.029422425
247	0xbca27a75	-0.019833783
248	0xbd57db11	-0.052699152
249	0x3d12f14e	0.035874657
250	0x3d1c7ce1	0.03820503
251	0x3b41a763	0.0029549233
252	0x3c6f4548	0.01460392
253	0xbda83356	-0.082129166
254	0x3c5fb14f	0.0136531135
255	0xbd9f5393	-0.077796124

layer2.0.weight f4 [84, 256]
0	0xbd6f4d46	-0.058423303
1	0x3d093584	0.033498302
2	0xbdd2877b	-0.10279747
3	0x3c67a468	0.014138319
4	0xbdb5bd24	-0.08873966
5	0x3ccb46d8	0.024814054
6	0xbd739b3c	-0.059474215
7	0x3d03025e	0.03198468
8	0xbd2391ac	-0.039933845
9	0xbd5a722a	-0.05333153
10	0x3ce882de	0.028382715
11	0xbdc4b83d	-0.09605453
12	0x3d5cd53d	0.053914297
13	0x3d34c780	0.04413557
14	0xbd6fa825	-0.058509964
15	0x3b9c5c03	0.004771711
16	0xbcf941cf	-0.030426888
17	0xbd7d48ae	-0.06183689
18	0xbdc7c99f	-0.09755253
19	0xbd4086ee	-0.04700368
20	0xbc4ce17c	-0.012504932
21	0x3dcf0ac1	0.10109473
22	0xbdc4d27f	-0.096104614
23	0xbddd338d	-0.10800848
24	0x3cc2c73e	0.023776647
25	0x3b7d55f8	0.0038655978
26	0xbdc9a8dc	-0.098466605
27	0xbda82555	-0.082102455
28	0xbda5584a	-0.080734804
29	0xbdb203c7	-0.08692127
30	0x3de4b305	0.11166958
31	0x3ad5fe3c	0.0016326378
32	0xbd0fcf2c	-0.035109684
33	0xbd6fc17d	-0.058534134
34	0xbb852a0e	-0.004063851
35	0xbdd0bd7f	-0.101923935
36	0x3c95ebbc	0.018300883
37	0x38caca78	9.669823e-05
38	0x3ce85305	0.0283599
39	0x3d17ad6d	0.037030626
40	0x3ca7d088	0.020485178
41	0xbda4693d	-0.08027885
42	0xbb9b50ba	-0.004739848
43	0xbc2203f9	-0.0098886425
44	0x3daa370c	0.083112806
45	0xbd2054d3	-0.039143395
46	0xbd1457ac	-0.036216423
47	0xbd1c0324	-0.038088933
48	0xbd77ec0e	-0.060527854
49	0xbd2d1eea	-0.04226581
50	0xbd2212f2	-0.03956885
51	0x3cf270d3	0.029594814
52	0x3d072007	0.032989528
53	0xbdb5b9ee	-0.08873354
54	0xbd651590	-0.055928767
55	0xbc69c9bf	-0.014269291
56	0x3d5bad8f	0.053632315
57	0xbacc7706	-0.0015599437
58	0xbbcd095d	-0.0062572197
59	0x3a47c4ab	0.00076205534
60	0x38a0e400	7.671863e-05
61	0xbdb037c4	-0.086043864
62	0xbc955982	-0.018231157
63	0xbdc5c7d8	-0.09657258
64	0x3a9925fe	0.0011684296
65	0xbcc4e76f	-0.024036137
66	0xbbc8aa5a	-0.006123823
67	0xbce3f2db	-0.027825763
68	0xbdb6dfe6	-0.08929424
69	0x3bfad50b	0.007654791
70	0xbda82b47	-0.082113795
71	0xbc7b4784	-0.015336875
72	0xbd60065a	-0.054693557
73	0x3ccfa0d0	0.025345236
74	0xbc849b94	-0.016187467
75	0xbd5cd05d	-0.05390965
76	0x3dd16643	0.10224583
77	0x3d56f7c9	0.0524824
78	0xbd8d8f3a	-0.06912084
79	0xbc70060c	-0.014649879
80	0xbda699a3	-0.08134773
81	0xbcfec584	-0.031100042
82	0x3d939b0e	0.07207309
83	0xbd7bb928	-0.061455876
84	0x3c537aca	0.012907693
85	0xbb8d04f7	-0.0043035704
86	0xbdbff799	-0.093733974
87	0xbd56f6b7	-0.05248138
88	0xbd8d94bb	-0.06913134
89	0xbd9b6cc1	-0.075891025
90	0xbd174ffb	-0.03694151
91	0xbd22ec90	-0.039776385
92	0x3d8422d5	0.06451956
93	0x3ce41391	0.027841361
94	0xbd2cd1b5	-0.04219218
95	0xbd7b1967	-0.061303522
96	0xbbfd7713	-0.007735142
97	0xbca53cb4	-0.020170547
98	0x3ba13e0d	0.004920727
99	0xbd96bbd1	-0.07360042
100	0x3cd5c078	0.026092753
101	0xbc6ca33d	-0.014443216
102	0xbccd0f5f	-0.025031744
103	0x3d6f85e0	0.058477283
104	0xbca9d19c	-0.020729832
105	0x3d961dd4	0.07329908
106	0x3d542025	0.051788468
107	0xbb0738e0	-0.0020633265
108	0x3c852c81	0.016256573
109	0x3c35ab35	0.011088182
110	0x3c763368	0.015026905
111	0x3d51018a	0.05102686
112	0x3c5f85a0	0.0136426985
113	0x3d5ea5dc	0.054357395
114	0xbd0aab3a	-0.0338547
115	0x3ba9d6f5	0.0051830956
116	0x3d35c65e	0.04437863
117	0xbdcb1aa2	-0.09917189
118	0xbd2f0646	-0.042730592
119	0x3ceee077	0.029159768
120	0xbc929fdc	-0.017898493
121	0xbdc2922b	-0.095005356
122	0x3c00b826	0.007856404
123	0x3cd7b884	0.026333101
124	0x3dded239	0.108799405
125	0xbd9de79b	-0.07710191
126	0x3c7923b8	0.01520627
127	0xbd4c4c3b	-0.049877387
128	0xbdc1627d	-0.09442613
129	0x3d8e14cc	0.069375604
130	0x396d504e	0.00022631997
131	0x3d8b4655	0.06800524
132	0xbd78f0da	-0.06077657
133	0xbd7fb7d5	-0.062431175
134	0xbdaf0889	-0.0854655
135	0xbca5dfeb	-0.020248374
136	0xbc36b5b6	-0.011151722
137	0xbdc65c50	-0.09685576
138	0x3d376875	0.044777352
139	0xbc5eff3d	-0.013610658
140	0xbc4ac43a	-0.012375886
141	0x3db7da15	0.08977143
142	0x3dcc2287	0.09967523
143	0x3ce30236	0.027711015
144	0xbc9aad7a	-0.018881548
145	0xbd3cef35	-0.046126563
146	0x3dd52654	0.10407701
147	0xbb86a447	-0.004108939
148	0xbd7f9312	-0.062396117
149	0xbdaf3f70	-0.085570216
150	0x3d0f1ff9	0.0349426
151	0xbd78a77c	-0.0607066
152	0x3dc427a8	0.09577876
153	0xbdb9a1b7	-0.09064048
154	0xbc842782	-0.01613212
155	0xbde0aa03	-0.10969927
156	0xbdd8ecee	-0.10592066
157	0xbddc2b65	-0.10750464
158	0x3db454dc	0.08805248
159	0x3dadaac9	0.0847984
160	0x3dd629b6	0.104571745
161	0xbd344a8c	-0.044016406
162	0xbdc9d959	-0.09855909
163	0xbdd2c5f4	-0.10291663
164	0xbabdaaff	-0.0014470516
165	0xbdb0214b	-0.086001
166	0xbdb2fe47	-0.08739906
167	0xbb14f0e1	-0.0022726583
168	0x3d2a81e8	0.041627795
169	0xbc8f33ed	-0.017480815
170	0xbd05c88c	-0.03266196
171	0xbda80651	-0.0820433
172	0xbd1785b8	-0.03699276
173	0xbd4a79cf	-0.049432572
174	0x3caab980	0.020840406
175	0x3c0d6217	0.0086293435
176	0xbc47c41c	-0.012192752
177	0x3c231b22	0.009955199
178	0xbd5628f1	-0.05228514
179	0xbc8c468c	-0.017123483
180	0x3c0c2af3	0.008555162
181	0xbd8be409	-0.06830604
182	0x3c36c650	0.01115568
183	0xbd5f0cba	-0.054455496
184	0xbd511ad7	-0.051050987
185	0x3c96dec0	0.018416762
186	0x3bf327b4	0.0074205045
187	0x3c4604a0	0.012086064
188	0xbd6b42e5	-0.057436842
189	0xbd3168b4	-0.043312743
190	0xbbef4fa4	-0.007303195
191	0x3b5f6f60	0.0034093484
192	0x3d783bee	0.06060403
193	0xbd4b287a	-0.04959915
194	0xbcbf864d	-0.02337947
195	0xbca93725	-0.020656178
196	0x3d8ad0ec	0.0677813
197	0x3e08b822	0.13351491
198	0xbb8676f6	-0.0041035367
199	0x3ce3df84	0.027816541
200	0x3d54fe47	0.05200031
201	0xbc3ea1a7	-0.011635221
202	0xbd308e72	-0.043104596
203	0xbd5b4061	-0.053528193
204	0x3d75d0a5	0.060013432
205	0x3d5a5b15	0.05330952
206	0xbdb9a049	-0.09063775
207	0xbd96ccc7	-0.07363277
208	0xbcde6cb6	-0.027151447
209	0xbd3c28b7	-0.045937266
210	0xbbd8ddf5	-0.006618256
211	0xbd3a9016	-0.045547567
212	0x39d21c61	0.00040075465
213	0x3dc70677	0.0971803
214	0xbd7a3eec	-0.061095163
215	0x3d63cad7	0.055613365
216	0xbca685ce	-0.020327475
217	0xbdcb2748	-0.09919602
218	0xbcf5106e	-0.02991506
219	0xbd8e62f6	-0.06952469
220	0xbcb34c95	-0.021887103
221	0x3ac7822c	0.0015221289
222	0x3d75080a	0.05982212
223	0xbd11a07a	-0.035553433
224	0x3a85b453	0.0010200836
225	0x3cc57a52	0.024106178
226	0xbc4b9c00	-0.01242733
227	0x3d3e65d2	0.046483822
228	0xbce01106	-0.027351867
229	0xbd7cc960	-0.061715484
230	0xbdd13142	-0.10214473
231	0xbd28479a	-0.04108391
232	0xbcce1838	-0.025158033
233	0xbc807ecc	-0.015685461
234	0xbdc7608b	-0.09735211
235	0xbd9fa6d2	-0.0779549
236	0xbce725d8	-0.028216287
237	0xbd6a0408	-0.05713275
238	0xbdb8ab1f	-0.09017014
239	0x3d0fdbb1	0.035121623
240	0x3c4170e0	0.011806697
241	0x3d0ab186	0.033860706
242	0x3d65faf3	0.056147527
243	0x3d87b0a4	0.066254884
244	0x3d349e1c	0.044096097
245	0xbdac8916	-0.084245846
246	0x3c2a3958	0.010389648
247	0x3dcbcc3b	0.09951063
248	0x3c748ac0	0.014925659
249	0xbc32afa0	-0.01090613
250	0x3d5dfee7	0.054198172
251	0xbd5ac94e	-0.053414635
252	0xbc14b5a3	-0.009076509
253	0x3cc05b17	0.023480935
254	0xbd58ce4e	-0.052931122
255	0xbdd6a65e	-0.10480951

layer2.0.bias f4 [84]
0	0x3bcf2f66	0.006322789
1	0xbdaa493d	-0.0831475
2	0x3a8a5ee2	0.0010556842
3	0xbbc0e9ec	-0.0058872607
4	0x3c87ae0c	0.016562484
5	0xbdbccabf	-0.09218358
6	0xbca6d5d2	-0.02036563
7	0xbd09ab4c	-0.033610627
8	0xbdb25a4f	-0.08708631
9	0xbd3d32d9	-0.04619107
10	0x3c65f2e7	0.014034963
11	0x3d417074	0.047226384
12	0xbc6803ab	-0.014161031
13	0xbd225452	-0.039631195
14	0xbdc7f6e8	-0.097638905
15	0x3d5e94c7	0.054341104
16	0x3d07d148	0.03315857
17	0xbda89858	-0.08232182
18	0xbd56611e	-0.052338712
19	0xbc9d5afc	-0.019208424
20	0x3cbe5f5a	0.023238827
21	0xbc952091	-0.018204005
22	0xbbeb1ed9	-0.007175308
23	0x3bfe0658	0.007752221
24	0x3bdf2156	0.006809394
25	0xbcb30c5b	-0.021856477
26	0xbd7aaa8e	-0.06119781
27	0xbd64384e	-0.05571776
28	0xbd14ee30	-0.036359966
29	0x3d74bb76	0.05974909
30	0x3d7a2e60	0.061079383
31	0xbd8add39	-0.06780476
32	0x3c096fc0	0.00838846
33	0x3bb57910	0.0055381134
34	0x3cb6ac06	0.022298824
35	0xbcf57a36	-0.029965501
36	0xbd0eed2f	-0.034894165
37	0xbd7953e2	-0.060871013
38	0x3d21cf8b	0.03950457
39	0x3d9e7838	0.07737774
40	0xbd6cd3f0	-0.057819307
41	0x3d23a0e2	0.03994835
42	0xbdc9f19b	-0.09860536
43	0xbc9d0d15	-0.019171277
44	0xbddee022	-0.10882594
45	0xbd491d92	-0.049100466
46	0xbd948f0b	-0.07253846
47	0x3d670b97	0.056407537
48	0x3c10a31f	0.008827954
49	0xbbb7d309	-0.005609874
50	0xbc37f5e5	-0.011228059
51	0x3da020c3	0.07818749
52	0xbdd55e58	-0.10418385
53	0xbd072917	-0.03299817
54	0xbdb026e3	-0.08601167
55	0xbc94ca83	-0.018162971
56	0x3d008b22	0.031382687
57	0xbd32e3dd	-0.04367434
58	0x3c0b0119	0.008484148
59	0xbdc62755	-0.09675471
60	0x3d0a3a3f	0.033746954
61	0x3d3474c5	0.044056673
62	0xbd9c4ab6	-0.076314375
63	0xbb919a7f	-0.004443466
64	0xbdad0a55	-0.08449236
65	0x3d46cd49	0.04853562
66	0xbbb3d13c	-0.005487589
67	0x3d27c1dd	0.040956367
68	0xbc22399e	-0.009901432
69	0xbcffe99e	-0.031239327
70	0xbd10476a	-0.035224356
71	0xbd2a6dff	-0.041608807
72	0xbd1f1ef7	-0.03884789
73	0x3dc9263e	0.09821747
74	0xbdac043f	-0.083992474
75	0xbcc945c9	-0.024569409
76	0x3baffd24	0.005370753
77	0x3c05e3ca	0.008171985
78	0x3c5a79bb	0.013334687
79	0xbc204ad0	-0.009783462
80	0xbdd064a6	-0.10175447
81	0xbba4f10b	-0.0050336174
82	0xbdbd7f5f	-0.0925281
83	0xbdc915ff	-0.098186485

layer3.0.weight f4 [6, 84]
0	0xbc90b1c1	-0.017662885
1	0xbc4d26a5	-0.012521421
2	0xbcc4a47f	-0.02400422
3	0xbdd50be6	-0.1040266
4	0x3d71277b	0.058875542
5	0x3d041d60	0.032254577
6	0x3cba5b63	0.022748655
7	0xbd4dae63	-0.050215136
8	0xbd04a418	-0.032383054
9	0x3dc27631	0.094951995
10	0xbd6b43db	-0.05743776
11	0xbcccab64	-0.02498407
12	0x3d425da8	0.0474526
13	0x3c1be8a8	0.009515919
14	0xbca3e176	-0.02000497
15	0xbcd4d1f9	-0.025979029
16	0xbd8c3b26	-0.06847219
17	0xbd93aeb5	-0.07211057
18	0x3d9a0597	0.075205974
19	0x3daa7720	0.083235025
20	0x3d980dc9	0.07424504
21	0xbd703380	-0.058642864
22	0xbc448440	-0.0119944215
23	0x3d6a80d0	0.05725175
24	0xbc2f8cb7	-0.010714701
25	0x3df11cd6	0.11773078
26	0xbd275d2a	-0.040860333
27	0x3ca1f7b9	0.019771444
28	0x3d0354dc	0.03206335
29	0x3dd33d30	0.10314405
30	0xbd2bc6eb	-0.04193775
31	0xbc72c60c	-0.014817726
32	0xbdcae2ab	-0.09906515
33	0xbd917b1b	-0.07103559
34	0x3d0578f7	0.032586064
35	0x3c281ae5	0.010260318
36	0x3d1b69b6	0.03794261
37	0x3d8e184c	0.06938228
38	0x3d61a58e	0.055089526
39	0x3b90b174	0.0044156853
40	0x3e25ea0f	0.16202568
41	0xbd020d3a	-0.031750895
42	0x3cc083c6	0.023500334
43	0x3d385459	0.045002315
44	0x3d781bb4	0.060573295
45	0x3dd6d174	0.10489169
46	0x3d295e31	0.041349594
47	0x3e04f2fc	0.12983316
48	0x3d7ea755	0.0621713
49	0xbd662419	-0.05618677
50	0x3d9c54db	0.076333724
51	0x3dce63a9	0.100776024
52	0x3c46488d	0.012102258
53	0x3ca92907	0.020649446
54	0x3c0e1176	0.008671155
55	0xbcd53cb4	-0.026029922
56	0x3a277638	0.00063881604
57	0x3cf317af	0.02967438
58	0x3dcce6f6	0.1000499
59	0x3e070a9e	0.13187644
60	0xbd9b909e	-0.07595943
61	0x3ba01719	0.004885566
62	0x3c5db824	0.013532672
63	0xbc420945	-0.01184303
64	0x3d0bb83c	0.034111246
65	0x3cbb9613	0.02289871
66	0xbcb9f945	-0.022701869
67	0x3c346440	0.01101023
68	0x3d41352a	0.04716984
69	0x3ce088f7	0.02740906
70	0x3ccdf695	0.025141994
71	0x3cf919d5	0.030407825
72	0x3d70f1f4	0.058824494
73	0x3de10602	0.10987474
74	0xbd99465e	-0.074841246
75	0xbc2824a2	-0.01026264
76	0x3da959eb	0.082691036
77	0xbd51add3	-0.051191162
78	0x3e056a5f	0.13028859
79	0x3c7c985c	0.015417185
80	0x3bcefcda	0.0063167633
81	0xbd9057d0	-0.07047999
82	0x3da657d5	0.081222214
83	0xbd6ef203	-0.05833627
84	0xbdd377a7	-0.10325556
85	0x3ca367e2	0.019946996
86	0x3dc5e38c	0.09662542
87	0x3d631385	0.055438537
88	0x3e13eec5	0.14446552
89	0x3dcd5043	0.10025074
90	0xbd4bd13f	-0.0497601
91	0xbd50ea2a	-0.051004566
92	0xba8b5f3d	-0.0010633242
93	0xbd31a2cd	-0.04336815
94	0x3dc5b99b	0.09654542
95	0xbdced999	-0.10100097
96	0x3e1d0164	0.15332562
97	0x3ca8d15c	0.020607643
98	0x3cbd4c8a	0.023107786
99	0x3d4644d9	0.048405502
100	0xbdb827d2	-0.0899197
101	0x3ce24eaf	0.02762541
102	0xbdd3f363	-0.10349157
103	0x3ca724e0	0.020403326
104	0xbd11ea3a	-0.035623766
105	0x3e01bf05	0.12670524
106	0xbce0614d	-0.027390147
107	0x3dc68057	0.09692448
108	0xbd5ca44a	-0.053867616
109	0x3db64c45	0.08901266
110	0x3df8655c	0.12128708
111	0x3b74a243	0.003732816
112	0x3cc54fce	0.024085905
113	0xbc522801	-0.0128269205
114	0xbc6afd5f	-0.014342635
115	0xbd8dfddf	-0.06933188
116	0x3d42076a	0.04737035
117	0xbd63fc2d	-0.055660415
118	0xbb8f368a	-0.0043705152
119	0x3d3aa5ef	0.045568403
120	0x3d396ef4	0.04527183
121	0x3c976f0f	0.018485574
122	0x3dd0ac7f	0.10189151
123	0xbc812648	-0.015765324
124	0x3dac2c92	0.084069386
125	0x3d199993	0.037499975
126	0xbd1da48d	-0.038487006
127	0xbbc57c22	-0.0060267607
128	0x3bdae289	0.006679837
129	0x3d63f12b	0.055649918
130	0xbd694160	-0.056947112
131	0xbcef3f58	-0.02920501
132	0xbc5c4cc9	-0.013446041
133	0x3c7c99f3	0.015417564
134	0xbd5c4468	-0.053776175
135	0x3c8841fc	0.016633026
136	0xbb951ed0	-0.0045507923
137	0x3d2ed7bd	0.042686213
138	0x3dd992a8	0.106236756
139	0xbc584d8d	-0.013202083
140	0x3e1474d0	0.14497685
141	0x3cc40f96	0.023933213
142	0xbd45d605	-0.048299808
143	0xbd04885d	-0.03235661
144	0x3cc6a5bd	0.024248952
145	0xbd0ed673	-0.034872483
146	0x3da5be70	0.08092964
147	0xbdcae468	-0.09906846
148	0x3d703a2b	0.058649223
149	0x3c3c9b36	0.011511615
150	0x3cfc290b	0.03078129
151	0xbd9d5eb5	-0.076840796
152	0x3d992a44	0.07478765
153	0xbda4ee7c	-0.080533
154	0xbcf9f4ea	-0.030512292
155	0xbd5896a5	-0.05287804
156	0xbde74ff9	-0.112945504
157	0x3d2d84f5	0.042363126
158	0x3ccde609	0.025134103
159	0x3d139dc2	0.03603912
160	0xbd0cb1cf	-0.03434926
161	0x3deb9a1b	0.11504003
162	0xbd62fef3	-0.05541892
163	0x3e1f5456	0.15559515
164	0x3d14d13c	0.036332354
165	0xbc299f48	-0.010352917
166	0xbd20c3ec	-0.039249346
167	0x3caa36cb	0.02077808
168	0xbd97fff7	-0.07421868
169	0x3cac0322	0.020997588
170	0xbb174bfd	-0.0023086064
171	0xbda67d76	-0.081293985
172	0x3d81d04d	0.06338558
173	0x3e1a8ee7	0.15093575
174	0xbdf6ebc5	-0.12056688
175	0xbd58a6fa	-0.052893616
176	0xbd0d16a1	-0.03444541
177	0x3c709f79	0.014686459
178	0xbd187254	-0.037218407
179	0x3df73ef7	0.120725565
180	0x3ca4b2c1	0.020104768
181	0xbd8f49b0	-0.06996477
182	0x3c7b9f39	0.015357786
183	0xbd9f017e	-0.077639565
184	0xbdc9e759	-0.09858579
185	0x3def8ad8	0.11696404
186	0xbd346392	-0.04404027
187	0xbdb7fb80	-0.08983517
188	0x3d39332d	0.04521482
189	0xbd63a3bb	-0.055576067
190	0xbce59a6a	-0.028027732
191	0x3bec952a	0.00721993
192	0xbd6f0883	-0.058357727
193	0x3cfb8284	0.030701883
194	0x3dc56d0f	0.09639942
195	0xbdc90766	-0.09815864
196	0xbcb4146c	-0.021982394
197	0xb945a864	-0.00018850114
198	0x3ce418d9	0.02784388
199	0xbd18ceb1	-0.03730649
200	0xbd237bea	-0.039913096
201	0xbda2929d	-0.079381205
202	0xbdb4b11f	-0.08822846
203	0xbd88e4d6	-0.06684272
204	0x3e182983	0.14859585
205	0x3c33cd7b	0.010974283
206	0xbdf3c532	-0.119028464
207	0x3cbe4dff	0.02323055
208	0x3d3a0a6b	0.04542009
209	0xbd8c8905	-0.06862072
210	0xbcf80332	-0.030274961
211	0xbcf418f4	-0.029797055
212	0xbc85162e	-0.016245928
213	0xbb8d31c3	-0.0043089106
214	0x3d5a0e00	0.053236008
215	0xbd56c518	-0.052434057
216	0x3d2f1abe	0.042750113
217	0xbd7d4689	-0.061834846
218	0xbdf09912	-0.11747946
219	0xbdc1e49b	-0.09467431
220	0xbce8fa6d	-0.028439725
221	0x3d93a0ea	0.07208426
222	0x3c8de2f9	0.017320143
223	0x3bde6700	0.006787181
224	0x3d9909ff	0.0747261
225	0x3d64a1a5	0.05581822
226	0x3d285792	0.04109914
227	0xbdc4eeb9	-0.09615845
228	0x3dfd82a1	0.12378431
229	0x3daf6429	0.08564026
230	0x3d746fe9	0.05967704
231	0xbd3d33b3	-0.046191882
232	0x3dc09f63	0.094054006
233	0x3db7e44a	0.089790896
234	0xbe1d3381	-0.15351678
235	0x3a4af20b	0.00077417557
236	0x3da75e65	0.08172301
237	0xbdbaa29e	-0.09113048
238	0xbc043b3f	-0.008070766
239	0xbcc036ea	-0.023463685
240	0x3d8ee629	0.06977493
241	0xbd6cad50	-0.05778247
242	0xbddaba59	-0.10680074
243	0xbc0eb3e1	-0.008709879
244	0x3db439ef	0.088001125
245	0x3d622c8d	0.05521827
246	0xbc3aa6a3	-0.011392268
247	0x3c20b6fd	0.009809253
248	0x3bde7a20	0.006789461
249	0x3c5835b5	0.0131963985
250	0xbd7af089	-0.06126455
251	0xbcb250c4	-0.021767028
252	0x3dbf2b81	0.093344696
253	0xbd5eb8d6	-0.054375492
254	0xbc353dcc	-0.011062097
255	0xbde481ba	-0.11157556

layer3.0.bias f4 [6]
0	0x3d85dfa6	0.06536798
1	0x3c92829a	0.017884541
2	0x3c731293	0.014835971
3	0xbdffb55d	-0.12485764
4	0xbd6baafa	-0.057536103
5	0x3b50e3ff	0.0031874178
