DigitalRecognition-master/model_params/GDUT＿net_7.pt (torch, 664983 bytes, 6 tensors)

layer1.0.weight f4 [256, 560]
000000 20 be 05 3d 08 aa f8 3c 21 53 6e bc 72 97 0c 3d
       0.03265202 0.030354515 -0.014546187 0.034324117
000010 88 8e f5 3c 60 f6 e7 bc 0a 4a 05 3d 88 c6 0e 3c
       0.02997519 -0.028315723 0.032541312 0.008714326
000020 e8 d2 c1 3c 30 7d 1e bd 7c 16 7e 3c 78 d9 82 3b
       0.023660138 -0.038693607 0.01550829 0.0039932095
000030 c0 e0 4a ba f8 e8 a8 bb a0 8f 1e 3d 40 1f a9 ba
       -0.0007739179 -0.005154725 0.03871119 -0.001290299
000040 e0 79 d6 3c 68 5e 69 3c 7a d2 10 3d c0 60 02 3d
       0.026181161 0.0142437 0.035356976 0.03183055
000050 b4 67 e9 3c 0c 21 28 bc c3 5c cf bc 84 a9 fd 3c
       0.028491832 -0.010261785 -0.025312787 0.03096462
000060 b0 42 00 bc 56 1e 27 bd 8a 5d b9 bc 40 31 2c 3d
       -0.0078284 -0.040800415 -0.02262761 0.042039156
000070 bc 65 fa bc a8 0c 11 3d ee 02 04 3d 00 ed 6f 3a
       -0.030566089 0.03541246 0.032229356 0.0009152442
000080 22 9b 52 bc e8 40 a8 bc c3 9d df bc 94 2e e6 3c
       -0.012854369 -0.020538762 -0.027296906 0.028098382
000090 6e a3 ab bc 58 c6 fd 3c 28 5a 8f 3c f2 e7 09 3d
       -0.020951953 0.030978367 0.017499045 0.033668466
0000a0 b8 c8 00 3d ac df 1f bc ec 04 da 3c be c9 5b bc
       0.03144142 -0.009757917 0.026613675 -0.013414798
0000b0 08 12 b9 bb 8e c5 20 bd 24 a7 ac bd e0 69 11 bd
       -0.0056479014 -0.039250903 -0.08430317 -0.03550136
0000c0 50 dd a3 bd 59 89 3c bd 2d 5c 2b bd ad 32 8a bd
       -0.080011964 -0.046029422 -0.041835953 -0.06747947
0000d0 48 0c 30 bd ad 6a 7b bd 7f a9 9d bd 38 10 db bc
       -0.042980462 -0.06138103 -0.076983444 -0.026741132
0000e0 14 27 a9 3c 24 89 b8 3c ad d3 91 bc e8 30 a7 bb
       0.020648517 0.022526331 -0.01780113 -0.0051022656
0000f0 1a 3c 81 bc b7 c3 a7 bc 26 f7 83 bc ce f6 b6 bc
       -0.015775729 -0.020479066 -0.01610906 -0.022334483
000100 d5 d3 0e bd a3 5b 9d bd 30 cf 1c bd 4e 4d 34 bc
       -0.034869988 -0.07683494 -0.038283527 -0.011004759
000110 69 49 6b bd 25 0b 2b bc 51 8c df bc 1e f4 97 bd
       -0.057443056 -0.010439669 -0.027288588 -0.074196085
000120 ca 3b 45 bd 6d 9b a0 bd 13 e7 51 bd c7 74 2f bc
       -0.048152722 -0.07842145 -0.05124576 -0.010708994
000130 d8 dd 9b 3c 24 be e0 bc 00 32 8f bb 62 f9 e3 bc
       0.019026682 -0.027434416 -0.004369974 -0.027828876
000140 00 25 ec b9 01 58 0a bd c0 fa e1 bb ae 79 18 3d
       -0.00045040995 -0.033775333 -0.006896347 0.037225418
000150 10 24 06 bb 4d 5b 7d bd 91 f6 07 bd dd 77 a7 bd
       -0.0020468272 -0.06185465 -0.03319413 -0.08177159
000160 9a 4a b0 bd cd af aa bd 9b bd b8 bd 9b 13 5b bd
       -0.08607979 -0.083343126 -0.090205394 -0.053485494
000170 a1 06 d7 bc 62 7d fa bc 70 2f f5 bc ce 1c a4 bc
       -0.026248278 -0.030577365 -0.029929847 -0.020033266
000180 36 c4 9b 3c cc bf 22 bc ac d8 e9 bc 50 10 86 bb
       0.01901446 -0.009933423 -0.0285457 -0.0040913
000190 04 be 64 3c 42 ff 11 3d f4 36 23 3d a1 7f cd bc
       0.013961319 0.035643823 0.03984733 -0.025085272
0001a0 77 09 62 bd 46 1c c4 bc 7a e7 63 bd 8c be db bc
       -0.055184808 -0.023939263 -0.055640675 -0.026824258
0001b0 e6 5e 8e bd 4a 6f ab bd 9a 63 fa bc 7e 88 70 bc
       -0.06951694 -0.08370836 -0.030565072 -0.01468098
0001c0 69 42 81 bd 26 1a fc bb f9 ab 06 bd 5c 12 85 bd
       -0.06311495 -0.007693547 -0.03287885 -0.064976424
0001d0 d2 8c 23 bd 64 b5 65 3c d0 7b 7c bb d8 9f 6b 3c
       -0.03992922 0.014020298 -0.0038525946 0.014381371
0001e0 7c 04 9a bc 74 a9 c5 3c a8 64 5b 3c 6c 3d 35 bc
       -0.018800966 0.024128653 0.013390698 -0.011062007
0001f0 4f a8 e8 bc 5a 17 34 bd 8c 59 b9 bc 45 ff 70 bd
       -0.028400568 -0.043967582 -0.022625707 -0.058837194
000200 0f 75 0e bd d0 ac 2a bd eb 53 64 bd 68 b0 91 bc
       -0.034779605 -0.041668713 -0.055744093 -0.017784312
000210 17 7e 0a bd 22 1d a8 bd 3d d3 cd bc f1 b1 7d bd
       -0.033811655 -0.08208682 -0.02512514 -0.061937276
000220 ce a4 2a bd 6b bb 7a bd d1 64 a1 bd a9 d8 7c bd
       -0.041661076 -0.061213892 -0.07880557 -0.06173006
000230 96 84 88 bc a8 95 d1 bc ea a8 02 3d 7c 82 40 bc
       -0.016664784 -0.025584057 0.03189937 -0.01174986
000240 93 f0 b7 bd 73 3c 79 bd 49 6c 82 bd d1 90 b6 bc
       -0.08981433 -0.060848664 -0.0636831 -0.02228585
000250 b4 84 01 3d b5 19 2a bd ec a3 86 bd eb 70 6d bd
       0.031620696 -0.041528422 -0.06574234 -0.057969015
000260 c6 ad 9a bd 14 b7 34 bd 90 4d 9d bd 22 90 85 bd
       -0.07552676 -0.04411991 -0.076808095 -0.06521632
000270 0a 2b 92 bd 40 dd 3c 3b 88 11 63 3c ee 1f 05 bd
       -0.07137115 0.0028818399 0.01385916 -0.032501154
000280 b6 cd 27 bd f0 44 01 3c 3c ca 6f bc 24 77 06 bd
       -0.040967666 0.007889971 -0.014635619 -0.032828465
000290 28 b1 b7 bd bd 60 8d bc 9b a6 19 bd 33 e0 04 bd
       -0.08969337 -0.017258042 -0.037512403 -0.032440376
0002a0 6c f5 cb bc 38 b8 53 bd fe 13 64 bd 5b 05 03 bc
       -0.0248973 -0.051689357 -0.05568313 -0.007996882
0002b0 55 af ae bc 09 30 55 bd 08 40 14 bd 84 53 4e bc
       -0.02132384 -0.052047763 -0.036193877 -0.012593154
0002c0 5a b3 27 bd b6 40 1f 3d c0 cf 2b bd fe 32 af bd
       -0.040942527 0.038880073 -0.041946173 -0.08554648
0002d0 16 61 14 3d 98 fe 20 3d b8 b8 2d bc 38 d8 84 bb
       0.0362254 0.0393053 -0.010603122 -0.0040540956
0002e0 d0 42 56 bd ee 6a 2d bd a9 e4 38 bd cf 62 81 bd
       -0.05230981 -0.042338304 -0.045139942 -0.06317674
0002f0 73 c8 a5 bd 69 e0 b0 bd be 4b 1e bd 80 e7 2e 3a
       -0.08094873 -0.08636553 -0.038646452 0.00066720694
000300 e9 61 32 bd 70 33 9d bc a2 b3 36 bd ef 4b e2 bb
       -0.043550406 -0.019189566 -0.044604905 -0.0069060246
000310 e9 ef 2a bd 44 4b c2 bc c0 14 29 bd 74 0c 22 bd
       -0.041732702 -0.02371753 -0.041279554 -0.039562657
000320 6a 47 92 3c fc dc 45 bc d0 09 79 3b f0 0f 0d 3c
       0.017856319 -0.012076613 0.0038000233 0.008609757
000330 ce 4b 0d bd 75 d1 70 bd 5f ee 54 bd f4 ed 9a bd
       -0.03449612 -0.058793504 -0.05198514 -0.07564917
000340 0f 92 d2 bb 4e 10 25 bd 64 b9 80 bc d5 9a 15 bd
       -0.006426103 -0.040298752 -0.015713401 -0.036524612
000350 a2 6c 98 bd 08 24 ce bc 94 cd b1 bc fc c0 9d bd
       -0.07442595 -0.025163665 -0.021704473 -0.077028245
000360 77 1a 8a bd be 49 a8 bd 67 b2 0d bd 3c ba 7f bd
       -0.06743329 -0.0821719 -0.034593966 -0.062433466
000370 cc bc 9f bc 5a 3a e3 bc 64 2a c2 3c 00 24 5d b8
       -0.019499205 -0.027737785 0.023701854 -5.2724034e-05
000380 db 50 4b bc aa b0 ae bd 08 21 05 bd ce 58 19 bc
       -0.012409414 -0.0852979 -0.032502204 -0.009359552
000390 e3 d2 d2 bc b6 15 f6 bc 31 3b 5e bd df 97 40 bd
       -0.025735324 -0.03003965 -0.054255668 -0.047019836
0003a0 22 d5 ed bc 06 cd 1d bd c2 11 b5 bd 1f e1 a5 bd
       -0.029032294 -0.038525604 -0.08841278 -0.08099579
0003b0 a0 02 a9 3a 8c 7d 21 3c 5c fd d0 3c 0a b2 1c 3d
       0.0012894459 0.009856593 0.025511436 0.03825573
0003c0 a4 51 03 bd 80 83 98 3b 70 52 04 bc 28 7b 1f bd
       -0.03206028 0.004654348 -0.008076295 -0.03893581
0003d0 79 5c 0d bd b3 4c 02 bd 04 60 98 bc 75 ac 2c bd
       -0.034512017 -0.031811427 -0.018600471 -0.042156655
0003e0 b4 41 fa bc 2f 7d 96 bd b7 82 87 bd 79 28 b4 bd
       -0.030548908 -0.073480956 -0.06616729 -0.08796782
0003f0 d0 26 a6 bd 73 54 ac bc ea c1 25 bd 9d 89 a5 bd
       -0.08112872 -0.021036362 -0.040468134 -0.08082888

layer1.0.bias f4 [256]
000000 89 cb b4 bd c9 7e 23 bc d4 f3 11 bc 6c f0 3a 3d
       -0.08827884 -0.009978958 -0.008908231 0.04563944
000010 29 56 44 bc c9 7b 9d bd 34 38 69 3c 21 e3 1a bd
       -0.011983433 -0.07689626 0.014234591 -0.037814263
000020 52 0b ac 3b 7d 16 66 3d 74 86 a1 bd 2f f7 95 3c
       0.005250373 0.05617379 -0.07886973 0.018306343
000030 e4 d9 3e bd 72 ba 82 bc 25 e7 70 bd c4 1c 06 bd
       -0.046594515 -0.015958045 -0.058814187 -0.032742277
000040 93 21 a8 bd fb 6f 0f bd 15 d7 88 3c 14 e0 23 bc
       -0.08209529 -0.035018902 0.016704122 -0.010002155
000050 af 3f 5f 3c 1a 42 1f 3b 38 c8 59 bd 2c 4e 19 bc
       0.013626023 0.0024300874 -0.05316946 -0.0093570165
000060 13 c5 90 bd 0d bb ad 3b 1e 38 2f 3c c7 a3 9b bc
       -0.07068839 0.005301839 0.010694532 -0.018998994
000070 44 4d 8a 3d ad 9b 56 bd 32 c7 32 bd 12 9b 97 bd
       0.067530185 -0.052394558 -0.043647 -0.07402624
000080 fa 79 8d bd 16 72 07 3d ca 53 ef bc 26 41 e4 3a
       -0.06908031 0.033067785 -0.029214758 0.0017414435
000090 9d 54 25 bd 7c 92 62 3d d4 0f f8 bc b4 fd 46 bd
       -0.040363897 0.05531548 -0.030280985 -0.048581794
0000a0 84 b0 3d bc b7 14 10 bd a5 d5 99 bd 0f d9 5b bd
       -0.011577729 -0.035176005 -0.075114526 -0.0536738
0000b0 ea ca 6d 3d 7f e5 5d bd 99 25 30 bc 41 f2 d1 bc
       0.058054842 -0.054173943 -0.0107511515 -0.025628211
0000c0 57 2a b8 bd 91 0d b7 bd a9 3f cd 3b 77 ff 81 bd
       -0.08992451 -0.089381345 0.0062636924 -0.06347554
0000d0 5c 74 a6 bd 1c 67 04 bd 01 50 87 bd fd bd d7 3c
       -0.081276625 -0.032324895 -0.066070564 0.02633571
0000e0 85 0e 41 bd f0 d7 e2 3b de be 54 bd c5 98 2f bd
       -0.047132988 0.0069227144 -0.051939838 -0.0428703
0000f0 16 ec 3b bc 4b 86 b4 bd 2d 67 01 bd 58 da 54 3c
       -0.0114698615 -0.08814677 -0.031592537 0.01299151
000100 ea 3c 6e bc e7 e3 88 3d 59 4e 9b bd c2 4f 33 bd
       -0.01454089 0.06684094 -0.07583303 -0.043777235
000110 64 df b3 bc 0d 9d 13 bd 2c 87 c7 bb 7f e9 d5 bc
       -0.021957107 -0.036038447 -0.006089112 -0.026112316
000120 7c 0d ac 3c 61 1f 56 bd c9 ef 53 bc aa b2 62 bb
       0.021002524 -0.05227602 -0.012935587 -0.0034591355
000130 a3 b0 95 bc fc 0b 46 3d b0 0b 2e bd 8d 21 af bd
       -0.018272704 0.048351273 -0.042491615 -0.08551321
000140 fe c8 18 bc df 35 92 bd 9a 6e d9 bc a2 45 6d bd
       -0.009325264 -0.07139181 -0.026541997 -0.057927735
000150 a8 cb 6d bd 28 9a 7f bc 85 cb 90 bc e5 40 5e 3d
       -0.05805555 -0.015600719 -0.01767517 0.054261107
000160 ca 65 6d bd 90 f8 68 bd e0 ad 0b 3b ad d7 21 bb
       -0.0579584 -0.056877673 0.0021313354 -0.0024695203
000170 38 9b 07 3c 03 3f ac bd 20 32 4d bd 43 c6 52 3d
       0.008276753 -0.08410456 -0.05009663 0.05145861
000180 b7 98 ac b8 00 4e 9e bd 2f 27 95 bd 0f 45 8b 3c
       -8.2300445e-05 -0.07729721 -0.07282864 0.017000703
000190 fd e3 81 bc f2 40 56 bd a1 bf 64 bd b0 6e 58 bd
       -0.015855784 -0.05230803 -0.055846814 -0.052839935
0001a0 88 52 7f bd fc 67 25 3c e8 0b b6 bc 71 7d b1 bd
       -0.062334567 0.010095593 -0.022222474 -0.08666504
0001b0 20 55 1c bc 62 98 f8 bc 51 87 8f bd e8 3b cf bb
       -0.00954178 -0.0303461 -0.070082314 -0.00632428
0001c0 09 d5 80 3b 94 26 94 3c a7 56 aa 3d c3 3e 5e bd
       0.003931646 0.018084802 0.08317309 -0.054259073
0001d0 3b 80 a3 bd 24 d6 b9 bc 4b cc 91 bd 91 02 1d bd
       -0.079834424 -0.022685118 -0.07119044 -0.038332526
0001e0 78 8a 0c bd 92 4d de 3c 24 6a 4c 3d 81 65 af bd
       -0.03431174 0.027136598 0.04990591 -0.08564282
0001f0 7d b9 1e bd 1a a7 34 bd 76 0e ca 3c e8 33 2c bd
       -0.038751114 -0.044104673 0.024665099 -0.04204169
000200 37 89 6c bb fe a4 3e bd 00 f9 94 3c 53 37 93 bc
       -0.0036092529 -0.046544068 0.018185139 -0.017970717
000210 65 45 17 bb 20 1a 4d bd d1 b8 ae bd e7 f2 4a bd
       -0.0023082134 -0.050073743 -0.08531345 -0.049548056
000220 c9 c6 12 bd 1f 3c 3e 3d 97 db 82 bd 7c 48 8f 3d
       -0.035834108 0.046444055 -0.0638954 0.06996247
000230 80 7a 13 bd 63 dc 59 bd 7f db 46 3c 2e e9 46 bc
       -0.036005497 -0.053188693 0.012137293 -0.012140555
000240 7a 7f 73 bc d8 af 9a bc 85 87 61 bd eb a4 3a bc
       -0.014861936 -0.018882677 -0.055060882 -0.011391859
000250 b0 f2 91 3c 3d a5 46 bb 3f 73 58 3d 89 0d 2c bd
       0.017815918 -0.0030310892 0.052844282 -0.042005096
000260 68 6f d1 bd fc 37 04 bd f9 2f 0a 3c 7f a7 ef bb
       -0.10226327 -0.032279953 0.008434289 -0.0073136683
000270 17 d8 36 bd 74 cc ae bd f3 24 94 3c e1 c1 ab 3b
       -0.044639673 -0.0853509 0.018084025 0.005241618
000280 58 25 a7 bc cb 96 fc 3c 5f b3 a3 3c 18 0b 89 3b
       -0.02040355 0.030833622 0.019982992 0.0041822307
000290 31 08 33 3b 5c 90 3c bc e4 67 02 bd 8f 2f 0e bd
       0.0027318115 -0.011509027 -0.03183736 -0.034713324
0002a0 46 f1 78 bd 33 50 09 bd 23 d0 c8 bc 21 62 ca 3b
       -0.06077697 -0.03352375 -0.02451331 0.0061762487
0002b0 cc d9 28 3c 6b 5f 65 bd 2a bc 10 bd f8 23 04 bd
       0.010305833 -0.0559992 -0.035335697 -0.032260865
0002c0 81 2b 50 bc 20 b0 c4 3a 49 a9 b4 bc 1e e5 83 3a
       -0.012705685 0.0015006103 -0.022053378 0.0010062789
0002d0 e6 eb 25 3a 6d 11 a7 bd 7c d3 a4 bc 49 78 af bc
       0.0006329402 -0.081576206 -0.020120375 -0.021419661
0002e0 ad 5f 94 bd 1f 95 18 3b b6 93 ab bc 6e 71 08 bc
       -0.07244811 0.0023282242 -0.020944458 -0.008327825
0002f0 a5 41 9f 3c 06 5b 6d bb 97 b3 5f bd 48 98 2d bd
       0.019440481 -0.0036217584 -0.05461463 -0.042381555
000300 ed 0b b1 bd 78 3e bf bc 19 dc 0a bd 2e 53 71 b9
       -0.08644853 -0.023345217 -0.033901308 -0.00023014538
000310 4b 65 82 3b c3 17 8f bc 3b 25 7c bd d0 f9 70 3d
       0.00397936 -0.017467385 -0.061558943 0.05883199
000320 8b 38 46 bd 85 5d 05 bd 80 eb 83 bc c5 d0 02 bd
       -0.048393767 -0.03255989 -0.016103506 -0.03193738
000330 c0 62 39 bc 3c 58 b5 3c f8 bd ea 3c 8e 73 35 bd
       -0.011315048 0.0221368 0.028655037 -0.044299655
000340 b4 05 6e bd 0f ce ce bb fb e5 c5 3c 86 40 8c 3b
       -0.058110908 -0.006311185 0.024157515 0.0042801527
000350 f7 ce 7e 3c 05 11 3d bd 8c f0 ec bb cf c1 f9 3b
       0.015552274 -0.04615881 -0.007230824 0.0076219807
000360 80 b9 66 bc 33 7c 29 bb 87 bd 53 bd 37 51 a1 bd
       -0.014082313 -0.0025861382 -0.05169442 -0.078768186
000370 ee b3 41 bd 73 f8 56 3d cc 7c 15 bc 6d 3e a0 bd
       -0.047290735 0.052483033 -0.009123992 -0.07824407
000380 2c eb 02 bd a0 3f 19 bd a1 78 5b bd 07 1d 3b 3d
       -0.03196256 -0.037414193 -0.053581838 0.04568198
000390 a9 42 0f bd b9 73 3a 3d a3 05 b4 3c 15 e9 b7 bc
       -0.03497568 0.045520518 0.021975344 -0.02245001
0003a0 86 5c be 3c ae ff 84 3b 33 25 88 3d 15 11 b1 bd
       0.023237478 0.0040587997 0.0664772 -0.08645836
0003b0 16 dc 18 3d 9c 3c 2a bd 10 49 43 bd c8 1f 86 bd
       0.037319265 -0.041561708 -0.0476771 -0.065490305
0003c0 5f 7e 20 bd 97 aa e3 3b ec 63 b7 ba 18 d5 03 3c
       -0.039183017 0.006947826 -0.0013991571 0.008046411
0003d0 30 5a 94 bc 47 cb 80 3a 81 58 24 3d d0 b1 89 bb
       -0.018109411 0.0009826206 0.040123466 -0.004202105
0003e0 ca 67 cf 3b cd 31 5b bc 67 0c 14 3c a6 5b 17 bd
       0.0063295113 -0.013378573 0.00903616 -0.036952637
0003f0 9a e8 0d bd 31 95 ab ba 45 8f 00 bc 08 62 ac 3c
       -0.034645654 -0.0013090727 -0.007846658 0.021042839

layer2.0.weight f4 [84, 256]
000000 a5 79 64 3c a7 13 3c 3b d2 78 01 3d dc 5c 66 bd
       0.013945018 0.0028698237 0.031609364 -0.0562409
000010 38 61 d1 3d fe 4c dc bd 08 78 53 bd 71 06 b6 3c
       0.10223621 -0.107568726 -0.051628143 0.022219868
000020 e1 19 83 bd b3 1b 70 3d 30 8d fd 3c dc eb 9c 3d
       -0.064014204 0.058620166 0.030951113 0.07662174
000030 4e ad cb bc df 92 02 3c 93 4e c8 bd dd d5 24 bd
       -0.024862912 0.007969587 -0.09780612 -0.04024302
000040 50 d6 76 bd 39 df 7b bd 85 5a d6 bd 1a 08 33 bd
       -0.060262978 -0.06149218 -0.10466484 -0.043708898
000050 34 db 94 3c 20 82 aa ba e9 97 c7 bd 30 4d 13 bd
       0.01817093 -0.0013008751 -0.097457714 -0.035962284
000060 ba 9f 2f bd fe 12 5b bc bd bb 46 bd 10 d6 76 bd
       -0.042876936 -0.013371227 -0.048518885 -0.06026274
000070 61 de 9c 3d 99 9d 18 bb 57 40 24 3d 2f 13 bc bd
       0.07659603 -0.0023287295 0.04010042 -0.091833465
000080 7b 62 62 3a a1 a9 46 bd 00 68 b4 38 bd 1c 47 bd
       0.00086358906 -0.048501614 8.60244e-05 -0.04861139
000090 14 ca 8b bc 9e ae 3a 3d f1 00 97 3c f8 80 69 3b
       -0.017064132 0.045576684 0.018433066 0.003562985
0000a0 80 40 41 3b 2f 10 43 3c 10 36 e6 3c 3b 68 bc 3a
       0.0029487908 0.011905714 0.02810195 0.0014374325
0000b0 03 3b 68 bd a2 cf 0d bb ec 91 82 ba 7e 31 8a bd
       -0.056696903 -0.0021638651 -0.0009961701 -0.06747721
0000c0 77 49 a7 3d 1a 91 d4 bd 65 7d 81 3b c2 68 c8 bd
       0.08168309 -0.103792384 0.003951716 -0.09785606
0000d0 f0 58 b5 3d 8c 3d 27 3d 64 9e 7d 3b c1 af 83 3c
       0.08854854 0.04083018 0.0038699144 0.016075017
0000e0 e2 b0 3a 3b 68 28 50 bd 9d 18 3e bb 98 c9 54 bc
       0.0028486778 -0.050819784 -0.002900637 -0.012987517
0000f0 c5 7a 6e bd a3 2a 7e 3b de 63 d2 bd b2 61 22 3d
       -0.05822255 0.0038782738 -0.102729544 0.03964395
000100 f7 80 66 bd 81 b2 e8 bc b5 7b 98 bd a4 a7 93 3b
       -0.056275334 -0.02840543 -0.0744547 0.0045060683
000110 60 db 74 bb 1c 8f 3f bd 87 c3 d1 bd b2 dd 40 bd
       -0.0037362203 -0.04676734 -0.10242372 -0.047086425
000120 98 00 54 3d 1a 10 d6 bd e4 f5 85 bd 71 f5 ef bb
       0.05175838 -0.1045229 -0.065410405 -0.00732296
000130 68 67 60 bd 10 e1 ce 3b 62 73 7a bd 4b 2e 7a b7
       -0.054786116 0.0063134506 -0.061145194 -1.491194e-05
000140 a1 5f 71 3b 91 38 b7 bd c5 a4 bf 3d 72 a9 03 3d
       0.003683068 -0.08946336 0.09357599 0.032144018
000150 1f 9a 3c 3c cf 27 43 bc f3 1f 00 bd 1e 55 95 bd
       0.011511355 -0.011911347 -0.03128047 -0.072916254
000160 3c a8 42 3d de 37 5d bd fc 76 01 bd 9a b1 87 bd
       0.047523722 -0.054008357 -0.031607613 -0.06625672
000170 aa 87 01 3d cc a5 76 bd 06 f9 89 bd 07 c1 c8 ba
       0.03162352 -0.06021671 -0.067369506 -0.0015316316
000180 13 41 99 bd d1 25 14 bd 43 74 57 bd 19 83 1e bd
       -0.07483115 -0.036168877 -0.05260111 -0.038699243
000190 4a a2 46 bd 04 f4 8d bc 37 95 23 bd 31 66 af 3d
       -0.048494615 -0.01732827 -0.039937224 0.08564413
0001a0 24 1d 39 3a fe 4c 8e bd c0 1e e0 bb fd 26 d6 3b
       0.0007061532 -0.06948279 -0.006839603 0.0065354095
0001b0 47 87 5b bd 48 1d 9b bd 89 ee 9c 3d 0a ed 0f bd
       -0.053595807 -0.07573944 0.076626845 -0.035138167
0001c0 65 11 d7 3d 98 1a 0b bd 13 79 40 bd 3b fd 4a bd
       0.105013646 -0.03396091 -0.046990465 -0.049557906
0001d0 b2 00 36 3d 54 97 80 bd e1 ee e8 bc 68 6d d7 bb
       0.044434257 -0.062788635 -0.028434219 -0.0065743215
0001e0 47 73 16 3c 7c e5 97 bc b5 39 91 3a 9b a2 59 3c
       0.009182758 -0.018542044 0.001107982 0.013283397
0001f0 6b b8 ed 3b ba dd 56 bd 9f ae 0e 3d bd 17 8b bb
       0.0072546504 -0.05245755 0.0348345 -0.004244773
000200 0f 9b ae bd d6 d8 7b 3d 2a 8f f4 bc 48 4f f6 3c
       -0.08525669 0.061486088 -0.029853422 0.030067101
000210 9e 5a cd ba 64 d8 b4 3d 94 28 00 3d 8f 1e ed bb
       -0.0015667265 0.08830336 0.0312887 -0.007236309
000220 5a 45 c4 3c bf 66 ad bd 98 6c cb 3d ac c6 3f 3d
       0.02395885 -0.08466863 0.09932822 0.046820328
000230 c1 5f d2 bd 36 6a 11 3d 1e 47 9d bd 5a cf c5 bb
       -0.1027217 0.03550168 -0.0767958 -0.006036681
000240 99 a5 36 3c 58 f8 ce bc 0a fb af bd 9d 86 87 3d
       0.01114788 -0.025264904 -0.08592804 0.06617472
000250 ea de 12 bc ad ed 57 3c 7a ca 7e bd 66 75 8f bd
       -0.00896428 0.013179225 -0.062204815 -0.07004814
000260 70 58 49 3c c3 45 83 bd de 94 04 3c a9 1e fb 3b
       0.012289152 -0.0640979 0.008092133 0.007663567
000270 83 23 c3 bc fc 09 da bd 6a a3 e1 bd 24 44 66 bd
       -0.023820644 -0.106464356 -0.11017497 -0.056217328
000280 65 09 8e bd c0 49 af bd f0 60 85 bc 0b 6b b0 bc
       -0.069353856 -0.085589886 -0.016281575 -0.021535417
000290 8b aa d0 3d d0 f4 e1 bc dd 95 e0 bc 62 64 18 bd
       0.101887785 -0.027582556 -0.02741521 -0.037205108
0002a0 ce 08 d9 bd 99 1c 5a bd 29 6a 01 bd 02 d9 7f bd
       -0.105973825 -0.05324993 -0.031595383 -0.062462814
0002b0 a1 95 a2 bd b6 fa b8 3d e8 fc 03 bd 70 c9 57 3c
       -0.07938696 0.09032194 -0.032223612 0.013170585
0002c0 76 3c 65 bd ae a6 77 bd 44 af 5e 3c ef ac 0c 3c
       -0.055965863 -0.060461693 0.013591591 0.008586152
0002d0 a5 1c 18 3d f5 2b e1 bd ca af 35 bd d0 be 84 bc
       0.037136693 -0.10994712 -0.0443571 -0.016204268
0002e0 8d 63 c9 bc 48 44 26 bc 63 0d e0 3d d3 e1 cb bd
       -0.024583602 -0.010148115 0.10940053 -0.09955182
0002f0 c5 69 62 bb b0 a7 18 bc fc 48 3c 3d e6 1d 4f 3d
       -0.0034547907 -0.009317324 0.04596804 0.050565623
000300 16 b7 81 bd 34 3e a0 bd c9 d8 81 bc 41 70 e9 bb
       -0.06333749 -0.07824364 -0.015850442 -0.0071239774
000310 e8 fc 8f bc 67 cc db bd 0f 35 30 3c 31 19 1c bd
       -0.01757665 -0.10732346 0.010754838 -0.038109962
000320 cc f5 df bb 64 21 b4 bc 28 7b 03 bd d4 fd b1 3c
       -0.006834721 -0.021988578 -0.032099873 0.02172748
000330 34 52 2e bd fe 0b 6c bd 69 8a e4 bc 60 a4 60 bd
       -0.042558864 -0.057628624 -0.02789803 -0.05484426
000340 5b 5f 4e 3d 2e 0d 2e 3a 4d 39 69 bc d2 5d 74 bd
       0.050383907 0.0006639537 -0.014234853 -0.059659787
000350 32 b5 c6 3b f3 b2 9f 3d b2 a2 24 bd 3c 0c 9e bd
       0.0060640806 0.07797804 -0.04019422 -0.07717177
000360 4b e5 c8 3c 35 3d 3a bc 20 0b 1c 3c 99 7a 4d 3a
       0.024523398 -0.011367132 0.009524137 0.0007838398
000370 d4 54 79 bd e6 64 2d 3d f8 77 e8 3c 46 38 d7 3d
       -0.060871914 0.042332552 0.028377518 0.1050878
000380 08 d0 3c bd cd 56 e2 bb 48 7d 89 bc c2 f8 d0 bd
       -0.04609683 -0.00690732 -0.016783372 -0.10203697
000390 c5 a0 4d bd 70 fc 56 bd dd 75 ce bd ba b2 d3 bd
       -0.05020215 -0.052486837 -0.100810744 -0.10336824
0003a0 4c ec a6 bc a0 53 37 bd 42 54 2f 3c 03 ba d2 bc
       -0.020376347 -0.044757485 0.010701241 -0.025723463
0003b0 80 48 70 bc 23 3e 51 3d f5 ff 35 bd 60 09 fe 3b
       -0.014665723 0.05108465 -0.044433553 0.0077525824
0003c0 1e c8 d6 bd 77 a0 03 bd 2f c4 42 bd 56 e3 c7 bd
       -0.10487388 -0.032135453 -0.047550377 -0.09760158
0003d0 ef d6 c2 bd 18 7c a8 bd 87 14 53 bd e8 ea 68 bd
       -0.095136516 -0.08226794 -0.05153325 -0.05686465
0003e0 0b fc a1 bc d8 f7 36 bc eb d3 be 3b 93 64 d9 bd
       -0.019773504 -0.011167489 0.0058236024 -0.10614886
0003f0 64 92 ac bd 96 9a a0 bc b6 9f 7c bd f2 2f 2c bd
       -0.08426359 -0.019604962 -0.06167575 -0.04203791

layer2.0.bias f4 [84]
000000 ba eb 7b bd ce 87 23 bd ee b6 94 bd e4 c2 a3 bb
       -0.061504103 -0.039924435 -0.072614536 -0.004997598
000010 93 b9 0d bd 93 ae 48 3d b1 18 98 bd 82 23 88 bc
       -0.034600805 0.048994612 -0.074265845 -0.016618494
000020 14 6c dd bd 44 7d 4f 3d 18 1c 82 bb 49 cf a3 bc
       -0.1081163 0.050656572 -0.003970634 -0.019996302
000030 b6 16 b4 ba de 63 06 bd a6 f6 cd bd 0a 70 5d bd
       -0.0013739679 -0.032810085 -0.1005681 -0.054061927
000040 6f dc d5 bd f3 c3 11 bd 3f fc 0b bd fa 38 8f bd
       -0.10442435 -0.035587262 -0.034176107 -0.06993289
000050 4d ac 98 bd 2e 3c 6c 3c 4c b5 00 3d 79 57 80 3d
       -0.07454739 0.014418645 0.0314229 0.06266684
000060 40 92 c2 bc 35 73 1f 3d 82 1e 98 bd da fb 96 3b
       -0.023751378 0.03892823 -0.07427694 0.0046076598
000070 8e 2b 7f 3c a0 ac b5 bc 72 35 8a bc a6 29 f2 3c
       0.015574349 -0.02217704 -0.016871188 0.029560875
000080 a7 f3 96 3c 49 95 a2 bd fd 34 1a bd 9b d5 a4 bd
       0.01842673 -0.0793863 -0.03764819 -0.080485545
000090 d5 36 2c bd 60 71 ed bb 7e 88 41 bd 4a a5 75 3c
       -0.04204448 -0.0072461814 -0.04724931 0.014993021
0000a0 2c d2 ae bc 47 92 23 3d 41 38 2d bd 74 e8 94 bd
       -0.021340452 0.039934423 -0.042289976 -0.072708994
0000b0 88 49 ad bd 0f 94 2c 3b dc 30 71 bc 31 0f 13 3c
       -0.084612906 0.0026333367 -0.014721122 0.00897579
0000c0 6b 78 33 3d 8a 01 b6 bd 75 f6 e3 3c d1 b2 3c bd
       0.04381601 -0.08887012 0.02782748 -0.04606897
0000d0 44 e6 2d bc 44 d2 a2 bd 41 cf a4 bd f6 68 f6 3c
       -0.010613982 -0.07950261 -0.08047343 0.030079346
0000e0 ee 61 17 bd ef 83 56 bd be 7f 8f bd e8 cf da bc
       -0.036958627 -0.052371915 -0.07006787 -0.026710466
0000f0 f6 4c 0a 3a 6d 41 14 3a 7e 63 94 b9 55 10 80 bd
       0.00052757503 0.0005655501 -0.00028302887 -0.06253115
000100 2c b9 b9 3c 94 17 ad 3c 53 c1 68 3b 92 ae 2b 3d
       0.022671305 0.021129407 0.003551562 0.04191453
000110 18 82 8f 3c 8d 8a d4 3c 66 14 03 3d 9e 18 d3 3b
       0.017518088 0.025944972 0.032001875 0.0064421436
000120 00 08 b4 bc 0b 95 9e bd a0 a8 bf bd db 04 d4 bc
       -0.021976471 -0.077432714 -0.093583345 -0.025881222
000130 27 88 04 3d 58 96 b2 bd 20 f7 94 bd e0 c8 0d 3d
       0.032356407 -0.08720082 -0.07273698 0.034615397
000140 72 cb 75 3d bb 6b d4 bd a7 3a 52 bc 29 91 90 bc
       0.060008474 -0.103721105 -0.012831367 -0.017647343

layer3.0.weight f4 [6, 84]
000000 da 52 ba bc db 94 57 bd 17 fd 8f bd 5b f0 9e 3d
       -0.022744585 -0.052632194 -0.07030695 0.07760688
000010 d1 40 18 be 94 53 a7 bc 53 08 98 3d 2e b4 9d bc
       -0.14868475 -0.020425595 0.07423463 -0.019250955
000020 ea a5 8c 3b 91 e1 c3 3d 36 1a 81 bc 7a 9d a2 3d
       0.0042922394 0.09564508 -0.015759569 0.079401925
000030 41 c1 29 bd 1e b8 6a bd 1e 63 da 3d 0b 84 07 3e
       -0.041444067 -0.057304494 0.10663436 0.13233964
000040 0e b3 07 3d 25 67 61 3d 8a db d1 bd 81 cd ca bc
       0.033129744 0.055030007 -0.10246952 -0.024756195
000050 19 21 06 bd 1d 8e 1c bd 9f 3a 17 bd 93 e9 5c bb
       -0.032746408 -0.038221467 -0.03692114 -0.0033708557
000060 78 50 a6 3d 2d 70 c2 ba 31 49 10 bd 6b 70 85 bd
       0.08120817 -0.0014834456 -0.03522605 -0.06515583
000070 59 5b 80 3d 53 1c 86 bd 67 45 0d be bf db fd bd
       0.06267423 -0.06548371 -0.13796006 -0.12395429
000080 dc 5d cf bc 59 48 25 3d b7 40 eb bd d4 b2 3e 3d
       -0.02531331 0.0403522 -0.11486953 0.046557263
000090 3d cd c4 3c 7f a5 b3 3d dc 4f ae bd da 41 41 bd
       0.024023646 0.087718 -0.08511326 -0.04718194
0000a0 d6 2d cb 3d c3 6e 23 bd ac 08 cd bc 40 c4 34 3d
       0.09920852 -0.039900552 -0.02502855 0.04413247
0000b0 81 9a 0a bd f6 58 47 3d 12 f3 36 3d 51 69 01 be
       -0.033838753 0.048668824 0.044665404 -0.12637831
0000c0 e8 28 f7 3d 8e 1b 0c bd 5c 1c df bd e2 1a 9a 3b
       0.12068349 -0.034205966 -0.10894081 0.0047029117
0000d0 58 2b 57 3d 0a 86 08 3d d4 67 4c 3d 92 f1 2f 3d
       0.05253157 0.033330955 0.049903706 0.04295499
0000e0 6a f4 24 3d e7 b8 13 be 3e 75 01 3e 21 3b 7e bd
       0.040272154 -0.14426003 0.1264238 -0.06206811
0000f0 39 d7 d6 bd 2e d8 04 bb 21 87 06 3e 76 00 a7 bc
       -0.10490269 -0.0020270455 0.13137485 -0.020385962
000100 5f 50 bb 3d de 25 cc 3c 46 3a 4c bd d2 9d a4 3d
       0.09146189 0.0249204 -0.04986026 0.08037914
000110 50 c1 4a bd de df cd 3d 29 90 05 3b 54 9d de 3c
       -0.049500763 0.10052465 0.0020380116 0.02717463
000120 71 2b c9 3d f6 70 b8 3b 1f 06 47 bd 2e 18 28 bd
       0.09822739 0.0056287004 -0.048589822 -0.041038685
000130 b5 c8 1b bd 70 1f 17 bd 06 9c b9 3d 56 5e 31 3d
       -0.038033206 -0.036895216 0.09062962 0.043302856
000140 c7 0e 77 bd 57 c7 0a bd a8 10 92 bc b8 91 97 3d
       -0.060316827 -0.03388151 -0.017830208 0.074008405
000150 a8 0f e5 bb 1c 4a 81 3d 6c 37 ad 3b 4f 61 92 3d
       -0.0069903918 0.06312963 0.005286148 0.071474664
000160 51 c2 0a 3d bb dd 0f bd 8e 22 ff 3b dc 4e 0e be
       0.03387672 -0.035123568 0.0077861017 -0.1389727
000170 b5 ac 1e 3d be cf 13 bd d0 78 85 bd 71 49 85 bc
       0.038738925 -0.03608679 -0.06517184 -0.016270371
000180 8a ef 12 bd ff 22 53 3d ec 26 f5 3c ae 21 f5 3c
       -0.035872974 0.051547047 0.029925786 0.029923286
000190 20 9a e7 bd 34 b6 36 bd c7 1f 8e bd c4 a7 7b bd
       -0.11308694 -0.044607356 -0.06939655 -0.06143929
0001a0 a9 54 a0 bd e0 00 6e bd ba 3f 29 3d c4 9d 4d bd
       -0.07828648 -0.058106303 0.04132054 -0.050199285
0001b0 03 91 83 bd 4c ab 86 3d 36 a5 4d 3d cb 3b 93 bc
       -0.06424143 0.06575641 0.050206386 -0.017972847
0001c0 00 a9 d2 bc fe bf d1 3b 8e 36 21 bd e0 9c 79 bd
       -0.025715351 0.006401061 -0.039358668 -0.060940623
0001d0 f9 e2 9f bd 16 e8 79 bd a9 2a a9 bd a9 0e 09 3e
       -0.078069635 -0.06101235 -0.0826009 0.13384499
0001e0 97 ec 4a 3d 11 66 45 bd 0d 2f a4 bc c7 61 d0 bd
       0.049542036 -0.04819304 -0.020041967 -0.101748995
0001f0 c4 9e 7a 3d a1 0e 73 bd d3 00 08 bd b7 4a 57 bd
       0.061186567 -0.059340123 -0.03320391 -0.052561488
000200 82 33 02 be 57 ad 51 bd 46 36 0b be eb 21 4f 3a
       -0.12714961 -0.0511907 -0.13594922 0.00079014775
000210 de 7f 82 3d f5 66 8c bd 4d 82 95 bb 7d 27 27 bd
       0.06372045 -0.06855575 -0.004562652 -0.040809143
000220 22 cc 4a bd ea b9 ed bd bc 12 7b 3d 00 6e 31 3d
       -0.049511082 -0.11607726 0.061297163 0.043317795
000230 40 08 5c 3d 23 ae 5f bd 77 24 c5 3d 2b 31 50 bd
       0.053718805 -0.05460943 0.09626096 -0.05082814
000240 96 e0 6b bd 72 1d 93 3c c6 80 3c 3d 82 2d 8c bb
       -0.05758723 0.017958377 0.046021245 -0.004277886
000250 37 fd b3 3b 2f 4b 44 3d 54 d2 34 3d cd 9a 57 bd
       0.005492832 0.047923263 0.044145897 -0.052637864
000260 8d a5 69 3c 0e 05 93 3d 43 91 42 3d 8b 95 23 3d
       0.014260662 0.071786985 0.047501814 0.039937537
000270 fa 1d a8 bd 5e d1 76 3c 04 15 f3 3d 84 26 1c bd
       -0.082088426 0.015064565 0.11869243 -0.03812267
000280 f2 53 b5 bd 46 63 3d bd e2 fe 6d 3d d9 73 f4 3b
       -0.08853902 -0.046237253 0.058104403 0.007460099
000290 b4 89 b2 bd e1 5e a9 3d 79 23 71 3d f9 40 41 b9
       -0.08717671 0.0827005 0.05887172 -0.00018430119
0002a0 bb b6 d4 bd 0c 38 07 bd 0c d7 5f bd f8 ad 1a 3d
       -0.103864156 -0.033012435 -0.054648444 0.037763566
0002b0 ae 03 dd 3d a8 cd 56 3d fe 8e 70 bd f1 32 6a bc
       0.107917175 0.052442223 -0.058730118 -0.014294372
0002c0 b8 8e a9 3d 07 3c 29 bd 5b a8 60 bc 13 35 4f bc
       0.082791746 -0.041317012 -0.013712014 -0.012646931
0002d0 d5 b6 00 bd e8 cd 63 bc 29 a8 56 3d 0b e4 88 3d
       -0.031424362 -0.013904072 0.052406464 0.06684121
0002e0 c8 3c c9 3c 8b 12 cf bc 40 17 b4 bd 20 b0 9d 3d
       0.024565116 -0.025277397 -0.08793497 0.07699609
0002f0 79 5b 63 bd 66 8b c9 bd c7 a7 c8 bd 09 a8 76 3c
       -0.055507157 -0.09841041 -0.09797626 0.015054711
000300 42 09 04 3d 5d 2f 65 3c 04 85 1c 3d 1d ed 57 3d
       0.03223539 0.013988343 0.03821279 0.052716363
000310 af 45 c2 bd de ca d5 3c 16 f7 00 3d a8 4d 57 bc
       -0.09485947 0.026097711 0.03148564 -0.013141073
000320 c8 d5 c1 bd c3 f4 10 be 23 9b f4 bc 6b 52 9a 3b
       -0.09464604 -0.14155869 -0.029859131 0.004709532
000330 7a 37 a0 bd 68 77 00 3c e7 3f af 3d 18 9a ff bc
       -0.07823081 0.007840969 0.0855711 -0.031201407
000340 39 f8 dc 3d bb 90 ed bb 5e ef 03 3d 81 7f d0 bc
       0.10789532 -0.007249919 0.0322107 -0.025451424
000350 5c 56 6e bd c7 2e 1e bd 6b a2 67 3d 01 d3 f5 3d
       -0.058187827 -0.03861883 0.05655138 0.120031364
000360 3f 3a 36 bd f2 93 c8 3c d4 2c 00 be 0d c6 84 bb
       -0.04448914 0.024484608 -0.125171 -0.00405193
000370 e9 a5 82 3c 71 b8 17 bc c6 68 ed bd e0 6d b2 3d
       0.015948253 -0.009260283 -0.115922496 0.08712363
000380 01 b7 f5 bd e7 a8 9d ba 38 a4 78 3d ea a3 8c 3d
       -0.11997796 -0.0012028486 0.060703486 0.068672016
000390 80 69 ea 3c 0a 15 e0 3d 38 d1 3c 3c 2f 54 45 bd
       0.02861476 0.10941513 0.011524491 -0.048175987
0003a0 81 fb 9e bd 38 dc a8 bc cd 3f 76 3d 95 ee 32 3c
       -0.07762814 -0.020612821 0.06011944 0.01092114
0003b0 78 06 1b be d9 86 ab 3d 21 78 fa 3d 5f 60 d1 bd
       -0.15139186 0.083753295 0.12229944 -0.102234595
0003c0 0e 0a 2d 38 ed ac d7 3d 4e e4 d5 3d 1e 1d f5 3d
       4.125578e-05 0.1053103 0.10443936 0.11968444
0003d0 38 f2 00 be f2 69 52 3b 6d 5b 5d bc d8 67 1a be
       -0.12592399 0.0032106605 -0.013510567 -0.15078676
0003e0 5b 37 9e bc 6d b4 12 bd 1a 24 ae 3c 7d 42 b2 3d
       -0.019313505 -0.0358166 0.021257449 0.08704088
0003f0 b9 32 c4 bd 7a f8 85 3d bf b2 17 bd 29 89 98 bd
       -0.09579987 0.06541534 -0.0370357 -0.07448036

layer3.0.bias f4 [6]
000000 b4 0a e0 3d f9 35 77 3d 3c e1 14 bd cc 15 16 bd
       0.109395415 0.060354207 -0.036347613 -0.03664188
000010 b9 a1 f9 3d ac 98 dc 3d
       0.12189049 0.10771307
