DigitalRecognition-master/model_params/GDUT_net_all_12.pt (torch, 665623 bytes, 6 tensors)

layer1.0.weight f4 [256, 560]
0	0x3cbbf904	0.022945888
1	0x3cc593e0	0.024118364
2	0xbd022e1e	-0.031782262
3	0xbc9eecc9	-0.019400017
4	0xbd07c7ba	-0.03314946
5	0xbd162d56	-0.03666433
6	0x3d0b8c16	0.034069143
7	0x3d25495e	0.04035317
8	0x3b189570	0.002328243
9	0xba868e80	-0.0010265857
10	0xbcdc948e	-0.026926305
11	0xbc861468	-0.016367152
12	0xbcf11d62	-0.029432956
13	0xbc659eb8	-0.014014892
14	0x3c00c574	0.0078595765
15	0x3b860a28	0.004090566
16	0x3ce008b8	0.027347907
17	0xbbd48cd8	-0.0064865164
18	0xbcbe86fb	-0.023257723
19	0xbc98a825	-0.018634865
20	0xbcecf8ea	-0.028927285
21	0x3bf5e578	0.0075041614
22	0xbc8b9d6d	-0.01704284
23	0xbc8c9307	-0.017159952
24	0x3c24590c	0.010030996
25	0xbd1941dc	-0.037416324
26	0xbd08b0d0	-0.033371747
27	0xbbf407b0	-0.0074472055
28	0xbd1bd228	-0.038042217
29	0x3bc010e2	0.0058613876
30	0xbd1a259a	-0.037633516
31	0x3cc3a9f1	0.023884745
32	0xbbf4359f	-0.007452681
33	0xbc8e0c2e	-0.017339792
34	0x3ce48aef	0.02789828
35	0x3c59f4ff	0.0133030405
36	0x3bce5590	0.006296821
37	0xba8a6b40	-0.0010560527
38	0xbc63f3ce	-0.013913108
39	0x3b7589d0	0.0037466176
40	0xbcabbae0	-0.020963132
41	0x3cf7f5b0	0.03026852
42	0x3bbf4188	0.0058366694
43	0xbce4b184	-0.027916677
44	0x3cb0aaa0	0.021565735
45	0x3d0ff2a0	0.035143495
46	0xbbfee216	-0.0077784164
47	0x3d077085	0.03306629
48	0xba01056f	-0.0004921769
49	0x3d0f7e98	0.03503284
50	0xbd193111	-0.03740031
51	0xbc5d0ab3	-0.01349132
52	0xbc604637	-0.0136886155
53	0xbc65689f	-0.014001994
54	0x3cec0608	0.02881147
55	0xbd1de738	-0.038550586
56	0x3c92f28e	0.017937925
57	0xbcf1030a	-0.029420394
58	0x3c1bfd90	0.009520903
59	0xbd147e4b	-0.036253255
60	0x3c80eeaa	0.015738804
61	0xbc455e88	-0.012046464
62	0x3c187890	0.009306088
63	0x3d22d070	0.039749563
64	0x3cdb463d	0.02676689
65	0xbb55d17a	-0.0032626078
66	0xbcc71da5	-0.024306128
67	0xbc11c136	-0.008896163
68	0x3ce70311	0.028199704
69	0xbcd765b4	-0.026293613
70	0x3ce4afcb	0.027915856
71	0x3c291ec3	0.010322276
72	0xbccc8af5	-0.024968604
73	0x3d1c839f	0.03821146
74	0xbc1dc496	-0.009629389
75	0x3cbfc648	0.023409978
76	0x3beae228	0.007168073
77	0xbd1daa59	-0.038492534
78	0x3d09500c	0.033523604
79	0x3ceceac4	0.028920539
80	0x3d1ab142	0.037766702
81	0xbd02d7ca	-0.031944074
82	0xbc8a5765	-0.016887376
83	0x3cd6a7c0	0.026203036
84	0x3c820df3	0.015875792
85	0xbba4decf	-0.0050314437
86	0x3c119626	0.008885896
87	0xbd037bc1	-0.032100443
88	0xbc89b3b5	-0.016809324
89	0xbd12c5d9	-0.035833213
90	0x3cb8b1cd	0.02254572
91	0x3c9b34d3	0.018946087
92	0x3cc06c1e	0.023489054
93	0x3d23faac	0.04003398
94	0x3d17e62e	0.03708475
95	0x3d0ef192	0.03489835
96	0xbc99e62f	-0.018786518
97	0xbcd5da48	-0.026105061
98	0x3c7b6430	0.015343711
99	0xbcccf156	-0.025017422
100	0x3cf76c84	0.030203111
101	0xbcce6d49	-0.025198596
102	0xbcbbf7e1	-0.022945346
103	0xbcf29fd2	-0.029617224
104	0xbc93ee05	-0.018057832
105	0xba11b2ef	-0.0005557974
106	0x3d2def7a	0.04246471
107	0xbcdf9857	-0.027294321
108	0x3cc488f2	0.023991082
109	0xbcd11bca	-0.025525946
110	0xbcef78fc	-0.029232495
111	0x3c9c7227	0.0190974
112	0x3b82d1c3	0.0039922907
113	0x3d1a1d98	0.03762588
114	0x3cc66588	0.024218336
115	0xbcb0544c	-0.02152457
116	0x3c1b50c5	0.009479706
117	0xbd10897c	-0.035287365
118	0x3c3d3ff4	0.011550892
119	0x3d13e6c6	0.036108755
120	0x3c6fa5c4	0.014626924
121	0x3c513ab4	0.012770344
122	0xbc576a9c	-0.013147976
123	0x3cfa5a78	0.030560717
124	0x3c8d1371	0.017221184
125	0x3d1ab1cc	0.037767217
126	0xbb856673	-0.004071051
127	0xbd0c111e	-0.03419601
128	0x3c39d102	0.011341335
129	0x3c95da05	0.018292436
130	0xbca1688b	-0.01970317
131	0x3d067560	0.03282678
132	0xbb27c598	-0.0025599953
133	0xbbbee9f7	-0.0058262306
134	0x3b007b85	0.0019604873
135	0x3c5dae8a	0.013530383
136	0x3d12d229	0.035844956
137	0x3c284088	0.010269292
138	0xbd01fed4	-0.031737164
139	0x3bdad7c0	0.0066785514
140	0x3cd6a4a4	0.026201554
141	0x3cba039c	0.0227068
142	0x3cffabcd	0.03120985
143	0x3ca1d1c2	0.01975334
144	0xbcd928bf	-0.026508687
145	0xbc8cffa5	-0.017211745
146	0x3d15dd45	0.036587972
147	0xbbadf15c	-0.0053083133
148	0xbaae9390	-0.0013319124
149	0x3ccc07b3	0.024906015
150	0xbd0a041e	-0.033695333
151	0x3c3adda7	0.011405385
152	0xbc0f8438	-0.008759551
153	0xbd09c4c9	-0.033634935
154	0xbc55dccd	-0.013053131
155	0xbd0421ab	-0.03225867
156	0xbb2670a7	-0.0025396736
157	0xbbc90f44	-0.006135853
158	0x3d04e5e0	0.03244579
159	0xbc788df8	-0.015170567
160	0xbd1f72a4	-0.03892769
161	0x3c74db78	0.014944904
162	0xbd0282bd	-0.031862963
163	0xbcb6d749	-0.022319453
164	0xbd132ebf	-0.035933252
165	0x3b9a3e65	0.004707145
166	0xb80c8f97	-3.351233e-05
167	0x3d13f42f	0.036121543
168	0xbbef4d49	-0.0073029143
169	0xbcc78329	-0.024354534
170	0xbb81009e	-0.003936841
171	0xbd1e01bd	-0.038575877
172	0xbca2efad	-0.019889677
173	0x3b6fbfa7	0.003658274
174	0x3b0cae0f	0.0021466052
175	0xb9d7d92f	-0.0004116981
176	0xbcf3de3a	-0.029769052
177	0xbcafa878	-0.021442637
178	0xbaa66af3	-0.0012696668
179	0x3ba477f8	0.005019184
180	0x398f3080	0.0002731122
181	0xbccc8499	-0.024965571
182	0x3c172984	0.009226207
183	0xbcaac0c5	-0.020843873
184	0xbb2777b0	-0.0025553517
185	0x3a1e48b9	0.0006038058
186	0x3d111e9a	0.035429575
187	0x3d0891e9	0.033342276
188	0x3c2141fb	0.009842391
189	0x3c80b60f	0.015711812
190	0xbc13e793	-0.00902738
191	0xbd1ae0b4	-0.03781195
192	0x3cc6ae1a	0.02425294
193	0xbbb90134	-0.0056458954
194	0xbbe4e67e	-0.0069854846
195	0xbc14cd0d	-0.009082091
196	0x3a08e619	0.00052222755
197	0x3c8ad1a9	0.016945677
198	0xbc9c4855	-0.01907746
199	0xbcf072f8	-0.029351696
200	0x3d213080	0.039352894
201	0xbad25920	-0.001604829
202	0x3b974e90	0.0046175197
203	0xbce8ac48	-0.028402463
204	0xbd2507f9	-0.040290806
205	0xbc73aa7a	-0.014872188
206	0xbd1a629b	-0.037691694
207	0x3c375d26	0.011191642
208	0x3d1d2e2c	0.03837411
209	0xbc50407c	-0.012710687
210	0xbcbae752	-0.02281538
211	0xbce65c22	-0.028120104
212	0x3c7996c4	0.015233699
213	0x3c98d507	0.018656267
214	0x3c209d23	0.009803089
215	0xbca20913	-0.019779718
216	0x3cbff477	0.023432
217	0x3cc6755d	0.024225885
218	0x3ccac93c	0.02475416
219	0x3b37f2aa	0.0028068223
220	0x3c9095fe	0.017649647
221	0x3cdaf4ec	0.026728116
222	0x3d09f10c	0.033677146
223	0x3c18f689	0.009336122
224	0x3c989c57	0.018629236
225	0x3c364548	0.011124916
226	0xbd1bf548	-0.038075715
227	0xbd20e61b	-0.039281946
228	0x3c1100d8	0.008850299
229	0xbc50fd3b	-0.012755687
230	0xbcdcd728	-0.026958063
231	0xbcd9725a	-0.026543785
232	0x3c093e8a	0.008376727
233	0x3cd715cd	0.026255513
234	0x3c9d337e	0.019189592
235	0xbbafa6f1	-0.005360477
236	0xbc4acc17	-0.01237776
237	0x3cf891e8	0.030343011
238	0x3d029b3a	0.031886317
239	0x3c81bdb9	0.015837537
240	0x3d0fe1f4	0.035127595
241	0xbd20ee90	-0.03929001
242	0x3c30bb24	0.010786805
243	0xbb39f02d	-0.0028371916
244	0xbce79db2	-0.028273437
245	0xbccc3a05	-0.02493001
246	0x3cd63b84	0.026151426
247	0x3ce6d2d5	0.028176704
248	0xbcdc4550	-0.02688852
249	0x3d221ced	0.039578367
250	0x3cdb4359	0.026765512
251	0xbc4b094f	-0.012392356
252	0x3c90a0d5	0.017654816
253	0xbd19d232	-0.037553973
254	0x3b017d01	0.0019758346
255	0xbcd50934	-0.026005365

layer1.0.bias f4 [256]
0	0xbd07f9ec	-0.03319733
1	0x3c19ad77	0.009379736
2	0x3be26c9e	0.006909921
3	0x3ca5cf4b	0.020240447
4	0xbc8a742a	-0.016901094
5	0x3c85f998	0.016354367
6	0x3c5eba0f	0.0135941645
7	0xbc4082c2	-0.011749925
8	0xbc97ce60	-0.018531024
9	0xbc220970	-0.009889945
10	0xbd1e76ae	-0.0386874
11	0x3d03621c	0.032075986
12	0xbbcb2163	-0.0061990484
13	0x3cdf8853	0.027286684
14	0xb9cde186	-0.00039268675
15	0x37c905a8	2.3963701e-05
16	0x3d16696a	0.036721624
17	0x3c5a6dc2	0.013331832
18	0xbc88ab26	-0.016683172
19	0x3b96de07	0.0046041044
20	0xbbaa8ce0	-0.005204782
21	0x3ceadef8	0.028670773
22	0xbc909829	-0.01765068
23	0xbcc978c3	-0.024593716
24	0xbcf17615	-0.029475251
25	0xbd1a9b60	-0.037745833
26	0x3cdc41cc	0.026886843
27	0x3d099f50	0.033599198
28	0xbd19894a	-0.037484445
29	0x3c70177e	0.0146540385
30	0xbc56bd13	-0.013106602
31	0x3cfcbdee	0.030852284
32	0x3d157d76	0.036496602
33	0x3cd74192	0.026276384
34	0xbced01be	-0.028931495
35	0x3cc2775f	0.023738561
36	0x3d05a106	0.032624267
37	0xbd19bf12	-0.037535734
38	0x3cd19c3a	0.02558719
39	0xbb9415ab	-0.0045191846
40	0xbd03eeb4	-0.032210067
41	0x3c67bdef	0.014144405
42	0xbbcd3337	-0.006262209
43	0x3d1577a6	0.03649106
44	0x3cdb8877	0.02679847
45	0xbca24448	-0.01980795
46	0xbd1031de	-0.035203807
47	0xbb812b01	-0.003941894
48	0xbd16e7d1	-0.03684217
49	0xbd0ac653	-0.033880543
50	0xbc581189	-0.013187774
51	0x3c738cbb	0.014865096
52	0xbcb6ca7b	-0.022313347
53	0x3d1d7111	0.038437907
54	0xbc25e9ec	-0.010126572
55	0xbd2038c2	-0.03911663
56	0xbca28484	-0.019838579
57	0x3cd315b7	0.02576719
58	0x3cc79867	0.024364663
59	0x3cdd1dfe	0.02699184
60	0xbc27d9a9	-0.010244765
61	0xbc354108	-0.011062868
62	0x3d1eaa93	0.03873689
63	0x3cd19a35	0.025586227
64	0x3c8f79ff	0.017514227
65	0x3d09f4ce	0.03368073
66	0xbb6d4d3b	-0.0036209363
67	0x3c9d2e56	0.019187134
68	0xbcb928f7	-0.022602541
69	0x3ce12128	0.02748163
70	0x3d02a074	0.0318913
71	0xbca96d5e	-0.020682033
72	0x3b8aff30	0.0042418465
73	0xbcd4580b	-0.025920888
74	0x3d06fef4	0.032957986
75	0x3d0452be	0.03230547
76	0xbd260568	-0.0405325
77	0xbd110c26	-0.035411976
78	0xbcaf942d	-0.02143296
79	0xbabb70b9	-0.0014300562
80	0x3c0ed6d6	0.008718213
81	0x3adf5b9c	0.0017040852
82	0x3a1231c8	0.0005576876
83	0x3c25d311	0.010121123
84	0x3cddf496	0.027094167
85	0x3d0d411e	0.03448593
86	0xbcc5b379	-0.02413343
87	0x3c852f44	0.01625789
88	0xbc893d5a	-0.016752888
89	0x3b475017	0.0030412728
90	0xbcfae8e8	-0.030628636
91	0xbc73cfd6	-0.014881095
92	0xbceeebbd	-0.029165143
93	0xbd0489ed	-0.0323581
94	0xbc917116	-0.017754119
95	0x3cf9c75d	0.030490572
96	0x3c151eff	0.009101628
97	0xbb84cbd6	-0.0040526194
98	0xbb2cbe74	-0.0026358636
99	0x3c834be3	0.016027397
100	0x3d2c301f	0.04203808
101	0xbd12ace1	-0.0358094
102	0x3d1c7011	0.038192812
103	0x3cd96817	0.026538892
104	0x3c969f8b	0.018386623
105	0x3aa78be9	0.0012782785
106	0x3c0be29c	0.008537915
107	0xbd25bd5d	-0.040463794
108	0xbd067e59	-0.03283534
109	0x3bf9b246	0.007620129
110	0xbcfa4d3c	-0.030554406
111	0xbc3b9b00	-0.011450529
112	0xbb19e402	-0.002348185
113	0x3c7a5ace	0.015280439
114	0xbc10d5c2	-0.008840026
115	0xbcd4bfe3	-0.025970405
116	0x3cf4d369	0.029885964
117	0x3c4339ed	0.011915666
118	0xbd12bdde	-0.035825603
119	0xbd03ac7a	-0.03214691
120	0x3cc363ab	0.023851236
121	0xbcb4eb67	-0.022084905
122	0x3ccb731f	0.024835167
123	0xbd0396c3	-0.0321262
124	0xbd0c5828	-0.03426376
125	0xbcd3af1e	-0.025840338
126	0x3ba20926	0.0049449382
127	0xbd0129dc	-0.03153406
128	0x3d1e4b27	0.03864589
129	0xbcd2e93e	-0.025745984
130	0xbca7279a	-0.020404626
131	0xbc6481ed	-0.013946992
132	0xbc9759bb	-0.018475404
133	0x3d039ae0	0.032130122
134	0x3c14f405	0.009091382
135	0x3cd2a572	0.025713656
136	0xbccd55c6	-0.025065314
137	0xbc0996cc	-0.008397769
138	0xbc19b408	-0.009381302
139	0x3d0d6c66	0.034527205
140	0x3c127f85	0.008941536
141	0xbcc4a10e	-0.024002578
142	0x3d078c84	0.03309299
143	0xbbd42cf1	-0.006475084
144	0x3bf53915	0.0074836113
145	0xbad1a4ad	-0.0015994512
146	0x3cc3b61c	0.023890547
147	0x3d0c2728	0.03421703
148	0xbd001adb	-0.03127561
149	0x3cf77773	0.030208325
150	0x38934d62	7.02392e-05
151	0x3c9c13af	0.019052355
152	0xbc77834a	-0.015106985
153	0x3d1b5d48	0.037930757
154	0x3b9bc1a3	0.004753308
155	0xbb8bfb90	-0.004271932
156	0xbcba7765	-0.02276201
157	0xbb612ef2	-0.0034360257
158	0x3ccfab50	0.025350243
159	0x3d26f0bb	0.040756922
160	0x3d2b59a7	0.041833546
161	0x3d1f1868	0.038841635
162	0x3d1d7fa3	0.038451802
163	0xbd24293e	-0.040078394
164	0xb6b9dd01	-5.539158e-06
165	0xbb2ad785	-0.00260684
166	0x3cad3a2f	0.021145908
167	0x3cabc23a	0.020966638
168	0x3d1f9550	0.038960755
169	0xbbe798ec	-0.0070677903
170	0x3cd019b5	0.025402883
171	0x38b59fd8	8.660526e-05
172	0xbb953b47	-0.0045541856
173	0x3cefefa5	0.029289076
174	0xbd2b22a8	-0.041781098
175	0xbcb9c0c3	-0.022674924
176	0x3bb204d2	0.0054327035
177	0xbcf15de4	-0.029463716
178	0xbd0d75c1	-0.034536127
179	0x3d232446	0.039829515
180	0x3d0fcb31	0.035105888
181	0x3cb377e3	0.021907752
182	0x3c7a76f6	0.015287152
183	0x3cfd765f	0.030940233
184	0x3d1202b8	0.035647124
185	0x3d04eb2d	0.032450844
186	0x3c75f446	0.015011853
187	0x3c028c50	0.007968023
188	0xb85e64b1	-5.30227e-05
189	0x3d269494	0.04066904
190	0x3ccf48b3	0.02530322
191	0xbcd4a0bc	-0.02595555
192	0x3cbef155	0.023308435
193	0xbb5f14e8	-0.003403956
194	0x3b1f3dec	0.0024298383
195	0xbd1a264b	-0.037634175
196	0x3c022d45	0.007945363
197	0x3c9bb7a1	0.01900846
198	0xbd2c9c17	-0.042141046
199	0x3d2be15c	0.041962966
200	0x3c0cb19d	0.008587268
201	0x3b5b6308	0.0033475775
202	0xbaef8ad9	-0.0018275633
203	0xbd1b21b3	-0.037873935
204	0xbd086ce9	-0.03330699
205	0x3c33a69b	0.010965015
206	0xbcf4aa45	-0.029866347
207	0xbd05e517	-0.03268918
208	0xbcac2e22	-0.021018092
209	0x3ce6d0c5	0.028175721
210	0x3d1c7340	0.03819585
211	0xbcd69ab9	-0.026196824
212	0x3c311775	0.010808815
213	0xbc936fb1	-0.017997595
214	0xbcc11cdd	-0.023573333
215	0x3cf9b898	0.030483529
216	0xbcb21f7a	-0.021743525
217	0x3ca296c6	0.019847285
218	0xbc5f9621	-0.013646633
219	0x3a052ace	0.0005079926
220	0x3cb6ab20	0.022298396
221	0x3cc3073d	0.023807162
222	0xbd06cf9e	-0.032912843
223	0x3cfc9ebd	0.030837411
224	0xbd00cc39	-0.031444762
225	0xbb95d358	-0.0045723133
226	0x3d0e7822	0.034782536
227	0xbba5a1d0	-0.00505469
228	0xbcb6d968	-0.022320464
229	0xbc4a14ed	-0.012334091
230	0xbcd17204	-0.025567062
231	0x3c344ccd	0.011004639
232	0x3c80ca9d	0.015721614
233	0x3c20d751	0.00981696
234	0x3d00d86e	0.031456403
235	0xbcb37869	-0.021908002
236	0xbcb7788f	-0.022396354
237	0x3b7fc8eb	0.0039029669
238	0xbd1a8abc	-0.037729964
239	0xbcf06170	-0.029343337
240	0xbc9a0aff	-0.018804071
241	0xbcb79528	-0.02240999
242	0x3c94b12a	0.018150885
243	0xbc3075ca	-0.010770271
244	0x3cf690d4	0.030098356
245	0x3cea0b01	0.0285697
246	0x3cbfde37	0.02342139
247	0xbcb1e449	-0.0217153
248	0xbce4f52e	-0.027948942
249	0xbd0093d7	-0.03139099
250	0x3c09c79b	0.008409406
251	0x3c794842	0.0152149815
252	0x3d29fa12	0.04149825
253	0xbcc8eb72	-0.024526332
254	0x3d23344a	0.03984479
255	0xbc633907	-0.013868577

layer2.0.weight f4 [84, 256]
0	0x3d2135d9	0.039357994
1	0xbd609681	-0.05483103
2	0xbc54d726	-0.0129907485
3	0xbc27d04e	-0.010242535
4	0x3d22ce91	0.03974778
5	0xbba1bcac	-0.0049358215
6	0x3b6180e7	0.0034409107
7	0x3c3a6d18	0.011378549
8	0x3bee05f8	0.007263895
9	0x3d4b3103	0.049607288
10	0x3c2bef8a	0.010494122
11	0x3ccc142b	0.02491196
12	0xbd5ec9b4	-0.054391578
13	0x3cc2ff1a	0.023803283
14	0xbcdefae3	-0.027219241
15	0xbcbde8dd	-0.023182327
16	0x3c77947a	0.015111083
17	0xbd24d665	-0.040243525
18	0x3c88188e	0.016613271
19	0x3d3421a5	0.0439774
20	0xbd126605	-0.035741825
21	0xbcdcafce	-0.026939299
22	0xbc76e3ae	-0.0150689315
23	0xbc5a212a	-0.013313571
24	0xb85d2abe	-5.2730313e-05
25	0x3c01e19f	0.007927327
26	0xbd6eb490	-0.058277667
27	0xbd7f37a0	-0.062308908
28	0xbc420462	-0.011841865
29	0xbd265a08	-0.040613204
30	0xbd30ac82	-0.043133266
31	0x3cdb0df0	0.026740044
32	0xbce2cd70	-0.02768585
33	0x3cc62d8b	0.024191638
34	0xbd5e1771	-0.054221574
35	0x3d582b3f	0.052775618
36	0xbd49e66b	-0.04929201
37	0x3c9fba5c	0.019498043
38	0x3d21b02c	0.03947465
39	0xbd4064bc	-0.046971068
40	0xbd05103d	-0.03248619
41	0xbc909a60	-0.017651737
42	0x3c4c5282	0.012470843
43	0x3c177bd8	0.009245835
44	0xbd75f1a3	-0.060044896
45	0x3c9ac8f7	0.018894656
46	0x3c857661	0.016291799
47	0x3d62e3f4	0.055393174
48	0xbc96b95d	-0.018398935
49	0xbbf12a44	-0.007359775
50	0x3d6a0e03	0.05714227
51	0x3bddc489	0.0067678136
52	0xbc3f7845	-0.011686389
53	0x3ca91664	0.02064056
54	0xbd2398a2	-0.039940484
55	0xbd4e091c	-0.050301656
56	0xbcfb9017	-0.030708356
57	0x3d3cf5af	0.04613274
58	0xbd44efae	-0.04808014
59	0x3c48546b	0.012227158
60	0x3cc5e061	0.024154844
61	0xbca2c4b8	-0.019869193
62	0xbbc0f43c	-0.00588849
63	0xbc1c7d5a	-0.0095513705
64	0xbd41cfc6	-0.04731729
65	0xbc71bb6a	-0.014754156
66	0x3d4aa756	0.04947599
67	0xbd3d6fee	-0.046249323
68	0x3c914474	0.017732836
69	0xbd1931e2	-0.037401088
70	0xbae66831	-0.0017578659
71	0xbc1643ee	-0.009171469
72	0xbd00a159	-0.031403873
73	0x3b136898	0.0022492763
74	0xbb80a940	-0.003926426
75	0x3d1c8cf4	0.03822036
76	0x3cf9f4e8	0.030512288
77	0xbd41a4c0	-0.04727626
78	0x3c7de398	0.015496157
79	0x3c76c285	0.0150610255
80	0xbc33f365	-0.010983323
81	0xbcea6e41	-0.028617026
82	0x3cf50cc0	0.029913306
83	0x3d4a8a95	0.04944857
84	0xbb010531	-0.0019686932
85	0x3d1b5955	0.03792699
86	0x3c894a88	0.016759172
87	0xbd474526	-0.04864993
88	0x3d4db515	0.05022152
89	0xbd7a198d	-0.061059523
90	0x3cb997ed	0.022655452
91	0xbc8ab3fe	-0.01693153
92	0xbd6c41d5	-0.05767997
93	0xbd755dde	-0.05990397
94	0x3b39c3f5	0.002834556
95	0xbccefced	-0.025267089
96	0xba9152e3	-0.0011087324
97	0xbd17b5aa	-0.037038483
98	0xbc175d09	-0.00923849
99	0xbd0fcd1e	-0.035107724
100	0xbc96cf3f	-0.01840937
101	0xbc64ec50	-0.013972357
102	0x3ca1f59d	0.019770438
103	0x3d7acc2d	0.061229873
104	0x3d0781b0	0.033082664
105	0xbce31158	-0.027718231
106	0xbbbd1161	-0.005769894
107	0xbd18b4c8	-0.03728178
108	0xbc6cc77a	-0.014451856
109	0xbd810a02	-0.06300737
110	0xbd11bb62	-0.035579093
111	0xbc70f487	-0.014706737
112	0x3cae2416	0.021257441
113	0xbd50f921	-0.051018838
114	0x3d787506	0.060658477
115	0x3cb5245b	0.022112062
116	0xbc8758ea	-0.01652189
117	0xbd014616	-0.03156098
118	0xbd600ce6	-0.0546998
119	0xbd56d72e	-0.052451305
120	0xbc8d16d0	-0.017222792
121	0xbd7dc23b	-0.06195281
122	0xbd4e77d1	-0.050407235
123	0x3d1c5eea	0.038176455
124	0xbc82af98	-0.01595287
125	0x3c6b1686	0.014348632
126	0x3d041bb3	0.03225298
127	0xbd533332	-0.051562496
128	0xbcb2d594	-0.021830358
129	0x3bda8199	0.0066682813
130	0xbd35210b	-0.044220965
131	0xbd7bb564	-0.061452284
132	0x3d4a8642	0.049444444
133	0x3bae5a9d	0.0053208605
134	0xbccbd05f	-0.024879633
135	0x3d0d12d3	0.03444178
136	0x3c82e3fd	0.015977854
137	0x3caf562b	0.021403393
138	0xbd323169	-0.043504152
139	0x3d6a2a1f	0.057169076
140	0x3d779205	0.06044199
141	0xbc634ac0	-0.013872802
142	0x3d776a30	0.060404003
143	0x3d1e4b41	0.038645986
144	0xbcc9251f	-0.024553834
145	0x3cdd4d5b	0.027014425
146	0x3d295ddb	0.041349273
147	0xbb5d1ec5	-0.0033740264
148	0x3d09fb04	0.033686653
149	0xbd8081e8	-0.06274778
150	0x3d4a2fa5	0.049361844
151	0xbd116fde	-0.035507075
152	0xbd4724e4	-0.048619166
153	0x3d1da2c1	0.038485292
154	0xbd181f21	-0.03713906
155	0x3bf0a130	0.007343434
156	0x3b21c137	0.0024681815
157	0x3b6f97fb	0.0036559093
158	0xbd51ddde	-0.05123698
159	0xbc671768	-0.014104702
160	0xbc1500ff	-0.009094476
161	0xbd08ac8a	-0.03336767
162	0x3d0ae9bf	0.033914324
163	0x3c5e53c8	0.01356978
164	0xbd21f002	-0.03953553
165	0x3cf62e91	0.030051501
166	0x3b371ab2	0.0027939496
167	0xbd657add	-0.056025375
168	0x3d6d8d27	0.05799594
169	0xbcd4d506	-0.025980484
170	0xbd7cd3a5	-0.061725277
171	0x3d1ca6d6	0.038245045
172	0xbc7f1813	-0.015569705
173	0x3d33d9e6	0.043908976
174	0xbc9084e4	-0.017641492
175	0xbc03fa36	-0.00805526
176	0xbc9ad9cd	-0.018902684
177	0x3b4f8f4f	0.0031671112
178	0x3d691940	0.056908846
179	0xbd18ded5	-0.037321884
180	0x3d7be00b	0.06149296
181	0xbcfb8b26	-0.030706
182	0x3c6cb408	0.01444722
183	0x3cbcce5f	0.023047624
184	0x3d6a9808	0.057273895
185	0xbc11b64d	-0.008893562
186	0x3cfc199e	0.030773934
187	0x3ad99a39	0.0016601748
188	0x3ce0380e	0.027370479
189	0xbc922787	-0.017841114
190	0x3d4aa2d7	0.049471702
191	0x3c6f4960	0.014604896
192	0x3c14bb0e	0.0090778
193	0x3d5da67d	0.054113854
194	0xbbaa8f7f	-0.0052050943
195	0x3d73bcda	0.059506275
196	0xbc1a743e	-0.009427128
197	0xbd6eb529	-0.058278237
198	0xbc1fcb51	-0.009753064
199	0xbd083916	-0.033257566
200	0x3c380457	0.011231503
201	0x3d167d2d	0.03674047
202	0xbc50fed7	-0.012756071
203	0xbc9c0387	-0.01904465
204	0xbd2d2747	-0.042273786
205	0x3c5be686	0.01342166
206	0xbd2d8f50	-0.042373
207	0x3d5ee2bc	0.05441545
208	0x3d65393d	0.05596279
209	0xbd262124	-0.04055895
210	0xbd311893	-0.043236326
211	0x3c926bc9	0.017873662
212	0x3c93ab9a	0.018026162
213	0xbd2306b3	-0.03980131
214	0xbc821bae	-0.01588234
215	0xbd2dfbbd	-0.042476404
216	0x3b0a6380	0.0021116436
217	0x3d48f18c	0.049058482
218	0x3cb9ced9	0.02268164
219	0xbc817e4a	-0.01580729
220	0xbce18368	-0.02752848
221	0xbd1b468a	-0.03790907
222	0x3cc8f896	0.024532598
223	0x3d6bac7b	0.057537537
224	0xbd72b0cc	-0.059250638
225	0x3d6feafe	0.058573715
226	0xbba3e980	-0.0050022006
227	0x3d1347ec	0.035957262
228	0x3bec94f4	0.007219905
229	0x3cf418d5	0.029796997
230	0xbd22063d	-0.03955673
231	0xbc81aaa6	-0.015828442
232	0x3cfa632a	0.030564863
233	0xbd0f13c7	-0.03493097
234	0x3d152cb1	0.036419574
235	0xbd06554d	-0.032796193
236	0x3ce17fc7	0.02752675
237	0x3ccbf4cf	0.024897007
238	0xbd78a3cd	-0.060703088
239	0xbd802aa0	-0.0625813
240	0xbd691a9d	-0.056910146
241	0x3d603e11	0.05474669
242	0xbc838c95	-0.016058246
243	0x3d1241ec	0.0357074
244	0xbc74bfee	-0.014938338
245	0x3d1fc8ba	0.039009787
246	0x3cf6bdd2	0.03011981
247	0x3cc0e12d	0.023544872
248	0x3c0d715e	0.008632986
249	0xbcfbaffc	-0.030723564
250	0xbc196ae8	-0.009363867
251	0x3d4598b0	0.048241317
252	0x3c1bd65d	0.009511557
253	0xbd0abb54	-0.033870056
254	0x3a9ee645	0.0012123069
255	0x3c15a52f	0.009133621

layer2.0.bias f4 [84]
0	0xbd528a46	-0.0514014
1	0x3cf302d6	0.029664438
2	0xbd6e581d	-0.0581895
3	0x3cd0debc	0.025496833
4	0x3cb7818b	0.022400638
5	0xbc68f9b0	-0.014219686
6	0x3d7b77f0	0.06139368
7	0x3cbe4cfe	0.023230072
8	0xbd33c597	-0.04388961
9	0x3c42a938	0.011881165
10	0x3d713942	0.058892496
11	0xbbaaed4f	-0.0052162777
12	0x3ca2e4d0	0.019884497
13	0x3d66d3ea	0.05635444
14	0xbc7e0970	-0.01550518
15	0x3c18b25d	0.009319869
16	0xbd3d033e	-0.04614567
17	0x3d339296	0.043840967
18	0xbca54963	-0.020176595
19	0x3d6a10e3	0.05714501
20	0x3d3b57a9	0.045737896
21	0xbd2c004e	-0.041992478
22	0x3cb11f95	0.021621505
23	0x3cbdbea6	0.023162197
24	0xbccd2a3c	-0.025044553
25	0x3c5c8e7b	0.013461704
26	0x3c205f98	0.009788416
27	0x3d6750d9	0.056473587
28	0x3d539b05	0.05166151
29	0xbd52e8b0	-0.05149144
30	0xbba68529	-0.005081792
31	0x3c901a17	0.017590566
32	0x3d5eecfa	0.054425217
33	0xbd726d5e	-0.059186332
34	0xbd7dd747	-0.061972883
35	0x3cafe3cc	0.021470927
36	0xbcae32d5	-0.021264473
37	0xbcfe2172	-0.031021807
38	0x3d045215	0.032304842
39	0xbb8ee9d2	-0.0043613696
40	0xbd329faa	-0.0436093
41	0xbc74c1cf	-0.014938786
42	0x3c14e298	0.009087227
43	0x3d56f16e	0.05247634
44	0xbcd0d65c	-0.02549284
45	0x3b8c8fb1	0.0042895903
46	0x3d142e9b	0.03617726
47	0xbb960939	-0.004578736
48	0x3c47317c	0.012157794
49	0x3d26e135	0.040742118
50	0x3cc4cc54	0.024023212
51	0xbd4e2791	-0.050330702
52	0x3cf0c37f	0.029390095
53	0xbce875a8	-0.028376415
54	0xbd25c6ec	-0.04047291
55	0xbd2ca4e6	-0.042149447
56	0xbd4bbfb7	-0.04974338
57	0x3d5bf570	0.053700864
58	0x3d263382	0.040576465
59	0xbd3668ed	-0.04453366
60	0x3d19249d	0.037388433
61	0x3ce3ac3b	0.027792087
62	0x3d6ac38f	0.057315405
63	0x3ac49dfa	0.0015000694
64	0x3c2dfadc	0.010618892
65	0x3c72c392	0.014817135
66	0xbd2a6890	-0.041603625
67	0x3d21787a	0.039421536
68	0x3d1bf9cc	0.03808002
69	0x3be27480	0.0069108605
70	0xbd109f0c	-0.03530793
71	0xbc8d2781	-0.017230751
72	0x3d2a28e7	0.041542914
73	0xbc8fea23	-0.0175677
74	0xbaa4723a	-0.0012546249
75	0xbd473fe3	-0.04864491
76	0xbcbae011	-0.022811921
77	0xbd355bc4	-0.044276968
78	0x3d6cc8a0	0.05780852
79	0xbcdcd68c	-0.026957773
80	0x3d441837	0.047874656
81	0x3cb7705f	0.02239245
82	0x3d6c6ce8	0.05772105
83	0x3d3c0e63	0.045912158

layer3.0.weight f4 [8, 84]
0	0xbda33164	-0.07968405
1	0x3ba2c28f	0.004967041
2	0xbc3b6f32	-0.011440085
3	0x3dbf7bd3	0.093497895
4	0xbcfd8d4d	-0.030951167
5	0xbd6558cb	-0.055992883
6	0x3d0e119a	0.034684755
7	0x3d641d51	0.05569202
8	0x3d9a4b87	0.07533937
9	0xbc9701ea	-0.01843353
10	0x3dcf0e36	0.101101324
11	0xbc716158	-0.014732681
12	0x3d10cb83	0.035350334
13	0xbdd0c144	-0.101931125
14	0x3dd75761	0.10514713
15	0xbdc4d587	-0.096110396
16	0x3d381e45	0.044950742
17	0xbd240743	-0.040045988
18	0x3d59d2c8	0.053179532
19	0xbcba6ce7	-0.022757007
20	0x3daad9f9	0.08342356
21	0xbdcee306	-0.10101895
22	0xbd14d329	-0.03633419
23	0xbd0d2364	-0.03445758
24	0xbcd2099a	-0.025639344
25	0xbda79fdb	-0.08184787
26	0xbda2b500	-0.07944679
27	0xbdd61c46	-0.104546115
28	0xbdc3c680	-0.09559345
29	0x3cc1eae0	0.023671567
30	0xbd84cfd4	-0.064849526
31	0x3d67438d	0.056460906
32	0xbd916bbe	-0.07100628
33	0xbdaefab6	-0.08543913
34	0xbdcf643b	-0.10126539
35	0x3dd18bc4	0.10231736
36	0xbdc951c9	-0.098300524
37	0xbcc99ce6	-0.024610948
38	0xbd690a50	-0.0568946
39	0x3d85f42e	0.06540714
40	0xbcc8d948	-0.02451767
41	0xbdd16f2a	-0.10226281
42	0xbd8d5fd1	-0.06903041
43	0xbdbb9636	-0.0915951
44	0xbdb5c80b	-0.08876046
45	0x3cbf6cf2	0.023367379
46	0xbdc98003	-0.098388694
47	0xbd16870d	-0.03674989
48	0xbcb031c7	-0.02150811
49	0xbceb166f	-0.02869722
50	0xbd9f26f2	-0.077711
51	0xbd8e69a9	-0.06953747
52	0xbdde4f76	-0.10855
53	0x3d474e22	0.048658498
54	0xbd56b138	-0.052415103
55	0xbd0dde00	-0.034635544
56	0x3d3ec1b9	0.046571467
57	0xbcaee1a5	-0.02134783
58	0x3c7276eb	0.01479886
59	0x3da64ae9	0.08119757
60	0x3dd3bc01	0.10338593
61	0x3dc5b6d7	0.096540146
62	0xbd198e6a	-0.037489332
63	0xbd7ec156	-0.0621961
64	0x3d900941	0.07033015
65	0x3d487b09	0.04894546
66	0xbd0f48e5	-0.034981627
67	0xbd7c5d78	-0.061612576
68	0xbcdc41fb	-0.02688693
69	0x3d38893b	0.04505275
70	0x3d539234	0.051653102
71	0x3db54e3c	0.08852813
72	0xbc9c228e	-0.019059446
73	0xbc318ec6	-0.0108372625
74	0x3db7738e	0.08957587
75	0xbdc7f409	-0.09763343
76	0xbbc551cb	-0.0060217134
77	0x3d8bcc0f	0.068260305
78	0xbdad31a7	-0.08456736
79	0xbdd0ff36	-0.102049276
80	0xbb2f1e44	-0.002672092
81	0x3dbde80e	0.092727765
82	0xbd2ad9bd	-0.041711558
83	0x3d91b994	0.07115474
84	0xbdd4d9d2	-0.103931084
85	0xbda8654b	-0.08222445
86	0x3dc08c6d	0.09401784
87	0xbcbdb3ad	-0.023156965
88	0xbd241635	-0.04006024
89	0x3dabb2ef	0.08383738
90	0x3d79c7cd	0.06098156
91	0x3bb90e8d	0.0056474865
92	0x3d91b1a8	0.07113963
93	0xbcdfd12d	-0.027321422
94	0xbddf1ebd	-0.10894535
95	0x3d0487dc	0.032356128
96	0xbd9d5b78	-0.07683462
97	0x3d8f6f8c	0.07003698
98	0xbdd88da6	-0.10573892
99	0x3d1e89a6	0.03870549
100	0x3d2375e2	0.039907344
101	0x3dc5f747	0.09666305
102	0xbd054782	-0.0325389
103	0xbceaf717	-0.028682275
104	0xbdb1be78	-0.08678907
105	0x3dd5e6df	0.10444426
106	0xbc097e3b	-0.008391912
107	0xbda4cf01	-0.08047295
108	0x3b226957	0.0024782026
109	0xbddc773e	-0.10764931
110	0x3cc9dbee	0.024641003
111	0x3d81c789	0.063368864
112	0xbc965056	-0.018348854
113	0xbbc9ae01	-0.006154776
114	0xbd9ab05d	-0.0755317
115	0xbce66eb0	-0.028128952
116	0xbd75566f	-0.059896883
117	0xbd1bf037	-0.038070884
118	0x3dc9f046	0.09860282
119	0xbd8328e0	-0.06404281
120	0x3dd1d743	0.10246136
121	0xbb9223c8	-0.004459832
122	0x3dd1e122	0.10248019
123	0x3da858a9	0.082200356
124	0x3d3102ec	0.043215677
125	0x3d7c0249	0.061525617
126	0xbde05f9a	-0.109557346
127	0x3d5d40d4	0.054016903
128	0xbda2f692	-0.07957186
129	0xbdcf6a4b	-0.10127696
130	0xbd98ca52	-0.074604645
131	0xb9338e7e	-0.00017123853
132	0xbc010590	-0.007874861
133	0xbd12823e	-0.03576874
134	0xbd3d1734	-0.046164706
135	0x3dbf2729	0.09333641
136	0xbda7a0ef	-0.081849925
137	0x3dc48269	0.09595186
138	0xbd7d6b07	-0.061869647
139	0xbd2440aa	-0.04010073
140	0xbc32b155	-0.010906537
141	0xbd0b90dc	-0.034073696
142	0x3d8712b7	0.065953664
143	0x3c6ff851	0.014646606
144	0xbd53b251	-0.051683728
145	0xbbab1fd0	-0.005222298
146	0x3c280ec5	0.010257428
147	0xbcfd5449	-0.03092398
148	0x3d7acba2	0.061229356
149	0xbdc25242	-0.09488346
150	0x3b1937d6	0.0023379228
151	0x3d1bb34a	0.03801278
152	0x3dd3c616	0.10340516
153	0xbd8e0ef5	-0.069364466
154	0x3bf00139	0.0073243645
155	0xbd9a98db	-0.07548686
156	0xbdd9e222	-0.106388345
157	0x3bd80c27	0.0065932455
158	0x3da7079d	0.08155749
159	0xbda509d6	-0.08058517
160	0xbd18ed5b	-0.037335735
161	0xbb77cfcb	-0.0037813063
162	0x3c7f7947	0.01559288
163	0x3d379762	0.044822104
164	0xbdcca8af	-0.09993111
165	0x3dbbff1a	0.09179516
166	0x3db95dc4	0.090510875
167	0xbd8ef240	-0.06979799
168	0xbd3ed9cb	-0.046594422
169	0x3c91a6c1	0.01777971
170	0x3d84d9b1	0.06486834
171	0xbdbf059a	-0.0932724
172	0xbd89159d	-0.066935755
173	0xbda8c301	-0.08240319
174	0x3c7993b8	0.015232973
175	0xbde175db	-0.11008807
176	0x3c86c7ef	0.016452758
177	0x3dc7ac37	0.09749644
178	0xbd024141	-0.031800512
179	0x3dd9b776	0.106306955
180	0xbdabfa97	-0.083974056
181	0x3c1151c0	0.008869588
182	0x3d43e982	0.047830112
183	0x3dc96630	0.09833944
184	0x3cb96e5b	0.02263563
185	0xbc986a06	-0.018605243
186	0xbcbbf464	-0.022943683
187	0xbcb8b259	-0.02254598
188	0x3da554bc	0.080728024
189	0x3d061f9b	0.032744985
190	0x3dafe861	0.08589245
191	0xbb5c4c61	-0.0033614861
192	0x3d726681	0.059179787
193	0x3d68beda	0.056822635
194	0xbdb2259d	-0.086985804
195	0xbd0834d4	-0.033253506
196	0x3db028d4	0.08601537
197	0xbd5bbd07	-0.053647067
198	0xbd076572	-0.03305573
199	0x3d355ad1	0.044276062
200	0x3d6e84ea	0.058232225
201	0xbd323bbf	-0.04351401
202	0xbde02490	-0.10944474
203	0x3d6e71e4	0.058214083
204	0x3dc1103c	0.094269246
205	0xbdb44788	-0.08802706
206	0x3d3d135f	0.04616105
207	0x3dac70ff	0.0841999
208	0x3d9d7011	0.076873906
209	0x3dce6916	0.10078637
210	0x3ca30c6c	0.019903384
211	0xbcaa7869	-0.02080937
212	0xbdb9991f	-0.09062409
213	0xbdac2c6e	-0.08406912
214	0x3ce5f36d	0.028070176
215	0xbc982e9c	-0.018576913
216	0xbd2d7d31	-0.04235572
217	0xbdd0ca49	-0.10194833
218	0xbda785e7	-0.08179837
219	0x3dc4d425	0.09610776
220	0xbdd83da4	-0.10558632
221	0xbc428318	-0.0118720755
222	0xbd00b4f2	-0.031422563
223	0xba1954a4	-0.0005849099
224	0xbdcd4930	-0.10023725
225	0x3b8d1011	0.004304894
226	0x3db6eb6b	0.08931621
227	0xbd145174	-0.036210492
228	0x3dd0e9b0	0.10200822
229	0xbd181822	-0.03713239
230	0x3dbf08f5	0.0932788
231	0x3db88352	0.09009422
232	0x3b2ba6c0	0.002619192
233	0xbddd43ae	-0.108039245
234	0xbd199499	-0.03749523
235	0x3cbd75dc	0.023127489
236	0xbdda0650	-0.10645735
237	0x3db0a93f	0.08626031
238	0xbd91c2d4	-0.07117239
239	0xbcb5ac4c	-0.022176884
240	0x3d9351f6	0.07193367
241	0xbd434fdc	-0.04768358
242	0x3d01b200	0.031663895
243	0xbdc2c1d7	-0.09509628
244	0x3d9565f9	0.0729484
245	0x3cd77757	0.026302023
246	0x3d529339	0.051409934
247	0x3c651990	0.013983145
248	0xbd330027	-0.043701317
249	0xb99debbd	-0.00030121012
250	0xbd20cd56	-0.039258324
251	0xba42c3b4	-0.0007429675
252	0xbdded680	-0.108807564
253	0xbd5ed5e3	-0.054403197
254	0xbdd52cd7	-0.10408943
255	0x3bacb95e	0.005271121

layer3.0.bias f4 [8]
0	0x3da5de3d	0.08099029
1	0xbdd4e2b9	-0.103948064
2	0x3d2a4906	0.041573547
3	0x3d59cc08	0.053173095
4	0xbd22d09f	-0.039749738
5	0x3cb52583	0.022112614
6	0x3d4c53fc	0.04988478
7	0xbc01adce	-0.007914973
