DigitalRecognition-master/model_params/GDUT_net_all_10.pt (torch, 665623 bytes, 6 tensors)

layer1.0.weight f4 [256, 560]
000000 50 3d 54 3c 94 10 f1 bc 18 18 fd bb 98 b1 5b bc
       0.012954071 -0.02942685 -0.0077238195 -0.013409041
000010 55 f1 94 bc 10 5b e6 3c 5c 5d d4 bc 20 a7 f3 3c
       -0.018181482 0.028119594 -0.025923423 0.029742777
000020 56 d8 20 bd d2 bf f5 bc 00 9a d7 ba 7e b4 b2 bc
       -0.039268814 -0.029998694 -0.0016449094 -0.021814581
000030 e8 78 fc bc 20 63 e3 ba 9a 9a a5 3c e0 0b 0f 3b
       -0.030819371 -0.0017348267 0.020215321 0.0021827146
000040 cc 6d e1 3c 00 6c 73 3b 6d 09 0c bd 70 d4 67 3b
       0.027518176 0.003714323 -0.034188677 0.0035374425
000050 cc 45 52 bc f0 a3 85 bb dc 8b 2e 3c 16 00 cd bc
       -0.012834024 -0.0040783808 0.010653462 -0.025024455
000060 28 c1 73 bc 74 9f 06 3d cc 4c 39 bc 79 14 b6 bc
       -0.014877595 0.03286691 -0.011309814 -0.022226559
000070 47 68 fc bc 92 a5 88 3c ec b7 01 3d e8 c2 a6 3c
       -0.030811442 0.016680513 0.031669542 0.02035661
000080 72 54 8b bc f2 d3 21 bd 96 1e c4 bc a0 1f 4c bb
       -0.01700804 -0.039508767 -0.023940366 -0.003114678
000090 aa 41 0a 3d e0 ef c9 ba 47 da 08 bd 90 05 0a 3b
       0.03375403 -0.0015406571 -0.03341129 0.0021060444
0000a0 6c d8 85 3c 50 fb ed bb 18 4c db 3c d0 fa 1c 3c
       0.01633855 -0.007262625 0.026769683 0.009581283
0000b0 20 df 5b bb a0 4c bb ba 48 3d 87 bb f6 e1 0c 3d
       -0.003354974 -0.0014289804 -0.0041271783 0.03439518
0000c0 ad 32 d5 bc cc b7 b2 3c 58 af e9 3b fc f8 6b 3c
       -0.02602514 0.021816157 0.0071314983 0.014402624
0000d0 bf b6 15 bd c7 34 8d bc 80 e0 52 ba f8 b2 e2 3b
       -0.036551233 -0.01723708 -0.00080443174 0.0069183074
0000e0 70 da d4 3c 64 ab ad bc 0a cf 98 3c 64 c1 ef 3c
       0.025983065 -0.02119989 0.018653411 0.02926702
0000f0 30 42 bb 3c 20 a7 e6 bb f0 c6 c6 bc 8c cf 18 3d
       0.02285871 -0.007038966 -0.024264783 0.037307307
000100 51 32 94 bc 93 af 96 bc e8 8e 18 3d de 1e 1c bd
       -0.018090399 -0.018394267 0.03724566 -0.038115375
000110 97 8f dd bc f1 e4 47 3c a0 47 c3 bc b4 e3 c4 bc
       -0.027046008 0.01220058 -0.023837864 -0.024034359
000120 a8 a2 05 bb 44 85 17 39 45 a7 b4 bc 45 71 85 bc
       -0.002039114 0.00014450127 -0.022052417 -0.016289363
000130 80 7d 3c 3b 68 31 43 bc 23 0b d4 bc ac d6 ec 3c
       0.0028761327 -0.011913635 -0.025884217 0.028910957
000140 44 e4 5a 3c de 5d eb bc b2 35 7f bc 2b d8 c9 bc
       0.013360087 -0.028731283 -0.015576767 -0.02463921
000150 88 5a ef 3c bc 6e 89 bc 08 df d9 bb f9 15 0b bd
       0.029217973 -0.016776435 -0.006648902 -0.0339565
000160 61 08 11 3d d8 6d 2c 3d 61 59 bf bc 45 0f b3 3c
       0.03540838 0.042096943 -0.023358049 0.021857867
000170 e2 27 90 3b 4e d6 86 3b b7 23 b5 3c f0 51 df bc
       0.0043992857 0.0041149026 0.022111757 -0.02726075
000180 46 00 a3 3c f0 e2 64 3b 5e 91 be bc 00 fe 13 39
       0.019897591 0.0034925304 -0.023262676 0.00014113635
000190 5c 2b 01 bc da c2 08 bd c9 91 b0 bc 94 cb 0d 3d
       -0.007883873 -0.03338895 -0.02155389 0.034617975
0001a0 bd 4c ab bc dc 52 05 bd 5c 18 0e bc 9d 35 08 bd
       -0.020910615 -0.032549724 -0.0086728 -0.033254255
0001b0 cd 58 c0 3c a4 39 cd 3b 84 d2 07 bd 30 9c b2 3b
       0.023479844 0.006262975 -0.033159748 0.005450748
0001c0 59 16 14 bd 53 1c 2a 3d 9e 51 5d 3c f6 0f 1f bd
       -0.036154125 0.04153092 0.013508229 -0.03883358
0001d0 ca 80 8c 3c ec 0f c2 3c 3e e6 26 3d c8 93 a8 3b
       0.017151255 0.023689233 0.04074692 0.00514457
0001e0 c8 fe 59 3c 6f 72 f7 bc 84 c3 ee 3c 7a b4 db bc
       0.0133053735 -0.030205933 0.029145963 -0.026819456
0001f0 a0 5a 2e bb 27 07 98 bc 02 1a 9a bb dd b3 a6 3c
       -0.002660431 -0.018558098 -0.0047028074 0.020349437
000200 58 f5 8a 3b e7 c5 a5 3c 40 06 0d bd 58 a2 12 bd
       0.004240673 0.020235969 -0.03442979 -0.035799354
000210 95 fa 3b 3c 96 35 c7 3b 67 e5 ff 3c 90 df 43 bc
       0.011473318 0.006079386 0.031237317 -0.011955157
000220 a3 6c 00 bd 48 d6 27 3d cc 84 10 3c dc 56 a8 bc
       -0.031353604 0.04097584 0.008820724 -0.02054923
000230 10 4f d7 3c fc 6d 98 bc 54 1a c4 bc 3c e5 ea 3c
       0.026282817 -0.018607132 -0.023938335 0.02867376
000240 b6 81 0c bd 9f e3 e3 bc 2e 3e 10 3c 55 29 4b b9
       -0.03430339 -0.0278185 0.008803887 -0.00019374986
000250 61 15 10 bb 4e 3b 09 3c b2 d9 7c 3c bc 8e ea 3c
       -0.00219854 0.008375956 0.015432762 0.028632514
000260 b1 a4 05 3c ad 4d bd 3c e0 e5 02 3c 3b d0 f5 bc
       0.008156941 0.023108328 0.007989377 -0.030006519
000270 71 0a ec 3c 80 fd af 3c f0 1a b1 bb c4 71 76 3c
       0.028813573 0.021483183 -0.0054048225 0.015041772
000280 a0 06 37 3c 0c eb 42 bc 3c 24 ea 3c 27 6a 9b bc
       0.011171013 -0.01189686 0.028581731 -0.018971516
000290 e0 8c 81 bb 29 ef 96 3a f0 16 9f 3c 98 1c 55 bc
       -0.003953561 0.0011515367 0.019420117 -0.013007306
0002a0 03 42 fc 3c e6 25 2b 3c 00 11 b0 bc d0 2c 11 3d
       0.030793196 0.010446047 -0.021492481 0.035443127
0002b0 04 e1 cb 3c 2e 3d 96 3b 10 9a e2 bb de 9f f1 bc
       0.02488757 0.00458493 -0.0069153383 -0.029495176
0002c0 04 18 bc bc fe d6 82 bc b0 8d eb 3c 9c 47 f4 3c
       -0.02296067 -0.015971657 0.028754085 0.029819302
0002d0 c1 77 ca bc 08 9e 24 3c cc d6 88 bc 9c 95 ae 3c
       -0.024715306 0.010047443 -0.016703986 0.021311574
0002e0 74 f1 6d 3c f5 49 56 3b 8b ef 8a 3c 38 87 b2 3c
       0.014522899 0.003269789 0.016959926 0.021792993
0002f0 66 74 f9 bc 5a f3 ec bb df bf cf 3b 6e 1d 04 bd
       -0.03045101 -0.007231158 0.0063400115 -0.03225463
000300 4a d5 f2 3b 85 5b bc bb 6c 96 c7 bc cc 7b 87 3c
       0.00741068 -0.0057482147 -0.024363719 0.016538523
000310 77 57 de ba a9 be 27 3d 92 c8 e9 bc 44 d5 1c 3d
       -0.0016963322 0.040953312 -0.028538022 0.038289323
000320 09 fd f4 bc a2 74 0f 3d 00 a7 ac bb 00 3d d0 bc
       -0.029905813 0.03502334 -0.0052689314 -0.025419712
000330 92 70 d2 bc 0b 31 ee bc 03 66 17 bd 70 89 6f 3c
       -0.025688443 -0.02907612 -0.03696252 0.01462017
000340 cf 9e f2 3c 3a 5f 01 3c 50 b9 90 3b 06 1b 0c bd
       0.029616741 0.007896239 0.004416622 -0.03420546
000350 3c 17 a5 3c 0b b9 e7 bc d4 72 4e 3c 00 fa 2d 3c
       0.02015268 -0.028286478 0.012600619 0.010618687
000360 6b 6a ad bc d8 da 28 bd a2 6e 5b bc 50 db 68 3c
       -0.021168908 -0.04122433 -0.013393076 0.014212444
000370 cc 5e 2a bd c0 a1 2a 3c c0 22 1b bc ec 58 03 3d
       -0.04159431 0.010414541 -0.009468734 0.032067224
000380 37 f1 a0 ba e8 93 0e 3d 98 9a 04 3d ea 33 8f 3c
       -0.0012278919 0.034809023 0.032373995 0.01748081
000390 8c 6c 23 bc 9b aa f6 3c 5f d3 24 bd 16 c9 1c bb
       -0.00997461 0.030110648 -0.04024064 -0.0023923567
0003a0 ea 48 d3 3c 4b 93 57 3c fc 22 22 bc 81 f0 ad bc
       0.025791604 0.013157676 -0.009896036 -0.021232845
0003b0 e8 92 f4 3c 77 d5 98 3c b0 de 8a 3b ca 05 5b bc
       0.029855207 0.018656475 0.004237972 -0.013368079
0003c0 e3 ae 27 bd 68 4f 0d 3d a0 73 14 3d 3c 5c b7 bc
       -0.04093827 0.034499556 0.03624308 -0.022382848
0003d0 0b 69 60 bb bb b6 22 bd fc 4a be bc 72 8d 82 3a
       -0.0034242298 -0.039725047 -0.023229115 0.0009960367
0003e0 a4 27 01 bd a8 cf 98 bc de ec 2d 3d 08 c1 e4 3c
       -0.031531945 -0.018653706 0.042462222 0.027924076
0003f0 f4 a8 98 bc a7 c2 b9 3c 65 71 05 3d 60 83 0b 3b
       -0.01863525 0.022675825 0.032578845 0.0021288022

layer1.0.bias f4 [256]
000000 81 31 4b b9 ed 67 47 3c cf d4 1e 3c 73 74 9c 3c
       -0.0001937803 0.012170774 0.009694292 0.019098496
000010 a0 91 0c bd eb d3 97 3c 27 81 b7 bc 71 35 06 bd
       -0.034318566 0.018533668 -0.022400452 -0.03276581
000020 85 5a 22 bd bc df 20 bd 2e 02 c7 bc 98 ac 28 bd
       -0.039637107 -0.03927587 -0.024293032 -0.041180223
000030 1c 90 59 bc 6d 89 f7 3c dd 6c 62 bc 64 e1 b9 3c
       -0.013278987 0.030216897 -0.0138199 0.022690482
000040 7a 7a a2 bc 0a f0 1c 3d ce f7 90 3a e3 44 17 3d
       -0.019833792 0.038314857 0.001106018 0.03693093
000050 c5 ce 05 3d 1a 8c a4 bc 74 27 06 3d 3f 34 80 3b
       0.032667894 -0.020086337 0.03275247 0.003912478
000060 8a cb 1f bd 93 80 d0 3c ba 80 04 3d b1 56 f5 3c
       -0.03901247 0.025451934 0.032349326 0.029948564
000070 3d a6 88 3c 2e b6 22 3d ac 9f e4 3c 3b 57 7b bb
       0.016680831 0.03972452 0.027908169 -0.0038351554
000080 47 da d7 3c ed d5 21 3d 5f c7 dd bc 7f 9e ff 3b
       0.0263492 0.039510656 -0.027072607 0.0078008766
000090 b7 b3 06 3d 5a 91 69 bc e4 52 90 3b b7 60 d2 3a
       0.032886233 -0.014255846 0.0044044126 0.0016050552
0000a0 c4 91 cf bc b1 39 ac 3c 15 7e 1f bd 4c 77 2d bd
       -0.025338061 0.021023603 -0.0389386 -0.0423501
0000b0 56 22 4a bc 7e 1e 30 bc 13 4a 32 bc 7a 46 57 3c
       -0.012337288 -0.010749457 -0.0108819185 0.0131393615
0000c0 80 fa 0e 3d 91 6b 13 3d 0a d4 f2 bc 84 ea 08 3d
       0.034906864 0.035991255 -0.029642124 0.033426777
0000d0 f2 ee 83 3b e9 bb 16 bd 16 56 0b 3d fc 0d 10 3c
       0.0040262872 -0.0368003 0.034017645 0.008792397
0000e0 49 64 21 3c d6 c4 2a 3d ec f8 09 bd 9f 0c 80 bc
       0.00985057 0.041691624 -0.033684656 -0.015631018
0000f0 2e 79 43 bc e9 84 07 bc 54 38 e0 3c b8 66 0e bb
       -0.011930747 -0.008271434 0.02737061 -0.0021728706
000100 b9 4a 8b 3c 2e ba 94 3b 6b c9 20 bd a8 07 b7 3b
       0.017003404 0.004538796 -0.039254587 0.0055856295
000110 c9 c2 93 bc eb 7a 19 bd ef 24 e7 bc 63 5e aa bc
       -0.018037217 -0.03747074 -0.028215853 -0.02079696
000120 b3 56 79 bc 93 75 9c bb 60 f5 3e 3c cc 6d be bc
       -0.015218425 -0.004774758 0.011655182 -0.023245715
000130 ca 77 c7 bc 68 ab c8 3c ec 91 c5 3c f3 cb 26 3d
       -0.024349112 0.024495795 0.024117433 0.040721845
000140 36 db 31 bc 0e 7f b5 3c 09 9a 1f 3d 38 80 16 3d
       -0.010855487 0.022155311 0.03896526 0.036743373
000150 07 00 29 3d 93 5a c8 bc 84 ab 20 3c 9d 8f 5b bb
       0.04125979 -0.024457252 0.0098065175 -0.0033502348
000160 c5 31 f5 3c 3d 8b 94 bc 28 71 8e 3c 54 b6 1b bc
       0.029930959 -0.0181328 0.017387941 -0.00950392
000170 51 54 c4 ba 64 70 d3 bc 2b 73 99 bc 0f 0e cb 3a
       -0.0014978742 -0.025810428 -0.018731674 0.0015491861
000180 8a cb 1d 3c 04 34 00 3d a6 f8 f4 3c 76 e3 f3 3c
       0.009631047 0.031299606 0.029903721 0.029771548
000190 b9 b3 1a bd a5 5a 93 3c 94 2f 47 3c f8 5f 12 bd
       -0.037769053 0.017987559 0.01215734 -0.035736054
0001a0 eb 14 0e bd 27 da d2 3c 0c ea c1 3c 20 ea 5c bc
       -0.034687918 0.025738789 0.023671173 -0.013483554
0001b0 d3 9f 70 3c f4 4b 14 bd bd e6 82 3c 24 5c 27 3d
       0.014686543 -0.036205247 0.015979165 0.040859357
0001c0 88 e8 36 ba c9 e0 ad bc a6 46 15 bd e2 d2 72 bb
       -0.0006977399 -0.02122535 -0.03644433 -0.0037051965
0001d0 c9 4d 08 bd c3 65 24 3d 92 76 24 3d f9 c6 11 3d
       -0.033277307 0.04013611 0.04015214 0.035590146
0001e0 c3 64 85 3c 2a 74 52 3c e2 aa a6 3c 95 1a 1e 3d
       0.016283398 0.0128450785 0.020345155 0.03859957
0001f0 fd da a2 3c a9 e8 1e bc 7a e8 b3 3c 33 57 16 bd
       0.019879812 -0.009699025 0.02196144 -0.036704253
000200 48 37 28 3d 64 12 8b bc dc 43 5e 3c 34 ba 9e bc
       0.041068345 -0.016976543 0.013565984 -0.019375898
000210 06 41 c3 bb 26 b1 21 bc ba 72 05 3d cc 8d 2b bd
       -0.005958679 -0.009868896 0.032580115 -0.041883275
000220 68 4e 2b 3d 53 9f 26 bd 09 f4 4c 3c 7e c8 dd 3c
       0.04182282 -0.040679287 0.012509354 0.027073141
000230 d3 bf 24 3d 87 b5 2a 3d 05 f4 c2 3c 78 4a cd 3c
       0.040222 0.041677024 0.023797998 0.025059924
000240 99 9b 2b bc 75 df af bc 6c c2 27 3d 7f 19 cc bc
       -0.010474109 -0.021468857 0.0409569 -0.024914501
000250 01 d1 f9 3c 29 2c 3d bc a9 af 85 ba a8 f2 70 3c
       0.030495169 -0.011546173 -0.0010199446 0.014706291
000260 9c 9d 92 3c a5 56 b8 bc 83 ac 60 bc 47 90 23 3c
       0.01789742 -0.022502253 -0.013713005 0.009983129
000270 9c 91 52 3c 5d 75 68 bc fb fd aa bc 39 6f 0a bd
       0.012852099 -0.014188138 -0.02087306 -0.033797476
000280 81 49 d4 3c 29 08 ab 3c 83 ce 50 bc 1f 81 8f bc
       0.025913956 0.020877915 -0.012744549 -0.017517624
000290 cf ed 18 3d c8 00 19 bc d4 df b8 bb eb 01 1d 3c
       0.037336167 -0.009338565 -0.0056419168 0.009582977
0002a0 bf 6c 1e 3b ab c1 bf bb 24 26 d3 bc 1f 91 06 3c
       0.0024173704 -0.0058519444 -0.025775023 0.0082133105
0002b0 00 ad 81 3c da 0b 86 3c af bf e8 3c e1 b1 83 ba
       0.015829563 0.016363073 0.028411714 -0.0010047519
0002c0 dd 38 1f 3d 13 32 f6 3c a8 8d ae bc 9a fb a9 bc
       0.03887259 0.030053174 -0.021307781 -0.020749856
0002d0 67 2e 4a 3c 66 2c 1f bd 01 d9 19 bd 65 df df bc
       0.012340165 -0.0388607 -0.037560467 -0.027328203
0002e0 38 73 d7 bc e8 80 df 3c 17 8a 0c 3d ea 32 15 37
       -0.026300058 0.027283147 0.03431138 8.892946e-06
0002f0 36 56 08 3d 6f e0 26 bd c8 8f 95 bc da 50 d1 bc
       0.033285342 -0.04074138 -0.018257037 -0.025551248
000300 4c eb 92 bc 07 8d 02 bc ef 5c d7 bc b7 e9 2b bd
       -0.017934464 -0.007968194 -0.026289431 -0.041970935
000310 58 28 1e bd d0 b1 04 3d ab be 40 3c ed 74 ac bc
       -0.038612694 0.032396138 0.011764209 -0.021051848
000320 5f e2 12 bd 1a 60 eb 3a ee 5b 0c 3d b8 b2 8c bc
       -0.035860416 0.0017957718 0.03426736 -0.017175063
000330 cd 59 2a 3d c1 e3 ee 3c 3d 11 c9 bc e8 b4 8b bc
       0.041589547 0.029161336 -0.024544353 -0.017054036
000340 63 82 74 3c 6e 75 56 bc a6 0c f1 3c 54 86 e0 b8
       0.014923665 -0.013089521 0.029424977 -0.00010706173
000350 74 d3 fd 3c 41 1b 02 bb 57 1e 9c 3c f8 ea 4f 3c
       0.030984618 -0.001985267 0.019057436 0.012690298
000360 ad b7 7b 3c 5b 47 19 3d 3c 6f b1 3c 56 9c 2d bb
       0.015363616 0.037421566 0.021659486 -0.0026490889
000370 16 82 94 bb 6d a3 bc 3c ff 1a 93 3b ba 14 2c bd
       -0.004532109 0.023027146 0.004489302 -0.042011954
000380 58 ce d4 3c c3 03 28 3d e2 0c fd bc d3 58 2f bd
       0.025977299 0.041019212 -0.030889932 -0.04280932
000390 2f 48 91 bc 72 af e4 bc 9c 46 10 bd 2d 7a c3 3c
       -0.017734615 -0.02791569 -0.03522359 0.023861969
0003a0 95 ed d6 bc b1 3d f3 bc 85 48 13 3d e8 75 33 3c
       -0.026236335 -0.029692503 0.035957832 0.010953404
0003b0 84 7b 87 bc eb 69 b7 bb c8 c4 d0 bc f6 8a ac 3b
       -0.016538389 -0.005597343 -0.025484458 0.005265589
0003c0 f5 17 0e bd 57 99 41 bc 8e d5 2e 3d ac 76 c4 bc
       -0.034690816 -0.011816344 0.04268413 -0.023982368
0003d0 1a 25 e0 3c 6c 60 5c bc b9 4f 8d 3c 92 c1 04 3d
       0.027361441 -0.013450723 0.017249929 0.032411166
0003e0 40 95 81 3c b3 66 0f bd ae 90 11 3d 9d be f3 3c
       0.015818238 -0.03501005 0.035538368 0.029753977
0003f0 bf 00 1b 3d c4 8f 21 bd 13 ff 24 bd da 57 3b bc
       0.03784251 -0.039443746 -0.04028232 -0.01143452

layer2.0.weight f4 [84, 256]
000000 da 1c 82 bc 11 72 e2 bb 57 9e 64 3d d4 cf 39 3c
       -0.015882898 -0.0069105704 0.055815067 0.011341054
000010 f0 7a 5a bd ec 47 05 3d 76 04 4c bc d8 d6 4b 3d
       -0.0533399 0.032539293 -0.012452235 0.049765438
000020 03 9a 74 3c 75 60 06 bc b1 f7 04 bd c9 6d 11 3b
       0.014929297 -0.008201708 -0.03246278 0.0022190681
000030 47 41 b9 bc b9 40 14 3d ac a2 7d 3c 1e 5a 01 3d
       -0.022614134 0.036194537 0.0154806785 0.031580083
000040 b8 a4 ba bb e6 e5 1a 3d b0 16 75 bd f0 a9 91 3c
       -0.0056959055 0.037816904 -0.05983609 0.017781228
000050 3e 23 6e bd 24 0e 81 3c f3 db 18 bc 8e 9e 27 bd
       -0.05813908 0.015753813 -0.009329784 -0.040922694
000060 a5 f9 0b bd 90 fc 55 bc 93 b9 81 bd 3e 75 68 bd
       -0.034173626 -0.013060704 -0.063342236 -0.056752436
000070 68 70 04 3d 19 f8 03 bd f9 10 28 3d 34 6f 25 3d
       0.03233376 -0.032219026 0.04103181 0.040389255
000080 f4 c9 23 3d 24 be d9 3c 85 ca 5d 3c a8 60 8e bc
       0.03998752 0.026579924 0.013537054 -0.017380074
000090 6c da 31 3c a7 83 50 bb 4f e0 24 bd a2 12 70 3d
       0.0108552985 -0.0031816752 -0.04025298 0.05861152
0000a0 79 d0 5e 3d b7 c2 83 bb cb da b4 bc e4 cb 71 bc
       0.054398034 -0.0040210146 -0.022076985 -0.014758084
0000b0 2c bb 19 bd cb 1a d9 bb 51 ad 2d 3d 73 06 c2 bc
       -0.037532017 -0.0066255084 0.042401616 -0.023684716
0000c0 f8 74 60 bd 6e 35 74 3c 63 6b 10 bc 97 29 4b 3a
       -0.05479905 0.014905317 -0.0088146655 0.0007750033
0000d0 67 62 a6 bc 15 6b 17 3d 4f 23 82 bd c2 bc 9e 3c
       -0.020310594 0.036967356 -0.06354391 0.019377116
0000e0 b7 7a 1e bd eb f5 cf 3c 96 04 84 3c 23 9a 4c bb
       -0.03869125 0.025385818 0.016115468 -0.0031219802
0000f0 be 82 c0 3b e0 2b 17 3d 5d c3 c7 3b 30 d0 1a 3d
       0.0058749607 0.036907077 0.006096287 0.0377962
000100 7d c2 a1 3c 5b 5f 75 bd da 2e 97 ba fe 1e 14 bc
       0.01974606 -0.05990539 -0.0011534349 -0.009040592
000110 ae 46 50 bc 05 5a 56 bd 16 39 13 bd 32 2f 1e bd
       -0.012712164 -0.052331943 -0.035943113 -0.038619228
000120 1b cb 6e bc c1 23 ae bb 94 58 75 3d 08 f5 fd 3c
       -0.014574791 -0.005314321 0.059898928 0.031000629
000130 05 5b 11 3d de ef 3a 3d 34 e0 47 3c 50 da 3b 3b
       0.035487194 0.04563891 0.01219945 0.002866406
000140 00 dc 22 bd be e3 4c bd f4 b7 33 3d f8 c6 11 bd
       -0.03976059 -0.05002188 0.043876603 -0.035590142
000150 69 c8 08 3d 46 29 0f bc 45 76 6b 3d 4f 59 1b 3d
       0.03339425 -0.008737868 0.057485837 0.03792697
000160 ef e1 26 3d 13 1b a5 bc cf e8 74 3d 8e 82 0b bd
       0.04074281 -0.020154512 0.059792336 -0.034060054
000170 1c 96 e1 3b 11 b0 41 3d 31 1f f5 bb e7 6f 09 3c
       0.0068843495 0.04728705 -0.007480525 0.008388496
000180 f4 fc 2b 3d e1 78 7a 3c d3 a9 0f 3d 46 9a 16 3d
       0.04198928 0.015287609 0.035074066 0.03676822
000190 36 3a fd 3b 19 6d b8 bb dd 20 08 bd 18 aa 6f 3d
       0.0077278866 -0.00562824 -0.033234466 0.058511823
0001a0 f3 0a 45 3d c9 2c 26 3c ea ab 08 3d cc 8a 1f 3b
       0.048106145 0.010142514 0.033367075 0.0024344204
0001b0 42 cd 65 bd 7d 06 18 bd dd 6c 20 bd f7 af 6c 3d
       -0.056103952 -0.037115563 -0.03916632 0.057785
0001c0 cd 49 ae bc c3 b1 75 3d c1 9f 01 bd 24 80 d4 3c
       -0.021275425 0.05998398 -0.031646494 0.025940008
0001d0 dd c5 b7 39 7e 6d 56 bd 13 ab c0 3c 44 51 7a 3d
       0.000350519 -0.052350514 0.023519075 0.061112657
0001e0 b9 23 2c bd 5d a3 22 3b e3 a7 90 3c 00 64 d3 bc
       -0.042026255 0.002481661 0.01765818 -0.02580452
0001f0 bd b9 2b 3c c1 3f 81 3d 0b 8a 09 3c d5 6d eb bc
       0.010481295 0.06310988 0.008394728 -0.028738895
000200 5b 36 6f bc da f8 4c 3d 1b 84 45 3d c6 e8 0a 3d
       -0.014600362 0.05004201 0.04822169 0.033913396
000210 e8 2b 37 3d d5 dd 4a bd 7f fe 5c bd 18 a7 40 bc
       0.044719607 -0.04952796 -0.053953644 -0.011758588
000220 2a b2 7e bd dd 90 0f 3d 97 40 33 3b 2f a4 f3 ba
       -0.06218163 0.03505026 0.002735173 -0.0018588359
000230 77 cd c2 bb 49 9b 7f bd 96 31 66 3c a1 c5 cb bc
       -0.0059449035 -0.06240395 0.014049908 -0.02487451
000240 12 59 6b bd 7d ea c4 bc 83 5c 6c 3c 90 87 b0 bc
       -0.05745799 -0.024037594 0.014426353 -0.021549016
000250 18 96 a5 bb 6d c6 95 bc 76 9b 6e 3d fc d9 c3 bc
       -0.005053293 -0.018283093 0.058253728 -0.023907654
000260 dd 1d 64 ba 48 fa 58 3d bb f3 9b bb c3 10 37 3b
       -0.000870196 0.05297306 -0.0047592795 0.0027933575
000270 1f 62 3e bd 47 50 99 bb 90 21 0f bc 99 35 81 bd
       -0.046480294 -0.0046787593 -0.008736029 -0.06309051
000280 ea b8 04 3c 59 65 57 bd fa 2a 07 bd d5 d3 5f 3d
       0.008100728 -0.052586887 -0.03299997 0.05464538
000290 ba a0 e2 bc 3c 16 b6 3c cb 0e 3f bd 75 4e 4e 3c
       -0.027664531 0.022227399 -0.046644967 0.012591948
0002a0 bc a0 50 bd 0d fe 16 3d c8 11 26 3d 1a 20 71 3d
       -0.05093454 0.036863375 0.0405443 0.058868505
0002b0 0c 5b 3f 3c fb 43 2d 3d a7 66 5e bd eb 93 6e 3d
       0.011679422 0.04230116 -0.054297116 0.058246534
0002c0 d9 15 4e bd b0 b9 5c bb 22 a5 77 bc 04 f0 33 3c
       -0.050313804 -0.0033680014 -0.015115054 0.010982517
0002d0 b4 53 da 3c 32 58 c0 bc 59 e7 1f bd e9 44 e6 3c
       0.02665124 -0.023479555 -0.03903899 0.02810903
0002e0 f5 0c b9 3b 94 b9 57 bd a1 84 5b bd 31 77 55 3b
       0.0056472966 -0.052667215 -0.05359328 0.0032572264
0002f0 6c b4 62 3d 44 58 4f ba dc 9b 69 3c 19 86 1d 3d
       0.055347845 -0.0007909576 0.014258351 0.038457964
000300 36 20 07 3d aa 12 1a 3d 5f b2 f6 bb 08 68 0d 3d
       0.032989703 0.037615456 -0.0075285877 0.03452304
000310 be b4 ac bc 89 f7 39 bc d7 1f a4 bc bd 45 84 3b
       -0.021082278 -0.011350521 -0.020034714 0.0040366338
000320 a5 92 28 3d 96 ac 17 3d 7e 50 34 3c 85 45 34 3d
       0.041155476 0.037029825 0.011005519 0.04401161
000330 22 3d 88 3c 61 e2 e8 bc eb d8 68 bd 84 ae fb bc
       0.016630713 -0.028428258 -0.056847494 -0.030722864
000340 74 f1 36 bc 2f 00 d5 bc 6c d8 a1 3c 7a 81 8f bc
       -0.011165965 -0.026001064 0.019756518 -0.017517794
000350 14 be 31 bd e6 c9 2f bd 5e e0 3d bc de 81 71 bd
       -0.043394163 -0.042917155 -0.011589138 -0.05896174
000360 8f 8e c3 bc 29 14 35 bd 5f 24 2c bc 32 57 5f bd
       -0.023871688 -0.04420868 -0.010506718 -0.054526515
000370 28 83 33 bb ba 62 fe 3c d0 41 11 bd ce dc 54 bd
       -0.0027391408 0.031052936 -0.035463154 -0.05196839
000380 58 1e 08 bd 78 6d c0 3c 60 63 01 bc b9 e3 91 3c
       -0.033232063 0.023489699 -0.007897228 0.017808782
000390 2a fa 40 3c de e3 ca bc 44 bb 0a 3d ef 58 4a 3c
       0.011778394 -0.024766859 0.033869997 0.012350305
0003a0 b0 07 46 3d 84 46 a9 3c 74 78 20 3c be 17 e0 3c
       0.048347175 0.020663507 0.009794343 0.027355071
0003b0 97 f6 19 3d 60 e2 a9 bc e8 b0 38 3c 08 d8 be bc
       0.037588682 -0.020737827 0.0112726465 -0.023296371
0003c0 a1 62 3e 3d 78 8e 79 bd f3 7b 28 3d 93 7f 27 bc
       0.04648078 -0.060926884 0.041133832 -0.010223287
0003d0 97 86 59 3d 69 bf 3e 3c be d6 4f 3b d9 5a 25 bc
       0.05310687 0.011642315 0.003171369 -0.010092461
0003e0 c5 5c 5b 3d 1d 14 4c bd b9 5c da bc fa 2e 4c bc
       0.05355527 -0.04982387 -0.026655542 -0.012462372
0003f0 69 d7 b1 3c d9 f5 4e 3c f8 d7 4e 3d f2 f8 b4 3b
       0.02170916 0.012631857 0.050498933 0.0055228407

layer2.0.bias f4 [84]
000000 4b f0 9e 3b 28 48 96 3b 41 f8 0a 3d de 4c c4 bc
       0.0048504225 0.0045862384 0.03392816 -0.023962434
000010 f7 25 7c bc ab 50 60 3d e8 44 37 bd 1d 4c 6f bd
       -0.015389911 0.05476443 -0.04474345 -0.058422197
000020 bc f0 c1 bc 4c a9 95 3c f5 1e a7 3c 71 da 39 b9
       -0.023674361 0.018269204 0.020400504 -0.0001772435
000030 f8 17 9b 3c 78 d2 a3 3c 19 14 14 bc b0 c5 0e bc
       0.018932328 0.01999782 -0.009037995 -0.008714125
000040 ee 47 3f bc cb 8f 16 3c cf 11 1d bd 67 9f 1b bc
       -0.011674864 0.009189556 -0.03834706 -0.009498454
000050 42 0c 0d 3c e5 e4 00 3d a4 76 c8 3c 71 c7 a7 3a
       0.0086088795 0.03146829 0.024470635 0.0012800527
000060 3e d7 0d bd e5 67 c4 3b 9b b1 6e bd c0 90 b4 39
       -0.0346291 0.0059938305 -0.058274847 0.00034440123
000070 06 60 e9 bc 5c 65 0e bb ad fc 2e bc 30 cc 49 3d
       -0.02848817 -0.0021727895 -0.01068036 0.049266994
000080 f8 b0 2f bc 9c ce 9e 3c 8b d1 10 3d 34 cb 0e 3d
       -0.010723345 0.019385628 0.035356086 0.03486176
000090 18 f6 c0 3b 94 ff 07 3d 6d e5 15 bb cc 81 ab 3c
       0.0058887117 0.033202723 -0.0022872344 0.020935915
0000a0 59 5d 42 bd 31 d6 1f 3d cc 04 96 bc 85 51 dd 3c
       -0.047452305 0.03902263 -0.018312834 0.02701641
0000b0 4f 92 95 bc 5c 46 47 bd 41 a8 8e bc 40 06 82 bd
       -0.018258242 -0.048651084 -0.017414214 -0.06348848
0000c0 1a 1d 08 bd 8d a0 ab bb ab b7 86 bc ee 6b c6 3b
       -0.03323088 -0.005237645 -0.016445002 0.0060553467
0000d0 da be e4 bc fa 14 02 bd a7 17 f0 3c f1 ee 36 bc
       -0.027923036 -0.031758286 0.029308153 -0.0111653665
0000e0 04 60 cf bb 65 63 7d 3d 5a 23 45 3c 84 de b5 bc
       -0.0063285846 0.061862368 0.012032354 -0.02220083
0000f0 4c 94 12 3d f9 83 67 3c 27 e1 7f 3d 8b e7 c9 bc
       0.03578596 0.014130586 0.06247058 -0.024646541
000100 2e 1e 82 bd cf 9e 32 bd c0 0d 81 bd 58 ae 29 bd
       -0.063534126 -0.043608483 -0.06301451 -0.041426033
000110 03 92 98 bc b3 3d 5b 3d a1 9c 36 bd 35 a0 1d 3d
       -0.018624311 0.053525638 -0.044582967 0.038482863
000120 56 4e b2 3c 8a b5 93 bc dd 0d 7b bd c8 d1 2a bd
       0.02176587 -0.0180309 -0.061292518 -0.04170397
000130 9e 41 d3 ba ef d4 67 3d 60 ae 38 bc 34 da 5d ba
       -0.0016117578 0.056599554 -0.011272043 -0.0008462996
000140 e6 60 70 bd 32 d6 47 bd 8f 79 04 3a 1b c4 fd 3b
       -0.05868616 -0.048788257 0.0005053514 0.007744325

layer3.0.weight f4 [8, 84]
000000 ea 7e 70 3c 3b 31 9b 3d 45 ec a9 3d f2 5d d4 3d
       0.014678696 0.07577749 0.08297018 0.10369481
000010 11 e6 a3 bd 26 58 d5 3d 8e 88 d1 3d 42 ff 8e 3d
       -0.08002866 0.104172036 0.10231124 0.0698228
000020 67 8d e9 bc c4 46 95 3b 6d e4 e7 3b 05 d1 a1 3a
       -0.028509809 0.004555555 0.007076791 0.0012345618
000030 44 95 84 bd a9 15 7e bd bc 85 b2 bc 6a 31 0e bd
       -0.06473783 -0.062032375 -0.021792285 -0.034715094
000040 32 eb c1 3d a6 4e 8b bd de 9c b9 3d 51 3f bf bd
       0.09468688 -0.068021104 0.09063123 -0.093382485
000050 9f 54 ef bc d0 36 85 3d a5 34 b3 3d fc 5b 69 3d
       -0.029215155 0.06504595 0.087502755 0.05697249
000060 3c cb 82 3d de b4 03 bc d9 64 86 3d 23 01 95 3d
       0.0638642 -0.008038728 0.06562204 0.072756074
000070 a5 3b 8f bd 00 e3 c9 bd 1a 20 db bc c3 5d 2f bd
       -0.06993798 -0.0985775 -0.026748706 -0.042814028
000080 a0 83 be bd 86 6b b1 bd c1 b6 76 3c 08 df a0 3c
       -0.09302449 -0.086630866 0.01505822 0.0196376
000090 ab 41 dc 3a af 1d 72 bd f3 2b b2 3d 68 4f 9a bd
       0.0016804239 -0.05911034 0.08699789 -0.07534677
0000a0 fc 69 16 3d 4d ca 5e bd 3c ec ea 3c 34 e0 6f 3d
       0.03672217 -0.054392148 0.028677098 0.058563426
0000b0 83 d3 6a bd f0 a9 c8 3d 04 0d f6 bc a1 03 80 3d
       -0.05733062 0.09798038 -0.030035503 0.06250692
0000c0 af 5b d0 3d 13 8a b8 3d 1a b0 a5 bd de 8a ce bc
       0.10173737 0.090107106 -0.08090229 -0.025212701
0000d0 38 0d 1f 3d d0 38 89 3d a7 26 86 3d f3 a9 95 bd
       0.038830966 0.06700289 0.06550341 -0.07307806
0000e0 c4 71 9d 3d df 09 9a bd 43 6f 3a bc 2f 7a ff bc
       0.07687715 -0.07521414 -0.011379066 -0.031186191
0000f0 58 3e 83 bd 15 26 b2 3d 7c 5a 10 bd 5a b2 b9 3d
       -0.064083755 0.0869867 -0.035242543 0.09067221
000100 14 8b 5a bd 33 0d 3d bd d9 e4 96 bd e1 c3 e1 3d
       -0.05335529 -0.046155166 -0.07367868 0.11023689
000110 ec 8b e5 bc 67 a8 c7 bd 29 58 11 3d dd 8c bd bc
       -0.028020822 -0.09748917 0.035484467 -0.023138458
000120 3f 6c 85 3b cd 44 20 3d a7 0f c9 3d a4 eb 6f 3d
       0.004071742 0.039128114 0.098174386 0.058574334
000130 68 a5 88 3c 51 a2 b3 bd b7 4e 90 bd 28 07 71 3c
       0.016680434 -0.08771194 -0.07046264 0.014711179
000140 09 a3 8b ba 5b ca d0 bd a8 5e ab bd 82 1e 89 3c
       -0.0010653447 -0.10194846 -0.083676636 0.01673818
000150 e4 fa b5 3c 26 aa 64 bd a2 c1 26 3d 1c 15 e4 3c
       0.02221436 -0.05582633 0.040712006 0.027842097
000160 ee d6 d4 bd 45 ca 3d bd 66 eb 43 3c 2f 0a 0b 3d
       -0.10392557 -0.046335477 0.011957979 0.03394526
000170 24 8d d9 ba 0a ce 3f 3c 9a 6c c7 3c cd 73 12 3d
       -0.0016597849 0.011706838 0.024343777 0.035754967
000180 ad 78 73 bd d4 84 50 bd a1 cf b3 3d e8 bd 03 3c
       -0.059441257 -0.050907925 0.087798364 0.008040883
000190 6d e8 8e bb 7e a0 dc bd a1 41 67 bd c8 16 b7 3d
       -0.0043612034 -0.10772799 -0.056459073 0.08939892
0001a0 f8 00 e2 bc 62 60 8e bd 9c 50 cc bd c5 32 5d bd
       -0.027588353 -0.06951977 -0.099763125 -0.054003496
0001b0 ca 70 12 bd 66 a0 a1 bd 6a 22 2b bd ff d4 7e bd
       -0.035752095 -0.07891922 -0.041780867 -0.062214848
0001c0 09 b0 4b bc ba 2b 56 3c cb f0 d6 3d ca 05 e0 3a
       -0.012432107 0.013071949 0.10495146 0.0017091569
0001d0 44 59 c4 bd f1 72 6d bd de d8 b7 3d 40 26 13 bd
       -0.095873386 -0.057970945 0.08976911 -0.03592515
0001e0 e0 67 ac 3c d6 13 01 3d 4b 2d ca bd 41 8f bd 3d
       0.021045625 0.031513058 -0.0987192 0.09255839
0001f0 36 79 c0 bd f6 66 b1 3d a2 09 64 3d 07 c9 a1 bd
       -0.09398119 0.08662216 0.05567325 -0.07899671
000200 9c e3 e2 3c a3 1e 6e bd 7d ed 1f 3d 27 e6 d5 3d
       0.027696423 -0.058134686 0.039044846 0.10444289
000210 b5 bd f5 bc 39 59 bf bb fe 8a b2 bd 28 ad a9 bd
       -0.029997686 -0.0058394936 -0.08717917 -0.0828498
000220 80 3b a0 bd 90 2f da 3c 3a 2b ae bc 4d b4 b2 3c
       -0.07823849 0.026634008 -0.021260846 0.02181449
000230 ee 55 88 bd 63 80 0d 3d 16 4a 8d bd 0e 09 0f 3d
       -0.06657015 0.034546267 -0.068988964 0.034920745
000240 ef 2f 49 bd 05 a4 1d 3c e0 f2 00 3d 4f 0b a3 bb
       -0.04911798 0.009621625 0.031481624 -0.0049757133
000250 16 27 e8 3b af 26 c6 3d 7f db 1b bd ba f7 d1 3d
       0.0070847375 0.09675347 -0.038051125 0.10252328
000260 d5 3a 10 3b 43 fb da bd 67 9d aa 3c ba 2b 96 bd
       0.0022007723 -0.106924556 0.020827008 -0.07332559
000270 77 dd c9 bd e8 1b a1 bd 48 8c 9c 3d b9 da c5 3d
       -0.09856694 -0.07866651 0.07643944 0.09660859
000280 2f ab ba 3d 24 b5 77 3d df 99 d8 bb 44 11 1f bd
       0.09114682 0.060475484 -0.0066101397 -0.038834825
000290 0d 0a 83 bd 24 6a 58 3d 7f 1f 97 3d 57 3f db bc
       -0.063984014 0.0528356 0.07379054 -0.026763601
0002a0 7d 09 1d bd 93 62 3b bd e0 fd 5a bd 5d 7f c3 3d
       -0.038339127 -0.045748305 -0.05346477 0.09545777
0002b0 b6 d9 c6 3d fa eb 8b 3d e5 05 29 3c 10 59 d1 bd
       0.09709494 0.06832118 0.010316347 -0.102220654
0002c0 66 0d ff bc 88 a3 cf 3c 04 c3 cb bd b9 5a 72 bd
       -0.031134319 0.025346532 -0.09949306 -0.05916855
0002d0 56 c8 90 bd ee aa 2d bd bd 50 e0 bd d1 63 ce bd
       -0.07069461 -0.04239934 -0.109528996 -0.10077632
0002e0 2b 56 98 3d 6d 55 de 3d 12 e2 e9 bc 37 ca ac 3c
       0.0743831 0.108561374 -0.028550182 0.021092517
0002f0 d3 78 8e 3d 8f 43 52 3d 70 74 9a 3b 12 e9 ed 3c
       0.06956639 0.05133396 0.0047135875 0.0290418
000300 50 35 db bd 69 32 66 3d c3 67 5c 3d 82 77 b7 bd
       -0.10703528 0.05620042 0.053809892 -0.08958341
000310 6a 35 96 bd f5 6e 20 bd 59 1b 5b bd fe 2b 2d 3d
       -0.07334407 -0.039168317 -0.053492878 0.042278282
000320 ea bb a3 bd 81 da a1 bd df 00 ae bd 26 b9 31 3d
       -0.07994826 -0.079030044 -0.0849626 0.043389462
000330 f5 61 a6 3d b4 8b 8c bd 19 6c 31 3d 29 e4 67 bd
       0.081241526 -0.06862584 0.04331598 -0.056614075
000340 18 28 94 bd e2 9c 20 3d 44 e2 25 bc c1 bc ae 3d
       -0.0723421 0.039212115 -0.010124747 0.08532096
000350 47 07 cb 3c 4f a1 90 3d 11 61 1b bd 71 f4 b7 bd
       0.024783744 0.07062017 -0.037934367 -0.089821704
000360 e9 77 d2 3c ab ff ad bd d8 fb d7 3d cf a4 b2 bd
       0.025691943 -0.084960304 0.10546082 -0.08722841
000370 0f 79 a9 3d ce 80 92 bc 90 92 ca 3d 6c 37 1e bd
       0.08275043 -0.017883684 0.09891236 -0.038627073
000380 cf 3d e2 3c c8 b6 12 3d 7f 41 60 3d 19 79 b4 3d
       0.027617363 0.035818845 0.054749962 0.0881216
000390 f4 46 76 bc 9d 85 e3 3c f6 dc 9b 3d f7 5e b8 bd
       -0.015031565 0.027773673 0.07610504 -0.09002488
0003a0 dd cb fd bc 30 18 3e bd 1f 9d a3 3d 1d d2 01 3d
       -0.030980999 -0.046409786 0.07988953 0.03169452
0003b0 38 26 d4 3d b3 4c ac bc 53 15 c9 3d c6 81 82 bd
       0.10358852 -0.021032667 0.098185204 -0.063724086
0003c0 a3 c9 ca 3d a2 43 c2 bb cb 01 b6 bd ac 1d 1d 3d
       0.099017404 -0.0059284726 -0.08887061 0.038358375
0003d0 7e 9c 0a 3c ad ec 1d 3d 86 17 ad 3d 32 a9 d6 bc
       0.008460162 0.03855579 0.08451752 -0.026203725
0003e0 65 a6 bb 3c ab 00 9d 3d 69 3e 84 bd 5f 67 8b 3d
       0.022906492 0.07666143 -0.06457216 0.06806826
0003f0 36 81 d0 3b c3 14 d9 3d e9 dd 11 bd 7b d5 bb 3d
       0.0063630594 0.10599663 -0.03561202 0.091715775

layer3.0.bias f4 [8]
000000 d5 f3 5b bd 88 84 c5 bd 64 46 50 bd e9 d1 8c bd
       -0.053699333 -0.09644419 -0.05084838 -0.06875975
000010 15 c5 fd 3b 02 b4 a5 bd 39 eb ee bc 9f ab 21 3b
       0.0077444413 -0.080909744 -0.029164897 0.0024668945
