DigitalRecognition-master/model_params/GDUT_net_all_8.pt (torch, 665623 bytes, 6 tensors)

layer1.0.weight f4 [256, 560]
000000 b8 f7 7e 3c 3c d1 b8 bc 5c 50 89 3c b0 e6 c9 bb
       0.01556199 -0.022560708 0.016761951 -0.0061615333
000010 90 00 50 3c b4 9e 92 bc f4 e4 52 3c 10 b8 5f bb
       0.012695447 -0.017897941 0.0128719695 -0.003413681
000020 78 17 4e bc f6 1e 20 bd bb 4f 08 bd 86 b2 de bc
       -0.012578838 -0.039092027 -0.033279162 -0.027184736
000030 be fc 29 bd 68 c1 21 3d d8 ce ac 3c 20 2f 9c 3a
       -0.0415008 0.039491087 0.021094725 0.00119159
000040 e6 7d 18 3d 07 18 01 bd ee a9 2a bd 18 3b c3 bb
       0.03722944 -0.031517055 -0.041665964 -0.0059579723
000050 4c d8 4e 3c 5c 7d c3 3c 6c 65 bd 3c b0 d1 b0 3c
       0.012624811 0.023863487 0.02311965 0.021584362
000060 4e 14 a4 3c 1c 17 db bc ac 37 d3 3c 6a 96 8e 3c
       0.020029213 -0.026744418 0.025783382 0.017405707
000070 b8 72 29 3d 19 46 09 bd 68 b6 84 3b 40 5d ad 3c
       0.04136917 -0.033514116 0.004050065 0.02116263
000080 e1 80 17 bd a2 01 9d 3c c4 a8 e3 bc d0 2b b5 3c
       -0.036988143 0.019165818 -0.027790435 0.022115618
000090 ea ef 1f bd a2 10 b1 bc a4 a1 60 3c d6 76 52 bc
       -0.03904716 -0.021614376 0.013710413 -0.0128457155
0000a0 5c b2 a7 3c f8 98 c8 3b 00 f3 e5 3c 52 35 26 bd
       0.02047079 0.006121751 0.028069973 -0.040578194
0000b0 e8 3d e9 3c 40 f2 91 3c f4 8c 9b bc f1 8c 26 bd
       0.028471902 0.01781571 -0.01898811 -0.040661756
0000c0 e0 17 21 3d 96 15 8b bc 17 48 e4 bc 4f a9 18 bd
       0.03932941 -0.016978066 -0.027866406 -0.03727084
0000d0 8e cf cb bc 60 48 f7 3b f6 15 10 3d 40 65 e1 3b
       -0.024879243 0.0075464696 0.035177194 0.006878525
0000e0 38 59 18 3d e0 d1 88 3c 4d 84 13 bd d8 65 88 bb
       0.03719446 0.016701639 -0.036014844 -0.0041625313
0000f0 d7 37 24 bd 00 26 d1 3a 12 5e 59 bc 40 c5 be 3c
       -0.040092316 0.001595676 -0.013267057 0.023287416
000100 48 0a e9 bb 7c 2a 5d 3c cc d6 a8 3c 79 17 11 bd
       -0.0071118213 0.013498899 0.020610236 -0.035422776
000110 e0 d3 ed 3c 74 ac e4 3c 74 23 16 bc 2c be d8 3c
       0.029031694 0.027914263 -0.009163726 0.026457869
000120 d5 6a 14 bd d8 a2 9a bb 90 c4 c6 3c 30 76 f5 bb
       -0.036234695 -0.0047191195 0.02426365 -0.0074908957
000130 0a ff 03 bd 00 89 58 3a db 0a bf bc 80 dd 65 bb
       -0.032225646 0.00082601607 -0.023320606 -0.0035074651
000140 38 40 ec bb e8 fd f0 3b 48 b8 e3 3c cc 57 f4 3c
       -0.007209804 0.0073544867 0.027797833 0.029827021
000150 aa 59 2c 3d 6a 52 f6 bc 40 cb 17 bd 96 29 12 bd
       0.042077698 -0.030068595 -0.03705907 -0.03568419
000160 47 11 b0 bc b4 b5 05 3d c0 0d 01 3c 64 1b 08 bd
       -0.021492613 0.03264399 0.007876813 -0.033229247
000170 f0 11 66 3b d8 1a b8 3c 5f c1 8d bc 52 f0 55 bc
       0.0035105906 0.022473738 -0.01730412 -0.013057785
000180 e4 9a 00 3d 00 88 13 3b 25 d6 d7 bc 68 a6 bd 3b
       0.031397715 0.0022511482 -0.02634723 0.0057876594
000190 70 f4 66 3c f8 4c 73 bc d8 2c 39 3c e0 a6 ff ba
       0.014096364 -0.014849894 0.0113021955 -0.0019504689
0001a0 dc d0 d1 bc 20 ac b8 3a c4 bf cd bc c9 92 d0 bc
       -0.025612287 0.0014089383 -0.025115855 -0.025460618
0001b0 44 f3 cd 3c b5 7d 93 bc 2f 7d 19 bd f8 a5 e6 bc
       0.025140412 -0.018004278 -0.0374729 -0.028155312
0001c0 43 97 a7 bc f9 b0 d6 bc a4 6a 2b bd da b4 89 3c
       -0.02045787 -0.026207434 -0.041849747 0.01680987
0001d0 40 ec de 3c b4 46 43 3c d0 f2 37 3b 96 c3 ed bc
       0.027212262 0.011918712 0.0028068312 -0.029023927
0001e0 28 19 f4 3c 40 7e 02 ba 2a ea de bc 78 bd 52 3c
       0.029797152 -0.0004977919 -0.027211268 0.012862556
0001f0 46 a6 27 3d 60 e1 85 bb f9 c4 05 bd 0e e0 b9 bc
       0.040930055 -0.0040857047 -0.03265855 -0.022689845
000200 78 ec 93 3c 7c f9 1e 3d da 56 d4 bc bc 15 8c 3c
       0.018057093 0.038812146 -0.02592032 0.017100208
000210 03 a6 84 bc 00 63 f8 ba 78 53 82 bb 78 be 96 3b
       -0.016192442 -0.0018950403 -0.0039772354 0.0046003424
000220 1c 62 82 3c 0a 61 1f bd 80 bd dc b9 70 69 22 3d
       0.015915923 -0.038910903 -0.00042102858 0.039651334
000230 18 00 12 bd 38 bf 16 3d b0 22 11 3d f2 d8 14 bd
       -0.03564462 0.036803454 0.03543347 -0.036339708
000240 f5 1b 8b bc c8 06 d2 3b 9e c6 72 bc 35 b8 da bc
       -0.016981104 0.0064095 -0.014817862 -0.026699165
000250 04 38 2a 3d a0 c2 64 3b d0 e7 f0 3c 32 9f 1c 3d
       0.041557327 0.0034906045 0.029407412 0.038237758
000260 77 bd 1c bd b8 f1 b5 bc 30 75 1f 3d 86 4b 08 bd
       -0.038266625 -0.022209987 0.038930118 -0.03327515
000270 d2 fa e3 bc 1c a8 3b 3c 38 f5 f1 3c 58 af fe 3c
       -0.027829561 0.011453655 0.029535875 0.03108947
000280 a6 b7 7d bc 5c 60 24 3d da fd 0f 3d 50 bb 86 3c
       -0.01548568 0.040130958 0.0351542 0.01644674
000290 94 4a c4 bc 20 72 0b 3b c4 bb 3a 3c c0 b4 28 bd
       -0.023961343 0.002127774 0.011397306 -0.041188
0002a0 52 44 06 bd 1e ff 8a 3c 3c 54 0d bc 64 19 dd 3c
       -0.03278 0.016967352 -0.00862604 0.026989646
0002b0 d8 46 0a bc c7 87 13 bd 80 0d e6 b9 84 3c 18 3c
       -0.008439742 -0.03601816 -0.00043879077 0.009291772
0002c0 20 91 96 3c ba 6f 73 bc 60 d9 f9 bc 60 08 e4 ba
       0.018379748 -0.014858181 -0.03049916 -0.0017397515
0002d0 28 7b f1 bc f6 ef 10 bd a4 75 3a 3c 9c 22 cf 3c
       -0.02947767 -0.035385095 0.011380587 0.025285058
0002e0 90 39 d3 3c b8 ff b9 3c b8 57 2f 3c c6 0d 9a 3c
       0.025784284 0.022704944 0.010702066 0.018805396
0002f0 8c 34 f7 bc 48 75 1e bd ee 18 1f 3d 6d b0 d0 bc
       -0.030176423 -0.038686067 0.038842134 -0.025474751
000300 50 0c c0 bb e5 9c bd bc 40 2a 60 bb fa ab 91 3c
       -0.0058608428 -0.023146102 -0.003420487 0.0177822
000310 b0 19 d4 3c 1e 89 15 bd 47 a3 e6 bc c7 27 1b bd
       0.025891155 -0.03650772 -0.028154029 -0.03787973
000320 16 79 0c 3d d0 21 1c 3d fe 72 e0 bc 38 23 01 3c
       0.034295164 0.038118184 -0.027398583 0.007881932
000330 80 5a 00 3c a2 ab b5 bc c8 ab 94 bb 21 c7 dc bc
       0.007834077 -0.022176567 -0.0045370795 -0.02695042
000340 88 df 7e bc 94 65 ed 3c ad a4 0f bd 58 07 d4 bc
       -0.015556224 0.0289791 -0.035069156 -0.025882408
000350 ab 52 ae bc 10 e4 f2 3c 80 64 84 39 ed c0 94 bc
       -0.021279654 0.029649764 0.0002525188 -0.0181584
000360 40 fc 24 bd 40 50 95 3b f6 be 98 3c f8 34 16 bc
       -0.040279627 0.0045566857 0.018645745 -0.009167902
000370 da 8f 18 bd d5 8d e2 bc c0 2f 34 bb b8 ae b0 bb
       -0.037246563 -0.027655521 -0.0027494282 -0.005391922
000380 d4 78 d1 3c d0 95 6e 3c 08 f9 df 3b c0 ac 3e bb
       0.02557031 0.014562085 0.0068351068 -0.0029094666
000390 1e 50 e2 bc ae 79 81 3c fe fd 26 3d bc d7 27 bd
       -0.027626093 0.015805092 0.04076957 -0.040977225
0003a0 fc 4b a9 bc 68 64 7f 3c 8e b6 a3 bc b8 71 2b bd
       -0.020666115 0.015587904 -0.01998451 -0.041856498
0003b0 a4 22 7e bc c8 43 02 3d b8 19 73 3c 67 71 2a bd
       -0.015511189 0.031802922 0.014837675 -0.041612055
0003c0 bc e8 06 3c 30 3e a2 bb 6e 0c 86 3c a8 35 ac 3c
       0.008234199 -0.004951261 0.016363349 0.021021679
0003d0 6c 30 0d bc 38 5f 19 bd 98 79 b4 3b f0 ce 60 bb
       -0.008617502 -0.037444323 0.005507659 -0.0034303032
0003e0 48 ef fc bb b4 fc 24 3c 0c 5f 44 3c 40 c8 e6 bc
       -0.0077189542 0.010070015 0.011985552 -0.028171659
0003f0 40 6a ed 3a 54 d1 08 3d e8 0f 3e bc 18 44 99 3c
       0.001811333 0.033402756 -0.011600472 0.018709227

layer1.0.bias f4 [256]
000000 f0 0f 76 3c 87 fb 06 bd d4 29 bd bc 19 13 78 3c
       0.015018448 -0.03295472 -0.023091234 0.015141272
000010 b7 a6 11 bd 73 37 6f bb 2b f9 ab 3b 57 f1 98 3c
       -0.035559382 -0.0036501556 0.005248209 0.018669767
000020 d5 eb 1a bb 8d 54 88 bc e7 e0 fa 3c 70 71 c1 3c
       -0.0023639102 -0.01664188 0.03062482 0.023613662
000030 e4 aa aa 3b a7 25 26 3d 1e d5 e8 3c 1b 68 17 bd
       0.00520836 0.04056325 0.028421935 -0.036964517
000040 7d 38 23 3d c6 33 b6 3b 4b 5f 51 3c 85 e4 27 bd
       0.039848793 0.005560371 0.012779067 -0.040989418
000050 8f fc e5 3c d6 f6 af 3b b1 a6 ad bc 7c 84 ff bc
       0.02807453 0.0053700013 -0.021197649 -0.031191103
000060 3d b1 15 3d ff 7a 16 bd ae c0 ee bb 2a 93 85 3b
       0.03654598 -0.036738392 -0.007286153 0.004076381
000070 4d 6d 0d bd e5 fe e4 bc 66 1d dc 3b 62 e7 26 3d
       -0.034528065 -0.027953574 0.0067173718 0.040748008
000080 4e ab 85 bc c8 23 c3 bc 85 8c da bb 81 df 90 bc
       -0.016317036 -0.023820773 -0.0066695833 -0.0176847
000090 78 9a 89 3c 55 d7 dd 3c 79 31 ed bb d7 6b 89 3b
       0.01679729 0.027080217 -0.0072385636 0.0041937637
0000a0 41 66 c0 bb 02 48 5b bc f6 02 fa bb 23 59 11 bd
       -0.0058715646 -0.013383867 -0.0076297475 -0.035485398
0000b0 41 c3 6e bc 07 8b d0 bc e1 a9 1b 3d c7 86 a5 3c
       -0.014572919 -0.025456918 0.038003806 0.020205868
0000c0 83 35 22 3c 33 49 18 bd 94 df e2 bc 04 9e a5 3c
       0.0099004535 -0.037179183 -0.027694501 0.02021695
0000d0 88 2a 0e bd b3 5d f1 3c 98 7d 05 bd 10 86 01 3d
       -0.03470853 0.029463625 -0.03259048 0.031621993
0000e0 72 03 a8 3c 4d 9f 1e bd 1e 24 d0 3c 97 93 00 bd
       0.020509455 -0.03872614 0.025407847 -0.031390753
0000f0 44 2d e1 bc 11 38 df bc e0 36 75 3b 7a 38 2a bd
       -0.027487405 -0.027248414 0.0037416741 -0.041557766
000100 7a b2 76 3c 7e 54 44 bc 97 b8 fc bb 9b f4 b6 bc
       0.015057201 -0.011983035 -0.0077124345 -0.022333434
000110 2b 72 b0 3c 2d b4 a3 3c 61 0d e3 bc 4f 05 fe 3a
       0.021538815 0.019983375 -0.02771634 0.0019380244
000120 4a 97 fd bc 90 8c 31 bc c4 84 1b bd 27 6b 8f b9
       -0.03095593 -0.010836735 -0.037968412 -0.0002735492
000130 e6 a3 15 3d 48 c0 00 bb 61 6c d1 bb cf a1 8c bb
       0.03653326 -0.0019645859 -0.0063910936 -0.00429175
000140 13 13 f7 bb 30 1a 1a 3d 8b 71 0f 3d 2b 98 1f 3d
       -0.0075401156 0.03762263 0.035020392 0.038963478
000150 8e 70 01 bc a9 02 0a bd 9b 43 25 bd d2 74 d0 3b
       -0.00790037 -0.033693943 -0.040347677 0.0063615823
000160 df bc 05 bd 7b 37 0f bd cd ea f4 bc ee 83 a5 3b
       -0.032650825 -0.03496502 -0.029897118 0.0050511276
000170 e6 c5 6a bc 1c 3a 7d b9 a5 a0 1e bd cb 2d 56 3c
       -0.014329409 -0.00024149608 -0.03872742 0.013072441
000180 e0 a7 e3 bc a1 c6 c3 3b 84 ce ed 3b f9 b6 76 3a
       -0.02779001 0.005974606 0.0072572846 0.00094114203
000190 25 33 09 bd da 38 2b 3d d8 a4 dd 3c 99 d2 d1 3c
       -0.03349604 0.041802265 0.027056143 0.025613116
0001a0 8d 64 05 bd dd e2 ff ba 77 6a 4e 3c 03 0a 1f bd
       -0.032566596 -0.0019522567 0.012598625 -0.038827907
0001b0 91 6a bf 3c 05 81 bb bc 1e f5 1a bd d2 a5 5b bc
       0.023366245 -0.02288867 -0.03783142 -0.013406234
0001c0 44 4b 23 3c b5 10 18 3d 6a 24 cf bc 40 13 82 3c
       0.009966675 0.037125308 -0.025285918 0.01587832
0001d0 fd 46 d8 3b f1 2e 74 3c 54 0c 00 bc cb 34 1c bd
       0.0066002593 0.01490377 -0.007815439 -0.038136285
0001e0 4c fc e9 3b 44 3a 92 3c 90 84 99 ba 9d da 9a 3c
       0.007140672 0.017850049 -0.001171248 0.018903071
0001f0 ad 34 27 3c 90 bc 50 bc c0 73 32 bc d6 ef 26 bd
       0.01020543 -0.012740269 -0.010891855 -0.04075607
000200 9c d8 9f bc f0 41 22 3d 3d 65 9c 3b d5 77 14 3d
       -0.019512467 0.039613664 0.0047728107 0.036247093
000210 45 d9 f2 3c 6e 91 a3 3b 9f cc 80 3c 57 ac 04 bd
       0.029644618 0.004991702 0.015722571 -0.03239092
000220 5f f8 b8 bc fe 44 a6 bc 9e 3c 61 bc 75 40 1d bd
       -0.02257937 -0.02029657 -0.013747362 -0.03839155
000230 2e ee 46 3c 5e 5b 41 3c ee e9 68 3c b8 a2 16 bd
       0.012141747 0.011801569 0.014215929 -0.036776274
000240 40 01 cf bc e5 df f0 3c a2 7f d2 3c a7 81 3b bc
       -0.02526915 0.029403636 0.025695626 -0.011444486
000250 7f 53 8f bc 51 f4 e2 3c 5b 76 26 3d ce 1c 9f bc
       -0.017495869 0.02770439 0.040640216 -0.019422915
000260 a9 99 ce 3c 40 6c b8 bc c9 9a 23 bd a2 5a d8 bc
       0.025219755 -0.022512555 -0.039942537 -0.026410405
000270 3e 4e a7 3c 8a f2 0f bd 10 a8 75 bc 2a 82 8d bc
       0.020423051 -0.035143413 -0.0149936825 -0.017273981
000280 d8 4c ce 3c d4 fd be bc 47 0b c0 3b de 14 a4 3c
       0.025183126 -0.023314394 0.0058607194 0.020029482
000290 4d b7 02 bd 2a 39 f5 bc 0b b8 49 bc d4 c0 84 3c
       -0.03191309 -0.029934485 -0.012311946 0.016205229
0002a0 65 00 7f 3c 5a 02 bb bc 53 0a 8d 3c 2f a9 29 3d
       0.015564059 -0.02282827 0.017216837 0.04142111
0002b0 74 e4 30 3d 97 44 75 3c 4f c0 19 bc 26 25 be bc
       0.04318662 0.014969966 -0.009384229 -0.023211073
0002c0 54 3e 4d 3c 31 67 d5 bc 95 0d 08 bd 68 3e 17 3d
       0.012527067 -0.026050182 -0.033216078 0.03692475
0002d0 48 17 c6 3c 4d 05 47 3c 1c ab c2 bc 9b 5d fd bc
       0.024181023 0.01214726 -0.023763232 -0.030928424
0002e0 33 c4 6b 3b d0 fb 15 3d 78 b1 1f 3d e5 5e f5 bc
       0.0035975098 0.0366171 0.038987607 -0.029952476
0002f0 42 a9 35 bc 6f 1c 5f 3c 71 c6 f6 3c 6d d3 f3 bc
       -0.0110877175 0.013617619 0.030123921 -0.029763902
000300 01 91 ed bc 05 5e 95 bc a5 5c 07 bd 60 e1 37 3c
       -0.028999807 -0.018233309 -0.033047337 0.011223167
000310 5e cd 96 3c 87 7d d4 3b c5 87 76 3c bb 44 6c 3c
       0.018408474 0.0064846906 0.015047018 0.0144206835
000320 03 cb 44 bb cd d4 23 bc d4 20 7d 3c 78 0d 93 bb
       -0.003002823 -0.009999466 0.015449721 -0.0044876896
000330 42 24 0b 3d fd 52 62 bc 06 e6 81 bc 32 b5 a0 bb
       0.033970125 -0.013813731 -0.015856754 -0.0049044127
000340 c5 a4 96 3c 34 92 3a 3b c4 dc 1d bc 32 29 7a ba
       0.018389115 0.0028468492 -0.009635154 -0.0009542882
000350 70 9b da bb f9 2e 82 3c 1c 56 b3 bc a7 45 7f ba
       -0.0066713616 0.015891539 -0.021891646 -0.0009737857
000360 dc 6b 5a 3c 4b 69 1e 3d 28 f8 46 3c bc 6e b0 bb
       0.01333138 0.038674634 0.012144126 -0.0053842943
000370 70 a6 19 bd d2 10 25 3d f7 e5 42 3b 2a 49 0c 3d
       -0.037512243 0.040299244 0.002973912 0.034249462
000380 06 c4 e1 bc f2 a1 18 bd c2 31 2d bd f4 cf 99 bc
       -0.027559292 -0.037263818 -0.04228378 -0.018775918
000390 38 49 86 bc b5 ef 1c bd 54 53 8a bc 77 34 bd 3b
       -0.016392335 -0.03831454 -0.016885437 0.0057740766
0003a0 d9 2e 07 3d 64 91 86 3c b9 4b 99 bc 10 8c d4 3a
       0.03300366 0.01642675 -0.018712865 0.0016216058
0003b0 cc 45 40 bb dd de 01 3c 1f 82 c2 3c 01 83 f0 bc
       -0.0029338477 0.00792667 0.023743687 -0.029359343
0003c0 3b a1 01 3d 2e 6c 1c bc bd be 18 bd d3 99 f2 3b
       0.031647902 -0.009547276 -0.037291277 0.007403591
0003d0 68 21 23 3d 5b 4a b9 3a 2f a3 0e bd 53 4b f8 bb
       0.03982678 0.001413654 -0.034823593 -0.0075773387
0003e0 5b bb 5f bc ae c8 98 3a 0c d8 ba 3c 68 24 46 3c
       -0.013655509 0.0011656487 0.022808097 0.012093641
0003f0 89 f4 0b bd c8 23 1c 3b 83 49 95 bc b9 9f d0 bc
       -0.034168754 0.0023825038 -0.01822353 -0.025466787

layer2.0.weight f4 [84, 256]
000000 a8 c3 1c 3c 3b c7 5a bb 84 28 03 3d 73 4d 35 bc
       0.009568132 -0.003338291 0.03202106 -0.011065829
000010 90 2b 71 3d 75 b0 06 3d 63 61 c8 3c ef e6 19 3d
       0.058879435 0.032883126 0.0244605 0.03757375
000020 c5 8e 55 3d 93 80 de 3c 04 c0 dc 3b 70 25 28 bc
       0.05213811 0.027160918 0.0067367572 -0.010262832
000030 58 a7 4d 3c ba d4 98 3c d8 81 7c bd 7c 06 29 bd
       0.012552105 0.018656123 -0.061647266 -0.04126595
000040 45 ce 18 bd b4 6e be 3c 7b ff 10 3d e3 fa ba 3c
       -0.03730609 0.023246147 0.035399895 0.02282471
000050 ac 87 15 bd 74 e7 a7 3c 57 3f 1b 3d 29 dc 37 bb
       -0.03650634 0.020496108 0.037902202 -0.002805481
000060 31 46 ec 3c d9 e6 ed bc 4e 90 54 3d 87 1f 48 bd
       0.028842064 -0.02904074 0.051895432 -0.04885819
000070 5b 85 01 3d ca f9 72 bd 63 71 18 bb e5 2d 77 bd
       0.03162132 -0.05932025 -0.0023260943 -0.060346503
000080 77 57 37 3d 64 59 02 bd 25 61 22 bc 62 69 54 3c
       0.044761147 -0.03182353 -0.009910856 0.012964578
000090 49 e1 ad 3c 5b 11 d7 3c 97 bc 5d bd ba 46 d2 3b
       0.021225588 0.026253393 -0.05413493 0.0064171227
0000a0 e9 d9 07 3d 37 55 1e 3d 9a e7 10 3d 64 48 77 3c
       0.0331668 0.038655486 0.035377122 0.015092943
0000b0 bd eb 8b 3c 78 8c f3 3c ff 94 7d bd 04 7a ac 39
       0.017080182 0.029730067 -0.061909672 0.00032897305
0000c0 57 d0 0b 3d 0b 0e b9 3a 23 e3 e5 bc ed 1a 6d 3d
       0.034134235 0.0014118565 -0.028062409 0.057887007
0000d0 88 75 28 bc 6c a4 17 3d 7c a2 c8 3c 26 22 52 bc
       -0.010281928 0.03702204 0.024491541 -0.012825524
0000e0 6d 49 e8 bc 32 76 99 bc 0e 33 46 bc 4a a5 ba 3c
       -0.028355325 -0.018733118 -0.012097133 0.022783894
0000f0 c4 d3 9c 3c c9 bf 18 3d 20 5b a1 bb 3a da 78 3c
       0.019143946 0.037292276 -0.004924193 0.015188748
000100 34 f4 58 3d 5c 7b 95 bc 8d 6f 4e 3c 03 6c bf 39
       0.052967265 -0.018247299 0.012599838 0.00036510834
000110 42 31 18 bb f6 74 3a bd e0 63 75 3d 2a 45 02 3d
       -0.002322272 -0.0455217 0.0599097 0.03180424
000120 cb 64 ae 3c 96 d1 52 bd 60 af 67 bb 6c 3d 50 3d
       0.021288296 -0.051469408 -0.0035352334 0.050839826
000130 f0 2c cc bc e1 a2 e7 3b ed d1 a0 bc ec 6b 6d 3d
       -0.024923772 0.007068977 -0.01963135 0.05796425
000140 02 4e 5c bd e1 b9 13 bb 2c e1 38 3d ab 69 2e bc
       -0.05378533 -0.0022541212 0.045136616 -0.01064531
000150 73 18 a1 bc e8 0e 1e 3d 5d 10 6a bd 44 0b 75 3d
       -0.019664979 0.038588434 -0.05714451 0.059825197
000160 fb 26 48 3d d6 39 0c bd 2e 3f f9 3c 65 37 4d 3d
       0.0488653 -0.034234844 0.030425634 0.050101656
000170 10 ae e9 bc d5 b1 7d bd d7 d7 2c 3d a2 57 f4 3c
       -0.028525382 -0.061937172 0.04219803 0.029826943
000180 07 a9 1e bd d5 c0 45 bb 95 4a b3 bb 2b db 36 3d
       -0.038735416 -0.0030174751 -0.0054715374 0.04464261
000190 90 10 a0 bc a8 e5 a0 bc 76 31 1f bd c9 85 15 3d
       -0.019539148 -0.019640759 -0.03886553 0.03650454
0001a0 35 53 7a 3c da 18 64 bd 8e 6d 4f 3d b1 62 64 3d
       0.015278627 -0.055687763 0.05064159 0.055758182
0001b0 12 df fa 3c ee 3f 1a bc f0 61 03 bd c2 b7 44 3b
       0.030623946 -0.009414656 -0.032075822 0.0030016755
0001c0 45 38 0f 3d ba 71 cf 3c 5d 28 4e bd c9 b7 d7 3c
       0.034965772 0.025322784 -0.050331462 0.026332753
0001d0 a2 f5 4c bd 37 95 48 3d ef d8 69 3d 56 11 08 3d
       -0.05003894 0.048970427 0.05709165 0.033219658
0001e0 c9 9d c8 3c 3a a0 37 bd 4d 78 f6 3a 8b ff dc bc
       0.0244893 -0.04483054 0.0018804163 -0.026977321
0001f0 5e e6 ac 3c b7 ae 43 3d 63 08 42 bd f0 dc 4d bc
       0.021105941 0.047774043 -0.04737128 -0.012564883
000200 0d 7b 04 bd 42 c9 65 3d 6a 15 34 3c f5 6d ca bc
       -0.032343913 0.056100138 0.010991434 -0.024710635
000210 f4 1e 14 3d eb b1 52 3c c1 46 49 3d 60 e0 50 bc
       0.03616233 0.012859802 0.04913974 -0.012748808
000220 59 df 37 bd 39 ed 58 bd 46 af 38 3d 6b 53 56 bd
       -0.044890735 -0.05296061 0.04508903 -0.052325647
000230 42 9e 07 3d 4e ee 5f bd 0b 40 b4 3c d2 3e a9 3c
       0.03310991 -0.054670624 0.022003194 0.020659838
000240 80 19 fd bc 95 e4 d4 bc 72 f7 68 bd 15 dd 86 bc
       -0.030895948 -0.025987903 -0.056876607 -0.016462842
000250 bf 98 7b 3c 7f 9f a7 bc 57 1b 08 bd 99 8a c2 bc
       0.015356242 -0.020461796 -0.0332292 -0.02374773
000260 e1 04 46 bc 14 9f 22 bd e6 1a 54 bd 13 27 50 3d
       -0.012086124 -0.03970249 -0.051783465 0.050818514
000270 42 95 21 bd 4e 07 dc bc fd 4f 11 bb 63 f4 60 bd
       -0.039448984 -0.026858952 -0.002217292 -0.054920565
000280 63 ea 55 3c 3a b9 5b bd e4 fa a0 3c 6a 56 07 3d
       0.01305637 -0.053643443 0.019650884 0.033041395
000290 16 94 8e bc 64 f4 72 3d 69 c6 90 3c ce c9 a4 bc
       -0.017404597 0.0593151 0.017672734 -0.02011576
0002a0 14 a5 21 bd ad ef 05 bc 09 a8 0b 3d 97 30 54 3c
       -0.03946407 -0.008174819 0.034095798 0.012951038
0002b0 64 01 f7 bc d7 0c cb 3c c6 9b 30 3c 35 80 31 bd
       -0.03015203 0.024786396 0.010779327 -0.04333516
0002c0 2b 31 f5 3c 44 98 08 bd d6 38 1e bd 6f 0c 48 3d
       0.029930672 -0.033348337 -0.03862842 0.048839983
0002d0 75 55 d8 bc 57 47 80 3d 7b 4d 18 3c a9 d1 4f 3c
       -0.026407937 0.06263607 0.0092958165 0.012684264
0002e0 cd 4e e0 3c 84 79 a8 3b a6 14 31 bd 1a 2c 8f 3c
       0.027381325 0.005141439 -0.043232583 0.017477084
0002f0 1f 3e 8e 3c 24 18 b3 bc 9f d4 49 3d 3e 55 d6 3c
       0.017363606 -0.021862097 0.049275037 0.026163694
000300 48 bd 38 3d a7 b7 59 bb a2 b2 76 3d 0a 6a 0e 3d
       0.045102388 -0.0033221038 0.06022895 0.034769095
000310 e0 54 ba bc 8c d7 7c bc 60 00 3b 3c 36 22 70 bd
       -0.02274555 -0.01543225 0.011413664 -0.058626376
000320 50 94 65 bc 4d 2c 09 bd 66 f2 46 bd 3c 54 a6 bc
       -0.014012411 -0.033489514 -0.048571013 -0.020303838
000330 70 b8 32 bd a1 d4 8a bb dd 64 9b 3b 3b 96 a6 3c
       -0.043632925 -0.004236773 0.0047422484 0.020335307
000340 fc eb f0 bc a8 15 27 3d 3b 6d 3b 3d ba bd 51 bd
       -0.029409401 0.040792137 0.045758467 -0.051206328
000350 32 25 2e 3d a5 61 9d bc 82 3e ca 3c 56 1d 59 3d
       0.04251594 -0.0192116 0.02468801 0.053006493
000360 cf f0 89 3b 5e 4b d2 3c 4b 4c 00 bd 54 77 b6 3b
       0.004209615 0.025670704 -0.03132276 0.0055684242
000370 c9 c0 e7 3c c8 10 12 3d b4 27 56 bc 87 71 67 bd
       0.02829017 0.035660535 -0.013070989 -0.056504752
000380 5a 47 5c bc d6 f4 05 3d b0 5f 8e 3c 46 77 61 bd
       -0.013444746 0.032704197 0.017379612 -0.05504539
000390 52 10 79 bd 00 ac 8b 38 17 13 dd 3b 83 4a 9d bc
       -0.06080658 6.660074e-05 0.0067466605 -0.019200569
0003a0 e2 48 96 bc 44 f7 14 3d 73 e4 c4 3c 8e e6 2a 3c
       -0.0183453 0.036368623 0.024034714 0.010430945
0003b0 78 32 76 bc 59 ce 86 3c a1 79 a9 bc 1b b0 41 bd
       -0.015026681 0.016455816 -0.02068788 -0.047287088
0003c0 69 cb 62 3d 23 07 ae 3c a5 92 59 3d b8 51 51 3b
       0.05536977 0.021243637 0.053118367 0.0031939577
0003d0 43 f1 c7 bc 87 68 9a 3c b4 f9 44 3c 32 a1 88 bc
       -0.024407035 0.01884867 0.0120224245 -0.016678426
0003e0 53 c6 09 39 c5 aa be 3c ff 1b 37 bd cf af 47 bd
       0.0001313922 0.023274789 -0.044704434 -0.04875165
0003f0 a5 ec 5b bd 31 70 48 3d f2 39 fa 3c d0 d3 5a 3d
       -0.05369248 0.04893512 0.030545209 0.053424656

layer2.0.bias f4 [84]
000000 89 05 23 3c a9 5e 7b bd d2 39 f2 b9 3d 58 98 3c
       0.00995005 -0.06136957 -0.00046200916 0.018596763
000010 a0 b6 85 3c 10 cf 73 3d d0 6e 4d 3d a4 ca 70 bd
       0.016322434 0.059523642 0.050154507 -0.058787003
000020 f4 cc 67 bd d0 58 78 bc 46 2b 46 3d 40 72 dd 3b
       -0.056591943 -0.015157893 0.048381113 0.0067580044
000030 47 02 7c bd 39 a7 3d bd 50 21 a5 3c 47 4f 6e 3d
       -0.06152561 -0.046302054 0.020157486 0.058181074
000040 3a dc 18 bd 95 6f 0b bc 0e 60 4a 3d 97 46 da 3c
       -0.0373194 -0.00851049 0.04940801 0.026644988
000050 ee f9 e8 3c 78 dd c0 bc 7c ca ce bb ab be 99 bc
       0.028439488 -0.023543105 -0.006310759 -0.018767675
000060 64 b2 7b bd 8e 48 df 3c 02 a7 97 3c e1 6e 35 bd
       -0.061449423 0.027256276 0.018512253 -0.044295195
000070 d9 5c f6 bc 45 06 39 bd de 81 be 3c 90 be f1 3c
       -0.03007357 -0.045171995 0.023255285 0.029509813
000080 0c 6e 31 bd 84 b8 ab bc 8b 61 22 3c 1a 9f 58 bc
       -0.04331784 -0.020962007 0.009910951 -0.0132215265
000090 b1 31 27 ba 90 d1 29 bd ab 41 9a bc 62 c3 0b bd
       -0.0006377949 -0.04145962 -0.018830141 -0.03412188
0000a0 b1 94 fb bc 4c fb 36 bd c4 83 35 bd dc 19 f4 3c
       -0.03071055 -0.04467325 -0.044315115 0.029797487
0000b0 56 80 6b bc cf 40 34 3c b5 c2 23 3c 3d 70 fd bc
       -0.014373859 0.01100178 0.009995152 -0.030937308
0000c0 d4 aa 1a 3d 38 ee 76 bd 57 b9 91 3c 08 3b 0c bc
       0.03776057 -0.060285777 0.017788572 -0.008558996
0000d0 09 4b aa 3c da 07 ef bc f2 6f d7 bc e2 cc 37 3d
       0.020787733 -0.029178549 -0.026298497 0.044873126
0000e0 44 00 49 bd 17 b4 57 bd 3e 7c 50 bd 50 c2 53 bd
       -0.04907252 -0.05266198 -0.050899737 -0.051698983
0000f0 3d 4f b3 3c f5 2b 81 3d 57 57 71 bd 78 cf 48 bd
       0.02188837 0.06307212 -0.058921184 -0.049025983
000100 4e 8f 40 bd 65 b8 0d bc 40 2e 7f 3b e0 b9 a0 3c
       -0.047011666 -0.00864992 0.003893748 0.019619882
000110 51 63 09 bd fe 19 d0 bc 88 68 5c bc 7c 1a 5f bd
       -0.03354198 -0.025403019 -0.013452657 -0.054468617
000120 b9 86 07 3c e2 dd a2 bc 9e 47 b0 bc 59 19 ff 3b
       0.0082718665 -0.019881193 -0.021518525 0.007785004
000130 fa ab 83 3c e1 04 ce 3c a4 a9 f4 ba 03 55 e3 bc
       0.016073216 0.02514881 -0.001866628 -0.027750498
000140 e5 c5 87 bc e6 8f dc 3c 83 93 68 3d 52 19 86 3b
       -0.016573856 0.026924085 0.056781303 0.004092374

layer3.0.weight f4 [8, 84]
000000 5d e6 ad 3d 08 6a 44 bd 6a 08 18 3d fa 48 d7 bd
       0.08491204 -0.04795268 0.0371174 -0.10511966
000010 7c ec 88 bd 0d e9 be bd f6 b4 4b 3d b4 70 83 3d
       -0.06685731 -0.09321795 0.049733125 0.06417981
000020 15 b3 48 3d 47 1d 86 bb 5e 07 87 3c 13 d9 ca bd
       0.04899891 -0.0040928456 0.016483005 -0.09904685
000030 72 cc bc 3d d9 65 e5 3c ad 9f 33 3c 29 63 2f 3d
       0.09218682 0.028002666 0.010963363 0.042819176
000040 8b 2e 7f 3d 78 be 62 bd 4a 81 5b 3d 24 a1 48 bd
       0.062300246 -0.055357426 0.053590097 -0.0489818
000050 a3 fe 79 bd 01 34 c7 3d 3b f4 7a 3d 29 dc ba bc
       -0.061033856 0.09726716 0.061268073 -0.022810059
000060 2d 1f 20 bc 39 bb d4 bd 51 c5 2f 3a ba 44 1c bd
       -0.009773058 -0.103872724 0.00067051227 -0.03815148
000070 c4 52 9e bd 6a ff b9 3c ba 1b be bb 16 d9 97 3c
       -0.0773063 0.022704799 -0.005801645 0.018536132
000080 21 1b 50 bc 61 30 a2 bd 95 58 72 3d 8d ba de 3d
       -0.012701781 -0.07919384 0.05916651 0.108754255
000090 b1 ea cb 3d d1 9f 62 3d 9b 82 22 bd ae 9e 33 3d
       0.09956873 0.055328194 -0.039675336 0.0438525
0000a0 3b 15 02 3d 5a 48 59 bd 4a 2f 9e bd e7 ab de 3d
       0.03175853 -0.053047515 -0.077238634 0.108726315
0000b0 c3 23 ac bd 5c e1 f3 3c 35 ea 13 bc 64 53 be 3d
       -0.084052585 0.029770546 -0.009028007 0.09293249
0000c0 1c d7 19 bd cf 84 96 bd 4d 84 8c bd c0 e6 f8 ba
       -0.03755866 -0.0734955 -0.06861172 -0.0018989667
0000d0 03 2c d6 3d 1c 99 2f 3d c6 43 d6 3d 67 f0 da bd
       0.10457613 0.042870626 0.104621455 -0.10690384
0000e0 5d 84 d4 3d 17 ed 73 bd d8 99 c3 3d 46 b9 13 bd
       0.10376809 -0.05955228 0.09550828 -0.036065362
0000f0 65 24 90 bd 6e a0 5a 3d 55 e4 bb bd 23 af c6 bc
       -0.07038192 0.053375654 -0.0917441 -0.024253434
000100 8e 22 38 3d bc 7b 2f bd ff a3 9f 3d 2b 52 a0 bd
       0.04495483 -0.04284261 0.07794952 -0.07828172
000110 90 07 67 3c 2f bf 70 3d be 61 95 bd 5b 0e c2 3d
       0.014100924 0.058776077 -0.072940335 0.09475394
000120 42 bd 8e 3d a4 24 c0 3c 6e e2 ce bd 46 70 c7 3d
       0.06969692 0.023454972 -0.10101782 0.09738211
000130 00 43 cf bd 71 5f 9d 3d d0 ff 00 bd e3 41 d7 bd
       -0.10120201 0.0768422 -0.03149396 -0.10510614
000140 e1 88 d2 3d 19 25 f4 bb d0 8a a2 bc 70 b0 87 3d
       0.10280014 -0.0074507114 -0.019841582 0.0662545
000150 41 4a 03 bd a6 b6 b4 3d da d7 e9 3b 7f 55 bf bd
       -0.032053236 0.088239 0.007136327 -0.09342479
000160 8d 5b bd bd 02 fd 73 3c 14 d9 b0 3c 08 b7 5f bd
       -0.092459776 0.014891865 0.021587886 -0.05461791
000170 dd dd 25 3d 15 03 27 bd 51 16 93 3d 55 dc d6 bd
       0.04049479 -0.040774424 0.07181991 -0.10491244
000180 c8 b9 16 3d 92 e1 61 bd 05 b2 87 3d 91 e7 d1 3d
       0.03679827 -0.05514676 0.066257514 0.10249246
000190 32 97 42 3d 6b ba 8b bd 41 8b 21 bd 22 1a e0 bc
       0.047507472 -0.06822666 -0.039439443 -0.027356211
0001a0 e1 87 17 3b 21 09 d7 bd 29 3a f4 3c cd d7 2f bd
       0.0023121762 -0.10499788 0.02981289 -0.042930413
0001b0 c0 54 9e 3b 3d 89 04 bd de 95 8c 3c 00 45 d7 bd
       0.0048318803 -0.032357443 0.017161306 -0.105112076
0001c0 fb ee 58 bd d6 3f 02 3d 44 04 c5 bd 02 22 0d bc
       -0.052962285 0.03179916 -0.09619954 -0.008614065
0001d0 8b 92 75 3d e6 83 b6 3d d5 29 d5 bc 49 d5 02 bd
       0.059954207 0.089118764 -0.026020924 -0.031941686
0001e0 3a da 24 bd e4 9c b9 3d 80 3e 8a bc 50 30 24 bc
       -0.04024718 0.09063128 -0.016875505 -0.010021284
0001f0 e9 5c b3 3c 22 1c a2 bd b6 1a c5 bd 09 9b 4b bd
       0.021894889 -0.07915522 -0.09624235 -0.0497084
000200 33 83 bc bd fd 58 23 bd e6 79 8a 3d 60 1f 3b bd
       -0.09204712 -0.039879788 0.067615315 -0.04568422
000210 45 a6 55 bd 3a 72 a8 bd 3d 4b 47 3d 90 b2 34 bd
       -0.05216052 -0.08224912 0.048655737 -0.044115603
000220 d2 ee c3 3d 85 42 a0 bd 17 b6 50 3d 1b f5 7e 3d
       0.09567036 -0.078251876 0.050954904 0.06224547
000230 9a cc b5 bd 59 c1 8e 3d 9b 17 af 3c 18 bc 26 3d
       -0.08876915 0.06970472 0.02137356 0.040706724
000240 91 6d b8 bd 1f 39 bf bd 7b e2 bd 3d 53 00 8c 3c
       -0.09005273 -0.09337067 0.09271713 0.017089998
000250 9d 2e 69 bd f1 31 be 3d 28 70 66 bc 78 7f 93 bd
       -0.05692922 0.09286869 -0.014064826 -0.07202047
000260 45 33 58 bc 52 97 58 bd 01 db aa bd d8 49 c3 bb
       -0.013195817 -0.052878685 -0.08342553 -0.0059597306
000270 8c 86 c6 bc 1f e2 31 bd b3 08 82 3d 0d 0c 03 bd
       -0.024234079 -0.043428537 0.063493155 -0.031993914
000280 da 75 39 bd 0c dd c8 3d d6 46 37 3d b8 3b 9b 3c
       -0.045278408 0.09807786 0.04474529 0.018949375
000290 f5 43 24 3d 8d 42 cb 3d 56 da cb 3d 32 3d 10 bd
       0.04010387 0.09924803 0.09953754 -0.03521461
0002a0 93 86 54 3d b5 c4 b9 3d 4a 70 bc bd 46 8c 49 bd
       0.051886152 0.09070722 -0.09201105 -0.04920604
0002b0 cc ac 7d bd e2 89 c2 3d e9 67 41 bb 35 ef 63 bd
       -0.06193237 0.09498955 -0.0029511398 -0.055648047
0002c0 94 0a 80 3c c1 2c 8a bd 3d 47 bc bd 84 eb e1 3d
       0.015630044 -0.067468174 -0.09193275 0.11031249
0002d0 2d 4e 9f bd 82 5a e9 3c ca 0e a1 bd 92 35 9d 3c
       -0.07778583 0.02848554 -0.07864149 0.019190583
0002e0 de 4b 91 bb ad 29 99 bd 67 8d a6 3d 7f 4f b8 3d
       -0.004434093 -0.07478652 0.08132439 0.08999538
0002f0 9e 0a a3 3c 78 18 ce bd 5d 1a 3e bd 1b 32 cd bd
       0.019902524 -0.10063261 -0.04641186 -0.100193225
000300 bb 70 cf 3c 6d 2d c3 3d 23 a8 4f bd f8 c9 af bd
       0.025322309 0.09530149 -0.050697457 -0.08583444
000310 43 95 70 bd 1e 4a b3 3d 1b 1e 18 bc 12 0a 54 3d
       -0.058736097 0.08754371 -0.009284521 0.051767416
000320 c0 dc 9f bc 52 2c a3 bd 04 4f b7 3c 46 89 b0 3d
       -0.019514441 -0.07967438 0.022376545 0.08619933
000330 3c 7d d0 bc 12 81 31 3d 34 93 56 ba 1d cb 43 bd
       -0.025450341 0.04333598 -0.0008185387 -0.047801126
000340 11 c3 80 3d 2d 9c 01 3d 24 04 36 3c a2 8e 9e bd
       0.06287206 0.03164308 0.011109386 -0.07742049
000350 7f 41 86 3d 3c 47 ea bc 9a 2c 01 3c f2 e1 9f bc
       0.06555461 -0.02859842 0.007884169 -0.019516919
000360 05 86 31 3d 98 90 66 3d 57 5a 48 bb 9d 06 85 3d
       0.0433407 0.05629024 -0.0030571425 0.06495402
000370 c9 5a bd 3d fa 7c 60 bd b7 8e 8e bd 52 71 40 3d
       0.092458315 -0.054806687 -0.069608144 0.04698307
000380 99 53 db bd 55 b1 4a bd 11 98 83 bd 74 81 3b 3d
       -0.10709304 -0.049485523 -0.06425489 0.045777753
000390 23 b2 81 3c cd 0e a6 3c 1d 28 6d 3c 3c 70 f1 bb
       0.015832013 0.02027073 0.014474896 -0.0073681157
0003a0 05 e0 d4 3d 6a 6e 8d bd f3 f7 a6 bd 6a 0f e5 3c
       0.10394291 -0.069058254 -0.08152761 0.027961452
0003b0 2b df 4f 3c f9 3c 55 3c b7 54 b0 bd 06 60 8e 3d
       0.012687485 0.013015025 -0.08609908 0.06951909
0003c0 13 09 dd 3d 6b e2 a8 3d 2c ce bf bd e8 10 59 3d
       0.107927464 0.08246311 -0.09365496 0.05299464
0003d0 24 ed c2 3d 31 17 ab bc f8 09 a5 bd 72 1f 8a 3c
       0.09517887 -0.020885082 -0.08058542 0.016860697
0003e0 b1 0f aa 3d fe cf c0 bd d2 68 94 3b 9a 28 3f 3d
       0.08303774 -0.09414671 0.004529097 0.04666958
0003f0 68 ac a7 3d c6 4e c0 3d 81 70 81 bd 52 35 89 3d
       0.08187181 0.09390025 -0.063202865 0.06699623

layer3.0.bias f4 [8]
000000 57 3a 8d 3d 54 f4 95 3c fa 59 a2 bd c1 2d ce 3d
       0.06895893 0.018304981 -0.07927318 0.100673206
000010 c7 69 95 3c 2c de 9f bc d8 2c e0 3a 59 4d c4 3b
       0.018238915 -0.01951512 0.0017103208 0.005990666
