DigitalRecognition-master/model_params/GDUT_net_all_0.pt (torch, 665623 bytes, 6 tensors)

layer1.0.weight f4 [256, 560]
-0.041383587 0.031902127 0.012838699 -0.010855429 0.03880378 -0.0077022947 -0.00027259067 -0.015352169
-0.09136144 -0.053846873 -0.031414445 -0.03627209 0.019081317 0.019046579 -0.01237756 -0.028186928
0.014072623 -0.013806364 -0.023363123 -0.03159956 -0.010171775 0.00618466 -0.03490744 -0.0051423237
0.040417448 0.100375615 -0.036788948 -0.004965405 -0.04560183 -0.022716856 -0.0013796831 0.036916293
-0.029857358 0.07677512 0.04212795 0.07827366 0.018034073 0.009969007 -0.029552694 -0.03566708
0.030345902 0.018021155 -0.031197269 0.02667676 0.036378 0.0026563348 0.012205948 -0.060324643
-0.06796465 -0.01413333 -0.02398769 -0.115730345 -0.05562984 -0.08360241 -0.0076490673 0.102651365
0.088575155 0.040045813 -0.0038636923 0.009548064 0.03498829 -0.01956009 -0.023567727 0.010121264
0.10510026 0.005649189 0.010696323 -0.06470445 -0.0541631 -0.06335905 -0.08195703 -0.06846459
-0.101930626 -0.109314464 -0.06641261 0.11654559 0.06635863 -0.026884722 -0.0293755 0.02672603
0.025025502 -0.020120634 -0.0350557 -0.018875808 -0.002176287 -0.050782286 -0.04840885 -0.013121813
-0.047948755 -0.030160401 -0.041043367 -0.0575095 -0.037415683 -0.028762877 -0.0914028 -0.02880409
0.015801974 -0.03118585 0.03364049 -0.027203107 0.0074438453 0.01400343 0.016602602 -0.032699093
0.04779168 -0.034710072 0.02163053 -0.010338092 -0.063595675 -0.10103097 -0.06648454 -0.09521621
-0.047292553 -0.06427271 -0.06724893 -0.041168526 -0.011633586 0.03806369 -0.005393736 0.011794377
-0.020808877 0.009915456 0.018342458 0.034794055 0.013322019 -0.06431078 0.013938105 0.031616636
-0.0576641 -0.021789636 -0.02966242 -0.05775219 -0.035711933 -0.11493112 -0.10324522 -0.029332066
-0.018672045 0.022755072 0.01914465 -0.0261789 -0.03288798 0.0015476234 -0.07572602 0.0075036422
0.033062965 0.12773876 0.09755605 0.063140966 -0.05557915 -0.056249805 -0.039466944 -0.022088265
-0.085747935 -0.06255409 -0.08189637 -0.049565125 -0.046357438 -0.095478304 -0.0071132933 -0.03665802
0.034703404 -0.026598727 -0.048811898 -0.03518866 0.11473517 0.12075927 0.13229355 0.016187811
-0.08274918 -0.03198985 -0.10124068 -0.034663755 -0.08033194 -0.11830252 -0.05314812 -0.089310616
-0.08286846 -0.012123976 -0.024422439 0.013522062 -0.032637045 0.021994151 0.038522996 0.0021732934
0.115618974 0.1337085 0.04943062 -0.036975488 -0.0052409163 -0.065257244 -0.08434774 -0.033678394
-0.07371279 -0.03901003 -0.08401555 -0.054603465 -0.02475543 -0.011232769 -0.037287157 0.022682339
-0.040278688 0.0041812994 -0.034532353 -0.03419252 0.13866545 0.063933745 0.11309552 -0.03838707
0.038619675 0.06062859 0.06598334 -0.06974345 -0.056344714 -0.08402489 -0.12603006 -0.0983636
-0.022575019 0.067942634 -0.06418887 -0.0023223348 0.03714644 -0.03925321 -0.004391838 -0.0437195
0.077914916 0.06640695 -0.009184498 -0.017412914 -0.046987023 0.07484353 -0.0034399168 -0.039312042
-0.059996318 -0.047219176 -0.05950799 -0.08026569 -0.006673194 -0.011176139 -0.01649906 -0.03185366
-0.018354235 0.016587406 -0.02183568 -0.04718422 0.11522755 0.05976801 -0.0110354135 -0.05376803
-0.0110797435 0.084015645 -0.026459236 -0.045863766 -0.09554418 -0.016019734 -0.03137908 -0.045944426
00000000: d681 29bd ceab 023d 6859 523c f8da 31bc
00000010: b6f0 1e3d 8863 fcbb 80ea 8eb9 aa87 7bbc
00000020: b51b bbbd 8a8e 5cbd 6fac 00bd 0b92 14bd
00000030: 6c50 9c3c 9207 9c3c 40cb 4abc 46e8 e6bc
00000040: dc90 663c 1634 62bc 0564 bfbc 8a6e 01bd
00000050: 84a7 26bc b0a8 ca3b 1bfb 0ebd f080 a8bb
00000060: c48c 253d bb91 cd3d 02b0 16bd d6b4 a2bb
00000070: fcc8 3abd b318 babc 7cd6 b4ba 8a35 173d
00000080: 6b97 f4bc 463c 9d3d 5b8e 2c3d f14d a03d
00000090: 31bc 933c 0c55 233c 7e18 f2bc a517 12bd
000000a0: f897 f83c 1aa1 933c 6a91 ffbc 3889 da3c
000000b0: 1901 153d e715 2e3b 75fb 473c f916 77bd
000000c0: 0d31 8bbd 7c8f 67bc d581 c4bc 0804 edbd
000000d0: 1ddc 63bd be37 abbd 07a5 fabb e13a d23d
000000e0: e466 b53d 1407 243d 0036 7dbb 7c6f 1c3c
000000f0: e24f 0f3d 7b3c a0bc 1b11 c1bc a8d3 253c
00000100: ce3e d73d d51c b93b a13f 2f3c c483 84bd
00000110: 20da 5dbd 64c2 81bd 16d9 a7bd 2a37 8cbd
00000120: 01c1 d0bd 43e0 dfbd 5603 88bd 74af ee3d
00000130: 09e7 873d 593d dcbc e3a4 f0bc 8cf0 da3c
00000140: 4802 cd3c 07d4 a4bc 9196 0fbd 70a1 9abc
00000150: 09a0 0ebb 1601 50bd 5c48 46bd dffc 56bc
00000160: ea65 44bd f212 f7bc 171d 28bd 158f 6bbd
00000170: 3041 19bd 20a0 ebbc 6431 bbbd 8ef6 ebbc
00000180: 2473 813c 7879 ffbc 9cca 093d 0dd9 debc
00000190: 80eb f33b a46e 653c 2e02 883c 7cef 05bd
000001a0: 35c1 433d 262c 0ebd 8232 b13c 1a61 29bc
000001b0: 733e 82bd 53e9 cebd 0c29 88bd b700 c3bd
000001c0: d6b5 41bd 69a1 83bd cfb9 89bd 54a0 28bd
000001d0: cc9a 3ebc ace8 1b3d f0bd b0bb 343d 413c
000001e0: 6177 aabc 7074 223c ec42 963c 3684 0e3d
000001f0: 9944 5a3c 5fb5 83bd a65c 643c 7280 013d
00000200: 3131 6cbd 2e80 b2bc 9afe f2bc 8f8d 6cbd
00000210: ad46 12bd 0261 ebbd 3b72 d3bd cd49 f0bc
00000220: 1ef6 98bc d868 ba3c 3ed5 9c3c 2275 d6bc
00000230: 8cb5 06bd a0d9 ca3a 3e16 9bbd 1de1 f53b
00000240: 086d 073d f3cd 023e 77cb c73d 0d50 813d
00000250: f6a6 63bd 3266 66bd 17a8 21bd 73f2 b4bc
00000260: 9d9c afbd 5c1c 80bd 49b9 a7bd cd04 4bbd
00000270: 4ce1 3dbd 218a c3bd a116 e9bb b826 16bd
00000280: 2825 0e3d 93e5 d9bc fcee 47bd fc21 10bd
00000290: 46fa ea3d a350 f73d f677 073e 4d9c 843c
000002a0: 6778 a9bd ca07 03bd 4657 cfbd 95fb 0dbd
000002b0: 1285 a4bd 9748 f2bd d8b1 59bd 7ce8 b6bd
000002c0: f0b6 a9bd a4a3 46bc 9111 c8bc a48b 5d3c
000002d0: 6cae 05bd 142d b43c 4aca 1d3d d06d 0e3b
000002e0: a4c9 ec3d e2ea 083e c377 4a3d 9c73 17bd
000002f0: febb abbb 97a5 85bd 82be acbd 5bf2 09bd
00000300: bbf6 96bd fbc8 1fbd 5810 acbd e2a7 5fbd
00000310: e6cb cabc a609 38bc 6bba 18bd 50d0 b93c
00000320: 44fb 24bd 4803 893b cc71 0dbd 750d 0cbd
00000330: 51fe 0d3e b2ef 823d a09e e73d c33b 1dbd
00000340: aa2f 1e3d af55 783d 4622 873d a7d5 8ebd
00000350: b7c9 66bd 3e15 acbd 060e 01be db72 c9bd
00000360: 3fef b8bc 8225 8b3d 7475 83bd 5032 18bb
00000370: de26 183d f9c7 20bd 68e9 8fbb 3813 33bd
00000380: db91 9f3d 5e00 883d 947a 16bc 87a5 8ebc
00000390: 7775 40bd 9147 993d 3a70 61bb aa05 21bd
000003a0: b3be 75bd e568 41bd a6be 73bd 5762 a4bd
000003b0: cfaa dabb 201c 37bc 0929 87bc fc78 02bd
000003c0: 9f5b 96bc 50e2 873c bde0 b2bc 3e44 41bd
000003d0: 6cfc eb3d 4dcf 743d e1cd 34bc de3b 5cbd
000003e0: d087 35bc 6510 ac3d 0ac1 d8bc a5db 3bbd
000003f0: abac c3bd d13b 83bc 5a87 00bd 3930 3cbd

layer1.0.bias f4 [256]
-0.09387099 -0.013600301 -0.012998997 -0.0989053 0.010351143 -0.046497162 -0.026574602 -0.06321805
-0.06542388 -0.06367011 -0.09627833 0.012463089 -0.115386635 -0.098852254 -0.026052905 -0.06355304
-0.050695103 0.02113475 -0.023962485 -0.021908056 -0.06482226 -0.13229525 -0.067608364 -0.066435836
-0.032128297 0.007199125 -0.06593035 -0.065633774 -0.075533144 -0.08589577 -0.09845122 -0.024430016
-0.01952582 0.047083054 -0.03995605 -0.047315575 -0.057945006 0.0654198 -0.03369123 0.105046794
-0.048999492 -0.01672874 -0.06486903 0.028664373 0.13146141 -0.022070212 -0.0026543303 0.036255766
-0.042685837 -0.014351368 -0.012727955 -0.018620867 -0.0961954 -0.08980822 -0.009169927 -0.021071728
-0.07658632 -0.10122859 -0.08803602 -0.021943122 -0.06194464 -0.07454514 -0.021686584 -0.08948145
0.02255108 -0.033959173 -0.06839075 -0.020824024 -0.03128132 -0.048535913 -0.085944876 0.027095385
-0.022738317 -0.050715353 0.08886078 -0.04514417 -0.070498705 -0.036135834 0.018103277 -0.06811019
-0.06264492 0.05603 -0.068494886 -0.058035083 -0.071440704 -0.033877492 0.026443431 -0.01954226
0.008159129 -0.05948168 -0.039016206 0.0052620936 -0.02158823 -0.0869873 -0.0674974 -0.026662197
-0.04993743 -0.030593378 -0.037988063 -0.076172195 -0.0039171986 -0.0107974345 0.00079932733 0.015244662
-0.04987606 -0.04302861 -0.042236682 0.010689728 -0.030832335 -0.019691141 -0.0050073876 -0.10570912
-0.07088201 -0.0019059909 -0.052436993 -0.0023279488 -0.035237387 -0.019280152 -0.056606673 -0.0036309944
-0.030173121 -0.036686335 -0.10030009 -0.06980835 -0.052618198 -0.03516032 -0.030000005 -0.01234041
0.036777426 -0.08066852 -0.022004308 -0.07742222 0.060405605 -0.07337279 -0.060681295 -0.07160417
0.097730845 -0.017690513 -0.021032128 -0.024217386 -0.003298023 0.02278448 -0.04135957 -0.092023976
-0.03387797 -0.056666538 -0.026416957 -0.027897386 -0.07032751 -0.04524164 -0.061446466 -0.065961495
-0.029641636 -0.07015974 -0.07690227 0.02359364 -0.105079465 0.007404756 0.12370919 -0.09135124
-0.116575405 -0.031153189 -0.056885842 -0.031167062 -0.067362025 -0.10075518 0.011464921 0.0056382567
-0.053717848 -0.030344853 -0.07493752 0.019351402 0.043586038 -0.024961652 0.009322465 -0.0042227847
-0.09061089 0.039711393 -0.018007528 -0.056242526 -0.04443647 -0.09621949 -0.048696157 -0.023533914
-0.021885507 -0.106168844 -0.047540903 0.020192856 -0.059140272 -0.007976829 -0.020542797 0.061322458
-0.06268517 -0.0423062 -0.007450664 -0.048448056 -0.009479638 -0.04883641 -0.0017542907 0.024292206
-0.090332955 0.024959493 -0.021814493 -0.09420707 -0.049215898 0.03027627 0.04032912 -0.012888604
-0.10398166 -0.06623335 0.011025454 -0.019768262 -0.058642697 0.032551397 0.038728222 -0.0001846559
-0.010142473 -0.035717193 -0.023242837 -0.08662595 -0.05567016 -0.04329873 -0.046930168 -0.028350044
-0.09003932 0.06741731 0.017158605 0.016068207 -0.035607472 -0.044159994 -0.0031146456 -0.08710071
-0.07840538 -0.07041323 -0.050737992 -0.036929563 -0.07420515 -0.08366455 -0.031245798 -0.08224617
-0.006329556 -0.029127046 -0.07826607 -0.04142545 -0.09401587 0.0013121706 -0.008856155 0.0033191834
-0.0389128 -0.12324463 -0.05511933 -0.0726785 -0.06104399 -0.081407405 -0.052092444 -0.016200915
00000000: 6f3f c0bd ccd3 5ebc bff9 54bc dd8e cabd
00000010: d797 293c cf73 3ebd fbb2 d9bc 7778 81bd
00000020: f5fc 85bd 7a65 82bd 932d c5bd fc31 4c3c
00000030: d44f ecbd 0d73 cabd e76c d5bc 1928 82bd
00000040: aba5 4fbd c922 ad3c f94c c4bc 8678 b3bc
00000050: 88c1 84bd 6878 07be 4176 8abd 830f 88bd
00000060: f698 03bd a3e6 eb3b 7e06 87bd 006b 86bd
00000070: 1fb1 9abd 1fea afbd cba0 c9bd 7521 c8bc
00000080: 9df4 9fbc 29da 403d f5a8 23bd facd 41bd
00000090: be57 6dbd d1fa 853d d1ff 09bd c622 d73d
000000a0: b1b3 48bd b60a 89bc 0eda 84bd 8cd1 ea3c
000000b0: d29d 063e 97cc b4bc 46f4 2dbb ed80 143d
000000c0: 58d7 2ebd 0022 6bbc ea88 50bc ca8a 98bc
000000d0: 1802 c5bd 5fed b7bd 763d 16bc 9e9e acbc
000000e0: 4ad9 9cbd ef50 cfbd 3b4c b4bd 10c2 b3bc
000000f0: aab9 7dbd 1fab 98bd 10a8 b1bc 0d42 b7bd
00000100: 0bbd b83c c618 0bbd 7310 8cbd 2597 aabc
00000110: d720 00bd 98cd 46bd de03 b0bd 24f7 dd3c
00000120: b545 babc e7ba 4fbd a4fc b53d 18e9 38bd
00000130: a061 90bd 2b03 14bd 534d 943c 5b7d 8bbd
00000140: fb4b 80bd b77f 653d 0c47 8cbd 32b6 6dbd
00000150: 814f 92bd 20c3 0abd e59f d83c 1717 a0bc
00000160: dead 053c 10a3 73bd 75cf 1fbd a46d ac3b
00000170: cdd9 b0bc 6626 b2bd 143c 8abd ae6a dabc
00000180: 318b 4cbd f79e fabc 5f99 1bbd 2b00 9cbd
00000190: d85b 80bb b9e7 30bc f389 513a bfc4 793c
000001a0: d74a 4cbd c53e 30bd 5f00 2dbd f823 2f3c
000001b0: 1894 fcbc 514f a1bc 0315 a4bb 067e d8bd
000001c0: 962a 91bd 71d2 f9ba 2cc8 56bd 8090 18bb
000001d0: 1455 10bd 69f1 9dbc 66dc 67bd faf5 6dbb
000001e0: 9f2d f7bc 6944 16bd 226a cdbd aef7 8ebd
000001f0: 2e86 57bd 4504 10bd 92c2 f5bc 6e2f 4abc
00000200: eda3 163d 8935 a5bd 6142 b4bc 8a8f 9ebd
00000210: de6b 773d 7944 96bd f38c 78bd 35a5 92bd
00000220: 1c27 c83d b2eb 90bc 924b acbc 8a63 c6bc
00000230: a523 58bb 85a6 ba3c a768 29bd 1177 bcbd
00000240: a0c3 0abd 2c1b 68bd 6068 d8bc 0f89 e4bc
00000250: df07 90bd 4c4f 39bd 4aaf 7bbd d216 87bd
00000260: 04d3 f2bc e9af 8fbd f07e 9dbd 7347 c13c
00000270: e733 d7bd 98a3 f23b 3e5b fd3d 5c16 bbbd
00000280: 16bf eebd f934 ffbc 2101 69bd 1152 ffbc
00000290: 1af5 89bd bb58 cebd 5dd7 3b3c 20c1 b83b
000002a0: 3f07 5cbd c595 f8bc d878 99bd d586 9e3c
000002b0: 4687 323d 617c ccbc 41bd 183c 495f 8abb
000002c0: 3492 b9bd 6aa8 223d 8684 93bc 905e 66bd
000002d0: 0403 36bd b90e c5bd 9f75 47bd 32ca c0bc
000002e0: 3c49 b3bc 0d6f d9bd 40ba 42bd 7d6b a53c
000002f0: 123d 72bd 3fb1 02bc 5e49 a8bc 422d 7b3d
00000300: 1561 80bd 4449 2dbd b324 f4bb 7871 46bd
00000310: 7c50 1bbc b008 48bd 3af0 e5ba 7300 c73c
00000320: 7c00 b9bd da77 cc3c 4fb4 b2bc a3ef c0bd
00000330: 9c96 49bd f105 f83c 2630 253d b92a 53bc
00000340: 56f4 d4bd 5aa5 87bd 1ba4 343c 0df1 a1bc
00000350: 5333 70bd 9d54 053d 7ca1 1e3d 31a0 41b9
00000360: 9d2c 26bc 314c 12bd c367 bebc f268 b1bd
00000370: 6506 64bd 025a 31bd d939 40bd 5a3e e8bc
00000380: 8966 b8bd 1612 8a3d 3490 8c3c 79a1 833c
00000390: 24d9 11bd 1ce1 34bd 151f 4cbb db61 b2bd
000003a0: 0093 a0bd d034 90bd a4d2 4fbd 7443 17bd
000003b0: dff8 97bd 5258 abbd 30f7 ffbc ae70 a8bd
000003c0: 2a68 cfbb d89b eebc f649 a0bd bcad 29bd
000003d0: 648b c0bd 24fd ab3a 6819 11bc a886 593b
000003e0: 0763 1fbd ae67 fcbd cec4 61bd 77d8 94bd
000003f0: 4309 7abd edb8 a6bd e35e 55bd c8b7 84bc

layer2.0.weight f4 [84, 256]
-0.00906469 0.081873335 0.009105678 0.03501148 -0.06642371 -0.031245051 -0.08675959 -0.036264177
0.099315874 -0.025176724 -0.10058735 0.14862616 -0.12360409 0.044609644 -0.023137199 0.017895063
0.08448081 0.046039835 0.076947585 0.0519996 0.008434628 0.057095546 0.10534329 0.009674552
-0.014539017 -0.06716111 0.07608595 -0.013053343 0.07350418 -0.085205436 0.014664412 -0.057122044
0.048693653 -0.029440567 0.119549714 -0.11674978 0.006429678 -0.09241893 0.08681231 -0.09105312
-0.0039522955 -0.09385486 -0.114770785 0.011131007 -0.03663044 0.020241568 -0.1338269 0.10930125
-0.048809946 -0.014572136 0.081765406 -0.03254587 0.10245723 -0.06116101 0.017562823 -0.10863489
0.088919684 0.11549606 -0.07322585 0.033168327 0.121335976 0.0805065 0.05879647 -0.055822104
-0.11368066 -0.07525248 -0.15979296 0.046554256 -0.0008020537 0.003425951 -0.062715806 -0.012276384
0.099000745 0.09542985 0.07556392 0.030744404 0.04097435 0.004551418 0.04008973 0.013750898
-0.08978511 -0.11327421 -0.074922636 0.030866144 0.014572912 0.051992938 0.039588153 0.02492989
0.0642323 -0.10817847 0.029251566 0.09476004 0.066342406 0.067207694 0.091796264 -0.14013028
0.02134455 0.085637435 0.057087384 0.053854056 -0.023258537 0.051079433 -0.01569308 -0.12197929
-0.03592483 -0.07990923 0.029485866 -0.08668518 0.04904534 0.09815725 -0.024748273 0.029878465
-0.044285458 0.04862357 -0.108041614 0.01397739 0.04268771 -0.106087774 0.031845983 0.027470306
-0.015914947 0.10476454 0.11941453 0.023031997 0.09142098 0.043267798 0.09099581 0.013569671
-0.071282856 0.03009877 0.08148252 0.07423639 0.015462422 -0.0814037 -0.064561516 0.08975985
-0.060370725 0.016780233 0.0013777232 0.10821805 -0.050505176 0.03898362 -0.0788584 -0.09896424
-0.02014331 0.12480076 -0.08631434 0.065241545 0.05238697 0.09908962 0.08593152 0.039880082
0.052549835 -0.109075464 0.0137132555 -0.065014765 -0.051078588 -0.012058049 -0.06140331 0.12059589
-0.056142256 -0.09233884 0.04982837 -0.020194164 0.0099271815 0.015017693 0.11757827 -0.017480565
0.039238505 -0.008689932 -0.10175076 0.0050047995 -0.10387415 0.048547663 0.00902207 0.08554497
-0.014288764 -0.1434724 0.043961022 0.059506223 0.029309323 -0.015316986 0.112725705 -0.025943078
0.07482218 0.030354196 -0.111639924 -0.020300668 -0.032370083 0.010353944 0.03893698 0.117142156
-0.1122213 0.011797494 -0.032640252 0.009457844 -0.0061056763 0.08189318 0.08532506 -0.065592274
-0.0017879014 -0.049509145 -0.0042212675 0.056548093 0.01640948 0.13892257 -0.052863076 0.028880352
-0.011917296 0.03647931 0.014947486 0.12908328 0.113652796 -0.046226338 -0.07310519 -0.02759203
0.051444694 0.09214343 -0.053569112 0.062347557 0.00473521 -0.011795903 0.043124657 -0.073417336
0.05794051 0.021414038 -0.011724778 0.018695842 0.015060011 0.0808015 -0.10524249 0.07407678
0.048309594 0.0018529972 0.08133503 -0.11199969 -0.021675114 0.0072273896 0.01180268 -0.03711854
0.02109836 0.081322886 0.05313402 -0.10938914 -0.05231789 -0.039521907 0.050949138 -0.05491545
0.07440201 -0.021443894 0.12937494 -0.026833652 0.0019129588 -0.12529124 -0.0942211 0.0701531
00000000: 1184 14bc 35ad a73d fb2f 153c 3368 0f3d
00000010: 2709 88bd 9ff5 ffbc 03af b1bd bf89 14bd
00000020: 1f66 cb3d 6b3f cebc be00 cebd 7531 183e
00000030: 2424 fdbd 9ab8 363d 398a bdbc ab98 923c
00000040: 4604 ad3d 4494 3c3d b296 9d3d 88fd 543d
00000050: 6531 0a3c 05dd 693d 39be d73d 0382 1e3c
00000060: 0f35 6ebc c48b 89bd f3d2 9b3d b0dd 55bc
00000070: 5c89 963d 3080 aebd 0043 703c cef8 69bd
00000080: ff72 473d 582d f1bc 7bd6 f43d 821a efbd
00000090: 0cb0 d23b 2346 bdbd a7ca b13d 0f7a babd
000000a0: 4282 81bb fa36 c0bd f20c ebbd d45e 363c
000000b0: cd09 16bd a5d1 a53c eb09 09be 55d9 df3d
000000c0: f0ec 47bd f8bf 6ebc 9f74 a73d d14e 05bd
000000d0: 19d5 d13d f883 7abd e9df 8f3c f87b debd
000000e0: 861b b63d 3389 ec3d 6ff7 95bd 83db 073d
000000f0: ff7e f83d 98e0 a43d 91d4 703d b8a5 64bd
00000100: 68d1 e8bd f91d 9abd c4a0 23be adaf 3e3d
00000110: ea40 52ba ec85 603b 2571 80bd e322 49bc
00000120: e7c0 ca3d ba70 c33d 42c1 9a3d b0db fb3c
00000130: b8d4 273d 1024 953b 2135 243d 724b 613c
00000140: 41e1 b7bd 4ffc e7bd 0a71 99bd ffda fc3c
00000150: 39c3 6e3c 8cf6 543d 3027 223d c539 cc3c
00000160: 398c 833d ac8c ddbd fba0 ef3c 8d11 c23d
00000170: 87de 873d 30a4 893d aeff bb3d 507e 0fbe
00000180: c4da ae3c ae62 af3d 76d4 693d 1296 5c3d
00000190: b088 bebc ab38 513d c68e 80bc 47d0 f9bd
000001a0: ea25 13bd 73a7 a3bd 588c f13c 0088 b1bd
000001b0: c4e3 483d ab06 c93d e4bc cabc afc3 f43c
000001c0: ab64 35bd 8229 473d ec44 ddbd 6c01 653c
000001d0: 4fd9 2e3d 8c44 d9bd ef70 023d 6809 e13c
000001e0: 1060 82bc cb8e d63d 9b8f f43d 99ad bc3c
000001f0: ec3a bb3d 9339 313d 035c ba3d 5353 5e3c
00000200: bffc 91bd b291 f63c 4fe0 a63d 4009 983d
00000210: 1956 7d3c fcb6 a6bd d438 84bd 03d4 b73d
00000220: 4b47 77bd b376 893c b894 b43a 6da1 dd3d
00000230: 84de 4ebd 4aad 1f3d 8380 a1bd c3ad cabd
00000240: 9503 a5bc 8a97 ff3d 93c5 b0bd 5c9d 853d
00000250: b893 563d 80ef ca3d ddfc af3d 4c59 233d
00000260: 7f3e 573d f562 dfbd 90ad 603c 7626 85bd
00000270: c837 51bd 208f 45bc 0a82 7bbd fafa f63d
00000280: 6cf5 65bd 251c bdbd d518 4c3d 3b6e a5bc
00000290: 9ea5 223c c50c 763c e0cc f03d 6733 8fbc
000002a0: 8eb8 203d 3760 0ebc b462 d0bd 4dff a33b
000002b0: f8bb d4bd ead9 463d 4ed1 133c 3432 af3d
000002c0: 6c1b 6abc 6eea 12be 7910 343d ccbc 733d
000002d0: 1b1a f03c 18f4 7abc bcdc e63d 9486 d4bc
000002e0: 5f3c 993d 5da9 f83c 79a3 e4bd 964d a6bc
000002f0: 7e96 04bd 97a3 293c 627c 1f3d 3ae8 ef3d
00000300: 48d4 e5bd 474a 413c c9b1 05bd 13f5 1a3c
00000310: 2012 c8bb 9db7 a73d e8be ae3d 3e55 86bd
00000320: 0458 eaba 1aca 4abd 8f52 8abb f99e 673d
00000330: 2c6d 863c b841 0e3e f486 58bd 7d96 ec3c
00000340: c340 43bc 546b 153d 4de6 743c 682e 043e
00000350: ccc2 e83d d457 3dbd 2db8 95bd ae08 e2bc
00000360: acb7 523d b2b5 bc3d 496b 5bbd 2760 7f3d
00000370: d229 9b3b 9a43 41bc 7ba3 303d d45b 96bd
00000380: 0753 6d3d 7e6c af3c 4919 40bc 0628 993c
00000390: 44be 763c 427b a53d 6089 d7bd 91b5 973d
000003a0: 48e0 453d 45e0 f23a fb92 a63d 1860 e5bd
000003b0: 0290 b1bc bdd3 ec3b 0760 413c 9c09 18bd
000003c0: 78d6 ac3c 9d8c a63d 0fa3 593d 6a07 e0bd
000003d0: 494b 56bd b9e1 21bd 0bb0 503d 06ef 60bd
000003e0: 1560 983d 1bab afbc dd7a 043e 3fd2 dbbc
000003f0: 3fbc fa3a 594c 00be fef6 c0bd 6eac 8f3d

layer2.0.bias f4 [84]
0.05695999 -0.0005107703 -0.013604013 -0.035610024 -0.0032860592 -0.011344849 -0.05341285 0.04065706
-0.03876532 -0.06930385 -0.126779 -0.11102743 -0.120969936 0.0037120953 -0.10757871 0.051019575
-0.006125855 -0.036621608 -0.05169541 -0.0033456807 -0.042227775 -0.025411736 0.00086645625 -0.04585531
-0.014848029 -0.1608589 -0.0006664906 -0.104990825 -0.038494125 -0.030000562 -0.03748039 0.016490249
-0.10394293 -0.10484064 0.026608547 -0.11144474 -0.041706007 -0.03860349 0.00485452 -0.08487138
-0.015421033 -0.076074585 -0.012933646 -0.08728819 -0.053804856 -0.022513863 -0.06383175 -0.017269175
-0.032042813 0.018871387 -0.08580939 -0.022112206 -0.08838316 0.049974658 -0.077876434 0.048712764
0.032469172 -0.10800516 -0.04217696 -0.0653486 0.04589379 0.008245006 -0.089592196 -0.022628702
-0.077859305 -0.017661944 -0.039469708 -0.008516937 -0.07750319 0.0162362 0.03239275 -0.0134734465
-0.008082384 -0.040437445 -0.04239404 -0.010319481 -0.041043 -0.07836616 -0.05806032 -0.0139103895
-0.055436604 -0.01803935 -0.0918917 -0.030937372
00000000: e14e 693d 37e5 05ba 5ee3 5ebc d1db 11bd
00000010: ed5a 57bb bfdf 39bc 6fc7 5abd 0488 263d
00000020: 62c8 1ebd 2def 8dbd 5bd2 01be 5962 e3bd
00000030: 16bf f7bd a046 733b 3a52 dcbd e7f9 503d
00000040: 65bb c8bb 8a00 16bd 91be 53bd 3543 5bbb
00000050: 08f7 2cbd 462c d0bc e522 633a c7d2 3bbd
00000060: 2645 73bc 32b8 24be 6db7 2eba 6e05 d7bd
00000070: 04ac 1dbd bdc3 f5bc 0a85 19bd 8f16 873c
00000080: 08e0 d4bd b1b6 d6bd 2bfa d93c 243d e4bd
00000090: ebd3 2abd b11e 1ebd aa12 9f3b 0cd1 adbd
000000a0: 80a8 7cbc fecc 9bbd a5e7 53bc 27c4 b2bd
000000b0: 7b62 5cbd fe6e b8bc 38ba 82bd 1678 8dbc
000000c0: 533f 03bd 2b98 9a3c d5bc afbd a824 b5bc
000000d0: 3b02 b5bd 3ab2 4c3d ae7d 9fbd 0987 473d
000000e0: 65fe 043d cf31 ddbd bfc1 2cbd 7dd5 85bd
000000f0: 20fb 3b3d 1016 073c 1d7c b7bd d45f b9bc
00000100: b374 9fbd c8af 90bc fdaa 21bd 9f8a 0bbc
00000110: feb9 9ebd c801 853c 43ae 043d bbbf 5cbc
00000120: fa6b 04bc bca1 25bd 5fa5 2dbd 0a13 29bc
00000130: b41c 28bd 707e a0bd a8d0 6dbd 67e8 63bc
00000140: 7e11 63bd 42c7 93bc b731 bcbd 5f70 fdbc

layer3.0.weight f4 [8, 84]
-0.050697993 -0.031211276 -0.042047825 0.008517287 0.12746665 -0.0006565175 0.068190224 -0.016234431
-0.014848644 0.07101579 -0.057123028 -0.035782196 0.037663613 -0.044508394 -0.02228635 0.07901147
0.046304874 0.011186027 0.004608449 -0.028417448 -0.15823638 -0.03175612 -0.11240787 0.005840505
-0.04634327 -0.06795213 -0.050301347 0.012697164 -0.05915243 -0.015507448 0.008107856 0.08067456
-0.046948455 0.030923454 0.13109012 0.10074681 -0.010273986 0.18355033 -0.07178753 0.15255743
0.071305245 -0.03096243 -0.074112356 0.0041888366 0.06953142 -0.14720854 0.10258091 -0.09722155
0.034941908 -0.049751125 -0.012203906 0.0003298585 0.096536286 -0.07438489 0.035523828 -0.13250102
-0.048885472 -0.10284322 -0.035619818 0.052623782 -0.06578958 -0.04610274 0.12879139 0.15491344
-0.16438787 0.016971286 0.023776684 0.13162333 0.061449494 0.056716498 0.054681137 -0.15644176
0.10424581 0.0301243 0.18451522 -0.10161211 0.018725133 0.19440949 -0.012256209 0.13694605
-0.03093058 -0.0020270094 -0.087460764 -0.008484435 -0.050063387 0.008862105 0.032734048 0.02438218
0.03322181 -0.035163797 -0.064269766 0.017057398 -0.0452692 0.048961233 0.097694024 -0.115746535
-0.034377158 -0.036618784 -0.03308833 -0.025702277 -0.010406884 -0.022118373 0.021423893 -0.040258426
0.0049725175 0.058738522 0.008089197 0.041425053 0.06512545 -0.033955295 -0.027867397 0.056725558
0.043707088 0.04086687 -0.05176229 0.18704215 0.02370883 -0.14297104 0.020737488 -0.0019403321
-0.09032577 0.022798391 -0.047166977 -0.028864747 0.16540188 -0.08765855 0.05211005 0.03585401
0.04647994 -0.04941445 0.057822887 -0.010361217 0.010101318 0.019858105 -0.03905084 -0.015983714
-0.058677945 0.06515764 0.13936052 -0.006312738 -0.06063032 -0.03453244 -0.066439256 0.010221409
-0.056396406 0.012388654 0.052976064 0.0526633 -0.07761308 -0.039538458 0.06314934 -0.006038574
0.02306278 -0.02894779 0.06826534 0.038159117 0.10726825 0.028217815 0.044376403 0.031021088
0.017917283 0.03894971 0.040901553 0.026878947 -0.16431619 -0.038421895 -0.06762569 -0.000322445
-0.02390626 0.06299317 0.1174258 0.074195944 -0.044285096 0.09152505 0.034762405 0.008295527
-0.16494708 0.109183125 0.020756455 0.0018990827 0.036956728 0.011287158 -0.06102369 0.022279806
0.008537081 -0.07338529 -0.14345415 -0.043192763 0.036890496 -0.027294466 0.008795736 -0.100363955
0.12203671 -0.0446112 0.13806883 0.016813954 -0.062872015 -0.037048105 -0.001864753 -0.07515684
-0.069141544 0.04759302 0.13746828 0.027328903 -0.01574286 0.13792986 0.014073044 0.15123759
0.009973811 -0.114062496 0.027095465 -0.048025116 -0.064332224 0.0002508663 0.09605497 -0.039412133
-0.024731979 0.12651129 0.0076367483 -0.06924336 -0.10796681 -0.026143044 0.033123802 0.123302795
-0.013070005 -0.13738358 0.016890801 0.03720346 0.14809604 0.03990925 0.027271379 0.065733455
-0.060721677 0.0019455664 -0.010324632 0.14137286 -0.0027720153 -0.022822188 0.09869212 0.009112898
0.009733536 0.058002897 0.121881194 0.099729404 -0.0466259 0.074417 0.029654602 0.058852818
-0.032926835 -0.0009632402 -0.0069949175 0.11219769 0.06494541 -0.010299176 -0.03199173 -0.063480735
00000000: b3a8 4fbd caae ffbc 573a 2cbd 178c 0b3c
00000010: 9e86 023e 251a 2cba 51a7 8b3d 12fe 84bc
00000020: ba47 73bc ba70 913d d6f9 69bd 5a90 12bd
00000030: 2945 1a3d 6f4e 36bd dd91 b6bc c4d0 a13d
00000040: 2eaa 3d3d 9945 373c 7902 973b b5cb e8bc
00000050: b808 22be b512 02bd 1936 e6bd b561 bf3b
00000060: 71d2 3dbd 7d2a 8bbd c908 4ebd c407 503c
00000070: d249 72bd f412 7ebc d0d6 043c b438 a53d
00000080: 064d 40bd 2f53 fd3c 7d3c 063e 5854 ce3d
00000090: 3854 28bc 9ef4 3b3e 5705 93bd 0438 1c3e
000000a0: 7c08 923d eca4 fdbc 38c8 97bd 8242 893b
000000b0: 7d66 8e3d d6bd 16be f115 d23d 181c c7bd
000000c0: 3f1f 0f3d d6c7 4bbd e4f2 47bc dcf0 ac39
000000d0: d1b4 c53d 1b57 98bd 6f81 113d 59ae 07be
000000e0: 223c 48bd 779f d2bd 16e6 11bd 098c 573d
000000f0: b0bc 86bd 3ad6 3cbd e4e1 033e a1a1 1e3e
00000100: 4b55 28be 5e07 8b3c 52c7 c23c 44c8 063e
00000110: 77b2 7b3d 8f4f 683d 54f9 5f3d 4532 20be
00000120: d47e d53d 3cc7 f63c 8ff1 3c3e 031a d0bd
00000130: 7365 993c 4813 473e 44ce 48bc 963b 0c3e
00000140: 2162 fdbc 93d7 04bb a11e b3bd 4d02 0bbc
00000150: 440f 4dbd 5d32 113c 2314 063d 23bd c73c
00000160: 9813 083d ea07 10bd de9f 83bd f5bb 8b3c
00000170: 326c 39bd 938b 483d ce13 c83d 850c edbd
00000180: 10cf 0cbd 94fd 15bd a187 07bd 958d d2bc
00000190: a381 2abc 9731 b5bc 2981 af3c 05e6 24bd
000001a0: 80f0 a23b ce97 703d 8d88 043c 51ad 293d
000001b0: 7e60 853d b514 0bbd 2b4a e4bc 0f59 683d
000001c0: 3406 333d 0564 273d b204 54bd fa87 3f3e
000001d0: 0539 c23c 0067 12be aae1 a93c be52 feba
000001e0: b8fc b8bd b1c3 ba3c 2932 41bd c375 ecbc
000001f0: 1c5f 293e 5386 b3bd 5971 553d a8db 123d
00000200: c061 3e3d ce66 4abd b1d7 6c3d 18c2 29bc
00000210: 0080 253c 77ad a23c c6f3 1fbd 47f0 82bc
00000220: 4958 70bd 5e71 853d 86b4 0e3e 16db cebb
00000230: 8057 78bd e371 0dbd 4e11 88bd b277 273c
00000240: ebff 66bd c8f9 4a3c 6efd 583d 79b5 573d
00000250: 9bf3 9ebd 14f3 21bd 7154 813d 3bdf c5bb
00000260: 28ee bc3c ea23 edbc b3ce 8b3d bc4c 1c3d
00000270: 75af db3d 0c29 e73c 08c4 353d f01f fe3c
00000280: 44c7 923c bb89 1f3d 6388 273d 3d31 dc3c
00000290: 8142 28be 4760 1dbd 567f 8abd d60d a9b9
000002a0: 10d7 c3bc 9002 813d f07c f03d 0bf4 973d
000002b0: 4a64 35bd 7c71 bb3d 0663 0e3d f6e9 073c
000002c0: e3e7 28be 679b df3d 7109 aa3c a4ea f83a
000002d0: f05f 173d c6ed 383c faf3 79bd 2484 b63c
000002e0: 1ddf 0b3c 074b 96bd a5e5 12be e5ea 30bd
000002f0: 7d1a 173d a598 dfbc fe1b 103c 9e8b cdbd
00000300: 62ee f93d 3cba 36bd ea61 0d3e 6bbd 893c
00000310: 0bc3 80bd c1bf 17bd ba6a f4ba d4eb 99bd
00000320: 159a 8dbd e6f0 423d 7cc4 0c3e dde0 df3c
00000330: 2cf7 80bc 7c3d 0d3e a092 663c 07de 1a3e
00000340: 3269 233c 9999 e9bd 4ff7 dd3c fcb5 44bd
00000350: 9dc0 83bd b486 8339 78b8 c43d 9e6e 21bd
00000360: b89a cabc 2d8c 013e b03d fa3b 76cf 8dbd
00000370: b41d ddbd f029 d6bc d3ac 073d 2d86 fc3d
00000380: 9323 56bc 48ae 0cbe 945e 8a3c a862 183d
00000390: 7da6 173e e277 233d 3a68 df3c 439f 863d
000003a0: 4bb7 78bd 6002 ff3a a528 29bc 0cc4 103e
000003b0: b3aa 35bb 99f5 babc 181f ca3d 444e 153c
000003c0: 6979 1f3c 7294 6d3d d99c f93d ee3e cc3d
000003d0: cdfa 3ebd f167 983d 35ee f23c a70f 713d
000003e0: 4ade 06bd f581 7cba 9f35 e5bb e7c7 e53d
000003f0: 1902 853d e0bd 28bc c309 03bd 3002 82bd

layer3.0.bias f4 [8]
0.06715496 0.03668602 -0.012802351 0.09178268 -0.01935536 0.054870497 -0.022758301 0.045309853
00000000: 8a88 893d 1544 163d f4c0 51bc 8ff8 bb3d
00000010: 228f 9ebc e3bf 603d 9e6f babc d396 393d
