DigitalRecognition-master/model_params/GDUT_net_all_9.pt (torch, 665623 bytes, 6 tensors)

layer1.0.weight f4 [256, 560]
0	0xbc359f20	-0.011085302
1	0x3bd55c28	0.00651123
2	0x3d2cd278	0.042192906
3	0xbcb9e6ee	-0.022693124
4	0x3cef31d4	0.029198565
5	0xbd11ab32	-0.035563655
6	0x3cf4b0f8	0.029869542
7	0xbd152429	-0.036411438
8	0xbd0d8d5b	-0.034558635
9	0xbcc2fc4e	-0.023801949
10	0xbc689f35	-0.014198114
11	0xbc8e94e4	-0.017404981
12	0x3cc73984	0.024319418
13	0x3bbcb3c0	0.0057587326
14	0xbcc54a73	-0.024083352
15	0xbca32a9b	-0.019917777
16	0x3ce04be4	0.027379937
17	0xbc06f198	-0.008236311
18	0x3b5255e0	0.0032094643
19	0xbc041c14	-0.008063335
20	0x3d223170	0.03959793
21	0x3d2693e2	0.040668376
22	0xbca8be77	-0.020598633
23	0xbc737afe	-0.014860867
24	0xbbdcc058	-0.0067367963
25	0x3cbf8ff3	0.02338407
26	0x3d271569	0.040791903
27	0xbca80a3d	-0.020512694
28	0xbd239944	-0.039941087
29	0x3d2b786f	0.0418629
30	0xbc4ef26b	-0.012631039
31	0xbc30c48f	-0.010789051
32	0xbd00c9ac	-0.03144233
33	0xbcb6b4ac	-0.022302948
34	0x3d1bcf70	0.038039625
35	0x3cb50c25	0.022100518
36	0xbc641bbe	-0.01392263
37	0xbc79a4e0	-0.015237063
38	0x3cdaa328	0.026689127
39	0x3d0bc156	0.034119926
40	0x3d19b564	0.037526503
41	0x3cceeac8	0.025258437
42	0x3caa2490	0.020769387
43	0xbbf70be8	-0.007539261
44	0x395a4a1a	0.00020817705
45	0xbbc88ed0	-0.00612054
46	0x3c9e81ec	0.019349061
47	0x3a5527c8	0.0008131233
48	0x3d06e8cf	0.032936867
49	0xbb1959a0	-0.0023399368
50	0xbcd28814	-0.025699653
51	0x3af8c196	0.0018978592
52	0xbcdee211	-0.027207406
53	0x3c14707a	0.00906002
54	0xbc9f4752	-0.019443188
55	0xbd17c7a7	-0.037055638
56	0x3bb4b7b0	0.0055150613
57	0x3cf227a0	0.02955991
58	0xbd0df904	-0.034661308
59	0x3bf52dc0	0.0074822605
60	0xbcbdb298	-0.02315645
61	0xbc896709	-0.016772764
62	0x3a9e5d80	0.0012082309
63	0xbcbe4e7b	-0.023230782
64	0xbd0350cf	-0.032059487
65	0x3d25f0cd	0.04051285
66	0xbbdcb663	-0.0067356094
67	0x3bffe4a7	0.00780924
68	0xbb127671	-0.0022348429
69	0xbd18f376	-0.037341557
70	0xbcdf189f	-0.02723342
71	0xbc2ba6b6	-0.010476759
72	0x3c21b8d7	0.009870729
73	0x3bf075bc	0.007338254
74	0x3cb34eae	0.021888103
75	0xbcfd296c	-0.03090354
76	0xbcf627be	-0.030048247
77	0xbd290ba6	-0.041270874
78	0x3d132c96	0.035931192
79	0xbcab8aff	-0.020940302
80	0xbc9d57e2	-0.019206945
81	0x3be15768	0.0068768747
82	0x3d094286	0.033510707
83	0x3cf401b4	0.029785968
84	0x3cbcc7b2	0.02304444
85	0xbb245013	-0.0025072142
86	0xbce963ca	-0.028489966
87	0xbd1f7d01	-0.038937572
88	0xbc4b5f6d	-0.012412888
89	0x3d279ade	0.040919177
90	0x3bd536f4	0.006506795
91	0x3b21a830	0.0024666898
92	0xbc863515	-0.016382733
93	0x3c9bc8c4	0.019016631
94	0xbcaf630a	-0.02140953
95	0xbca482f0	-0.020081967
96	0xbd11d929	-0.03560749
97	0xbd20da94	-0.039270952
98	0x3c93ff78	0.018066153
99	0x3928e500	0.00016107038
100	0xbd0f9418	-0.035053343
101	0x3cb4f628	0.022090033
102	0xbc3578d2	-0.011076169
103	0x3cefbcf4	0.029264905
104	0x3b72cd6f	0.0037048717
105	0xbc1eb050	-0.009685591
106	0xbcd48440	-0.025941968
107	0x3c466db4	0.012111116
108	0x3c10fb43	0.008848968
109	0xbd0db64f	-0.03459769
110	0xbd1034b7	-0.035206523
111	0x3d05ec43	0.03269602
112	0x3c3c90c2	0.011509122
113	0xbbef540d	-0.007303721
114	0xbccb8802	-0.024845127
115	0xbd02c2ea	-0.031924166
116	0x3d2734b2	0.04082174
117	0x3c0394f4	0.008031119
118	0x3bd8e7a8	0.0066194125
119	0xbd277eba	-0.04089234
120	0x3ce131f0	0.027489632
121	0x3c036840	0.008020461
122	0x3ccdb250	0.02510944
123	0x3ce8c8c0	0.028416038
124	0x3cc6a279	0.024247395
125	0x3c8d25a0	0.017229855
126	0x3bc8c5c7	0.0061270925
127	0x3d0066c6	0.031348012
128	0xbcea25ad	-0.028582418
129	0x3d0d5a4e	0.03450995
130	0xbced1cb5	-0.028944353
131	0x3c5045eb	0.012711982
132	0x3c3fc601	0.011704923
133	0x3ce45525	0.027872631
134	0x3b932134	0.004490042
135	0x3b8d2f39	0.004308608
136	0x3d291356	0.041278206
137	0x3c203d60	0.009780258
138	0x3c9a346a	0.018823821
139	0xbbfb62e0	-0.007671699
140	0x3d086b36	0.03330537
141	0x3cf257ac	0.02958282
142	0xbca404bc	-0.020021789
143	0x3b8e6d5f	0.004346534
144	0xbcf0142d	-0.029306496
145	0x3cac1780	0.0210073
146	0x3c3e3005	0.011608128
147	0xbc08d9b2	-0.008352684
148	0xbbe8c08b	-0.007103031
149	0xbac04bb4	-0.0014670999
150	0xbcca9425	-0.024728844
151	0x3c97ae68	0.01851578
152	0x3cfdc8a6	0.030979466
153	0x3c6220b9	0.013801747
154	0x3d285fad	0.04110687
155	0x3d155d5b	0.036465984
156	0x3cc8412a	0.024445135
157	0x3b85bc0f	0.004081256
158	0xbcb1a50a	-0.021685142
159	0xbcdedd98	-0.027205274
160	0x3d1d56d8	0.0384129
161	0xbbd857f8	-0.0066022836
162	0xbc1ce673	-0.009576428
163	0xbc707d3f	-0.0146782985
164	0xbcc44a7d	-0.0239613
165	0x3ccb1011	0.024787934
166	0xbbfe3209	-0.0077574295
167	0x3c39f84d	0.011350703
168	0x3caffc81	0.021482708
169	0x3cbbc042	0.022918824
170	0x3b7687de	0.0037617604
171	0xbcef0c38	-0.029180631
172	0x3c88138b	0.016610881
173	0x3b921a18	0.004458677
174	0xbc2752dd	-0.010212627
175	0xbc38b94b	-0.011274646
176	0x39f70782	0.00047117105
177	0xbcd182f2	-0.025575135
178	0xbcbc6ce2	-0.023001138
179	0x3c76ef68	0.015071727
180	0x3d2c2b48	0.042033464
181	0x3cafa4f4	0.02144096
182	0x3b408590	0.0029376484
183	0x3d18c4c5	0.03729703
184	0x3d18835f	0.03723466
185	0x3d033a3c	0.03203796
186	0xbc8b4d5d	-0.017004663
187	0xbc843658	-0.016139194
188	0x3c39ee40	0.011348307
189	0xbcaa4c3f	-0.02078831
190	0x3c963119	0.018333958
191	0x3c86818b	0.016419193
192	0x3cf9ed46	0.030508649
193	0x3cca52b5	0.02469764
194	0x3d1ea7a5	0.038734097
195	0xbc68e2f7	-0.014214269
196	0xbc11f8ab	-0.008909385
197	0xb9d5f0dd	-0.00040805983
198	0xbb37d76b	-0.0028051983
199	0xbd0e71d0	-0.03477651
200	0xbcd979d4	-0.02654735
201	0xbcca9bfb	-0.02473258
202	0xbcf9e8c8	-0.030506507
203	0xbd078530	-0.033086002
204	0x3ccfd21a	0.025368739
205	0x3d2aab9c	0.041667566
206	0x3c94f29e	0.018182095
207	0xba70497d	-0.0009166224
208	0x3c8dbdd2	0.017302427
209	0x3b747380	0.0037300289
210	0x3d052719	0.03250799
211	0x3c58d074	0.013233293
212	0xbca8c203	-0.020600324
213	0x3be65c91	0.0070300777
214	0xbcd82a0c	-0.026387237
215	0x3ce67cd8	0.028135702
216	0x3b273259	0.0025512187
217	0x3ce35c06	0.027753841
218	0xbba339c1	-0.00498125
219	0xbc56c0d1	-0.013107494
220	0x3d08267c	0.033239827
221	0xbc54efec	-0.012996655
222	0xbd12e9b6	-0.035867415
223	0x3c85aefc	0.01631879
224	0x3cda9c65	0.026685903
225	0xbb6a542c	-0.0035755737
226	0x3d29b29f	0.041430112
227	0xbcbe597f	-0.023236034
228	0x3a686fe0	0.00088667683
229	0x3d21d084	0.039505497
230	0xbd0d5f2f	-0.034514602
231	0xbd1f7a50	-0.038935006
232	0xbd0948d2	-0.033516712
233	0xbcf5c65e	-0.030001815
234	0x3d1d9469	0.038471613
235	0x3c2ce167	0.010551787
236	0xbc64efd9	-0.0139732
237	0x3bb3fbd8	0.0054926686
238	0x3ab00c86	0.0013431467
239	0xbc388ae7	-0.011263586
240	0x3d2b0244	0.041750208
241	0xbcde7742	-0.027156476
242	0xbc66084c	-0.014040064
243	0xbcb93c61	-0.022611799
244	0x3cd79745	0.026317248
245	0xbc229188	-0.009922393
246	0x3ce04c4a	0.027380127
247	0xbc5b6c47	-0.013392515
248	0xbcac3794	-0.021022595
249	0x3b22149b	0.002473152
250	0xbd051a85	-0.032495994
251	0xbc39e7b1	-0.011346743
252	0x3c1715c7	0.009221501
253	0x3d0524ce	0.032505803
254	0x3d0377d4	0.0320967
255	0x3cd732c1	0.026269319

layer1.0.bias f4 [256]
0	0x3cb1888c	0.021671556
1	0x3c8199f6	0.015820485
2	0x3d16f6f8	0.03685662
3	0xbc6880bc	-0.014190849
4	0x3cd4116a	0.02588721
5	0x3c694464	0.014237497
6	0x3bbc12d9	0.0057395515
7	0x3bf748c0	0.0075465143
8	0xbd06905b	-0.03285251
9	0x3c96c731	0.018405529
10	0xbb49e303	-0.0030805476
11	0x3d225255	0.0396293
12	0xbc1481fc	-0.009064194
13	0xbc7392f9	-0.014866584
14	0x3d22fc60	0.039791465
15	0xbc89361e	-0.016749438
16	0x3cfa4e9f	0.030555068
17	0x3ca075e7	0.01958747
18	0x3c77ae8c	0.015117299
19	0xbc821862	-0.015880767
20	0xbcfb7afc	-0.030698292
21	0x3c212a21	0.0098367045
22	0xbc41e4f0	-0.011834368
23	0x3c48bf0d	0.012252581
24	0x3cf0abd5	0.02937881
25	0x3d21dd97	0.039517965
26	0x3ce3dd06	0.027815353
27	0x3b9db9c6	0.0048134057
28	0x3c8e7f03	0.017394548
29	0x3be982f4	0.0071262065
30	0xbcafe011	-0.021469148
31	0xbcd9fb98	-0.026609227
32	0xbcec33ef	-0.028833358
33	0x3ce8e83c	0.02843105
34	0x3d0473cb	0.03233699
35	0x3bac1225	0.0052511864
36	0x394ba441	0.00019420778
37	0xbd1f2969	-0.03885785
38	0xba246e63	-0.00062725524
39	0xbc5b5493	-0.013386863
40	0xbc9c0321	-0.01904446
41	0xbca5d279	-0.020241963
42	0x3c188f84	0.009311561
43	0xbca65406	-0.020303737
44	0xbd27c33a	-0.040957667
45	0x3c3238d7	0.0108778095
46	0x3c12ebb3	0.008967328
47	0x3d125e56	0.035734497
48	0xba846da4	-0.0010103476
49	0xb9a56679	-0.000315476
50	0x3d27c435	0.040958602
51	0x3be9e5be	0.007137983
52	0xbd081ec5	-0.03323247
53	0xbcb05c1d	-0.021528298
54	0xbcf6bbec	-0.030118905
55	0xbced90c2	-0.02899969
56	0x3c8bfaa0	0.01708728
57	0x3c25d780	0.01012218
58	0xbc03bed4	-0.008041102
59	0x3cb2c089	0.021820324
60	0x3d16e46b	0.03683893
61	0xbc1f31c4	-0.009716455
62	0xbd261012	-0.04054267
63	0xbd0c2d73	-0.03422303
64	0x3cc2567b	0.023722878
65	0x3b7e7e19	0.0038832484
66	0x3b85b9b2	0.0040809745
67	0xbcfe3626	-0.03103168
68	0xbc21a3ac	-0.009865683
69	0x3c55ae64	0.013042066
70	0x3d18747c	0.037220463
71	0xbc6bf7f3	-0.014402377
72	0x3cd7bc95	0.02633504
73	0xbcf18038	-0.029480085
74	0x3d13ef03	0.03611661
75	0xbd1c0ea6	-0.038099907
76	0xbbf0573e	-0.007334619
77	0x3c97bfa3	0.018523997
78	0x3d03a713	0.032141756
79	0xbd106143	-0.035249006
80	0x3d23c943	0.03998686
81	0xbcb6189e	-0.022228535
82	0xbcc358cd	-0.023846054
83	0xbbeba5ca	-0.0071913945
84	0xbd09b4a5	-0.03361954
85	0xbc218724	-0.00985888
86	0xbcb26f9f	-0.02178174
87	0xbbddb217	-0.0067656147
88	0x3d28e6c8	0.041235715
89	0x3c1d3735	0.009595682
90	0x3ceaa9a3	0.028645342
91	0xbc8c90ac	-0.017158829
92	0xbccd2ee6	-0.025046777
93	0x3c3b35bc	0.0114263855
94	0xbcd972ca	-0.026543994
95	0xbc99fe08	-0.01879789
96	0x3a01379f	0.00049292477
97	0x3cbffaaa	0.023434956
98	0xbc22a640	-0.009927332
99	0x3ce65456	0.028116386
100	0x3cdc9488	0.026926294
101	0x3c8bf7e1	0.017085971
102	0xbce045a8	-0.027376965
103	0x3d0e5bcf	0.034755524
104	0xbca47d1d	-0.02007919
105	0x3d24e73f	0.040259596
106	0xbd2e0783	-0.042487632
107	0x3bebffc0	0.0072021186
108	0xbca5ddc2	-0.020247344
109	0x3c249d87	0.010047323
110	0xbd2a0fd6	-0.04151901
111	0x3b249cc6	0.0025117858
112	0x3bfe1bce	0.0077547794
113	0x3d2ba6df	0.041907188
114	0xbcac66d4	-0.021045126
115	0xbbbc32de	-0.0057433685
116	0xbce51611	-0.027964624
117	0xbd20cd19	-0.039258096
118	0x3b4cb774	0.0031237276
119	0x3cd53086	0.026024114
120	0x3c5623be	0.013070045
121	0xbce753a2	-0.028238121
122	0x3cc57e07	0.024107946
123	0x3c75d91c	0.015005376
124	0x3cdf45bc	0.027254932
125	0x3d141fe3	0.036163222
126	0x3ca848d2	0.020542536
127	0xbc1b9fcf	-0.009498551
128	0x3c1a73df	0.00942704
129	0x3d007359	0.031360004
130	0x3d0aa735	0.033850867
131	0xbc7b382a	-0.015333215
132	0x3b562857	0.0032677853
133	0x3c726aaa	0.0147959385
134	0xbd26f6f1	-0.040762845
135	0xbcf16a49	-0.029469626
136	0x3d21da27	0.039514687
137	0xbc869a0b	-0.016430875
138	0x3c162449	0.0091639245
139	0xbc8f2054	-0.01747147
140	0xbc06d79f	-0.008230119
141	0xbca1ec39	-0.01976596
142	0x3d2f1634	0.042745784
143	0x3ca826d7	0.020526333
144	0xbc167e36	-0.0091853645
145	0x3cd78b92	0.02631167
146	0x3c91e540	0.01780951
147	0x3ccddbfb	0.025129309
148	0x3cea21d9	0.028580593
149	0xbb5e9465	-0.0033962962
150	0x3c610a7f	0.013735413
151	0x3d07ba12	0.033136435
152	0xbd0476a7	-0.03233972
153	0xbc878a7f	-0.016545532
154	0x3ca3a995	0.019978324
155	0xbb8d0855	-0.004303972
156	0x3b6e42d9	0.0036355762
157	0xbc980a27	-0.018559529
158	0xbd12cd4a	-0.03584031
159	0xbd0e9306	-0.03480818
160	0xbbbe4891	-0.0058069904
161	0xbc40ebba	-0.011774952
162	0xbca67458	-0.020319149
163	0x3d2400b7	0.040039744
164	0x3c68b4cf	0.014203264
165	0xbd113f48	-0.03546074
166	0x3cb14cf2	0.021643136
167	0x3a90435d	0.0011006404
168	0xbc83f437	-0.016107662
169	0xbd1051bd	-0.0352342
170	0x3c575e49	0.013145038
171	0xbcbd04d9	-0.0230736
172	0x3c80e0de	0.015732225
173	0x3c8b0765	0.0169713
174	0x3ce8acde	0.028402742
175	0xbbc1c802	-0.0059137354
176	0x3d185e28	0.03719917
177	0xbc48a818	-0.012247108
178	0x3d0e1f61	0.034697894
179	0x3c86ddc8	0.016463175
180	0xbc407aa5	-0.011747991
181	0x3c54851a	0.012971187
182	0xbc88f4d3	-0.016718304
183	0xbcc50a89	-0.024052875
184	0xbcd3d42f	-0.025858013
185	0xbb67fea0	-0.003539957
186	0x3c8ad44e	0.016946938
187	0xbc90c218	-0.017670676
188	0x3b535117	0.0032244378
189	0xbc9d324e	-0.019189026
190	0xbc633b22	-0.013869079
191	0xbb91feb5	-0.0044554123
192	0x3cb5c804	0.022190101
193	0x3d125354	0.035724
194	0x3ca3829e	0.019959744
195	0xbcb5fef3	-0.022216296
196	0xbcaf7f45	-0.021422992
197	0xbd254354	-0.040347412
198	0x3b9b0800	0.0047311783
199	0xbcda5e7e	-0.026656386
200	0xbd1db599	-0.038503263
201	0xbd052125	-0.032502312
202	0xbcf4ae4e	-0.029868271
203	0xbc508ee2	-0.012729378
204	0xbd1f64f1	-0.038914625
205	0xb88132c6	-6.1606566e-05
206	0x399de363	0.0003011479
207	0xbd001ec7	-0.03127935
208	0x3c84843b	0.016176334
209	0x3d055ae8	0.032557398
210	0xbc209b7c	-0.009802695
211	0x3d0a6429	0.033786926
212	0x3b5a7d98	0.003333902
213	0x3c1a6712	0.009423988
214	0x3c042181	0.008064629
215	0xbb97a823	-0.0046281978
216	0xbb8f31fd	-0.0043699727
217	0xbcd512f8	-0.026010022
218	0x3d270ff5	0.040786702
219	0x3c456994	0.012049098
220	0xbbe1e469	-0.0068936837
221	0x3b28849b	0.0025713805
222	0xbd10936e	-0.03529685
223	0xbd17c972	-0.037057348
224	0x3d0c9836	0.034324847
225	0x3c2cb32b	0.010540764
226	0x3ce5023b	0.027955165
227	0x3d11fb5a	0.0356401
228	0xbc2cf909	-0.0105574215
229	0x3d02f4c6	0.031971715
230	0xbbc07096	-0.0058727963
231	0x3c35cd14	0.011096258
232	0xbc75e1e8	-0.0150074735
233	0x3d1c4c51	0.03815872
234	0x3d1438ea	0.03618709
235	0xbd158300	-0.036501884
236	0xbd0d3019	-0.034469698
237	0xbc0f01aa	-0.008728424
238	0x3b720074	0.003692654
239	0x3c4e750b	0.012601147
240	0x3a461918	0.000755684
241	0x3c620105	0.013794188
242	0xbd10beb2	-0.03533811
243	0xbc9e4ef2	-0.019324753
244	0xbd24b88a	-0.040215053
245	0xbd29016b	-0.041261118
246	0xbc002215	-0.007820626
247	0x3c51144b	0.012761186
248	0x3cab81f3	0.020935988
249	0xbd25717b	-0.040391427
250	0x3d029175	0.031877
251	0xbc79f407	-0.015255935
252	0xbcc8a6c9	-0.024493592
253	0x3c542abb	0.012949641
254	0x3b132d51	0.002245743
255	0x3cba1f7d	0.022720093

layer2.0.weight f4 [84, 256]
0	0xbcc022a7	-0.023454024
1	0xbb3cefda	-0.0028829486
2	0x3d3701ac	0.04467933
3	0x3cb1577f	0.021648167
4	0xbc3566d8	-0.011071883
5	0x3d08b1fc	0.033372864
6	0x3d21bf4d	0.03948908
7	0xbd51d08f	-0.051224288
8	0xbd1e61ce	-0.038667493
9	0xbd336d3c	-0.043805346
10	0x3a9f7675	0.001216604
11	0x3c8136a6	0.015773129
12	0x3c86fd7c	0.016478293
13	0xbd2cab70	-0.042155683
14	0xbbda6b60	-0.006665632
15	0xbca6f259	-0.020379232
16	0x3cc9b1b1	0.024620863
17	0xbd35f546	-0.044423364
18	0x3cc7448b	0.024324676
19	0xbcbacddb	-0.022803238
20	0x3c5fb525	0.013654028
21	0xbd53316a	-0.051560797
22	0x3c992ab5	0.018697122
23	0xbcf33ce3	-0.029692119
24	0xbc8e84d8	-0.01739733
25	0x3d71de32	0.059049793
26	0x3d239366	0.039935492
27	0xbd314fbe	-0.04328894
28	0xbd029ffa	-0.031890847
29	0x3d189f25	0.037261147
30	0x3cb0209c	0.021499924
31	0x3a31daea	0.0006784635
32	0xbc2140b8	-0.00984209
33	0x3cdbbc60	0.026823223
34	0xbd1f86e8	-0.038947016
35	0xbc8b3705	-0.016994009
36	0x3d3babc3	0.0458181
37	0xbbb65514	-0.0055643413
38	0x3d48f406	0.049060844
39	0x3d47fd5f	0.048825618
40	0xbd756248	-0.05990818
41	0x3c206cff	0.009791612
42	0x3cd0c441	0.025484206
43	0xbd448865	-0.04798164
44	0x3d0a49ba	0.033761717
45	0x3d7359cc	0.05941181
46	0xbd46320c	-0.048387572
47	0xbbd60cc1	-0.006532282
48	0xbd7b7404	-0.061389938
49	0x3d08f9e0	0.033441424
50	0xbd0af2f1	-0.033923093
51	0xbd3302b2	-0.043703742
52	0x3c085f27	0.008323467
53	0x3ca08094	0.01959256
54	0x3d6a9777	0.057273354
55	0xbcc17b01	-0.023618223
56	0x3d3c58fe	0.045983307
57	0xbd131d5c	-0.03591667
58	0xbd48c340	-0.04901433
59	0x3d599321	0.05311883
60	0xbd5b9e03	-0.05361749
61	0x3d30eea8	0.04319635
62	0x3beb44ac	0.007179817
63	0x3989ca00	0.00026281178
64	0x3cef84e4	0.029238172
65	0x3d63e08d	0.05563407
66	0xbcaa4467	-0.02078457
67	0xbd5b58ee	-0.053551607
68	0x3c9aaaf7	0.01888035
69	0x3c0a5a70	0.008444414
70	0x3d05464e	0.03253775
71	0xbc50ad1d	-0.012736586
72	0xbc212936	-0.009836486
73	0x3bfa6c10	0.0076422766
74	0xbcd1d67a	-0.025614966
75	0xbcfd6236	-0.03093062
76	0x3d552872	0.052040525
77	0x3bd23b6e	0.006415776
78	0xbd41ca7d	-0.04731225
79	0xbc3fe8b3	-0.011713195
80	0x3d4f218e	0.05056911
81	0xbd5de460	-0.054172873
82	0x3d4b5510	0.04964167
83	0xbd0d51ef	-0.034501966
84	0xbce4228c	-0.027848504
85	0xbc0b3748	-0.008497067
86	0xbb9e1fe0	-0.004825577
87	0x3d3b63fc	0.04574965
88	0x3b943b97	0.004523705
89	0xbbc5aab0	-0.0060323104
90	0x3cc31e2b	0.023818096
91	0xbd48704c	-0.04893522
92	0xbd61f2cb	-0.055163186
93	0xbd0d8864	-0.0345539
94	0x3c9b30d0	0.018944174
95	0xbc68f37b	-0.0142182065
96	0x3d46ff20	0.04858315
97	0xbd43bf13	-0.047789644
98	0x3d7b2a62	0.061319716
99	0xbd7a2702	-0.061072357
100	0xbd5af1a8	-0.053453118
101	0x3d3ea3b2	0.04654283
102	0xbd6d6cb8	-0.05796501
103	0x3c8e064c	0.017336987
104	0xbcfd77ad	-0.030940855
105	0xbd42ffd0	-0.047607243
106	0xbca6f278	-0.02037929
107	0xbd0c4848	-0.03424862
108	0xbd180616	-0.03711518
109	0x3d3d5212	0.046220846
110	0x3c006967	0.00783763
111	0xbc4d49ea	-0.0125298295
112	0x3d3a1859	0.045433376
113	0x3b6e3bb4	0.0036351504
114	0x3cb8b7f4	0.022548653
115	0xbcf8db31	-0.030377956
116	0xbc37dd02	-0.011222126
117	0x3d0d23d0	0.03445798
118	0x3d3d8be8	0.046276003
119	0x3d0a2918	0.033730596
120	0xbd62716c	-0.05528395
121	0x3bc12a80	0.005894959
122	0x3d2ce148	0.042207032
123	0x3d4b58c6	0.049645208
124	0x3d60563e	0.054769747
125	0x3d74c737	0.0597603
126	0x3d74ed90	0.05979687
127	0xbcd0c893	-0.025486266
128	0x3cdf74fc	0.027277462
129	0xbd7364f2	-0.05942244
130	0x3d1dffd0	0.03857404
131	0x3b069ee0	0.0020541474
132	0xbb146af5	-0.002264676
133	0x3d40ff61	0.04711855
134	0xbba06ac0	-0.004895538
135	0x3d70ce6a	0.0587906
136	0x3d52d96c	0.05147688
137	0xbd45448c	-0.048161075
138	0x3d7d5f0e	0.06185823
139	0x3d72f0fd	0.059311856
140	0xbccc7804	-0.024959572
141	0x3bf5c8fb	0.0075007654
142	0xbcc5bfb8	-0.02413927
143	0x3d418f5c	0.04725586
144	0xbd21df10	-0.03951937
145	0x3d02a7d0	0.03189832
146	0xbc18b5df	-0.009320705
147	0xbd091581	-0.033467773
148	0xbc06b84b	-0.00822265
149	0xbd5dff06	-0.054198287
150	0x3c1d4dec	0.009601098
151	0xbd534ee1	-0.051588897
152	0x3d63b79a	0.055595018
153	0xbd526838	-0.051368922
154	0xbb999da0	-0.00468798
155	0xbcbe5356	-0.023233097
156	0xbd562d03	-0.05228902
157	0xbc7cdfe8	-0.015434243
158	0xbd4bccec	-0.049755976
159	0x3d184f7f	0.03718519
160	0x3c9f808c	0.019470476
161	0x3d412bc3	0.047160875
162	0x3d10f675	0.03539129
163	0xbd563e68	-0.05230561
164	0xbcbb3ee4	-0.022857137
165	0x3d14d3e4	0.036334887
166	0x3d060d9d	0.032727826
167	0xbc4f529c	-0.012653973
168	0xbd699306	-0.057024978
169	0xbc4addef	-0.012382015
170	0xbd1f3ee1	-0.038878325
171	0xbd0baa3e	-0.034097902
172	0x3c9d3da5	0.019194433
173	0xbd6fbda6	-0.058530472
174	0xbbe00e35	-0.006837631
175	0xbd7b11d5	-0.061296303
176	0xbd42a05f	-0.047516223
177	0xbd180138	-0.037110537
178	0xbc612a7d	-0.01374304
179	0x3cb6c66c	0.022311412
180	0xbc01da70	-0.007925615
181	0x3d685bca	0.056728162
182	0xbd7dd3b7	-0.061969485
183	0xbd16780d	-0.036735583
184	0xbd60acf1	-0.05485243
185	0xbcde1e69	-0.02711411
186	0xbc68f5da	-0.014218772
187	0x3d6d66fe	0.05795955
188	0xbd7a775b	-0.061148982
189	0x3d1541a8	0.036439568
190	0xbd198f42	-0.037490137
191	0xbb22b8f4	-0.002482948
192	0xbce0ce12	-0.027442012
193	0xbd357194	-0.04429777
194	0xbd5e2d72	-0.05424256
195	0xbb14fd38	-0.0022733938
196	0x3cae1a25	0.021252701
197	0xbd0b98aa	-0.03408114
198	0x3ce901ef	0.028443305
199	0xbd303f2e	-0.043029003
200	0x3d27e8b6	0.040993415
201	0x3d03c7de	0.03217303
202	0xbd5e9290	-0.05433899
203	0x3d041301	0.032244686
204	0xbd523652	-0.051321335
205	0xbc042b10	-0.0080669075
206	0x3ccb1bec	0.024793588
207	0xbd090ac5	-0.033457536
208	0xbd2c3705	-0.04204466
209	0xbd2ccc41	-0.04218698
210	0x3c44a1bb	0.01200145
211	0xbc380ab8	-0.011233024
212	0xbd3578be	-0.0443046
213	0xbd7dcec5	-0.06196477
214	0x3cc0d78e	0.023540284
215	0xbd36fa34	-0.044672206
216	0xbd019286	-0.031633876
217	0xbd28d41a	-0.0412179
218	0x3c3b1d79	0.011420601
219	0x3d7dd5e3	0.061971556
220	0x3c572809	0.013132104
221	0xbd397ce1	-0.04528511
222	0x3d434bae	0.047679596
223	0x3d42daae	0.04757183
224	0x3c9724f2	0.018450234
225	0xbcf8f570	-0.030390471
226	0xbc758c8c	-0.014987122
227	0x3c1b8635	0.009492447
228	0x3c0878e8	0.008329608
229	0x3d45414d	0.04815798
230	0xbcfa6755	-0.03056685
231	0x3b80960b	0.0039241365
232	0x3ca286f0	0.019839734
233	0x3d367d3e	0.044553034
234	0x3cbc7f5e	0.023009952
235	0xbd440e87	-0.047865417
236	0xbb859c34	-0.0040774588
237	0xbc9c2694	-0.019061364
238	0xbd4934a2	-0.04912246
239	0x3d72a4af	0.059239086
240	0x3d5412e6	0.051775835
241	0x3be73db8	0.007056918
242	0x3d517711	0.05113894
243	0x3d040edc	0.032240734
244	0x3d35895b	0.044320446
245	0xbc9d2c9e	-0.019186314
246	0xbc327548	-0.01089222
247	0xbd478edd	-0.04872023
248	0xbd261562	-0.040547736
249	0xbd33097f	-0.043710228
250	0xbc99d1cc	-0.018776797
251	0xbd75b077	-0.059982743
252	0x3d01c76c	0.031684324
253	0x3d1381f8	0.03601262
254	0x3d043e96	0.03228625
255	0xbc2ca54d	-0.010537458

layer2.0.bias f4 [84]
0	0xbcb6b07e	-0.022300955
1	0xbcca66c2	-0.024707202
2	0x3d665ec1	0.056242708
3	0x3d129d8d	0.035794783
4	0x3cf4ba0c	0.02987387
5	0x3cf52099	0.02992277
6	0xbd3e4fa0	-0.046462655
7	0xbc9065a1	-0.017626585
8	0x3bf9fa0e	0.007628686
9	0xbb8bf636	-0.004271294
10	0x3ba96790	0.0051698163
11	0x3997f437	0.0002898292
12	0x3bdd085c	0.0067453813
13	0x3c0150ea	0.007892827
14	0x3cae180c	0.0212517
15	0x3bdbbc13	0.00670577
16	0x3d55db3d	0.052211035
17	0x3c841dd0	0.016127497
18	0xbc13769f	-0.009000449
19	0xbc0e19dd	-0.0086731585
20	0xbaa5e420	-0.0012656488
21	0x3c07c0af	0.008285685
22	0xbd70adbf	-0.058759447
23	0xbcc1c210	-0.023652107
24	0x3bfaaacd	0.0076497556
25	0x3ca2da1c	0.019879393
26	0x3d5c7e16	0.053831182
27	0x3d61d443	0.05513407
28	0xbc332541	-0.010934175
29	0xbd44985d	-0.047996867
30	0x3cbf4095	0.023346225
31	0x3c028f42	0.007968726
32	0x3c853b26	0.016263556
33	0xbc97a207	-0.018509878
34	0xbc5ed547	-0.013600654
35	0x3ab50dee	0.0013813355
36	0x3c0aaa08	0.00846339
37	0xbca34981	-0.01993251
38	0xbbf77570	-0.0075518414
39	0xbd7021db	-0.058626037
40	0x3d5bb331	0.053637687
41	0xb9c8e900	-0.0003832057
42	0xbd14b780	-0.03630781
43	0x3d426f89	0.04746965
44	0x3a9c0140	0.0011902228
45	0xbc13e3f3	-0.009026515
46	0x3d503359	0.05083022
47	0x3cbaa12e	0.022781935
48	0x3d4871c4	0.04893662
49	0xbd7e8630	-0.06213969
50	0xbd60e6d1	-0.054907624
51	0xbccf85fa	-0.02533244
52	0xbd6211ee	-0.05519288
53	0x3d5ebb30	0.054377735
54	0x3d3bb800	0.045829773
55	0x3b0be4fa	0.0021346197
56	0x3d69b943	0.057061445
57	0x3c562faf	0.013072892
58	0x3bf4be10	0.0074689463
59	0xbc8d9880	-0.017284632
60	0xbd7ed272	-0.062212415
61	0xbcc2239a	-0.023698617
62	0x3d437da6	0.04772725
63	0x3cce557a	0.025187243
64	0xbd12bc00	-0.035823822
65	0xbd0632a2	-0.03276313
66	0x3d133a99	0.035944555
67	0xbc7df3a4	-0.015499983
68	0x3c8c6cee	0.017141785
69	0x3c835c08	0.016035095
70	0x3cff7c83	0.031187302
71	0x3c75d2e9	0.015003898
72	0xbca7942f	-0.020456402
73	0xbc4e7dbb	-0.012603219
74	0x3cd56042	0.026046876
75	0xbd63539c	-0.055499658
76	0xbcda6e10	-0.02666381
77	0x3d3bd1cf	0.045854386
78	0x3d71b325	0.059008736
79	0x3b695c56	0.0035608015
80	0x3d333809	0.04375461
81	0xbd3b9400	-0.04579544
82	0x3d58b589	0.0529075
83	0x3d05386a	0.032524504

layer3.0.weight f4 [8, 84]
0	0x3d8f3e3b	0.069942914
1	0xbc42c612	-0.011888044
2	0xbdbc8792	-0.092055455
3	0x3d50de89	0.050993476
4	0x3cdd59b5	0.027020315
5	0xbc9b1bb7	-0.018934114
6	0xbd77b7fe	-0.060478203
7	0xbc25a4e5	-0.010110115
8	0x3d86968d	0.06571684
9	0x3dd30251	0.10303176
10	0x3d962fc7	0.073333316
11	0x3c21f8b5	0.0098859565
12	0xbce0eebe	-0.027457591
13	0x3c94aa8e	0.018147733
14	0x3c96b4aa	0.018396694
15	0xbca0f156	-0.019646328
16	0x3d0d38dd	0.034478057
17	0x3d0cec2b	0.034404915
18	0x3be690a4	0.0070362855
19	0xbdd398f2	-0.103319064
20	0x3dd8fe12	0.10595335
21	0x3daf1fa5	0.085509576
22	0xbdb6fa9b	-0.08934518
23	0x3dacaf8d	0.08431921
24	0xbccd0933	-0.0250288
25	0x3da3957d	0.07987497
26	0x3d5ed7d2	0.05440504
27	0x3c377723	0.011197838
28	0x3b7f990f	0.0039001142
29	0x3d31eb3b	0.043437224
30	0x3d1d54ae	0.038410835
31	0x3ddb7ff6	0.10717766
32	0xbc8e3d3f	-0.017363189
33	0xbd2a21e5	-0.04153623
34	0xbdbf19aa	-0.09331067
35	0xbda4a743	-0.08039715
36	0xbddcdea3	-0.10784652
37	0x3cf38def	0.029730765
38	0xbc818284	-0.015809305
39	0xbd7b0271	-0.061281625
40	0xbdadca61	-0.08485866
41	0x3dc463c3	0.095893405
42	0xbcf80d60	-0.030279815
43	0xbc89cd05	-0.016821394
44	0x3dd91711	0.10600103
45	0xbd10ebb2	-0.035381027
46	0x3c1599be	0.009130893
47	0xbc95f7c0	-0.018306613
48	0xbdb10b53	-0.08644738
49	0x3d3cde56	0.046110474
50	0xbda5c1ee	-0.0809363
51	0x3d842a91	0.064534314
52	0xbd8df4cc	-0.06931457
53	0x3d05d05c	0.03266941
54	0x3db4817f	0.08813762
55	0xbddba9f3	-0.107257746
56	0x3daf06a3	0.08546188
57	0xbc8675b3	-0.016413545
58	0x3da7e083	0.08197119
59	0x3dda3941	0.106554516
60	0xbd9b37a6	-0.075789735
61	0xbccc7f7c	-0.024963133
62	0xbd080346	-0.033206247
63	0xbddc417a	-0.10754676
64	0xbdb3e621	-0.08784128
65	0xbd81eb78	-0.0634374
66	0x3ccee4c3	0.025255566
67	0xbd15f26a	-0.036608137
68	0x3d2a5910	0.041588843
69	0xbd889446	-0.06668906
70	0x3d0c1904	0.034203544
71	0x3db556fa	0.0885448
72	0xbd8f3af8	-0.06993669
73	0xbd8a19e9	-0.06743223
74	0xbc8a6823	-0.01689536
75	0x3dbd3ab5	0.09239713
76	0xbd49965d	-0.049215663
77	0x3dd04141	0.10168696
78	0xbd5c896f	-0.053842004
79	0x3dd2492c	0.10267863
80	0xbd06b11e	-0.032883756
81	0xbc64f22e	-0.013973756
82	0x3cc813fd	0.024423594
83	0xbdd9207d	-0.106019
84	0xbdd2ea36	-0.102985784
85	0xbd4326ab	-0.0476443
86	0x3d2c44f6	0.042057954
87	0x3d24cb00	0.04023266
88	0x3c090f78	0.008365504
89	0xbd54c9a3	-0.05195011
90	0x3dbc4fbb	0.09194895
91	0xba0373bc	-0.0005014499
92	0xbcacc6d2	-0.021090899
93	0xbd985cc2	-0.07439567
94	0x3d9c551b	0.0763342
95	0xbd199449	-0.03749493
96	0x3ddd30ae	0.108003005
97	0xbdcc8366	-0.09986
98	0xbaeff765	-0.0018307982
99	0x3d808620	0.06275582
100	0xbd8028bd	-0.0625777
101	0x3d925177	0.071444444
102	0x3d9d9722	0.07694842
103	0xbd1bd928	-0.038048893
104	0xbd0307a5	-0.031989712
105	0xbd568da3	-0.05238117
106	0xbd3e9181	-0.046525482
107	0xbd80d8c2	-0.06291343
108	0xbb027866	-0.001990819
109	0x3d70efaa	0.05882231
110	0xbd1f8d12	-0.038952895
111	0x3ab8368b	0.0014054341
112	0x3cb91ed9	0.022597717
113	0x3c6db085	0.014507418
114	0xbdc70d58	-0.09719342
115	0xbdd037e2	-0.10166909
116	0xbcb790b4	-0.022407867
117	0xbc5afc1b	-0.013365771
118	0x398e1442	0.00027099444
119	0xbdc2052c	-0.09473643
120	0x3c93d64c	0.01804652
121	0xbda7b68a	-0.081891134
122	0x3d774715	0.060370523
123	0x3c9d666e	0.019213881
124	0xbc39fff2	-0.011352526
125	0xbda9b76a	-0.082869366
126	0x3d24a2f2	0.04019446
127	0x3be6fb31	0.0070489873
128	0xbdd5f68a	-0.10447414
129	0x3ce5b937	0.028042419
130	0x3d11cb3a	0.035594203
131	0xbdbb0aac	-0.09132895
132	0xbca90c7c	-0.020635836
133	0xbcff439c	-0.031160168
134	0xbd5608d2	-0.052254505
135	0x3d9fd5af	0.07804429
136	0xbbec4530	-0.007210396
137	0xbd8359d9	-0.064136215
138	0x3dba1681	0.090863235
139	0x3d920151	0.07129157
140	0x3dd481da	0.1037633
141	0xbd84a30b	-0.064764105
142	0xbdac2b19	-0.08406658
143	0xbdc454a4	-0.095864564
144	0xbd1e6656	-0.038671814
145	0x3dbeca98	0.093159854
146	0x3d93bc6d	0.07213674
147	0xbda7e65f	-0.08198237
148	0x3ca7759f	0.020441828
149	0x3d3d62ca	0.04623679
150	0xbd162b79	-0.036662553
151	0x3d153500	0.036427498
152	0x3ccbfe63	0.024901574
153	0x3d0bdb32	0.034144588
154	0x3dd405c2	0.10352661
155	0xbd5e21a9	-0.05423132
156	0xbd160db5	-0.036634166
157	0xbd82f410	-0.063942075
158	0xbd9d3306	-0.076757476
159	0x3ac909de	0.0015338024
160	0x3d066ca3	0.032818448
161	0x3d8c4ef2	0.06850995
162	0xbd7a1988	-0.061059505
163	0xbd3471be	-0.044053786
164	0x3d27972f	0.040915664
165	0x3ca12f60	0.01967591
166	0xbd332062	-0.043732055
167	0x3db128d1	0.08650363
168	0xbdde1849	-0.10844476
169	0xbd151fdd	-0.03640734
170	0x3d521f7b	0.051299553
171	0x3d465e4c	0.048429772
172	0xbd1e8cf8	-0.038708657
173	0x3d39adaa	0.045331635
174	0x3d66d87f	0.05635881
175	0x3d5f2c95	0.054485876
176	0x3c176b4c	0.00924189
177	0xbd2d155f	-0.04225671
178	0xbdacc6dd	-0.08436368
179	0x3b211bf0	0.0024583302
180	0xbd9d1fac	-0.076720566
181	0xbce9735d	-0.028497392
182	0x3da66ce6	0.081262395
183	0xbd7bd439	-0.06148169
184	0x3d8179ff	0.06322097
185	0x3d8b8987	0.06813341
186	0xbc6d7688	-0.014493592
187	0xbd8f611b	-0.07000943
188	0xbda04d1d	-0.07827208
189	0x3d80ba49	0.06285531
190	0x3d63c74d	0.05560999
191	0x3dc1568f	0.09440338
192	0x3dcab7dd	0.098983504
193	0xbd64db89	-0.055873428
194	0xbc79cef0	-0.015247092
195	0xbb3420cc	-0.0027485369
196	0xbdd82780	-0.10554409
197	0x3d3ad2d8	0.045611233
198	0xbdbb7290	-0.091527104
199	0x3dc0d5b7	0.09415763
200	0x3ca8c042	0.020599488
201	0xbdcb24f3	-0.09919157
202	0xbd23f7db	-0.040031295
203	0xbd15781d	-0.036491502
204	0x3d04c352	0.032412834
205	0xbc8204fa	-0.015871514
206	0xbd7fe581	-0.06247473
207	0xbc93afa9	-0.018028097
208	0x3db73540	0.089457035
209	0xbd4b08d1	-0.049568955
210	0xbac93580	-0.0015351027
211	0x3cba4cde	0.022741731
212	0xbc9bc920	-0.019016802
213	0x3cf472ef	0.02983996
214	0xbdbdc5f4	-0.09266272
215	0x3d7f1dbd	0.06228422
216	0xbdc6aee0	-0.097013235
217	0x3d81c9df	0.06337332
218	0x3d4c1f4c	0.049834535
219	0xbd1ae684	-0.037817493
220	0x3d181594	0.037129954
221	0x3dab7b4b	0.08373126
222	0xbcfaf6b4	-0.030635215
223	0xbd90a28e	-0.07062255
224	0x3d11b01f	0.035568353
225	0xbdbe466d	-0.092907764
226	0xbd517a8a	-0.051142253
227	0x3d3eefee	0.046615534
228	0x3dba8ffc	0.09109494
229	0xbcdb5e3f	-0.026778338
230	0x3d5e726a	0.054308333
231	0x3da6ae66	0.081387326
232	0xbda73945	-0.0816522
233	0xbdbbd1d1	-0.09170879
234	0xbddc913f	-0.10769891
235	0x3d2b9c7d	0.041897286
236	0xbbe198e4	-0.006884681
237	0x3d88d20d	0.06680689
238	0xbd8bf893	-0.06834521
239	0x3de06a30	0.10957754
240	0x3d4e4c13	0.05036552
241	0xbd9feca9	-0.07808811
242	0xbd7248f0	-0.05915159
243	0xbddc1356	-0.107458755
244	0xbdcdbd58	-0.1004588
245	0xbdb4b727	-0.08823996
246	0x3d9a736d	0.07541547
247	0xbcaa0c1a	-0.020757724
248	0xbd812cda	-0.06307383
249	0x3d8ce3e6	0.06879406
250	0xbcada445	-0.021196494
251	0xbdb8670e	-0.09004031
252	0xbdb115aa	-0.0864671
253	0x3d609ed1	0.05483896
254	0x3d943ab0	0.07237756
255	0xbd6baa3a	-0.057535388

layer3.0.bias f4 [8]
0	0x3da4ce33	0.08047142
1	0xbdb337fe	-0.08750914
2	0x3d704594	0.058660105
3	0x3b35bf4c	0.002773243
4	0xbd5ddfd9	-0.054168556
5	0xbddde60f	-0.10834896
6	0x3dac5a24	0.084156305
7	0x3d0db09c	0.034592256
