DigitalRecognition-master/model_params/GDUT_net_all_1.pt (torch, 665623 bytes, 6 tensors)

layer1.0.weight f4 [256, 560]
0	0xbd10f020	-0.03538525
1	0x3cd4a844	0.025959142
2	0x3b6a7550	0.003577549
3	0xbceae339	-0.028672801
4	0x3d06f43c	0.032947764
5	0xbc2a56dc	-0.010396685
6	0xbca7ef61	-0.020499887
7	0x3d04c5b8	0.03241512
8	0xbbcba3e0	-0.006214604
9	0xbc6a806c	-0.014312845
10	0x3cb95ec8	0.022628203
11	0x3beec198	0.0072862618
12	0xbc8bc9c1	-0.017063977
13	0x3d005dda	0.031339504
14	0xbcb198e2	-0.021679346
15	0x3c327298	0.010891579
16	0xbc95389f	-0.018215476
17	0xbc1127e4	-0.008859608
18	0xbc8b2b85	-0.016988525
19	0x3d22af66	0.039718054
20	0xbc6b4186	-0.014358884
21	0x3cd37378	0.025811896
22	0x3b5e5db0	0.0033930354
23	0xbd24294e	-0.040078454
24	0xbd1a9a19	-0.037744615
25	0xbc0a4856	-0.008440098
26	0xbc67f506	-0.014157539
27	0xbd1c194f	-0.038110074
28	0xbb8f33f7	-0.0043702084
29	0x3ca02272	0.019547675
30	0x3d218ac3	0.039438974
31	0x3bdd6c6c	0.0067573097
32	0xbc900133	-0.017578697
33	0x3ce52d8b	0.027975818
34	0x3c5977e5	0.013273214
35	0xbc26bc1c	-0.010176685
36	0x3d20896a	0.03919355
37	0xbb875ce0	-0.0041309446
38	0xbcad0d0d	-0.021124387
39	0xbcedc118	-0.029022738
40	0x3d104526	0.035222195
41	0x3c8030c2	0.01564825
42	0xbcac0350	-0.020997673
43	0xbbd66678	-0.006542977
44	0xbc2deee9	-0.010616043
45	0xbcaf091f	-0.021366654
46	0x3bf9da31	0.0076248874
47	0xbb1c0943	-0.0023809231
48	0xbd20da84	-0.039270893
49	0xbca77ce7	-0.0204453
50	0x3d2ab6d3	0.04167826
51	0x3d2c9444	0.042133585
52	0x3b11edd7	0.0022267008
53	0xbcdaa6c6	-0.026690852
54	0xbd092d91	-0.03349072
55	0xbd22195a	-0.03957496
56	0x3cb60495	0.022218982
57	0x3c2bd15c	0.010486927
58	0xbcf94d79	-0.03043245
59	0x3cf17990	0.02947691
60	0x3bcccfb0	0.006250344
61	0x3bf6eb80	0.007535398
62	0xbc9fe7bb	-0.019519677
63	0x3c5274b8	0.012845211
64	0xbd28e352	-0.041232415
65	0x3d0bb867	0.034111407
66	0xbcb7dd4f	-0.022444395
67	0xbc953b84	-0.018216856
68	0x3cf3411d	0.029694134
69	0x3d232c60	0.03983724
70	0xbc81c03c	-0.015838735
71	0x3c41ee7a	0.011836642
72	0x3c80103b	0.01563274
73	0x3cb349fb	0.021885863
74	0x3ce40dc8	0.027838603
75	0x3d293c22	0.041317113
76	0x3c6650f0	0.014057383
77	0xbd100679	-0.035162423
78	0xbb7a8910	-0.0038228668
79	0xbd29f674	-0.0414948
80	0xbc587738	-0.013212018
81	0xbd1eb6f8	-0.03874871
82	0x3cdd1c94	0.026991166
83	0x3c3c2154	0.011482555
84	0x3d2d65bd	0.042333353
85	0xbcfd24e7	-0.030901385
86	0xbbea15d7	-0.007143717
87	0xbcc81c5e	-0.024427589
88	0xbc4a17c8	-0.012334771
89	0xbba1d6af	-0.0049389224
90	0xbbd4d0cf	-0.0064946185
91	0x3adb7320	0.0016742684
92	0xbce7c938	-0.02829419
93	0xbc1c70b8	-0.009548359
94	0x3c8d6832	0.017261598
95	0x3cedef7b	0.029044857
96	0xbcb33c49	-0.021879332
97	0xbcb277b2	-0.02178559
98	0xbc56fb38	-0.013121419
99	0x3d024886	0.031807445
100	0xbd194815	-0.03742226
101	0xbcdd97d4	-0.027049936
102	0xbcc85fcd	-0.024459744
103	0xbc8d3b8a	-0.017240304
104	0xbcbe55e9	-0.023234325
105	0x3cf0ef29	0.029410915
106	0x3d0c951a	0.03432188
107	0xb9ad8c3d	-0.00033101617
108	0x3d23ff94	0.04003866
109	0xbb5a00bf	-0.0033264605
110	0xbcc6047a	-0.024172056
111	0x3cbc47a6	0.022983383
112	0x3bbffeeb	0.005859246
113	0xbd2a13ae	-0.041522674
114	0x3d262826	0.040565632
115	0xbb0ce5ad	-0.0021499202
116	0xbc2fd23e	-0.010731278
117	0xbb9f92c8	-0.0048697926
118	0x3cc22b14	0.023702182
119	0x3cfd0b58	0.030889198
120	0xbd09bc2e	-0.033626728
121	0xbbf67ee8	-0.0075224526
122	0xbc17ae3c	-0.009257849
123	0xbd06ca7e	-0.032907955
124	0x3d28ef1c	0.041243657
125	0x3c7889c3	0.015169564
126	0xbc535dd8	-0.012900792
127	0xb98a87c4	-0.00026422564
128	0x3c4e0f8f	0.012576952
129	0x3c6c7339	0.014431768
130	0xbd26bc03	-0.040706646
131	0x3c26b310	0.010174528
132	0x3d22e3fe	0.03976821
133	0x3cc810e8	0.024422124
134	0xbd1e2e29	-0.03861824
135	0xbcd1a43a	-0.025591005
136	0xbc78aa47	-0.015177316
137	0xbd2c33f2	-0.042041726
138	0xbd23d117	-0.039994325
139	0xbcafdf14	-0.021468677
140	0xbca9ffaf	-0.020751802
141	0xbc81067a	-0.015750159
142	0xbc980bfc	-0.018560402
143	0xbd0ae273	-0.033907365
144	0x3c9f1066	0.019417
145	0x3ce1c41d	0.027559334
146	0xbbf214d5	-0.0073877373
147	0x3d089746	0.03334739
148	0xbceaf704	-0.02868224
149	0xbd025208	-0.031816512
150	0xb988da9e	-0.00026102824
151	0xbd0c3733	-0.03423233
152	0xbd1126b8	-0.035437316
153	0xbcd23c14	-0.025663413
154	0xbaaeb188	-0.0013328055
155	0x3c75761e	0.014981775
156	0xbbb4172a	-0.0054959254
157	0x3c91134a	0.017709393
158	0xbcccc30d	-0.024995351
159	0xbcd91f88	-0.026504293
160	0x3d111fbe	0.035430662
161	0xbca9dc0a	-0.020734806
162	0xbaf95e77	-0.0019025345
163	0xbb903ec5	-0.004402014
164	0x3c508fe3	0.012729618
165	0x3c7a6fc3	0.015285435
166	0xbd243c60	-0.04009664
167	0xbcd1766c	-0.025569163
168	0x3d302699	0.04300556
169	0xbc07d4e1	-0.0082905
170	0x3a4800f1	0.0007629535
171	0xbce97b14	-0.028501071
172	0x3d08b665	0.03337707
173	0x3c41c20e	0.011826051
174	0xbc9a7a01	-0.018857004
175	0x3ccf0849	0.025272505
176	0x3c85d9de	0.016339239
177	0x3ca36ba0	0.01994878
178	0x3ccae86a	0.024769027
179	0xbd129334	-0.035784915
180	0xbae2cb00	-0.001730293
181	0x3bdacd38	0.006677296
182	0x3d0d8eb8	0.034559935
183	0xbcdb0255	-0.02673451
184	0x3bf2dfaa	0.0074119167
185	0xbc778041	-0.015106262
186	0x3c89c809	0.016819017
187	0xbcfeb62c	-0.031092726
188	0xbcb7eaa8	-0.02245076
189	0xbd0544ad	-0.032536197
190	0xbc98b4fe	-0.018640991
191	0x3b296570	0.0025847815
192	0x3c4ea5ce	0.012612773
193	0xbc825ae3	-0.015912479
194	0x3c4c30d9	0.012462818
195	0xbcb19c42	-0.021680955
196	0x3d1d310c	0.038376853
197	0x3c87bf8e	0.016570833
198	0xbcc5a0a7	-0.024124457
199	0xba0d8dc0	-0.00053998455
200	0x3d0f9260	0.035051703
201	0xbc7a695a	-0.015283907
202	0x3c0542f8	0.008133642
203	0x3d1e0c67	0.038586047
204	0x3cab1cda	0.020887781
205	0xbbfc90dd	-0.0077076987
206	0xbc6164d9	-0.013756954
207	0xbc93cb5f	-0.01804131
208	0xbb84dd86	-0.004054728
209	0x3cb8b984	0.022549398
210	0xbd040897	-0.032234754
211	0xbd1c5dbf	-0.03817534
212	0xbcfcb978	-0.030850157
213	0xbcf3acd3	-0.029745495
214	0xbca90b80	-0.020635366
215	0x3d02640d	0.031833697
216	0x3d2662b1	0.040621463
217	0x3b9e5d29	0.004832883
218	0x3d15f0d1	0.036606614
219	0x3b814344	0.0039447863
220	0xbd1a465e	-0.037664764
221	0xbc2a8410	-0.010407463
222	0xbc882316	-0.016618293
223	0xbce72086	-0.02821375
224	0x3ca34f18	0.019935176
225	0x3cd278da	0.025692392
226	0xbc8d8031	-0.01727304
227	0x3c1024ff	0.008797883
228	0xbc2f647a	-0.010705108
229	0xbc88ec37	-0.016714199
230	0x3c46ecfc	0.012141462
231	0x3c96cf21	0.018409314
232	0x3cfbec56	0.030752342
233	0xbcd0bd67	-0.02548094
234	0x3a27c600	0.0006400049
235	0xbc496558	-0.012292229
236	0x3d10b129	0.035325203
237	0xbbd5f6a0	-0.006529644
238	0x3c0be76b	0.008539061
239	0x3c870844	0.016483434
240	0xba824fa0	-0.0009941943
241	0x3c71f30c	0.01476742
242	0x3ca4471c	0.020053439
243	0x3d1be62d	0.03806131
244	0xbd2a27b4	-0.04154177
245	0x3bed13c5	0.0072350227
246	0xbbc1eb4b	-0.0059179417
247	0xbc8aded8	-0.016951963
248	0x3c971960	0.018444717
249	0xbd002470	-0.03128475
250	0x3c90d419	0.017679261
251	0x3c9b5ba9	0.018964605
252	0x3b72e6e3	0.0037063889
253	0x3d11aabb	0.035563212
254	0xbd2a481a	-0.041572668
255	0x3cf9f435	0.030511955

layer1.0.bias f4 [256]
0	0x3cb86c3a	0.022512544
1	0x3c8ccae4	0.01718659
2	0xbcb13125	-0.02162988
3	0x3c2c5d31	0.010520265
4	0xbd2e08f6	-0.042489015
5	0x3caaec62	0.02086467
6	0x3bc48571	0.005997353
7	0xbb89a47d	-0.0042005167
8	0xbd20aa1e	-0.039224736
9	0x3c8e5f24	0.017379351
10	0xbc6c8628	-0.014436282
11	0x3d26bba8	0.040706307
12	0xbcc828d3	-0.024433529
13	0xbc8fb3b7	-0.01754175
14	0xbc992c4f	-0.018697886
15	0x3d23a085	0.039948005
16	0xba945494	-0.001131671
17	0x3cfc6188	0.030808225
18	0xbbe7c477	-0.007072981
19	0xbc2369b5	-0.009973933
20	0x3c2b653f	0.010461151
21	0xbca3e4ef	-0.020006625
22	0xbcf7e89a	-0.03026228
23	0x3d056a8f	0.032572325
24	0x3c105023	0.008808169
25	0x3cc25238	0.023720846
26	0xbcfe5e58	-0.031050846
27	0x3d0d6858	0.034523338
28	0x3d2cac48	0.042156488
29	0xbb80f516	-0.0039354665
30	0x3bb0e477	0.005398329
31	0xbd2738b7	-0.040825572
32	0xbd0c500f	-0.034256037
33	0x3c5edf60	0.013603061
34	0xbc1e9432	-0.009678887
35	0x3cb7c58e	0.022433069
36	0x3c4325a7	0.0119108325
37	0x3ccf6ebe	0.02532136
38	0x3d20cf15	0.03925999
39	0x3ca7dfa0	0.020492375
40	0x3cac4c45	0.021032462
41	0x3cb22ee2	0.021750871
42	0x3abe6fbc	0.0014529149
43	0x3c4fb23e	0.012676774
44	0xbd00732e	-0.031359844
45	0xbce459ac	-0.02787479
46	0xbcc2feaa	-0.023803074
47	0xbd17c158	-0.03704962
48	0x3d21dca2	0.039517052
49	0x3c9ecda3	0.019385165
50	0xbbe449ef	-0.0069668214
51	0xb935e796	-0.00017347778
52	0xbd013e40	-0.031553507
53	0x3d17208e	0.03689628
54	0xbcbe7b85	-0.023252258
55	0x3cf67cb0	0.030088753
56	0xbc80c03f	-0.01571667
57	0x3c56b3b9	0.013104373
58	0xbc988d2e	-0.018622007
59	0x3d20dd7d	0.039273728
60	0x3c5d6035	0.013511707
61	0xbb2968ac	-0.0025849743
62	0xbcd486a0	-0.0259431
63	0xbd08dcb9	-0.033413623
64	0xbd2f191a	-0.042748548
65	0x3d09b6d5	0.033621628
66	0xbcab4e94	-0.020911492
67	0xbc136676	-0.008996597
68	0xbd090210	-0.033449233
69	0x3cc0fd2d	0.023558224
70	0x3b0133bc	0.0019714674
71	0xbd0b252c	-0.033970997
72	0x3cada198	0.021195218
73	0x3cab07aa	0.020877678
74	0xbb5cb15c	-0.003367505
75	0xbc091ee6	-0.008369183
76	0xbd009cc4	-0.031399503
77	0x3b13673a	0.0022491948
78	0xbc922e88	-0.017844453
79	0xbc87de4f	-0.016585497
80	0x3afef6d8	0.0019452227
81	0xba1d510e	-0.0006001153
82	0xbd07d222	-0.033159383
83	0xbc4a74ff	-0.012356996
84	0xbca5ea8e	-0.020253446
85	0x3d2266fc	0.039648995
86	0x3b85286a	0.0040636556
87	0xbc83ecbf	-0.0161041
88	0xbc920235	-0.017823318
89	0xbcfaba3e	-0.030606385
90	0xbafa1218	-0.0019078879
91	0x3c81c0e3	0.015839046
92	0x3cba4e23	0.022742337
93	0xbc581158	-0.013187729
94	0x3c04e7f0	0.008111939
95	0x3ac4e434	0.0015021623
96	0x3d175f27	0.03695598
97	0x3d09d604	0.033651367
98	0xb9d3cd37	-0.00040397953
99	0x3cb9bdcb	0.022673508
100	0xbd1a2f1a	-0.037642576
101	0x3d1f0fbb	0.03883336
102	0xbd206e79	-0.039167855
103	0x3c7f3802	0.015577318
104	0xbd26ff9d	-0.040771116
105	0xbc93fb56	-0.018064182
106	0xbc10645d	-0.008812991
107	0x3d116b52	0.03550274
108	0x3b4c18bf	0.003114268
109	0x3d25f61b	0.040517908
110	0x3d125ffa	0.03573606
111	0xbc58871c	-0.013215806
112	0xbc572efc	-0.013133761
113	0xba1a80bb	-0.0005893816
114	0x39b75e43	0.0003497471
115	0xbcff60f7	-0.031174166
116	0xbcd7c1f1	-0.026337596
117	0xbd237ea9	-0.039915714
118	0x3cc85c3a	0.02445804
119	0xbc626c8d	-0.013819826
120	0xbd01dccf	-0.03170472
121	0xbca03f01	-0.019561293
122	0xbc352110	-0.011055246
123	0xbcb2fb8a	-0.021848459
124	0xbd22c7dd	-0.039741386
125	0x3d181f03	0.03713895
126	0xbc2f2c8c	-0.010691773
127	0x3c5f3d0e	0.013625396
128	0xbc153b39	-0.009108358
129	0x3b6e2f50	0.0036344118
130	0x3c3bfefe	0.011474369
131	0xbc59a814	-0.013284702
132	0x3d1ef2df	0.03880584
133	0x3b7b2583	0.003832192
134	0xbce95104	-0.028481014
135	0x3d0d2dd5	0.034467537
136	0x3cd2a57c	0.025713675
137	0x3d11e65a	0.03562007
138	0xbc1706a0	-0.009217888
139	0x3ca3c9ab	0.019993624
140	0x3cbc0f45	0.0229565
141	0x3d0e21fa	0.03470037
142	0xbb68f427	-0.0035545917
143	0xbc54a120	-0.012977868
144	0x3d1b39ce	0.037896924
145	0x3ce25b92	0.027631555
146	0xbcabc045	-0.020965705
147	0xbd2a7553	-0.041615795
148	0xbd2254ba	-0.039631583
149	0xbb463f64	-0.0030250186
150	0x3c852c9c	0.016256623
151	0x3c7485dd	0.014924494
152	0xbce4de1e	-0.027937945
153	0x3c68998d	0.014196766
154	0x3cdb6728	0.026782587
155	0x3cd88e94	0.026435174
156	0xba7a4efd	-0.00095485133
157	0x3d155a79	0.036463235
158	0x3caa2960	0.020771682
159	0xbd122b5c	-0.035685882
160	0x3c0f9d55	0.008765538
161	0x3c8015a3	0.015635317
162	0x3c144dcb	0.00905175
163	0x3d256ca7	0.040386822
164	0x3c8bb882	0.017055754
165	0x3ba07005	0.0048961663
166	0xbbdac9cc	-0.006676888
167	0x3c3ed969	0.011648514
168	0x3d2ca7cb	0.042152207
169	0x3bffdfb8	0.007808652
170	0x3c2a655a	0.010400141
171	0xbd1054fe	-0.035237305
172	0x3c0ae544	0.008477513
173	0x3c181749	0.009282895
174	0x3c3d56c4	0.011556331
175	0x3cfeb2df	0.031091152
176	0xbca2d10c	-0.019875072
177	0x3c4caf4f	0.012492969
178	0x3ccda2b5	0.025101999
179	0xbcc531ce	-0.0240716
180	0xbb8226d7	-0.003971915
181	0x3ce5b44d	0.028040076
182	0xbd1951df	-0.037431594
183	0xbcf27446	-0.02959646
184	0x3b84db18	0.0040544383
185	0xba3dc6ad	-0.0007239383
186	0xbc084c94	-0.008319039
187	0xbd19928c	-0.037493274
188	0xbb3e5372	-0.0029041437
189	0xbd102f51	-0.035201374
190	0x3cc66e97	0.024222655
191	0xba6d4857	-0.0009051612
192	0xbbad4636	-0.005287911
193	0x3cc44fa2	0.023963753
194	0xba96b168	-0.0011496963
195	0xbd07b0c0	-0.033127546
196	0xbb445df5	-0.002996323
197	0xbcad629b	-0.021165183
198	0x3bca3cc0	0.0061717927
199	0xbcb10de8	-0.021613076
200	0x3bb746ea	0.0055931704
201	0xbb141f39	-0.0022601618
202	0xbcd37f01	-0.025817396
203	0xbccd8ddf	-0.025092063
204	0x3d13745e	0.03599965
205	0xbbebaf64	-0.007192539
206	0xbcd8a243	-0.02644456
207	0x3cb4dc59	0.022077726
208	0x3cd69d2d	0.026197994
209	0x3d299f66	0.04141178
210	0x3d0eb892	0.03484399
211	0xbbe48579	-0.006973919
212	0xbd1aac1d	-0.037761796
213	0xbc3eb515	-0.011639853
214	0xbc46e8e8	-0.01214049
215	0x3cb09f0f	0.02156022
216	0xbd25a20b	-0.04043774
217	0x3c631030	0.01385884
218	0x3d0221b1	0.031770412
219	0x3c3652d1	0.011128143
220	0x3ab07347	0.001346209
221	0xbc56e1e3	-0.013115379
222	0x3d1e17dc	0.038596973
223	0x3aa12a36	0.0012295905
224	0x3c9fdf1e	0.01951557
225	0xbce2214f	-0.027603773
226	0xbc796e59	-0.015224063
227	0xbce50088	-0.027954355
228	0xbca25cea	-0.019819696
229	0xbbf505c7	-0.0074774954
230	0x3baace01	0.005212546
231	0xb7a62516	-1.9806012e-05
232	0x3cbdaa0d	0.023152376
233	0x3b4fc681	0.003170401
234	0x3a35cfe8	0.00069355825
235	0x3bf48c9f	0.0074630524
236	0x3cd717fa	0.02625655
237	0xbd10b574	-0.035329297
238	0xbcf3f766	-0.029781055
239	0xbc9a8773	-0.018863415
240	0xbcb16937	-0.021656616
241	0x3cf580cf	0.029968647
242	0xbc93361f	-0.017970143
243	0x3b77c2c2	0.0037805294
244	0xbba43c98	-0.005012106
245	0xbb92c61a	-0.004479182
246	0x3b747371	0.0037300254
247	0x3d0bd01d	0.03413402
248	0x3c3ed8b4	0.011648346
249	0xbc809daa	-0.01570018
250	0x3cca147e	0.024667975
251	0x3c114faa	0.008869091
252	0xbc1e150c	-0.009648573
253	0xbd199167	-0.037492182
254	0x3d153d88	0.036435634
255	0xbc90d531	-0.017679783

layer2.0.weight f4 [84, 256]
0	0xbd7a3bbb	-0.06109212
1	0x3cbcec47	0.023061885
2	0x3d55c9cc	0.0521944
3	0x3d3908e5	0.045174498
4	0xba508b22	-0.0007955303
5	0xbd4f44b9	-0.05060265
6	0xbd189c98	-0.037258714
7	0xbc8dc86c	-0.017307483
8	0xbcdb6473	-0.026781296
9	0xbc60f62d	-0.013730568
10	0xbc027eec	-0.007964831
11	0x3d64dc4b	0.05587415
12	0x3d69ed0c	0.05711083
13	0x3d134de2	0.035962947
14	0xbceb4c79	-0.028722988
15	0xbd37e4d3	-0.04489596
16	0x3ca7fe6c	0.02050706
17	0x3c245788	0.010030635
18	0xbbabb9d5	-0.0052406588
19	0xbd01bc5f	-0.031673785
20	0x3cb01267	0.02149315
21	0x3cf213fd	0.029550547
22	0xbb902044	-0.0043983776
23	0xbb43d216	-0.002987986
24	0x3d42ab91	0.0475269
25	0xbc890d43	-0.016729956
26	0xbca51f8b	-0.020156642
27	0x3d61921b	0.055070978
28	0x3d419d0c	0.047268912
29	0x3d789744	0.060691133
30	0xbb2ecbf0	-0.002667185
31	0x3d447ee8	0.04797259
32	0x3d48b539	0.049000952
33	0xbd78ca39	-0.06073973
34	0xbd2b1ca4	-0.04177536
35	0x3d5ca052	0.05386383
36	0xbd2d4566	-0.04230251
37	0x3ccfe828	0.025379255
38	0xbd80009f	-0.062501185
39	0xbd0124f5	-0.031529386
40	0x3cc8f27b	0.024529686
41	0x3d2ece74	0.042677358
42	0x3d7ad71b	0.061240297
43	0x3bf5d94b	0.00750271
44	0xbd54e7ff	-0.05197906
45	0xbd366fa3	-0.04454006
46	0x3d678cd6	0.056530796
47	0xbc93b676	-0.01803134
48	0x3d3bd575	0.045857865
49	0x3c79eb21	0.015253813
50	0x3c8d973f	0.017284034
51	0xbd4e9231	-0.050432388
52	0xbd7df346	-0.06199958
53	0x3d0440af	0.03228825
54	0x3d24e468	0.040256888
55	0x3cc79ac4	0.02436579
56	0x3d5a426b	0.053285997
57	0xbd7eac38	-0.06217596
58	0xbd487885	-0.04894306
59	0xbcfe873b	-0.031070342
60	0xbd58c866	-0.05292549
61	0x3d545d18	0.051846594
62	0x3d690be5	0.05689611
63	0x3cbf80ca	0.023376841
64	0x3d36847a	0.044559933
65	0xbbfb678f	-0.0076722573
66	0x3bc16e88	0.005903069
67	0x3d05ce21	0.032667283
68	0x3cb77b5e	0.022397693
69	0x3cab6080	0.020920038
70	0x3ca1ab6d	0.019735062
71	0xbcc80a17	-0.024418874
72	0x3cacdc39	0.021101104
73	0x3bf32c84	0.007421078
74	0xbd5ab857	-0.053398456
75	0xbc75628d	-0.01497711
76	0xbbb7ac07	-0.005605224
77	0xbcc0a1ee	-0.023514714
78	0x3c0b3816	0.008497259
79	0x3d02d70b	0.031943362
80	0xbbaa09d7	-0.0051891613
81	0xbd354fb9	-0.044265483
82	0x3d79c954	0.060983017
83	0xbd5fcad2	-0.054636784
84	0x3d63577c	0.055503353
85	0xbba5dc70	-0.0050616786
86	0x3ca92d60	0.02065152
87	0xbc6ceb2d	-0.014460367
88	0x3c7ec741	0.0155504355
89	0x3baa53dd	0.0051979856
90	0xbc918c0c	-0.017766975
91	0x3bb670ef	0.005567662
92	0xbc9b7a3e	-0.018979188
93	0x3cfdf0a2	0.030998532
94	0x3b23a6c0	0.0024971217
95	0x3d0e3872	0.0347218
96	0x3d728178	0.059205502
97	0xbccebf08	-0.025237575
98	0x3d332624	0.043737546
99	0x3d73c423	0.059513222
100	0x3bd9cf79	0.006647047
101	0x3c799caa	0.0152351055
102	0xbd15a31b	-0.036532503
103	0x3cf0a4f1	0.029375525
104	0x3d6ecb7b	0.058299523
105	0xbd222948	-0.03959015
106	0x3d060a23	0.03272451
107	0x3d34badf	0.044123527
108	0xbcbd0f48	-0.023078576
109	0x3d2d80da	0.04235921
110	0xbd1ddc50	-0.038540184
111	0xbcebfdbf	-0.028807519
112	0xbbb63774	-0.0055608097
113	0x3b28b395	0.0025741805
114	0xbc84d0fd	-0.016212935
115	0x3cb2c0bd	0.02182042
116	0x3c8b5be4	0.01701159
117	0xbc5cc34d	-0.013474298
118	0x3d4fd92f	0.05074423
119	0x3d7b2662	0.0613159
120	0x3c5efa71	0.013609515
121	0xbc2d26de	-0.010568349
122	0x3d35a465	0.044346232
123	0x3d507a1d	0.050897706
124	0xbd6b3605	-0.057424564
125	0x3cc7b6ba	0.024379123
126	0x3c9a537e	0.01883864
127	0xbd5f0490	-0.05444771
128	0x3d3d3ed5	0.0462025
129	0xbd562566	-0.05228176
130	0x3d03e3b6	0.032199584
131	0xbb1d3e28	-0.0023993347
132	0xbce10370	-0.02746746
133	0x3bd2108f	0.0064106653
134	0xbd0c1065	-0.034195323
135	0x3cdbb9ae	0.026821937
136	0x3d24dad6	0.04024776
137	0xbd6fc65e	-0.058538787
138	0x3d045a1e	0.032312505
139	0xbc931bbf	-0.017957566
140	0x3d45e68e	0.048315577
141	0x3d584925	0.05280413
142	0xbd265c7a	-0.040615536
143	0x3d32149c	0.043476686
144	0x3d222ae3	0.03959168
145	0xbc9035c3	-0.01760376
146	0xbc47a0b7	-0.0121843135
147	0x3d1930c4	0.037400022
148	0xbd4e24bb	-0.050327998
149	0x3cb977e1	0.02264017
150	0xbd267f82	-0.040648945
151	0x3d16e8dd	0.03684317
152	0x3c828dad	0.015936697
153	0xbd432118	-0.047638983
154	0x3d4e378a	0.050345935
155	0xbd4fb9e5	-0.050714392
156	0xbb1fad11	-0.002436463
157	0xbcbb9ccc	-0.022901915
158	0x3d57caec	0.052683756
159	0xbd2d9795	-0.042380888
160	0x3d073611	0.033010546
161	0xbd3cb501	-0.046071056
162	0x3c9bd16a	0.019020755
163	0x3d212efe	0.039351456
164	0xbc4ffbb7	-0.012694291
165	0x3d59448a	0.05304388
166	0xbd30ac1a	-0.04313288
167	0x3d5b2069	0.053497706
168	0xbc893296	-0.016747754
169	0xbc99f4da	-0.018793512
170	0x3d1d4d47	0.038403776
171	0xbcd82c01	-0.02638817
172	0x3c35e8fd	0.011102912
173	0x3d6aca07	0.057321575
174	0x3c46016b	0.012085299
175	0xbcf18f3a	-0.029487241
176	0xbc8951b2	-0.016762588
177	0x3d16d248	0.036821634
178	0xbcb37f6f	-0.021911351
179	0x3bbe4333	0.0058063506
180	0xbd6030d4	-0.054734066
181	0xbd7bd0d1	-0.06147844
182	0xbbc63436	-0.0060487045
183	0x3bb892ec	0.005632749
184	0xbcf7c5cb	-0.030245682
185	0xbd4b7594	-0.049672678
186	0xbb94756a	-0.0045305984
187	0x3d416ed3	0.04722483
188	0xbc6b9557	-0.014378867
189	0xbce1c855	-0.027561346
190	0x3aea5d53	0.0017880596
191	0x3d7a92bb	0.06117509
192	0xbcde7979	-0.027157532
193	0xbd2e80f6	-0.042603455
194	0xbd0c42d3	-0.034243416
195	0x3d3b7974	0.045770124
196	0x3b7a88bf	0.003822848
197	0xbd6ac17c	-0.057313427
198	0x3cdb0645	0.026736388
199	0x3c164af6	0.0091731455
200	0xbd742dbb	-0.059613924
201	0xbd0c160f	-0.034200724
202	0x3c56c638	0.0131087825
203	0x3d4c41fd	0.04986762
204	0x3d501aa9	0.050806675
205	0x3cb521ac	0.022110783
206	0xbc21175f	-0.009832232
207	0x3d1535a5	0.036428113
208	0x3d2c36ca	0.04204444
209	0x3ba966c1	0.00516972
210	0xbca3749d	-0.019953066
211	0xbc2d3ba6	-0.010573303
212	0x3c8cb32d	0.017175281
213	0x3d622f06	0.055220626
214	0xba7c5e4b	-0.0009627088
215	0x3c5ef3d4	0.013607938
216	0xbcbb316c	-0.022850715
217	0xbd6b214f	-0.057404812
218	0x3d02781b	0.031852823
219	0x3d605988	0.054772884
220	0xbc26d27a	-0.010182017
221	0xbcd95de3	-0.026534026
222	0xbcb77284	-0.022393472
223	0x3d63b231	0.05558986
224	0x3d517bb3	0.05114336
225	0xbcb4fa91	-0.022092136
226	0xbd05e370	-0.032687604
227	0xbcc420f6	-0.023941498
228	0xbc8ef15f	-0.01744908
229	0xbd045da1	-0.032315854
230	0x3d2ec931	0.04267234
231	0x3c902570	0.017595977
232	0xbd74cc70	-0.05976528
233	0xbd3478ce	-0.04406052
234	0xbd0a874d	-0.03382044
235	0xbc906e5f	-0.017630754
236	0xbc9daa39	-0.019246208
237	0x3d2e74c9	0.042591844
238	0x3c5143ff	0.012772559
239	0xbd106c8e	-0.035259776
240	0xbd7a855a	-0.06116233
241	0x3cf3be1a	0.029753733
242	0xbc59e3ef	-0.0132989725
243	0x3b6300de	0.0034637968
244	0xbc671c56	-0.014105877
245	0xbc9f58ee	-0.019451585
246	0xbd304069	-0.043030176
247	0xbd4b65ca	-0.04965762
248	0x3d7e837a	0.062137105
249	0x3d2a6ad0	0.04160577
250	0x3d19dff1	0.037567083
251	0xbac54bcc	-0.0015052496
252	0xbbb5e9f0	-0.005551569
253	0x3c96946f	0.018381326
254	0xbcedcb09	-0.029027479
255	0x3d48da6b	0.049036425

layer2.0.bias f4 [84]
0	0x3c521bed	0.012824041
1	0xbd652677	-0.055944886
2	0x3cccdb7a	0.025006998
3	0xbd651365	-0.0559267
4	0xbd203e04	-0.039121643
5	0x3d1371be	0.035997145
6	0x3d213832	0.039360233
7	0xbd28c316	-0.041201673
8	0xbd1213a2	-0.035663255
9	0xbd6d2e48	-0.057905465
10	0x3cb0d467	0.021585656
11	0x3d140367	0.036136057
12	0xbc3578a6	-0.011076128
13	0xbd736b8d	-0.05942874
14	0xbbdeeb1b	-0.006802929
15	0x3d676bf7	0.056499448
16	0x3bcb98c2	0.0062132785
17	0xbd2e105f	-0.04249608
18	0x3d7a3b26	0.061091565
19	0xbd393759	-0.0452188
20	0xbcb3bba2	-0.021940056
21	0xbd10c33d	-0.035342444
22	0xbc4c5bc9	-0.012473055
23	0x3c8c0d56	0.017096203
24	0x3d13a012	0.036041327
25	0xbcdd5820	-0.02701956
26	0xbb482755	-0.0030541022
27	0xbd069953	-0.032861065
28	0xbd6f61c5	-0.05844285
29	0x39fa62a4	0.0004775721
30	0x3d44a6fd	0.048010815
31	0x3d4562d7	0.048189964
32	0x3d669a29	0.056299362
33	0xbd4101f2	-0.047120996
34	0xbd545fe2	-0.051849253
35	0x3c30277c	0.010751601
36	0x3d09798a	0.033563174
37	0x3c64d395	0.013966461
38	0x3d6fc67a	0.05853889
39	0x3d1dca8c	0.038523242
40	0xbcd5e7ee	-0.02611157
41	0xb8484952	-4.7752e-05
42	0x3ca75505	0.020426283
43	0xbd16d363	-0.036822688
44	0xbd73353b	-0.059376936
45	0xbd1a42b0	-0.037661254
46	0xbd7620b0	-0.060089767
47	0xbd07e952	-0.033181496
48	0x3d31a2cf	0.043368157
49	0xbd306045	-0.04306056
50	0xbcc6b13b	-0.024254432
51	0x3c9c8a2f	0.01910886
52	0xbd779b9f	-0.060451146
53	0x3d052f60	0.032515883
54	0xbad1ec1e	-0.0016015803
55	0x3c70e2ad	0.014702481
56	0x3c1a177e	0.009405015
57	0xbd4b5cea	-0.049649157
58	0x3d791c95	0.060818274
59	0xbd3b1a7f	-0.045679566
60	0xbd6da96a	-0.058022894
61	0x3c1c75de	0.009549586
62	0x3ce6479c	0.028110318
63	0x3ccfb518	0.025354907
64	0x3d48fa6c	0.049066946
65	0x3d3d011d	0.04614364
66	0x3c94f63c	0.01818382
67	0xbd5f1c91	-0.054470602
68	0xbd047079	-0.032333825
69	0xbc3f1ac7	-0.011664099
70	0xbd6c50f9	-0.05769441
71	0xbc190e92	-0.009341853
72	0xbc6e6129	-0.014549532
73	0xbd382e28	-0.044965893
74	0xbc841d48	-0.016127244
75	0xbbcd690b	-0.0062686256
76	0x3d3450d7	0.044022407
77	0x3ccd9f22	0.025100295
78	0xbd3f26cf	-0.04666787
79	0xbcda80db	-0.026672771
80	0x3c021d90	0.007941619
81	0x3d714741	0.058905844
82	0xbc0fc545	-0.00877506
83	0xbca9a2d5	-0.020707527

layer3.0.weight f4 [8, 84]
0	0xbd001a02	-0.031274803
1	0xbd42f6a4	-0.047598496
2	0x3d905b9a	0.070487216
3	0xbdd83b8a	-0.10558231
4	0xbdc033dd	-0.09384892
5	0x3dc57770	0.096419215
6	0x3d071429	0.03297821
7	0x3d4a379e	0.049369447
8	0xbcbe280a	-0.023212451
9	0xbd76b6e6	-0.06023302
10	0x3cd1b9c4	0.025601275
11	0xbdd22388	-0.10260683
12	0x3bb35985	0.005473318
13	0x3d0ed1e7	0.034868147
14	0x3d7abc98	0.061215013
15	0xbd130cab	-0.035900753
16	0x3d4a515b	0.049393993
17	0xbd85911f	-0.0652182
18	0x3d81aef3	0.06332197
19	0xbda35bff	-0.07976531
20	0xbddc019f	-0.10742497
21	0x3daebd39	0.08532185
22	0xbcd7633f	-0.026292441
23	0xbddc10a1	-0.10745359
24	0xbd9e4fa6	-0.077300355
25	0xbd620a08	-0.055185348
26	0x3bc046ae	0.0058678007
27	0x3ca7f61b	0.020503094
28	0x3c87a9cc	0.016560458
29	0xbceb913b	-0.028755775
30	0x3ccdb926	0.0251127
31	0xbda02903	-0.07820322
32	0xbd4a6d4e	-0.049420647
33	0x3caafb1b	0.02087169
34	0xbd47312b	-0.048630875
35	0x3cfccd89	0.030859726
36	0xbbacb499	-0.0052705524
37	0x3da9c330	0.08289182
38	0xbd3dd28a	-0.046343364
39	0x3c9a868c	0.018862985
40	0xbd9e077f	-0.077162735
41	0xbd23774e	-0.0399087
42	0x3dd7b208	0.10532004
43	0x3d560a96	0.05225619
44	0x3c4bf375	0.012448181
45	0x3dbc9044	0.09207204
46	0xbdcfaf39	-0.10140843
47	0x3c507912	0.012724178
48	0x3d65343c	0.055958018
49	0x3d1b3ee7	0.037901785
50	0xbc46ea3f	-0.01214081
51	0xbc8c3228	-0.01711376
52	0xbdc053e0	-0.09390998
53	0xbdd698a4	-0.10478333
54	0x3c584043	0.013198915
55	0x3d8d4d7a	0.06899543
56	0xbc7a3dc4	-0.015273515
57	0xbd8d9136	-0.069124624
58	0x3d8aa403	0.06769564
59	0xbc4089ca	-0.0117516015
60	0x3cbb46b4	0.022860862
61	0x3da1a4a5	0.078927316
62	0x3d4bea07	0.049783733
63	0x3db94f3f	0.09048318
64	0x3d1a8e9a	0.03773365
65	0xbd4b1b70	-0.049586713
66	0x3d2618b9	0.04055092
67	0x3d9b91bd	0.07596157
68	0x3cda38b9	0.026638376
69	0xbb3b64de	-0.0028594057
70	0xbd690c55	-0.056896526
71	0x3dbc6282	0.091984764
72	0xbc535fd0	-0.012901261
73	0xbaad2fbe	-0.0013213081
74	0x3d96310d	0.073335744
75	0xbdc71d1b	-0.09722348
76	0x3d94b8bc	0.07261798
77	0x3c06cb14	0.008227129
78	0xbdb38c44	-0.08766988
79	0x3c5f69c2	0.0136360545
80	0x3d1173e4	0.035510913
81	0x3db53c05	0.088493384
82	0x3d37816d	0.044801164
83	0x3c3686ce	0.011140538
84	0xbd7bcef9	-0.06147668
85	0xbd8bcc04	-0.06826022
86	0xbd492efa	-0.049117066
87	0x3a2b746f	0.0006540482
88	0xbd5934a4	-0.053028718
89	0x3dbdd55b	0.0926921
90	0x3d9e5d82	0.07732679
91	0x3d116616	0.035497747
92	0xbd99e515	-0.07514397
93	0x3d3b0c39	0.045665953
94	0xbd07dfc6	-0.03317239
95	0xbdba5f44	-0.09100202
96	0xbd5b8784	-0.053596035
97	0xbce8afeb	-0.028404197
98	0xbd3850d0	-0.044998944
99	0x3c216676	0.009851089
100	0xbd3b62d8	-0.04574856
101	0x3dd86e75	0.10567943
102	0xbcaab5fd	-0.020838732
103	0xbdd72f66	-0.105070874
104	0x3dc4699e	0.095904574
105	0xbd9b75f9	-0.07590861
106	0x3cea94c9	0.0286354
107	0x3ca08384	0.019593962
108	0x3dd1600d	0.10223398
109	0xbdc87e5a	-0.09789725
110	0x3dd803eb	0.10547622
111	0x3dc278fc	0.09495732
112	0xbc9be949	-0.019032137
113	0x3d9b5f5e	0.07586549
114	0x3d9e777f	0.07737636
115	0x3d8e0d86	0.06936173
116	0x3d56502e	0.05232256
117	0xbd3d40e2	-0.046204455
118	0xbc8f9d4d	-0.017531062
119	0xbcb0fb55	-0.02160422
120	0xbd8e47b8	-0.06947273
121	0x3d9c3114	0.076265484
122	0xbdc0c416	-0.094124004
123	0x3d8f4aa4	0.069966584
124	0xbdb4a048	-0.08819634
125	0x3bf5fdb6	0.0075070513
126	0xbd9ef32b	-0.07761224
127	0x3d815f2e	0.06316982
128	0xbda0ccb6	-0.078515455
129	0xbbda8c3b	-0.006669549
130	0xbd9247eb	-0.071426235
131	0x3cfa3df2	0.030547116
132	0xbd5f8fbb	-0.05458043
133	0x3d103551	0.035207096
134	0xbda11470	-0.07865226
135	0x3ceb4410	0.028718978
136	0x3dbfe3f7	0.09369653
137	0x3d9460a6	0.07244997
138	0x3d33b866	0.043877028
139	0x3ddb206d	0.10699544
140	0x3d639f6d	0.055571962
141	0x3d5b1966	0.05349102
142	0x3cdb6bde	0.026784834
143	0xbd7e8673	-0.06213994
144	0x3d44b6fd	0.048026074
145	0xbd8a9615	-0.06766907
146	0x3cf7189f	0.030163107
147	0x3d7e15fb	0.06203268
148	0xbdd030c0	-0.10165548
149	0xbdb91bb0	-0.09038484
150	0xbdbb35dc	-0.09141132
151	0x3dc94be5	0.09828929
152	0x3d5de77a	0.05417583
153	0x3d896024	0.067077905
154	0x3d7a42f1	0.061098997
155	0x3d97b48b	0.07407483
156	0x3d40d071	0.047073785
157	0xbc0e9bc6	-0.0087041315
158	0xbc26a409	-0.010170945
159	0x3d375260	0.044756293
160	0xbdc1a40b	-0.09455117
161	0x3c028785	0.007966881
162	0xbda6cbeb	-0.08144363
163	0xbd90b682	-0.070660606
164	0xbdc87791	-0.097884305
165	0xbcee66a8	-0.029101685
166	0x3dad5606	0.08463673
167	0xbd38ca88	-0.045115024
168	0xbd096a42	-0.0335486
169	0x3c97135c	0.018441848
170	0x3dc6d59f	0.09708714
171	0xbd46e055	-0.048553783
172	0xbd8aeee9	-0.0678385
173	0xbdc6c98f	-0.09706413
174	0x3dcfb661	0.10142208
175	0xbd729214	-0.059221342
176	0x3dc70027	0.09716826
177	0x3b5bf512	0.0033562821
178	0xbd7b378e	-0.061332278
179	0xbdc2a18c	-0.09503469
180	0x3c9d0161	0.019165697
181	0x3ccf4813	0.025302922
182	0xbd8e7dfb	-0.069576226
183	0xbd83591e	-0.06413482
184	0x3d9eefb2	0.07760562
185	0x3d9c46f9	0.076307245
186	0xbb658c1e	-0.0035026143
187	0x3dae785d	0.08519051
188	0x3dd34045	0.10314993
189	0xbc3a1d1f	-0.011359482
190	0xbd5c271c	-0.053748235
191	0x3cedcfb6	0.029029708
192	0x3d3cdf89	0.046111617
193	0x3ddcc93b	0.10780569
194	0x3d61e223	0.0551473
195	0x3d9492ab	0.07254537
196	0xbbbaf4cf	-0.005705453
197	0x3c89139f	0.016732989
198	0x3dcbd509	0.099527426
199	0xbdaa3211	-0.08310331
200	0x3db9343b	0.09043165
201	0xbdca124d	-0.09866772
202	0xbdb1e0a5	-0.08685426
203	0x3d9b10cf	0.07571565
204	0xbd0bc361	-0.034121875
205	0xbbe9ec6f	-0.007138781
206	0xbdc82606	-0.097728774
207	0xbd768702	-0.060187347
208	0x3c729152	0.014805155
209	0x3d87463c	0.06605193
210	0x3d3d2145	0.046174306
211	0xbd1296e3	-0.035788428
212	0xbcb883e7	-0.022523833
213	0xbc7d9943	-0.015478435
214	0xbbb69ee6	-0.0055731414
215	0xbd07c9f5	-0.033151586
216	0xbdcfb506	-0.10141949
217	0xbdcaeb95	-0.09908215
218	0x3d8940e5	0.06701831
219	0x3d449fdd	0.04800402
220	0x3d131753	0.035910916
221	0xbc7d471a	-0.015458846
222	0xbd39bb93	-0.0453449
223	0x3c0e4040	0.008682311
224	0xbd91ef68	-0.07125741
225	0x3dbbc563	0.09168508
226	0x3ce0c815	0.027439157
227	0x3bfbbabf	0.007682174
228	0xbd805311	-0.06265844
229	0xbd0e6795	-0.034766752
230	0xbd7eaea2	-0.06217826
231	0x3d4fcc27	0.050731804
232	0x3d84734a	0.06467302
233	0x3dbd7208	0.09250265
234	0xbce309e5	-0.027714679
235	0x3d0a489c	0.033760652
236	0xbdce51a3	-0.10074165
237	0x3b4fe376	0.003172127
238	0xbd926bff	-0.07149505
239	0x3da575cc	0.080791086
240	0xbd6af78a	-0.057364978
241	0xbd867b68	-0.065665066
242	0xbcd9e61b	-0.02659898
243	0xbdb2b9c6	-0.0872684
244	0xbd5ab89d	-0.053398717
245	0x3c90fe04	0.01769925
246	0xbd3e82ac	-0.046511337
247	0xbde154a6	-0.110024735
248	0xbd59bf89	-0.053161178
249	0x3da6629f	0.08124279
250	0x3dbdb1d7	0.09262436
251	0x3d790dd8	0.060804218
252	0x3d191941	0.0373776
253	0xbb76f4b5	-0.0037682478
254	0xbdae51c4	-0.08511689
255	0x3d18eae0	0.03733337

layer3.0.bias f4 [8]
0	0x3d01ed78	0.03172061
1	0x3d05390e	0.032525115
2	0xbdd49465	-0.103798665
3	0x3be14286	0.0068743853
4	0xbd52d287	-0.051470306
5	0x3da4496e	0.08021818
6	0xbd1a8bf6	-0.037731133
7	0xbbcbc757	-0.0062188315
