DigitalRecognition-master/model_params/GDUT_net_all_4.pt (torch, 665623 bytes, 6 tensors)

layer1.0.weight f4 [256, 560]
00000000: 2010 39bb b811 0cbc 580f 28bd 1c63 e23c
00000010: 18ef a33c e453 f03c d08c 413c 3003 e23c
00000020: 7ce1 263c c4a7 243d 56ed 1b3d 6a63 803c
00000030: 007f 9d3b e95f a5bc a6bb 05bd 0030 fb38
00000040: 706a 70bb 48ae 9fbb b45e 43bc 80de 563b
00000050: a0fa 52bb 902b 6d3c 2e55 dcbc ba4b 813c
00000060: 2e6d 8e3c 7839 fd3c b463 b53c 006d edbc
00000070: 4083 f73c d0fb 22bd 1896 d43c bfb9 d3bc
00000080: 002c 8938 f4e4 5b3c 1e78 0c3d f60e 163d
00000090: 37a2 1abd a000 b1bc cc9d db3c c011 bc3c
000000a0: c047 5c3b 03b2 cdbc 168b bfbc 3cde 553c
000000b0: 80d6 f7b9 d0e3 7c3c 68b2 2a3d 88aa c7bb
000000c0: 642e 61bb 2932 07bd 8233 9dbc 4406 6f3c
000000d0: 01de 08bd 5c13 4e3b 66d1 2c3d 50df 2cbb
000000e0: 8a1f eabc f875 683c 884b 913b 6c8e 423c
000000f0: 4d76 08bd b8ef c83c 608d aebb e8ec c7bb
00000100: dac8 06bd dad2 293d 0c02 6dbc 8ea8 453c
00000110: eda6 f0bc 8a6d 8d3c 31e8 d1bc c173 02bd
00000120: b811 efbc 3e58 64bc a839 f73b 5866 a43b
00000130: bc28 f7bc fd54 0fbd 808c 423c 9ac8 a6bc
00000140: fe38 9cbc 76b0 19bd 0073 d83c 8294 16bd
00000150: c477 6e3c 850f babc 5805 f9bb a363 903b
00000160: 71f0 81bc 7a2b 173c 9cbc f9bc 662d e9bc
00000170: eadc 0e3d 5cfe 38bc 68f1 ecbc dd15 1fbd
00000180: 107e 3b3c 385e b63c d01b 6d3b a024 01bd
00000190: 48cf c2bc a287 0d3d aa35 1ebd 03a5 bfbc
000001a0: 9a28 20bd 4415 abbc a155 03bd 8640 d83c
000001b0: 589e a73c ec56 d63c e41d 1e3c 2869 c43c
000001c0: 6886 f83b 94b8 5ebb 6880 393c b4f7 253c
000001d0: ce52 05bd 4ae8 233d 78f9 553c d089 0f3c
000001e0: 5e3c 4dbc a8a9 f73c 809a 823c c467 efbc
000001f0: f0a1 1ebb 3a85 dfbb 7ebf 8f3c a482 c6bc
00000200: 86f2 d5bc 4aae 913c fb66 dc3c e8cf 5abc
00000210: 08d1 0d3d 9c66 2ebc 80d6 c93c 2821 5a3c
00000220: a876 e73c 3c3c 4d3c 5032 65bb a044 f23c
00000230: d0f9 92bc 4069 6ebb 243e f03c b179 cdba
00000240: 82b7 9f3c f996 01bd d4d7 01bc 1bed d8bc
00000250: a17b 30b9 04ef c33c 7692 a33b 04ef 8e3c
00000260: d887 2bbc 2016 26bd 66dc 1cbd 7113 9abc
00000270: 009e b4b8 b246 103d 1be5 223b 1230 0cbd
00000280: 54d4 1cbc a02c 663c 2402 07bc 63b2 d3bc
00000290: d586 cdbc b3df 11bd fcbb 163c ea9f 3639
000002a0: 4810 b5bc 934f 1b3d 05f6 bfbc 0660 f1ba
000002b0: d5d3 a4bc 7b90 e93c 60cc dcbc a672 ac3c
000002c0: 16c0 af3c 3f10 43bc 6a6e b73c 1e76 0c3d
000002d0: f065 6bbb b66f 43bc d8a5 f83c 22ca b8bb
000002e0: 801f ee39 90d7 99bb 401b 413b b76f 1bbd
000002f0: 6aef 093d 5d7a 183d f5b0 9b3c 4d60 dabc
00000300: fa2a 0cbd ba11 3c39 2a56 0bbd 092e 8abc
00000310: 9883 0a3d 74c7 07bd 6e08 bbbc e5bc 1ebd
00000320: e4fd 21bd 6402 bf3c b5a0 8cbc ebbe 2c3c
00000330: d06b 103d 5c99 1e3c 8011 dcba d234 1e3c
00000340: eb42 87bc e067 e53a 8b9d 2a3d 617b acbb
00000350: b33b c5bc a825 aabb b30a 0c3d 0c57 f63c
00000360: 1076 76bc 2b66 81bc 824d 0a3d 7cbd 183d
00000370: e0e9 c33a 5836 f7bc 7744 23bd 1f8a 643c
00000380: 7909 12bd fe4d 1e3d 3c92 623c 414c f3bc
00000390: 60f4 e1ba b0dc ce3c 2be8 b83c 492e cfbc
000003a0: 2fa9 29bd 3017 d33c 91b0 c63c aa1e 0fbd
000003b0: 10c5 183d 5dcf d3bc b248 1c3d 62d9 e7bb
000003c0: 488f 773c fc5b 7f3c 00c0 3eb6 89b7 d1bc
000003d0: d470 1cbd d116 a4bc 3450 a53c 22fa d8bc
000003e0: 8279 2abd f499 b0bc ff15 b33c b19e dabb
000003f0: 5e5f dbbc 7223 b2bc 527c b5b9 de94 083d
-0.002823837 -0.008549146 -0.041030258 0.02763515 0.02001147 0.029336877 0.0118133575 0.02758941
0.010185596 0.040199056 0.038068138 0.015672404 0.0048063993 -0.020187335 -0.03264966 0.000119775534
-0.0036684535 -0.004873071 -0.011924434 0.003278643 -0.0032192841 0.014475718 -0.026896086 0.01578318
0.017386045 0.030911192 0.022142269 -0.02898264 0.030213952 -0.03979093 0.025950477 -0.025845407
6.540865e-05 0.013421286 0.03429424 0.03663536 -0.037752356 -0.021606743 0.026808642 0.022957683
0.0033612102 -0.025109297 -0.023381751 0.013053473 -0.00047271326 0.015435174 0.041674048 -0.006093327
-0.0034359926 -0.03300682 -0.0191896 0.014588896 -0.033414844 0.0031444645 0.042191885 -0.0026378222
-0.028579492 0.014188282 0.004434053 0.011874776 -0.033315945 0.02452837 -0.005326912 -0.0061012395
-0.03290639 0.04146085 -0.01446582 0.012064112 -0.029376471 0.017264146 -0.025623413 -0.031848673
-0.029183254 -0.013937054 0.007544715 0.005017083 -0.03017079 -0.03499316 0.011874318 -0.020359326
-0.019070145 -0.037521802 0.026422024 -0.03676272 0.014554922 -0.022712478 -0.007599514 0.004406409
-0.015861722 0.009226674 -0.030485444 -0.02846403 0.03487865 -0.011291113 -0.028923705 -0.03883921
0.01144363 0.022261724 0.0036179908 -0.03152907 -0.02378048 0.034553178 -0.038625397 -0.023394113
-0.03910122 -0.020884164 -0.032064084 0.026397955 0.020461246 0.026164494 0.009650681 0.023975924
0.007584382 -0.003398453 0.011322118 0.010129858 -0.03254967 0.04001645 0.013059966 0.008760884
-0.0125266 0.030232266 0.015942812 -0.029224284 -0.002420541 -0.0068213018 0.017547365 -0.024232216
-0.02611662 0.017783303 0.026904574 -0.013355233 0.034623176 -0.010644581 0.024638414 0.013313569
0.028254822 0.012526568 -0.0034972616 0.029573739 -0.017941386 -0.0036378652 0.029326506 -0.0015676526
0.019496683 -0.03163812 -0.007924993 -0.026480248 -0.00016830723 0.023917682 0.0049918247 0.017447956
-0.010469399 -0.040548444 -0.038296126 -0.018808099 -8.612499e-05 0.03522367 0.0024855796 -0.03422553
-0.009572107 0.014048725 -0.008240256 -0.025841897 -0.025088707 -0.035613727 0.009200092 0.00017416445
-0.02210249 0.037917685 -0.023432741 -0.0018415458 -0.02012054 0.028511276 -0.026952922 0.021050762
0.021453898 -0.011905729 0.022391517 0.034292333 -0.0035918914 -0.011928489 0.030352518 -0.0056393305
0.00045418367 -0.0046948865 0.0029465705 -0.037948336 0.03367559 0.03722607 0.019005278 -0.026657248
-0.034220673 0.00017935681 -0.03401772 -0.016867654 0.033816904 -0.033149198 -0.022831168 -0.038754363
-0.03954877 0.02331657 -0.017166475 0.010543565 0.035259068 0.009680118 -0.0016789883 0.009656148
-0.016511401 0.0017502271 0.04165415 -0.0052637313 -0.024076318 -0.0051924773 0.03418989 0.030070804
-0.015042797 -0.015795788 0.033765323 0.03729008 0.001494702 -0.03017728 -0.039860215 0.013948946
-0.035653565 0.038648598 0.01382881 -0.029699447 -0.0017238967 0.025251716 0.022571644 -0.025290625
-0.04142111 0.025767893 0.024254115 -0.034941353 0.03729731 -0.025855714 0.038155265 -0.0070754746
0.0151098445 0.015585896 -2.8423965e-06 -0.025600212 -0.03819354 -0.020030411 0.020179845 -0.02648646
-0.041619785 -0.021557786 0.021861074 -0.0066717495 -0.026778873 -0.021745417 -0.00034615636 0.033345096

layer1.0.bias f4 [256]
00000000: 0fe9 7ebb 5ace a03c e56f 1a3b 5b3b 223d
00000010: 6af2 1c3b af47 01bd d73d 56bc f123 c23c
00000020: 5649 03bd 8a90 a1bc c2c7 9b3c ef31 70bc
00000030: 6069 b2b9 64bb 95bb 018a 1a3d 965e 253d
00000040: caa3 1abd 1fe6 b5bc 15df a239 be7c 94bc
00000050: c38a 7dbc 20e7 2b3d ce5e 29bd 0f97 ec3a
00000060: 7042 bd3b 27c6 093d 6791 053d 2655 023d
00000070: 92f6 98ba 1ab1 0bbd bb19 05bd 0020 933c
00000080: 5258 0c3d 8ba8 53bc b06c 8a3c ae23 c5bc
00000090: 2814 bfbc 1385 1abd de5f e53c 174c fd3c
000000a0: 4aa7 e13c d6de 673c 0282 c4bc 0678 8fbc
000000b0: 904d 2a3d a29d 133c 2cf2 58bc f3eb 223c
000000c0: bf09 1d3c 7b5a 4cbb d56f 0a3d 6edf cabc
000000d0: 17ca a3ba 66df e03a f4f8 d73c f6da b13a
000000e0: 7771 1dbd b298 26bb 2ba5 9abc ab4d dc3c
000000f0: fcba 0fbd a5ba 273d 7628 e73c 944a dc3c
00000100: de2a 22bd 507b 16bd 9433 96bc 8a5f 873a
00000110: d364 96bc a676 e9ba 35cb e83c e9e9 793c
00000120: 9c7b 0b3d 8ffd 97bc 7cbe 843c ad43 083d
00000130: 577c 06bd 9135 3dbc d948 f6bc acba 21bc
00000140: 6001 ec3c d4e2 83bc b2e6 63bc 681c 44bc
00000150: 6618 fd3a 984e 9ebc a8d0 24bc 3fa3 dabb
00000160: fc38 33bb 347f 143d 3c60 b7bc 661e 11bd
00000170: ca86 99bc 22ef 603b a440 d9bc 573d 18bb
00000180: 274d 8cbc 2b28 233d 8416 f4bc ff19 973c
00000190: de9f 313b cd3c c8bb 81f3 16bd 3ae4 c73a
000001a0: f2e2 16bc e393 e4bc 15ba c33c d905 1e3d
000001b0: f1b0 813a a361 c5bc b9c8 bf3a 2a4d e1bb
000001c0: 5954 923c 2e99 b6bb d05a a43a 2fea 363b
000001d0: 629e 07bd bcbf 1bbd 2469 3e3c d1c2 263b
000001e0: cc96 68bc e13b d73c 6f8f 97bc ae4f ab3c
000001f0: 7ff5 0fbd 3c94 1dbd 60d5 ee3c aeee f4bc
00000200: ec18 33bc d688 1ebc 0334 8e3b 4c8c 683c
00000210: de89 083c 27bf b7bb 9495 f13c 5b6f c83c
00000220: c4f0 9a3c b528 0d3d f2a0 123d 26e6 a0bc
00000230: 9f01 0a3c 1eed eeba c34f 54bb 52f2 27bd
00000240: ff7c 0b3d a1d6 a9bb 2ed7 10bd 2f0b 033c
00000250: 92cd 62bb ec73 bd3a cf53 fa3c 707f 13bd
00000260: f04e 1bbd d2c8 3dbc c891 5a3b bd59 17bd
00000270: a78c 8f3c 7cfa 903c 52af 5e3b c111 163b
00000280: 3495 9a3c c4b3 293d 8f6e 6abb 1df3 03bd
00000290: 1453 9a3c 8cb4 1abd c079 1f3c 2068 303c
000002a0: fbc9 90bc fab4 0d3d d91d 1c3d 373a 4e3b
000002b0: be5d 613b 921b 68bc bc76 2a3d b538 953a
000002c0: a8d1 8fbb d643 0ebd 16fc 213d e28e a9bc
000002d0: 4422 2a3d b416 9c3c 7f6b 74bc ead6 033d
000002e0: 9afc 0abd 15da 8a3c 4a72 80bc 4ed1 43bb
000002f0: 7efb 233d 2ea4 6ebc d870 d43c 4445 7ebc
00000300: 1f1e 2c3d b5eb b8bc 1b5b b2bc 9382 4e3c
00000310: 853c 033c 69af aebb 460c e3bb fe93 113d
00000320: 1327 7a3b 7931 0d3d 0af9 d3bb 5a50 44bb
00000330: a851 9fbb 74e4 213c e61c 09bc 5589 8fbc
00000340: 793f d4bc 1895 01bd bb42 bbbc efd5 8fbc
00000350: 5750 03bd 11e4 41bc 350a 9e3c 25ee 3cbc
00000360: 5e1c 83bb 3f96 863b 3ccb ecbb cfff 523c
00000370: 74c2 30bc ecc3 f9bc 293e b5bc bc51 c33c
00000380: 7b81 043d 5857 9dbc ae1f 083d cc8b e63b
00000390: b6a8 2b3d 25bc 8cbc 32b0 0c3a 3bc3 893a
000003a0: 6b48 adbb cd02 cabb 0ffe d6bc f77c 74bc
000003b0: 5631 1b3d eed8 b6bc 7ada 26bc c13d 78bc
000003c0: a820 023d fd85 24bd 58d2 12bd c772 62bb
000003d0: deee f7bc 1c3b 9ebc c21d 2a3d ae4d d7bc
000003e0: ca09 a8bc 32cb 6bbc 25fd efbc bee0 a5bc
000003f0: fbfa adbc b4b1 d83c 3e6b 133d 7758 dc3c
-0.0038896238 0.019629646 0.002356523 0.039607387 0.00239482 -0.031562503 -0.013076267 0.023698779
-0.03205236 -0.019722242 0.01901615 -0.014660343 -0.00034029316 -0.004569458 0.037729267 0.040373407
-0.037753858 -0.022204457 0.00031065257 -0.018125888 -0.015474978 0.041968465 -0.04135018 0.001805039
0.005775742 0.03363624 0.03260937 0.031819485 -0.0011670163 -0.034104444 -0.03249524 0.017959595
0.034263916 -0.012918602 0.01689753 -0.024064865 -0.023325041 -0.037724566 0.027999815 0.030920072
0.02754559 0.014152249 -0.023987774 -0.017513286 0.041577876 0.009009751 -0.013241332 0.00994395
0.009584843 -0.003118186 0.033798058 -0.024764743 -0.001249614 0.0017156422 0.026363827 0.0013569284
-0.038438287 -0.0025420603 -0.018877586 0.026892504 -0.03509043 0.040949482 0.028217535 0.02689103
-0.039591663 -0.036738694 -0.018335141 0.0010328155 -0.018358624 -0.0017811849 0.02841721 0.015253522
0.03405343 -0.018553523 0.016204111 0.033267666 -0.032833423 -0.011548416 -0.030064033 -0.009871166
0.02880925 -0.016099371 -0.0139099825 -0.011969663 0.001930964 -0.019324586 -0.010059513 -0.0066722925
-0.0027347198 0.036254123 -0.022384755 -0.03542938 -0.01874103 0.0034322222 -0.02652008 -0.002322992
-0.017126633 0.03983323 -0.029795893 0.018445013 0.0027103345 -0.0061107636 -0.036853317 0.0015250512
-0.009209381 -0.02790255 0.023892442 0.038579796 0.0009894652 -0.024094408 0.0014631964 -0.0068756538
0.017862486 -0.0055724597 0.0012539271 0.002791058 -0.03311003 -0.03802465 0.011621747 0.002544571
-0.014196109 0.02627367 -0.018501012 0.020912018 -0.035146233 -0.038471445 0.02915448 -0.029898968
-0.010931235 -0.009676179 0.0043396964 0.014193606 0.008333651 -0.005607504 0.02949027 0.02446716
0.018913634 0.03446265 0.03579802 -0.019640993 0.008423238 -0.0018228625 -0.0032396175 -0.04100258
0.034054752 -0.0051830565 -0.03536146 0.007998272 -0.0034607393 0.0014454103 0.030557541 -0.036010206
-0.037917078 -0.011583524 0.0033351053 -0.036950815 0.017523123 0.017697565 0.003397901 0.0022898766
0.018869974 0.041431203 -0.0035771464 -0.032214273 0.018838443 -0.03776984 0.009733617 0.010767013
-0.017674437 0.03459642 0.038114402 0.0031467804 0.003438815 -0.0141667295 0.04161714 0.0011384698
-0.0043890066 -0.034732662 0.03954705 -0.020698015 0.041536584 0.019053794 -0.014918207 0.03218738
-0.033932306 0.016949693 -0.015679497 -0.0029879394 0.040034764 -0.014565511 0.025932714 -0.015519444
0.042020913 -0.022573331 -0.021771958 0.0126043735 0.008010034 -0.005330969 -0.0069289533 0.035541527
0.0038170263 0.03447101 -0.0064688968 -0.002995512 -0.004862029 0.009881128 -0.008368706 -0.01752154
-0.025909172 -0.031636328 -0.022858968 -0.017558066 -0.03205904 -0.01183416 0.019291976 -0.011531387
-0.0040011844 0.004107266 -0.007226376 0.012878372 -0.010788549 -0.03048893 -0.022124367 0.023842685
0.032350045 -0.019206688 0.033233337 0.007035708 0.041908942 -0.017179558 0.00053668313 0.0010510454
-0.005288174 -0.0061648847 -0.026244191 -0.014922372 0.037888847 -0.022320237 -0.010183925 -0.015151442
0.031769425 -0.040166844 -0.03584513 -0.0034553276 -0.030265268 -0.019315295 0.041532286 -0.026282158
-0.02051248 -0.014391707 -0.029295513 -0.020248767 -0.02123784 0.026451923 0.035990946 0.026897652

layer2.0.weight f4 [84, 256]
00000000: 280f 233d bed0 e63c fb98 433d f64b 123d
00000010: 8dc4 423b 08aa 5a3d b94b 433d b599 1b3d
00000020: e7e1 6fba f549 32bb bfd8 1e3c acd8 173d
00000030: 14f1 23bd 3030 733d c9ca e5bc 6f08 feb8
00000040: 5c08 5a3d 2d96 033d 7bfe 03bd 2066 8dbc
00000050: e6a2 4c3d 6dcf b3bc 311b 043d 9513 e03c
00000060: 9f4e 01bd b2d4 5c3d 8cf8 43bc 5d19 c4bb
00000070: 2157 5bbd 47db e53c 11a6 09bd 2c5c 383d
00000080: d134 59bd 36bb 8ebc 7441 c83c eb3f 703d
00000090: b763 4cbd 97a3 b03c c15b fdbc d9cc f93c
000000a0: d9b4 61bd 8afb 29bd d755 463d 955d cf3c
000000b0: 1479 a33c 5cbd 213d 3aba 5cbd 81b8 b539
000000c0: 2204 09bd 2441 233c 6b90 cfbc b8c3 2b3c
000000d0: 7c52 0c3d 230f 89bc 175d 15bd 3e9a 2d3d
000000e0: bc11 30bd ff0c 433d 6db2 253c 81e6 3c3d
000000f0: d9d7 b23c 97a2 793d 77c3 15bd 6930 133d
00000100: 4833 63bd de82 483b 9a64 123c 7577 bfbc
00000110: 1c01 053d 0e20 623b b7e8 0dbd 7595 61bd
00000120: a01b aa3c 6b08 663d 7e49 12bd 3df8 7bbd
00000130: 8590 7b3d d10d 77bd fffb 59bd a1d3 a03c
00000140: 8c93 d0bc 30b4 cebc 1b01 7d3d b40f 63bc
00000150: 4395 1ebd 97c1 203c de96 6b3d 918e f83b
00000160: 3cfc 47bd aec3 76bd 68f1 623d 49e9 08bd
00000170: 0295 393d f51f 913c a77e 18bd 5710 803d
00000180: 8eae 013d 6cb5 b1bc cbf8 90bc 16b1 1e3d
00000190: ae77 053d adac 273d 8103 a9bb 1dfb 70bd
000001a0: 569b 7f3d 6269 033d 9d2a 2e3d 9e10 6e3a
000001b0: 11ab 62bd 6977 08bd 05dd 70bd 5ee0 1bbc
000001c0: 984b 1fbd 1fce 233d 9b60 013d ce41 153c
000001d0: 5c3a 5b3d 8c89 2e3d d137 d9bc e758 023d
000001e0: a49c 163d 6b1a 4c3d fbee 80bb 9539 29bc
000001f0: f525 67bd 64d1 dc3c e024 e1bc 7d63 d13b
00000200: ee56 27bc da2c 7dbd 098c e53c 3822 21bd
00000210: d42d 32bc 2ee8 173c d8d1 6fbd 5ade 5f3d
00000220: 8de2 24bd 6bcf 083c ac5d 38bd da88 d53c
00000230: effd 50bd 73f3 68bd cddc 6fbc 5d78 5d3c
00000240: 9297 2fbc 23a3 143d 7fde c3b9 9b75 c6bc
00000250: 935f fdbb 3266 07bd 77fb 053d 6d7c 6e3d
00000260: d8ac c83a 8669 4fbd 2973 74bd 16e2 583d
00000270: 1caf 613d 1b20 213d 126a bebb 843e 10bd
00000280: 242d 173d 1328 7abd 03b1 db3c 33af 21bd
00000290: a4d8 0abd 2545 c83c b9e7 353d 07c0 2fbd
000002a0: b997 283d dc5f 2c3d b534 c1bc dda4 463d
000002b0: 0c9e 32bd e430 35bd 7a83 19bd e877 bf3c
000002c0: 0510 dc3c e26f 353b d235 29bd cc31 0b3c
000002d0: 20eb af3c 3721 c8bc 0494 76bd 450a 6a3b
000002e0: 1166 603d b7a7 4f3d 3715 183d b2d4 c5bc
000002f0: 86ff ab3c b0f9 023d 10c2 783d b032 713b
00000300: aa16 17bd 64b0 72bd e33b bdbc 2f85 4dbd
00000310: 8a73 683a 2783 16bd 99e0 0cbd 6fd3 11bd
00000320: 82c0 f6bc b2f3 60bd 453d bb3c 879b 333b
00000330: ed28 f4ba 796d 9fbc 9a2d 8e3c 8e8a bdb8
00000340: cccb ebbc 9c9e 97bc 2356 643d e944 b83b
00000350: eadb 39bd 6a1e 3c3d 2bc6 bfbb 5ffa dfba
00000360: b5f9 46bd 156c 63bd 366e f4bc ddb2 eb3c
00000370: 3f00 113d 1697 6dbc 5733 26bd 2987 1abd
00000380: 9c3d eebb 5051 6bbc 1632 92bc f4df 0b3b
00000390: f2b6 843c 2340 083d 1907 f3bc c788 143d
000003a0: 588b 173d f156 03bd 7fcb bc3c f004 38bc
000003b0: 4682 643d 13b1 223d 58f4 e33c a329 e8bb
000003c0: a77e 523d da2f 30bd 6766 48bd 0509 57bd
000003d0: 699d 5e3d 19d2 f4bc fc23 c93a a3e9 073c
000003e0: 5e1b 1f3c fe3c 0bbd 55dd c43c 470e 4d3c
000003f0: 7843 4f3d 8b88 693d d63c 903c d5ba 43bc
0.039809376 0.028175708 0.047753315 0.035716973 0.0029719204 0.05338481 0.047679637 0.037988383
-0.00091507885 -0.0027204726 0.009695231 0.03707187 -0.040024832 0.059372127 -0.028050797 -0.00012113235
0.05323063 0.03212564 -0.032225113 -0.017260611 0.04996004 -0.021949494 0.032252494 0.027353087
-0.03156912 0.05391378 -0.011961114 -0.005984469 -0.05354989 0.028058661 -0.03360564 0.045009777
-0.053028885 -0.017423254 0.024445273 0.058654707 -0.049899783 0.02156238 -0.03092754 0.030493187
-0.05510411 -0.041499652 0.048421707 0.025313178 0.019955195 0.039487228 -0.053888537 0.00034660476
-0.033451207 0.009964261 -0.025337419 0.010483675 0.03425835 -0.01673085 -0.03646573 0.042383425
-0.042985663 0.047619816 0.010113341 0.046118263 0.02183144 0.060946073 -0.036563363 0.03593484
-0.055468827 0.003059558 0.008935118 -0.023372391 0.03247176 0.003450397 -0.034645762 -0.055074174
0.020765126 0.05616037 -0.03571462 -0.061516035 0.06141712 -0.06031591 -0.053218838 0.019632163
-0.02546098 -0.025232404 0.061768632 -0.013858724 -0.038716566 0.00981178 0.057516925 0.0075853546
-0.048824534 -0.06024521 0.055406004 -0.033425603 0.04530812 0.017715434 -0.03723016 0.062531166
0.03166061 -0.021692954 -0.017696759 0.0387431 0.03258484 0.04093616 -0.0051578884 -0.05883323
0.062404 0.032082923 0.042521108 0.00090814556 -0.055338923 -0.033317003 -0.05880453 -0.0095139425
-0.03889045 0.039991494 0.03158627 0.009109927 0.053522453 0.042611644 -0.026515873 0.031823065
0.036770478 0.04982988 -0.0039347387 -0.01032867 -0.056432683 0.026955314 -0.027483404 0.0063900338
-0.010213597 -0.061810352 0.028020876 -0.039339274 -0.010875184 0.009271665 -0.058549732 0.05465541
-0.04025512 0.008350234 -0.045011207 0.026066232 -0.05102342 -0.056872796 -0.014640045 0.013517466
-0.0107172895 0.03628839 -0.0003735907 -0.024226 -0.0077323406 -0.033056445 0.03271052 0.05822413
0.00153103 -0.050637744 -0.059680138 0.052949987 0.055098638 0.03933726 -0.0058109844 -0.03521587
0.036908284 -0.061073374 0.026817804 -0.039473724 -0.03389801 0.024447033 0.04441044 -0.04290774
0.04116032 0.042083606 -0.023584703 0.04849707 -0.043607756 -0.04423608 -0.0374789 0.023372605
0.026863107 0.0027685096 -0.041311093 0.008495759 0.021474421 -0.0244299 -0.060199752 0.0035711688
0.054784838 0.050697055 0.037129607 -0.024149273 0.020995867 0.0319764 0.060731947 0.0036803894
-0.03688685 -0.05925025 -0.023099845 -0.050175842 0.00088673143 -0.03674617 -0.03439388 -0.03560203
-0.030121092 -0.054919906 0.022856364 0.0027405934 -0.001862792 -0.01946138 0.017355729 -9.03803e-05
-0.028783701 -0.018508248 0.05574621 0.005623449 -0.045375742 0.045927443 -0.005852481 -0.0017088166
-0.048577983 -0.055522997 -0.029837709 0.028771812 0.035400625 -0.014501354 -0.040576305 -0.037726555
-0.007270528 -0.014362648 -0.017846148 0.0021343203 0.016200516 0.03326429 -0.02966647 0.036263254
0.036998123 -0.032065336 0.023046253 -0.011231646 0.0557883 0.039719652 0.027826473 -0.0070850416
0.051390316 -0.043014385 -0.048925783 -0.052498836 0.054349337 -0.029885339 0.0015345807 0.008295449
0.009711115 -0.033993714 0.02403132 0.012515611 0.050601453 0.057014983 0.017607134 -0.0119464

layer2.0.bias f4 [84]
00000000: 480c e1bc ce0e 41bd 6e18 06bd 7aab b63b
00000010: 8340 67bd d3cc debc 4388 98bc f6e4 d9bc
00000020: c28c 0bbd 235c 163d 6d8e 14bd 8ced d93a
00000030: ca55 2b3d 62c6 cc3c 395b 4b3d f6cd 0f3c
00000040: 9377 b73c 77f0 4f3d a744 30bd 5a50 a1bb
00000050: 6a49 36bd 0873 3a3d e2eb abbc 038a f93c
00000060: 2138 20bd 72dd 65bc f40a 75bd 924d 56bd
00000070: 2826 083d 6a84 70bd f4cc 3f3d da74 99bc
00000080: ea09 cdbc 0055 193b b288 54bd 7dcb 79bc
00000090: d2a6 0dbc 143a f23c 3581 1d3c 9331 6bbd
000000a0: 662a 0bbd d4ec 03bc e9df f2bc 2c16 1538
000000b0: 3083 a33c a54d 72bd 2945 b2bc 301a 163d
000000c0: c65c ba3c cbff 72bc e6a5 60bd ec86 25bd
000000d0: 8794 33bd a32a 6dbd 9a09 2fbd 6a26 23bd
000000e0: c500 c9bc 03d0 6bbd 2a4a 6abd fbba 413d
000000f0: 5b32 75bb 06b4 d73c f4cc 143d 00f2 e43c
00000100: db59 ce3b ba4f 5cbd 0804 ae3c 18d0 40bd
00000110: 53a4 093c a0a2 69bc 0314 953c 14a4 b23c
00000120: e6de 983c 364d edbc 04f9 37bc afbc 6bbc
00000130: b155 18bc b3a9 3f3c 694a 88bb 8dd2 77bb
00000140: 6aef 43bd 22b8 123a 57e0 d5bc 9499 9d3c
-0.027471676 -0.04713326 -0.03273814 0.005574641 -0.056458008 -0.027197277 -0.018619662 -0.026598435
-0.034069784 0.036708962 -0.03626864 0.0016626581 0.04182986 0.02499694 0.049647544 0.008777132
0.022395885 0.050766435 -0.043034222 -0.0049229087 -0.044503607 0.04551986 -0.020986501 0.030461317
-0.03911603 -0.014029847 -0.0598249 -0.05232007 0.033239514 -0.05872003 0.046826318 -0.018732477
-0.025029141 0.0023396611 -0.051888175 -0.015246269 -0.00864573 0.02956871 0.009613325 -0.057420325
-0.03397598 -0.00805207 -0.029647784 3.5545017e-05 0.019960016 -0.05915608 -0.021761494 0.036646068
0.022749316 -0.014831494 -0.054845713 -0.040411875 -0.04384282 -0.05790199 -0.042733766 -0.039831556
-0.0245365 -0.057571422 -0.057199635 0.04729746 -0.0037414047 0.026330959 0.03632827 0.027947426
0.0062973327 -0.05378697 0.021242157 -0.047073454 0.008400994 -0.014259964 0.018198019 0.021806754
0.018660974 -0.028967481 -0.011228804 -0.014388247 -0.009297774 0.011698174 -0.004159261 -0.0037814707
-0.047835745 0.0005596896 -0.02610795 0.01923827

layer3.0.weight f4 [8, 84]
00000000: 9e05 87bd 9ad5 91bd 763a 063d 0781 2e3d
00000010: a093 b83d 2f73 1bbd e3e5 dfbb 1300 c63d
00000020: fd2f d1bd 8daf b8bd 8640 3ebd 90c9 f5bc
00000030: 0258 bb3d b1c9 8cbd 6130 cfba c557 c7bd
00000040: 1844 3ebd 3ef9 82bd 5d3d 5d3d 0987 d33d
00000050: 5e04 c63d b8ca 8e3d 93cc f3bc 25ba 613d
00000060: 7657 723d 0090 a03c 2e4b 593d a63a 81bd
00000070: 372a d93c 9a89 9dbd ed64 963d 5923 5b3d
00000080: e0c7 803d 1de0 883d d91d 963d abbe cabb
00000090: 6e39 a63d 3f51 873d 4340 07bd aa02 b13a
000000a0: e1ba 503d 22cb 863d b240 eebc 43b0 05bd
000000b0: 3833 5dbc c37c 83bd 22f9 60bd fd54 d5bd
000000c0: 0356 523d 210f 113b 6983 59bd 22c6 9ebd
000000d0: 2a59 8e3d fc2e 0fbd 7289 1b3d 59ff e4bc
000000e0: 136e 49bd d4f4 903d 938a 87bd a46b fd3c
000000f0: 9143 acbb 7ba6 28bd 4135 ed3c 157b f23c
00000100: e3f8 a8bd 1988 82bd 519e cbbd 39d3 813d
00000110: b738 a63d 1a4b abbd a282 8bbd 9842 823d
00000120: edd6 9e3d 9a98 62bd cbd3 413d c38a 35bc
00000130: 5e6b 813c 6cc7 4bbc bae8 94bd 63b0 afbc
00000140: a3d5 a2bd 360e b4bb fbae a43d ce34 9c3d
00000150: 6d64 69bd ab99 543d 283d 78bd 3e0f 27bd
00000160: 5fbd 993d 8855 aa3d 6cb7 893d c913 243c
00000170: 8a54 9abd 0b6c 8fbd 3524 c23d 02a8 70bc
00000180: 6e47 d6bd 1a39 c53b 73c9 ff3c 94f4 71bd
00000190: 21af 773d 1f14 a6bd 8451 86bd 523a efbc
000001a0: c2d4 7a3d 45f7 1b3d aefc 40bc d18a b83c
000001b0: c354 8bbd a7a6 943c 706e bf3d adc1 dcbd
000001c0: 9b15 7fbd 17e9 8fbd 59f1 7abb b709 d6bd
000001d0: 948d 64bd 7d9c 483d 0f3c 8c3d cee2 a33d
000001e0: 6d17 c23d 55dc 363c 9347 72bd d30b c23d
000001f0: 8c4f 0ebd 439e b3bd 2b76 1ebd 719b 553c
00000200: fc7f 61bd 5e74 9f3c 125d 19bd eeb4 d43d
00000210: 10f2 9abd 51f3 643d 5d5a 993d d2f5 b03d
00000220: 9285 123b bbeb 223d d4b4 c43c 28bb 8fbd
00000230: 63d8 acbd 7e75 c43d 4f1b 99bd 1624 bbbd
00000240: 18a3 c63d 36c4 a9bd db5e 703d 27f4 27bd
00000250: d0ee d83d 74fa 823d 3636 923d 32a4 2e3d
00000260: ca7f 82bd e0b2 ac3c da90 0abd e1ce 883d
00000270: f4ba c43d 7fe7 3c3d 7e12 5e3d 4685 bb3d
00000280: 4b35 d83d 4bd7 a8bd 2483 3bbd 5d24 6cbd
00000290: fcff c0bd f2f1 083c caaf db3d 1bc4 ba3d
000002a0: 0dd7 debc 1c60 97bd 714f bb3d bb7a 413c
000002b0: 858e c63d 2652 9d3c c10b 86bd 2864 593d
000002c0: 66a9 ad3d 3f3b 4cbd a43b 57bc a946 443d
000002d0: 3bd9 7fbd 5e66 873d 689c c43d 2b8b 163d
000002e0: d898 a8bd 92d9 d5bd dc60 c13d b0ff 583d
000002f0: 884e 3f3c 8f42 c83d f8bc 20bd cf49 2c3d
00000300: aaf8 a3bd 8f53 c13d aafc 07bd 2503 ccbd
00000310: 8a55 39bd 8f05 6c3d 8eb8 4ebd 9c0f 9cbc
00000320: b791 9bbd 8fd3 8ebd b8da 8bbd 8050 b5bd
00000330: a1b3 1e3d 46e0 94bd dcad 2c3d 640e 40bd
00000340: 710b 81bc 5e04 a23d 8cf9 653d 74e8 2b3d
00000350: b01b 8f3c 6271 79bd 749e a5bd 67d8 c93d
00000360: 1ab0 e4bc 23c6 ccbb 870f a63d 958e 843d
00000370: 1e95 2ebd 1132 d9bd 3409 dc3c 401e b8bd
00000380: 3f2d aa3c b3fe 113d 0cd1 b9bc 55df c43d
00000390: 0e10 c6bb f7ea 683c 4d3c d6bd 92cb 133c
000003a0: bd79 a53c 87b0 2b3d 6b93 3a3d acc4 a63c
000003b0: 5193 353c b341 fbbc 7d36 c5bd 5359 053c
000003c0: 0233 fbbb b94c d03d 1510 ed3b 85c3 5dbd
000003d0: b658 153d 0993 c23a cd77 98bd 4d2e 6fbd
000003e0: 9f22 ae3d b07d d83c 431b b63c 9a8f 7f3d
000003f0: cd18 ba3c 01c5 423b 8684 723d 805a 0ebd
-0.06592868 -0.071208194 0.032770596 0.04260352 0.09012532 -0.037951645 -0.0068328246 0.09667983
-0.10214231 -0.09017859 -0.046448253 -0.030003339 0.091476455 -0.06874407 -0.0015807265 -0.097335376
-0.046451658 -0.063951954 0.0540136 0.1032849 0.09668802 0.06972259 -0.029760635 0.055109162
0.05916544 0.019599915 0.053050213 -0.063100144 0.026509387 -0.07692261 0.07343469 0.053500507
0.06288123 0.06683371 0.07329912 -0.00618728 0.081164226 0.06607293 -0.03302027 0.0013504822
0.05095947 0.06581713 -0.029083584 -0.0326388 -0.013500981 -0.06420281 -0.05492509 -0.10416601
0.05135156 0.0022134262 -0.053103838 -0.077526346 0.069506004 -0.034956917 0.037972875 -0.02795379
-0.04917724 0.07077947 -0.06618228 0.030935116 -0.005257078 -0.041174393 0.028956058 0.029599706
-0.082505964 -0.06373615 -0.09942306 0.06339116 0.08116286 -0.08363934 -0.068120256 0.06360358
0.077558376 -0.055321313 0.047321122 -0.011080447 0.015798267 -0.012437683 -0.072709516 -0.021446412
-0.07950904 -0.005494858 0.080411874 0.07627259 -0.05698054 0.05190436 -0.0606052 -0.04078602
0.07506823 0.08317095 0.06724438 0.010014483 -0.07535656 -0.070030294 0.09479562 -0.014688494
-0.10462843 0.00601877 0.031223988 -0.05907114 0.06046975 -0.081093065 -0.065585166 -0.029202614
0.061238058 0.03807761 -0.0117789935 0.02252713 -0.068032764 0.018145872 0.09347236 -0.10779128
-0.062276464 -0.0702688 -0.0038290827 -0.10451072 -0.055799082 0.048977364 0.06847393 0.08002244
0.09477124 0.01116093 -0.05915029 0.094749115 -0.03474383 -0.087704204 -0.038686913 0.013037548
-0.055053696 0.019464668 -0.037442274 0.10386072 -0.07565701 0.055896107 0.074879386 0.086406365
0.0022357446 0.03977559 0.024012007 -0.07018119 -0.0843971 0.09592722 -0.07475912 -0.09137742
0.096990764 -0.082893774 0.05868421 -0.041004326 0.10592425 0.063954264 0.07139246 0.042637058
-0.0637203 0.021081388 -0.033829547 0.06680084 0.09605971 0.04611921 0.054216854 0.09156279
0.1055704 -0.08244189 -0.045779362 -0.057651866 -0.09423825 0.0083584655 0.107268885 0.091194354
-0.027202154 -0.07391378 0.091460116 0.011809046 0.09695152 0.01920421 -0.06545211 0.053074032
0.08479576 -0.04986119 -0.013136778 0.04791895 -0.062463026 0.06611322 0.096001446 0.036753815
-0.08232278 -0.10441889 0.094423026 0.052978218 0.011676438 0.0977832 -0.039242715 0.042062577
-0.08006413 0.09439766 -0.033199944 -0.09961537 -0.045247592 0.05762249 -0.050468974 -0.019050412
-0.07596152 -0.06973945 -0.06828827 -0.08853245 0.038745526 -0.07269339 0.042157993 -0.046888724
-0.015752526 0.07910989 0.05614619 0.04196973 0.017469257 -0.060899146 -0.08086863 0.098557286
-0.027916003 -0.0062492057 0.0810843 0.06472508 -0.042622678 -0.106052525 0.026859857 -0.08990145
0.020773528 0.03564329 -0.02268269 0.0961291 -0.0060443943 0.014216176 -0.1046072 0.009020703
0.02019965 0.041916396 0.045550745 0.020357452 0.011082486 -0.030670976 -0.096295334 0.008138972
-0.0076659927 0.10170884 0.007234583 -0.05414154 0.036461554 0.0014844845 -0.07444725 -0.058393765
0.08502697 0.02642712 0.022229796 0.06239281 0.022716904 0.0029719474 0.059208415 -0.034754276

layer3.0.bias f4 [8]
00000000: d28b ce3d a51d b3bc 73bb 9bbc fbcf 193d
00000010: 335c 12bd e5fd c83c 2166 9f3d 6eed c9bd
0.10085262 -0.021864722 -0.019010281 0.03755186 -0.03573246 0.024535129 0.077831514 -0.09859739
