DigitalRecognition-master/model_params/GDUT_net_all_13.pt (torch, 665623 bytes, 6 tensors)

layer1.0.weight f4 [256, 560]
0.029773653 -0.02514955 0.011501681 0.03628467 -0.04050261 0.011956412 -0.022607265 -0.00936079
0.00875724 -0.020014288 -0.021852685 -0.022666475 0.02098415 0.013136081 -0.0007995479 -0.017990112
-0.008775704 0.027367398 -0.034626607 0.015985213 -0.009310242 -0.020688491 -0.0043094866 -0.02169887
0.026933696 -0.039554816 0.029683039 0.0037843918 -0.010611975 0.016463542 0.01101769 -0.018155959
0.036104903 0.024943497 0.0045657577 0.005881813 -0.002662978 -0.029384995 -0.0053168535 0.036822163
0.006401349 -0.0130357295 0.0050380714 -0.004550766 -0.02114859 -0.014294746 0.0077529824 0.017802285
-0.012567007 -0.002047321 -0.021634972 -0.0062279254 0.02140497 0.007974273 0.027869 -0.004014795
0.016040895 0.03199154 -0.036613118 -0.026031911 -0.0149922855 -0.02193924 -0.008098431 -0.0077028386
0.016065793 -0.036726445 -0.0040650093 0.01259367 0.0414702 -0.035386495 -0.011674345 -0.029633546
-0.0038478284 -0.03997286 0.024351897 -0.022845764 0.006385666 -0.021270365 0.014181435 -0.020318083
-0.029818226 -0.032135054 0.0033838265 -0.032026365 -0.0051804385 0.025835967 0.008292791 0.024456646
-0.008956396 0.029067637 0.0010473536 0.008954392 0.0067227823 0.038887836 0.042836573 -0.029759765
-0.034954917 -0.03380429 -0.020230547 0.029073387 0.028916873 -0.029558517 0.022199921 0.018485326
0.0015098313 -0.025377097 0.008306723 -0.009362464 -0.02561068 0.005047762 -0.029835217 0.0064662737
-0.038004458 0.008766034 -0.031717215 0.0039269193 -0.0021039017 0.00795953 0.035671666 0.025342502
0.021107607 -0.0069021024 0.0035413392 -0.014020981 0.03622667 -0.017545532 -0.020915518 -0.028759178
-0.015344058 0.039507825 0.03628371 0.026471347 0.005761892 0.0003979416 0.037653293 -0.004562377
-0.0113650635 -0.026146747 -0.034197956 0.00080275163 -0.014578363 0.01918146 0.02224183 -0.016711038
-0.011999767 0.03809135 -0.032212544 -0.04145209 0.027614344 0.027667364 -0.009148537 -0.006928329
-0.03377416 -0.03539219 -0.020902442 -0.026604617 -0.03340492 -0.01715039 0.038563065 0.03905367
-0.041643623 0.041244715 -0.019806555 0.008769102 -0.04060269 0.02816901 -0.026071372 0.0420156
-0.0009453787 0.029336886 -0.005973047 -0.009963683 -0.03047125 0.025525985 -0.025781134 0.029857498
0.041368447 -0.03486491 -0.030526675 0.025321648 -0.040650394 -0.015640894 0.01547721 0.0006899871
-0.0221687 0.036674343 0.02857474 0.009597851 -0.032793127 -0.02144523 -0.018455539 0.03459005
0.01001738 -0.036584217 -0.028090194 -0.016792905 -0.016877854 -0.00827043 0.010353982 0.02840148
0.036081024 0.03329494 -0.02427586 -0.02881901 0.029058348 -0.00495957 0.03307085 -0.015158546
-0.03185993 0.038420625 0.0026220994 -0.0067752115 0.039841108 0.018532883 -0.029140081 -0.005346597
-0.022807932 -0.0016646769 -0.029097024 -0.01835483 -0.036617696 0.016246777 0.00720096 0.00064595416
-0.03668924 -0.0048249885 0.019601312 -0.0172853 -0.03627435 0.023612482 -0.002179635 0.0069520692
0.017432986 0.027807998 -0.017799186 0.021017162 0.042544816 -0.02122862 -0.008461524 0.038681872
-0.034733776 0.026470192 0.009980768 0.0099026635 0.010124105 -0.0026132592 -0.0063895476 -0.01144408
-0.038328566 -0.007516273 0.024716556 0.035367254 -0.023037419 -0.0047682887 0.025415517 -0.0281979
00000000: e0e7 f33c 6e06 cebc 8c71 3c3c 3c9f 143d
00000010: 11e6 25bd d4e4 433c df32 b9bc 005e 19bc
00000020: 877a 0f3c 01f5 a3bc 6704 b3bc 0baf b9bc
00000030: f4e6 ab3c b838 573c c098 51ba 0060 93bc
00000040: f8c7 0fbc 9831 e03c a1d4 0dbd 6cf3 823c
00000050: fc89 18bc e97a a9bc 9836 8dbb d4c1 b1bc
00000060: 0ea4 dc3c 3b04 22bd d829 f33c 8f03 783b
00000070: d9dd 2dbc 8dde 863c 8b83 343c cebb 94bc
00000080: bce2 133d 4e56 cc3c 5a9c 953b 39bc c03b
00000090: 5b85 2ebb cdb8 f0bc 0039 aebb d6d2 163d
000000a0: 68c2 d13b d093 55bc 6816 a53b 981e 95bb
000000b0: cf3f adbc 8334 6abc bb0c fe3b 19d6 913c
000000c0: d9e5 4dbc 592c 06bb d33b b1bc a013 ccbb
000000d0: 7a59 af3c 86a6 023c 874d e43c 8b8e 83bb
000000e0: 3268 833c 9009 033d a3f7 15bd e040 d5bc
000000f0: 34a2 75bc ecb9 b3bc 48af 04bc 1868 fcbb
00000100: 699c 833c 786e 16bd c533 85bb ae55 4e3c
00000110: a8dc 293d 6ef1 10bd c045 3fbc 0dc2 f2bc
00000120: d92b 7cbb 95ba 23bd a17d c73c 0a27 bbbc
00000130: d93e d13b 303f aebc 4059 683c 1c72 a6bc
00000140: 5a45 f4bc 0ca0 03bd 30c3 5d3b 142e 03bd
00000150: abc0 a9bb f3a5 d33c 7dde 073c 4e59 c83c
00000160: d9bd 12bc 411f ee3c 5b47 893a 71b5 123c
00000170: c94a dc3b da48 1f3d 6775 2f3d c0ca f3bc
00000180: e32c 0fbd 5e76 0abd 88ba a5bc 502b ee3c
00000190: 14e3 ec3c b424 f2bc 9cdc b53c 8a6e 973c
000001a0: 88e5 c53a a1e3 cfbc ec18 083c 0565 19bc
000001b0: 7dcd d1bc b267 a53b fc68 f4bc 09e3 d33b
000001c0: 90aa 1bbd 699f 0f3c e9e9 01bd 63ad 803b
000001d0: 9de1 09bb b068 023c 741c 123d 149b cf3c
000001e0: dce9 ac3c 082b e2bb d015 683b 42b8 65bc
000001f0: 6b62 143d a6bb 8fbc 0557 abbc 5e98 ebbc
00000200: a565 7bbc f5d2 213d 3a9e 143d 70da d83c
00000210: 41ce bc3b d1a2 d039 573a 1a3d fe7f 95bb
00000220: 8834 3abc b431 d6bc 2813 0cbd c06f 523a
00000230: 16da 6ebc 7022 9d3c 8034 b63c 96e5 88bc
00000240: ac9a 44bc ad05 1c3d 4df1 03bd abc9 29bd
00000250: 7a37 e23c aba6 e23c bfe3 15bc 0907 e3bb
00000260: c656 0abd 67f7 10bd 993b abbc edf1 d9bc
00000270: 99d3 08bd fa7e 8cbc 4ef4 1d3d bef6 1f3d
00000280: 8192 2abd 38f0 283d 5b41 a2bc 48ac 0f3c
00000290: 024f 26bd b2c2 e63c a193 d5bc 8d18 2c3d
000002a0: 4ad3 77ba e953 f03c 8db9 c3bb b73e 23bc
000002b0: d89e f9bc df1b d13c f532 d3bc b697 f43c
000002c0: f671 293d 82ce 0ebd 1413 fabc 586f cf3c
000002d0: 0781 26bd 5521 80bc 2094 7d3c 40e0 343a
000002e0: 229b b5bc d637 163d 9315 ea3c 4e40 1d3c
000002f0: 1652 06bd e8ad afbc 1230 97bc 4cae 0d3d
00000300: f01f 243c 55d9 15bd 681d e6bc 4691 89bc
00000310: 6d43 8abc b380 07bc c0a3 293c 38aa e83c
00000320: b2c9 133d 4660 083d 2bde c6bc d815 ecbc
00000330: c60b ee3c e383 a2bb 4d75 073d 8d5b 78bc
00000340: 8f7f 02bd f25e 1d3d 87d7 2b3b 9802 debb
00000350: 6e30 233d 46d2 973c 2eb7 eebc 8232 afbb
00000360: b3d7 babc 4a31 daba e25c eebc de5c 96bc
00000370: 70fc 15bd f617 853c 08f6 eb3b 4055 293a
00000380: 7547 16bd f01a 9ebb ee92 a03c e799 8dbc
00000390: 6a94 14bd f76e c13c 35d8 0ebb 2fce e33b
000003a0: 9fcf 8e3c 99cd e33c 99cf 91bc 2f2c ac3c
000003b0: 7943 2e3d a5e7 adbc 34a2 0abc e270 1e3d
000003c0: 0145 0ebd 04d8 d83c 6086 233c c83e 223c
000003d0: 93df 253c 3743 2bbb 695f d1bb f37f 3bbc
000003e0: 6afe 1cbd 114b f6bb 607a ca3c 41dd 103d
000003f0: f8b8 bcbc 4e3f 9cbb 3434 d03c 48ff e6bc

layer1.0.bias f4 [256]
-0.031718276 -0.013727375 0.03103538 -0.030905282 -0.039548565 0.026875647 -0.031216549 -0.012601875
-0.0071583334 -0.038882673 0.00034534629 -0.0352224 0.011229463 0.032953754 -0.0004560404 0.031083735
-0.016077224 -0.03167811 -0.03837492 -0.03201209 -0.0050854166 0.016072476 0.030087143 -0.009269508
-0.007322471 -0.012305133 0.01697219 -0.008789863 -0.03273021 -0.03955476 0.021361154 -0.03749551
-0.00641945 0.0037446038 -0.021603754 -0.014205717 0.008232555 0.010238078 0.040723044 0.009935342
0.008713157 0.039013315 -0.0028733786 0.016646683 0.030708471 -0.039286047 -0.027659392 -0.015929408
-0.027739348 -0.03395197 -0.026843483 -0.03221413 0.031666346 -0.008130296 -0.002673421 -0.0151081495
0.0029218602 0.035527904 -0.005087248 -0.013176308 0.023361003 0.03230564 0.039971367 0.019266792
0.0067405836 0.031490784 -0.034491006 0.0021241298 -0.022413703 -0.02620658 -0.01129099 -0.011652876
0.009492843 0.036759775 -0.009935055 0.017558498 -0.028326392 -0.036285926 0.0007528759 0.034396656
-0.0036867242 -0.028306246 -0.016963275 -0.035511374 0.018202826 -0.021127697 -0.019827377 -0.0056064306
0.022661513 -0.02694149 -0.0139699895 0.02239317 0.01769546 0.009992415 -0.010953512 -0.0130136395
0.027413055 0.041199706 0.0015608831 -0.016850865 -0.011523774 0.04139417 0.03450302 0.030594306
-0.028817931 0.033749674 -0.027745994 0.0054001664 -0.018069984 0.006695446 -0.0005061702 0.03746565
0.025914086 -0.03449608 0.026814558 -0.0012667254 0.041033525 0.009654224 -0.03132524 -0.020467106
0.032932572 0.028386468 0.017971324 0.034517486 0.038448036 0.00858992 0.01714573 0.034033183
0.033189476 -0.0017990493 0.020001125 -0.040284153 -0.019911947 -0.032803487 0.0135414675 0.025601303
-0.039226502 -0.022415636 0.030501135 0.013123793 0.026642775 -0.032379944 0.020675827 -0.0313298
-0.029167602 0.0007243533 6.446419e-05 0.038097773 0.011804236 -0.0048431843 0.03211296 0.0035347468
0.009457952 0.009028327 0.01818149 0.008037138 -0.01631236 -0.027314046 0.021236649 0.022929456
-0.039726544 -0.035669353 0.0065924367 0.013713711 0.039607123 -0.01683701 -0.009911007 0.0407756
0.032734156 -0.028179668 -0.0061066854 0.018914547 -0.036642205 -0.032265212 0.0012284663 0.03951179
-0.034855593 0.028358797 0.013485067 -0.022171278 -0.008960734 -0.022205174 -0.011851013 0.028898425
-0.015490676 -0.022115035 -0.030811429 0.0001484306 -0.0044769365 -0.007840915 0.02264626 -0.032472033
-0.023863671 0.013033501 -0.008059588 -0.031865105 0.010854419 -0.004170682 -0.039774906 0.006460653
0.039164025 0.018225968 0.018419618 -0.022439012 0.04114191 0.028884934 -0.03538339 0.0019566491
-0.010873726 -0.041460827 0.028617652 -0.015436242 0.02889782 0.027342534 0.015478418 0.025915937
-0.002304442 0.04043819 -0.0070751663 -0.036205593 0.007501488 -0.014847444 0.0037057388 0.0040608575
-0.02115247 0.015758991 -0.014557618 -0.02136316 -0.0008919796 0.034642097 0.025514973 -0.022262175
-0.032647375 -0.025223384 0.040455256 -0.01879661 0.018238343 -0.04137359 -0.041470055 -0.021955464
0.014353137 -0.009214699 -0.0056079254 0.0017656418 -0.038519736 0.01453047 -0.038498417 0.02248396
-0.028653393 0.002016131 0.02648339 0.017178783 -0.035302985 0.03149861 0.039995033 -0.03977184
00000000: 06eb 01bd c9e8 60bc e93d fe3c 132d fdbc
00000010: adfd 21bd 512a dc3c d9b9 ffbc 1878 4ebc
00000020: 7490 eabb 7043 1fbd 980f b539 5d45 10bd
00000030: c8fb 373c 84fa 063d b518 efb9 51a3 fe3c
00000040: 62b4 83bc e8c0 01bd 052f 1dbd 1c1f 03bd
00000050: 91a3 a6bb 6daa 833c 5079 f63c 22df 17bc
00000060: 57f1 efbb 789b 49bc 4309 8b3c 5c03 10bc
00000070: 1d10 06bd 2c04 22bd 96fd ae3c e494 19bd
00000080: 405a d2bb 0768 753b 5bfa b0bc 18bf 68bc
00000090: d7e1 063c 9dbd 273c 35cd 263d d8c7 223c
000000a0: a1c1 0e3c 6dcc 1f3d 4b4f 3cbb a05e 883c
000000b0: 5590 fb3c 68ea 20bd f395 e2bc 647e 82bc
000000c0: a13d e3bc 3911 0bbd dde6 dbbc f7f2 03bd
000000d0: 92b4 013d ef34 05bc 9034 2fbb 2c88 77bc
000000e0: ae7c 3f3b b585 113d eeb2 a6bb 71e1 57bc
000000f0: 935f bf3c eb52 043d 04b9 233d 64d5 9d3c
00000100: 1de0 dc3b 7bfc 003d 7146 0dbd fc34 0b3b
00000110: f19c b7bc 2faf d6bc d8fd 38bc b4eb 3ebc
00000120: df87 1b3c 6b91 163d a4c6 22bc d7d6 8f3c
00000130: c00c e8bc 8da0 14bd a55c 453a 82e3 0c3d
00000140: f89c 71bb 80e2 e7bc 91f6 8abc 6074 11bd
00000150: 181e 953c fe13 adbc 066d a2bc 26b6 b7bb
00000160: a3a4 b93c 66b4 dcbc 62e2 64bc e271 b73c
00000170: 12f6 903c 3ab7 233c 5c76 33bc 2937 55bc
00000180: 5891 e03c 06c1 283d 8c96 cc3a d30a 8abc
00000190: 36ce 3cbc ef8c 293d 0a53 0d3d e9a0 fa3c
000001a0: 9513 ecbc 193d 0a3d 914b e3bc e1f3 b03b
000001b0: 8107 94bc 7965 db3b 82b0 04ba 9575 193d
000001c0: c749 d43c c34b 0dbd 34aa db3c 4008 a6ba
000001d0: c512 283d c02c 1e3c e54e 00bd a2aa a7bc
000001e0: 4ee4 063d bd8a e83c 9938 933c 3562 0d3d
000001f0: b07b 1d3d bcbc 0c3c 3475 8c3c 6166 0b3d
00000200: b0f1 073d 14ce ebba 66d9 a33c ff00 25bd
00000210: 611e a3bc f35c 06bd 08dd 5d3c d3b9 d13c
00000220: f8ab 20bd ffa0 b7bc 84dd f93c 2d05 573c
00000230: f341 da3c d5a0 04bd 5a60 a93c ad53 00bd
00000240: e5f0 eebc 87e2 3d3a f330 8738 690c 1c3d
00000250: 8e66 413c 93b3 9ebb e188 033d 36a7 673b
00000260: 87f5 1a3c 8ceb 133c 59f1 943c 33ae 033c
00000270: 80a1 85bc b5c1 dfbc 7bf8 ad3c 8ed6 bb3c
00000280: 4db8 22bd 071a 12bd 5e05 d83b 79af 603c
00000290: 143b 223d c5ed 89bc c761 22bc 5104 273d
000002a0: 4014 063d 0cd9 e6bc 971a c8bb aef2 9a3c
000002b0: 2316 16bd 8728 04bd 7d04 a13a 1dd7 213d
000002c0: bdc4 0ebd b550 e83c 78f0 5c3c 8aa0 b5bc
000002d0: 0bd0 12bc a0e7 b5bc c02a 42bc 64bc ec3c
000002e0: 9bcc 7dbc 972a b5bc 4068 fcbc 09a4 1b39
000002f0: 44b3 92bb 2e77 00bc a684 b93c 6501 05bd
00000300: bf7d c3bc 778a 553c 5d0c 04bc fc84 02bd
00000310: bcd6 313c 37aa 88bb 03eb 22bd e3b3 d33b
00000320: 756a 203d a04e 953c bde4 963c 05d2 b7bc
00000330: 6b84 283d 19a0 ec3c 2cee 10bd 203b 003b
00000340: b627 32bc d4d2 29bd 916f ea3c 4be8 7cbc
00000350: 1fbb ec3c 73fd df3c 3199 7d3c a94d d43c
00000360: 1f06 17bb 84a2 253d ccd6 e7bb 514c 14bd
00000370: 0bcf f53b b242 73bc fbdb 723b f110 853b
00000380: f247 adbc 0019 813c 1383 6ebc cb01 afbc
00000390: bdd3 69ba dfe4 0d3d c704 d13c 2a5f b6bc
000003a0: 41b9 05bd 45a1 cebc 69b4 253d 59fb 99bc
000003b0: 9468 953c 5a77 29bd 81dc 29bd f2db b3bc
000003c0: 6c29 6b3c 40f9 16bc b0c2 b7bb 1c6d e73a
000003d0: dfc6 1dbd 3511 6e3c 84b0 1dbd 4830 b83c
000003e0: 85ba eabc 1121 043b b2f3 d83c 85ba 8c3c
000003f0: dd99 10bd b004 013d d5d1 233d cce7 22bd

layer2.0.weight f4 [84, 256]
0.030614948 -0.014408959 0.031701703 0.004697404 -0.047399815 -0.008369888 0.037024595 -0.032578222
-0.019294633 -0.062421 -0.006916538 -0.03390038 0.015459692 0.03895881 -0.0412214 -0.009891402
-0.059263654 -0.016792018 0.001888243 0.051263418 0.04401809 -0.021649746 0.010351362 0.015392014
-0.0012314492 0.002643788 0.039791394 0.01970992 0.051435392 -0.047955133 0.03463155 0.047348157
-0.046143055 -0.057545453 -0.055952277 -0.056938924 -0.059173536 -0.018407118 0.015514854 0.0010632873
-0.020909108 -0.04310035 0.036539216 0.047964342 0.049993075 0.05090761 0.026578883 -0.03491701
-0.020635378 0.060711965 -0.00080484856 -0.05576504 0.023046108 0.04927262 0.014453649 -0.0067960448
-0.047194652 -0.013869293 -0.049875293 0.06239539 -0.04920842 0.06097044 0.025741179 0.026598006
0.0015996365 0.03301451 -0.020148767 -0.006207853 -0.042750943 0.04179445 0.038440958 0.03793135
0.041815158 0.02310317 -0.058847707 0.0013556614 0.053510565 0.046855524 -0.036945883 -0.028781665
0.002366637 0.008280736 0.01826733 -0.02941347 -0.052648008 0.05380263 -0.024703719 0.035163637
0.05194039 0.048161853 0.02316305 -0.05521379 -0.036502734 0.0066641476 0.04037729 -0.050743073
0.03605871 0.029031683 0.062282644 -0.028310852 -0.017881352 0.05536659 -0.05911184 0.03885754
-0.052096527 -0.036733937 0.037571676 -0.020283077 -0.057562485 0.0015953201 -0.011189265 0.011470641
-0.020350598 -0.053463675 0.047312886 -0.056413904 -0.05638143 0.033907987 -0.020034747 0.036133174
0.062113687 -0.037482463 -0.052201178 -0.055783063 -0.037928604 0.017180579 -0.022645546 0.011773381
-0.031465307 -0.012079967 -0.013651454 -0.059971202 -0.034499835 0.038307086 -0.008305032 0.03692954
-0.038967855 -0.060908735 0.019938603 0.0040127784 0.011009908 -0.014269531 -0.048757248 -0.05782035
0.016495697 -0.041001517 0.029168002 -0.010703334 -0.01921162 0.0077977367 0.035518587 0.04401404
-0.005767234 0.018552432 0.014829998 -0.033740755 -0.016556116 -0.0006830687 0.01364623 -0.038181048
0.060968734 -0.05305975 0.04879622 -0.010361674 -0.018414212 -0.048605047 -0.03198988 0.013602695
-0.038132187 0.058761474 0.038661376 0.05214157 -0.045595095 -0.013517818 -0.012538075 -0.0069647124
-0.048917472 0.027735015 -0.0046651736 -0.043918867 -0.06176561 -0.0084256055 -0.031531505 0.022926252
-0.0099577345 -0.0060171215 0.060922686 -0.009883405 0.032631893 0.051069666 -0.030545114 -0.039081212
0.024497584 -0.004231303 -0.04645967 -0.03242652 -0.01851308 0.0073677385 -0.0024001808 0.046713736
0.038622424 0.03961338 0.05377081 0.023388617 -0.0366046 -0.051811926 -0.05378806 0.008381527
-0.008804591 -0.03705309 0.04050353 0.056512028 -0.0051431186 0.020307533 -0.020040203 -0.04101251
0.039257184 -0.021945428 -0.053313833 0.05887565 -0.049727898 0.010639261 0.016149314 0.034448713
0.04588886 -0.058225278 -0.027897941 0.024152486 0.05207396 -0.035606865 -0.005608104 -0.050133403
-0.024306946 0.024592446 0.01690375 -0.017572109 -0.050368894 0.061575294 0.025606342 0.032752957
0.027617434 -0.0038024546 -0.0053174794 -0.004851593 0.020406997 -0.05375173 -0.029219672 -0.028873518
-0.022375697 0.046069134 -0.027653584 -0.015045965 0.019561348 0.043324564 0.02421095 0.03495118
00000000: 33cc fa3c 8e13 6cbc a5d9 013d aeec 993b
00000010: 4f26 42bd db21 09bc 1aa7 173d be70 05bd
00000020: c70f 9ebc 2aad 7fbd 20a4 e2bb 20db 0abd
00000030: a64a 7d3c 4693 1f3d c5d7 28bd 8c0f 22bc
00000040: 72be 72bd 6a8f 89bc ec7e f73a 97f9 513d
00000050: 504c 343d cf5a b1bc c298 293c c92e 7c3c
00000060: 9468 a1ba 6743 2d3b 4dfc 223d b376 a13c
00000070: ebad 523d 9a6c 44bd d0d9 0d3d 24f0 413d
00000080: 8000 3dbd c8b4 6bbd 372e 65bd ca38 69bd
00000090: f35f 72bd 86ca 96bc 0432 7e3c 005e 8b3a
000000a0: 9449 abbc fe89 30bd 25aa 153d 4276 443d
000000b0: 8ac5 4c3d 8084 503d f5bb d93c 2405 0fbd
000000c0: 860b a9bc 1cad 783d 79fc 52ba e269 64bd
000000d0: 31cb bc3c 16d2 493d ffce 6c3c 5bb1 debb
000000e0: 2e4f 41bd 083c 63bc 094a 4cbd 4f92 7f3d
000000f0: c58e 49bd 24bc 793d 2adf d23c 10e4 d93c
00000100: e5aa d13a 393a 073d 070f a5bc 3f6b cbbb
00000110: 9d1b 2fbd a830 2b3d 4474 1d3d e75d 1b3d
00000120: 5f46 2b3d dc42 bd3c 4b0a 71bd 73b0 b13a
00000130: e52d 5b3d 94eb 3f3d 9154 17bd 87c7 ebbc
00000140: 9519 1b3b edab 073c 5ea5 953c 84f4 f0bc
00000150: 70a5 57bd 2660 5c3d 745f cabc bf07 103d
00000160: 72bf 543d 5d45 453d 70c0 bd3c db27 62bd
00000170: e483 15bd ec5e da3b a862 253d f8d7 4fbd
00000180: 4cb2 133d dad3 ed3c 161c 7f3d 29ec e7bc
00000190: ea7b 92bc 14c8 623d 421f 72bd 1529 1f3d
000001a0: 2b63 55bd 5376 16bd c2e4 193d b228 a6bc
000001b0: a4c6 6bbd 0f1a d13a 2e53 37bc 5bef 3b3c
000001c0: 4cb6 a6bc bafc 5abd 28cb 413d 4412 67bd
000001d0: 37f0 66bd 1ae3 0a3d e91f a4bc 6100 143d
000001e0: ec6a 7e3d 3687 19bd e7d0 55bd c87c 64bd
000001f0: 065b 1bbd 49be 8c3c 2783 b9bc 24e5 403c
00000200: c4e1 00bd 0eeb 45bc 59aa 5fbc 5da4 75bd
00000210: b34f 0dbd e4e7 1c3d d411 08bc 6e43 173d
00000220: c29c 1fbd 707b 79bd 4856 a33c a07d 833b
00000230: e762 343c c0ca 69bc aeb5 47bd 08d5 6cbd
00000240: fc21 873c 35f1 27bd bcf1 ee3c 095d 2fbc
00000250: b061 9dbc 2884 ff3b f07b 113d 1148 343d
00000260: 11fb bcbb 45fb 973c 85f9 723c bf33 0abd
00000270: b1a0 87bc f70f 33ba 7094 5f3c bb63 1cbd
00000280: 5aba 793d 2e55 59bd 8cde 473d 03c4 29bc
00000290: 67d9 96bc 1616 47bd d207 03bd d7dd 5e3c
000002a0: 7f30 1cbd dfaf 703d 645b 1e3d 6692 553d
000002b0: ecc1 3abd d779 5dbc 806c 4dbc 3e38 e4bb
000002c0: b05d 48bd 8b34 e33c 50de 98bb 45e4 33bd
000002d0: f0fd 7cbd 8d0b 0abc 2e27 01bd d6cf bb3c
000002e0: c425 23bc 462b c5bb 118a 793d 01ee 21bc
000002f0: 05a9 053d 6d2e 513d bf39 fabc 9f13 20bd
00000300: 28af c83c bea6 8abb 7f4c 3ebd acd1 04bd
00000310: bea8 97bc 126d f13b 5a4c 1dbb e756 3f3d
00000320: 8c32 1e3d a441 223d c83e 5c3d 7c99 bf3c
00000330: b4ee 15bd be38 54bd de50 5cbd ac52 093c
00000340: 2241 10bc fbc4 17bd 08e7 253d 2879 673d
00000350: 9b87 a8bb fc5b a63c 5a2b a4bc bcfc 27bd
00000360: 24cc 203d e6c6 b3bc 9b5f 5abd 9827 713d
00000370: 7baf 4bbd 4c50 2e3c 914b 843c 181a 0d3d
00000380: f5f5 3b3d a17d 6ebd 398a e4bc 6fdb c53c
00000390: 814b 553d 81d8 11bd 30c4 b7bb af58 4dbd
000003a0: 5c1f c7bc 1976 c93c bc79 8a3c 62f3 8fbc
000003b0: 9d4f 4ebd 6036 7c3d 64c4 d13c f727 063d
000003c0: f53d e23c 9a32 79bb 403e aebb 1dfa 9ebb
000003d0: 932c a73c c62a 5cbd 185e efbc 2888 ecbc
000003e0: 3d4d b7bc fdb2 3c3d c589 e2bc 5a83 76bc
000003f0: 1f3f a03c 1975 313d 0b56 c63c f828 0f3d

layer2.0.bias f4 [84]
-0.05886342 -0.017307809 -0.0060588014 -0.036773138 -0.0100296615 0.046536498 -0.023015969 -0.04161195
-0.018020177 -0.043864656 0.0038143583 0.02645995 -0.015637118 0.013192466 -0.04385744 0.019287469
-0.0061371345 0.058594078 0.0064983857 0.037154377 -0.023958195 0.040222265 -0.061086386 -0.03870395
-0.044741526 -0.04579863 0.024410922 0.0072498955 -0.027152855 -0.059146464 0.055363264 -0.019707618
0.05656841 -0.024959143 -0.020715302 -0.028607953 -0.05199973 0.05752629 0.05069285 0.042467855
-0.007953064 -0.023590349 0.046807542 -0.05367494 -0.007617599 -0.0022411523 -0.03946399 -0.015983617
0.058862966 0.023919232 0.033593673 0.045734588 -0.023788465 0.035813235 0.012195109 0.030239759
0.0083613545 -0.016473321 -0.041997645 -0.023438636 0.029436173 -0.03252633 -0.021665253 -0.026191438
-0.016461072 0.034672618 0.017525049 0.04812627 -0.02922736 -0.03992374 0.0055008065 -0.013078884
0.03211442 0.0059397737 0.0057550613 -0.03507146 -0.035068348 0.02662673 -0.0076720486 0.05671523
0.022665545 0.06215051 -0.032581657 0.044086225
00000000: c51a 71bd 1bc9 8dbc e988 c6bb 6e9f 16bd
00000010: 7353 24bc 0e9d 3e3d fc8b bcbc 4b71 2abd
00000020: 0d9f 93bc 6dab 33bd 50fa 793b 89c2 d83c
00000030: 6a19 80bc 3725 583c dca3 33bd c100 9e3c
00000040: 041a c9bb 5800 703d 69f0 d43b 302f 183d
00000050: fa43 c4bc 1ac0 243d b835 7abd 0888 1ebd
00000060: e442 37bd 5897 3bbd 6af9 c73c 8890 ed3b
00000070: aa6f debc 9043 72bd 97c4 623d df71 a1bc
00000080: 47b4 673d 1e77 ccbc 23b3 a9bc 3a5b eabc
00000090: abfd 54bd b0a0 6b3d 4ea3 4f3d c6f2 2d3d
000000a0: 914d 02bc 8c40 c1bc 44b9 3f3d 41da 5bbd
000000b0: 0d9d f9bb 4ce0 12bb fea4 21bd 13f0 82bc
000000c0: 4b1a 713d 44f2 c33c 8599 093d 3154 3b3d
000000d0: 07e0 c2bc e6b0 123d ffcd 473c 5fb9 f73c
000000e0: 10fe 083c 0ff3 86bc b905 2cbd 6202 c0bc
000000f0: 2124 f13c 543a 05bd 547b b1bc 6d8f d6bc
00000100: 5fd9 86bc e004 0e3d b190 8f3c 0d20 453d
00000110: 376e efbc 1387 23bd 1c40 b43b d148 56bc
00000120: 698a 033d 6fa2 c23b f494 bc3b 17a7 0fbd
00000130: d4a3 0fbd 4d20 da3c cf65 fbbb 3b4e 683d
00000140: 18ad b93c 8891 7e3d 5874 05bd c293 343d

layer3.0.weight f4 [8, 84]
-0.06959288 0.038005248 0.07584379 -0.029807582 -0.054662615 0.10773034 -0.06502974 0.05280252
0.09973657 -0.05861084 -0.024732273 -0.011662919 -0.100588635 0.06888555 0.0791971 -0.033208035
-0.059215803 -0.10722757 0.06146401 0.08261319 -0.030742606 0.04606203 -0.055851784 0.07573753
0.036971428 -0.1067402 -0.09107375 -0.047399424 0.03422313 -0.02466205 -0.043268558 0.049817514
-0.04385494 0.06679556 0.021307316 0.09001937 0.054621678 -0.01454937 0.05638586 0.10188828
0.038026758 0.048320167 -0.083852865 -0.00025080258 -0.034388028 0.01755186 -0.049585484 0.023238132
-0.031878307 -0.05688233 0.03760548 -0.06578903 -0.082955085 -0.051611528 0.022710666 -0.094532244
0.10857991 -0.0899098 -0.022727385 0.051127017 -0.027913949 0.08902653 -0.045335438 0.011769238
-0.020979265 0.085771665 0.04324804 -0.003866838 0.048120957 0.10512613 0.026523363 0.0311163
-0.039440777 0.08771079 -0.066175364 -0.100047596 -0.08304488 0.009684732 -0.024262013 -0.106698506
-0.050084535 0.008945851 -0.050949093 0.082666695 -0.02485739 0.08741053 0.04087467 -0.09784247
-0.03660266 -0.06929788 0.01283364 0.091874845 0.009093002 -0.09555991 -0.024162127 0.019647066
0.028580721 -0.008377451 0.058540642 -0.08576558 0.034676824 -0.010760992 0.09965745 0.040959183
0.009413413 -0.054079633 -0.016531225 0.026617883 0.08801362 -0.020640021 -0.013304242 -0.09084706
0.0054543302 -0.09441588 -0.06527859 -0.058854777 -0.011962997 0.032985196 0.020212835 0.09255182
0.015888887 -0.009649867 0.054058984 -0.07094999 -0.022622 0.031243676 0.06096486 -0.01506042
-0.032492 0.06902837 0.06453252 -0.0156693 0.00020016619 -0.089857005 0.0026562056 0.027109053
-0.02206518 -0.022359956 0.09516036 0.09908421 0.10870432 -0.08437455 -0.07929779 -0.08608005
-0.0071555474 0.044973783 0.031780954 0.015397576 -0.08290245 -0.049219675 -0.08805946 0.022925131
-0.07098462 0.0187933 0.09973166 -0.0032950703 -0.051638633 -0.017499162 -0.019856622 0.07054521
0.098375514 0.04897941 0.0043513174 0.10176789 0.018484933 -0.025202047 -0.06786898 0.056086805
-0.06466384 -0.025377123 -0.07400053 0.026429512 0.006863042 -0.027173089 0.064686775 -0.017176565
0.09603738 0.016065242 0.0490039 0.043434862 0.10899585 0.08801082 0.012684851 0.041654278
0.053248663 -0.00899783 -0.018041784 -0.07649001 -0.10530923 -0.108913325 0.09738756 0.05767432
-0.056335125 0.07496023 -0.06401356 0.023316924 0.04785408 0.100099705 -0.09710066 -0.108745806
0.043513335 0.05826635 -0.0071338178 -0.089394204 0.051619563 -0.006954919 -0.10800851 -0.016807089
-0.0763813 0.052747555 -0.03355803 0.09927405 -0.09643213 0.044070255 0.08884656 0.044895835
-0.09572447 -0.089753926 0.01859593 0.08831037 -0.007241774 0.018121546 -0.009251348 -0.09325182
0.10224778 -0.03129159 0.100365795 -0.08295565 0.067124255 -0.008171566 -0.05089436 0.08803357
-0.10299876 -0.08106795 -0.0016561507 0.011362855 -0.006584215 -0.027236693 0.009191126 -0.075771935
-0.02944218 0.094080694 0.0082424395 -0.057936233 -0.06464539 -0.0051874337 0.04395491 -0.10027419
-0.09153821 0.06661426 -0.012521705 0.0015969893 0.05543075 0.018195339 0.05729362 -0.0013304129
00000000: b686 8ebd 64ab 1b3d fd53 9b3d 082f f4bc
00000010: e8e5 5fbd b9a1 dc3d 502e 85bd 7547 583d
00000020: b042 cc3d ec11 70bd 569b cabc d415 3fbc
00000030: 6a01 cebd de13 8d3d 1732 a23d 2605 08bd
00000040: 458c 72bd 219a dbbd b0c1 7b3d 1b31 a93d
00000050: ebd7 fbbc 8aab 3c3d d7c4 64bd 471c 9b3d
00000060: 5a6f 173d 9b9a dabd e084 babd e625 42bd
00000070: 8e2d 0c3d 1108 cabc 5f3a 31bd 730d 4c3d
00000080: 3da1 33bd 1ccc 883d ae8c ae3c 135c b83d
00000090: fbba 5f3d 7b60 6ebc dcf4 663d cdaa d03d
000000a0: f2c1 1b3d 5eeb 453d 0dbb abbd 277e 83b9
000000b0: 76da 0cbd ebc8 8f3c 261a 4bbd e55d be3c
000000c0: d492 02bd 72fd 68bd 3408 1a3d 66bc 86bd
000000d0: 5be4 a9bd 9c66 53bd b80b ba3c 1f9a c1bd
000000e0: 255f de3d a122 b8bd c82e babc 906a 513d
000000f0: cbab e4bc 8b53 b63d a7b1 39bd c3d3 403c
00000100: b5dc abbc 0ea9 af3d db24 313d c76a 7dbb
00000110: 7b1a 453d 5e4c d73d 8647 d93c 9ce7 fe3c
00000120: a78c 21bd b7a1 b33d f386 87bd c1e5 ccbd
00000130: 6f13 aabd b6ac 1e3c 21c1 c6bc bf84 dabd
00000140: 7125 4dbd 9e91 123c ffaf 50bd 284d a93d
00000150: baa1 cbbc 4b04 b33d 336c 273d a261 c8bd
00000160: acec 15bd 0cec 8dbd 3044 523c e128 bc3d
00000170: d1fa 143c eab4 c3bd a7ef c5bc e2f2 a03c
00000180: 1e22 ea3c 9441 09bc 50c8 6f3d dda5 afbd
00000190: 4909 0e3d df4e 30bc 3519 cc3d d1c4 273d
000001a0: b73a 1a3c 9b82 5dbd 7e6c 87bc bf0d da3c
000001b0: 7c40 b43d 4315 a9bc 09fa 59bc 060e babd
000001c0: 3dba b23b 1d5d c1bd c8b0 85bd b511 71bd
000001d0: 7200 44bc 7c1b 073d 6395 a53c cf8b bd3d
000001e0: 6929 823c 7a1a 1ebc f46c 5d3d 3a4e 91bd
000001f0: c651 b9bc bdf2 ff3c 4ab6 793d fbbf 76bc
00000200: 5516 05bd bf5e 8d3d a029 843d e75c 80bc
00000210: b4e3 5139 f306 b8bd bc13 2e3b ce13 de3c
00000220: 09c2 b4bc 3a2c b7bc 6fe3 c23d aaec ca3d
00000230: 5fa0 de3d 90cc acbd e166 a2bd bd4a b0bd
00000240: 1579 eabb 6e36 383d bf2c 023d 1d46 7c3c
00000250: c2c8 a9bd 929a 49bd 8558 b4bd 7ccd bb3c
00000260: 6260 91bd 68f4 993c 1d40 cc3d 1bf2 57bb
00000270: 0883 53bd 675a 8fbc 5baa a2bc 027a 903d
00000280: 1a79 c93d a29e 483d 7f95 8e3b af6b d03d
00000290: b76d 973c 8674 cebc e4fe 8abd 47bb 653d
000002a0: 7a6e 84bd afe3 cfbc 978d 97bd b482 d83c
000002b0: 5ee3 e03b 199a debc 807a 843d deb5 8cbc
000002c0: 3faf c43d 419b 833c 50b8 483d c1e8 313d
000002d0: 3739 df3d 043f b43d 1fd4 4f3c ad9d 2a3d
000002e0: 451b 5a3d a26b 13bc 5dcc 93bc cba6 9cbd
000002f0: 5eac d7bd f30d dfbd 2173 c73d e83b 6c3d
00000300: a9bf 66bd c084 993d 8b19 83bd 2203 bf3c
00000310: a402 443d 1301 cd3d b6dc c6bd 1fb6 debd
00000320: 0a3b 323d b2a8 6e3d cdc2 e9bb 4f14 b7bd
00000330: 096f 533d 17e6 e3bb 9133 ddbd 05af 89bc
00000340: cd6d 9cbd d20d 583d 2574 09bd 3150 cb3d
00000350: 357e c5bd 0383 343d 2ff5 b53d b2e4 373d
00000360: 310b c4bd e8d0 b7bd 7e56 983c 11dc b43d
00000370: 674c edbb a373 943c f792 17bc cffa bebd
00000380: 4967 d13d 9c2b 00bd 958c cd3d a7e4 a9bd
00000390: 7178 893d 08e2 05bc 9b76 50bd f24a b43d
000003a0: 04f1 d2bd f406 a6bd 3213 d9ba 452b 3a3c
000003b0: 66c0 d7bb 7c1f dfbc 6096 163c 512e 9bbd
000003c0: ba30 f1bc 61ad c03d 4c0b 073c 8b4e 6dbd
000003d0: cd64 84bd 59fb a9bb 100a 343d 8e5c cdbd
000003e0: 6378 bbbd 0f6d 883d d627 4dbc 1252 d13a
000003f0: 5b0b 633d 640e 953c b7ac 6a3d 4061 aeba

layer3.0.bias f4 [8]
0.042542145 -0.0984175 0.04455126 -0.08477156 -0.016011551 0.01617807 0.019089008 -0.09362003
00000000: ac40 2e3d 1d8f c9bd 627b 363d b69c adbd
00000010: a82a 83bc df87 843c 8d60 9c3c dcbb bfbd
