DigitalRecognition-master/model_params/GDUT_net_all_6.pt (torch, 665623 bytes, 6 tensors)

layer1.0.weight f4 [256, 560]
0.019489754 -0.037815493 0.017251201 -0.022180079 -0.0065465085 -0.029307911 0.041926317 0.0054521896
-0.039044574 -0.033559166 0.0067082494 0.036325946 0.0067810602 -0.019106047 0.020689733 0.02562575
-0.02770092 -0.03239445 -0.034110673 -0.009580497 0.013355166 0.04068041 -0.027589183 0.009174116
0.040828712 -0.037624333 0.01908617 0.018420968 -0.00987851 -0.028380917 -0.016164145 -0.0071763527
-0.014333816 -0.037049115 -0.041387357 0.0030719887 0.016248971 0.021443248 -0.02027877 3.5762787e-07
0.039065324 0.00944123 0.022564128 -0.003102094 -0.037640516 0.04042836 -0.03981152 -0.02677667
0.005093758 0.0055905776 -0.028663363 0.022707166 0.034144215 -0.0051689614 0.03638874 0.030548254
0.012015078 0.011924449 -0.034337394 0.026423544 0.034346312 -0.008186381 -0.033825133 -0.024475073
-0.00023621133 -0.0013031247 -0.02297907 -0.024065586 0.03118303 0.01896218 0.017552262 -0.0010468372
0.020696323 -0.0092645995 0.025469469 -0.039597142 -0.011955986 0.010232843 -0.041593228 0.010657739
-0.039586313 -0.015363252 0.0053341947 -0.03345615 -0.027970698 -0.0412602 -0.037217624 -0.025117379
-0.02103945 0.009597057 -0.00675668 0.014970296 -0.029166479 0.028611489 0.034029614 -0.017321868
0.014222108 0.000819698 -0.011164436 -0.040739954 -0.022145843 -0.023483964 -0.03784856 -0.028069943
0.021389566 0.0043567196 -0.03257228 -0.030344771 -0.008678318 -0.006810972 0.033343226 0.006621374
-0.027872689 -0.02091912 -0.0231959 -0.034843862 0.010891017 -0.03220588 0.016522262 -0.001435101
-0.028501552 -0.031402353 -0.027282357 0.03721314 -0.0041439794 0.018143514 -0.028102865 0.03078596
0.012598754 -0.0077708047 -0.03769917 -0.009881872 0.014668404 0.005801551 -0.00012508762 0.005522665
0.014019174 0.010423075 0.038057 -0.027532425 0.002263438 -0.017649729 -0.0029870085 0.010777503
0.00014946383 0.026070854 -0.011171637 0.022526903 -0.025883973 -0.031648014 0.011109811 0.018657232
-0.031238193 -0.033204872 0.032512315 -0.03409164 -0.008425324 0.035971113 0.005706785 -0.023173003
0.039582156 -0.032089096 0.023202995 -0.024067204 -0.004970014 0.011094689 -0.0043577785 0.024211055
-0.0342878 0.015658036 -0.011204989 0.0075630876 -0.024483053 0.020312218 -0.04180227 -0.007831932
-0.025378421 0.009391736 0.01986983 0.0016032122 0.018812768 -0.04063372 0.00070836395 -0.009655375
0.04220463 -0.014701502 0.028705783 -0.018730767 0.014012254 -0.019051619 0.005897808 -0.02037186
0.041079678 0.008265482 0.0130698765 0.025349747 -0.021826845 -0.039156266 0.004042048 -0.029494168
-0.0090098865 -0.0315237 0.013499036 -0.03539433 0.031177387 0.023829095 -0.036545217 0.010960808
0.021622526 0.03044624 0.015122762 -0.019618087 0.012011576 0.039869517 -0.010681547 -0.024873525
-0.01779098 -0.0022226365 -0.0067671165 0.016325718 -0.034404516 -0.022817934 0.01557539 0.019025505
0.02450779 -0.007836505 0.012688387 -0.016198158 0.0044608302 -0.041199766 0.022124013 0.021260928
0.020322233 0.007891551 0.021856094 0.012939049 0.033456404 0.0022443575 0.018572725 0.016208287
0.013374239 0.021086581 0.022250049 -0.012335109 0.010535136 -0.015886888 0.023868259 0.03605893
-0.0084010335 -0.027224114 0.03524471 -0.017523138 -0.036775954 -0.013952311 0.030774552 0.025724519
00000000: faa8 9f3c 6be4 1abd 6452 8d3c ffb2 b5bc
00000010: 1884 d6bb 2517 f0bc eeba 2b3d 48a8 b23b
00000020: 34ed 1fbd 5675 09bd e0d0 db3b 84ca 143d
00000030: a833 de3b 4984 9cbc 847d a93c 18ed d13c
00000040: 0aed e2bc 0bb0 04bd a2b7 0bbd 84f7 1cbc
00000050: a0cf 5a3c 80a0 263d b602 e2bc 084f 163c
00000060: 023c 273d f91b 1abd 995a 9c3c 92e7 963c
00000070: 79d9 21bc 197f e8bc ab6a 84bc 9c27 ebbb
00000080: 62d8 6abc d0c0 17bd ca85 29bd 6b53 493b
00000090: 901c 853c c0a9 af3c aa1f a6bc 0000 c034
000000a0: f602 203d 64af 1a3c 68d8 b83c 804c 4bbb
000000b0: f12c 1abd 3598 253d 6811 23bd bf5a dbbc
000000c0: 8ae9 a63b 2a31 b73b 6ecf eabc 6104 ba3c
000000d0: ceda 0b3d 6460 a9bb 5c0c 153d 5540 fa3c
000000e0: e4da 443c c45e 433c 5ea5 0cbd 3076 d83c
000000f0: b8ae 0c3d 2c20 06bc 398c 0abd f37f c8bc
00000100: 7faf 77b9 9ccd aaba 9a3e bcbc 3125 c5bc
00000110: 8e73 ff3c 9356 9b3c c3c9 8f3c 0736 89ba
00000120: 568b a93c 8cca 17bc 59a5 d03c 9d30 22bd
00000130: 0ae3 43bc a8a7 273c a95d 2abd cc9d 2e3c
00000140: 4225 22bd 26b6 7bbc 78ca ae3b 5109 09bd
00000150: ce22 e5bc 7500 29bd 8271 18bd f6c2 cdbc
00000160: ed5a acbc f93c 1d3c 2467 ddbb f945 753c
00000170: 8aee eebc a462 ea3c a362 0b3d 97e6 8dbc
00000180: d803 693c 00e1 563a 0aeb 36bc f0de 26bd
00000190: 336b b5bc 7161 c0bc 1707 1bbd f0f2 e5bc
000001a0: 2c39 af3c d0c2 8e3b 836a 05bd 9995 f8bc
000001b0: 812f 0ebc 932e dfbb e892 083d 1cf8 d83b
000001c0: 4455 e4bc 935e abbc 5405 bebc 70b8 0ebd
000001d0: 3c70 323c 50ea 03bd b259 873c 001a bcba
000001e0: 167c e9bc c19f 00bd 407f dfbc ce6c 183d
000001f0: 38ca 87bb b5a1 943c fb37 e6bc d632 fc3c
00000200: 016b 4e3c 3ca2 febb 726a 1abd 93e7 21bc
00000210: bf53 703c f01a be3b f429 03b9 79f7 b43b
00000220: adb0 653c 8cc5 2a3c a8e1 1b3d ae8b e1bc
00000230: 3056 143b 2a96 90bc b0c1 43bb 2094 303c
00000240: 64b9 1c39 8b92 d53c 3e09 37bc 578a b83c
00000250: a00a d4bc 59a1 01bd ed05 363c 0dd7 983c
00000260: 3de7 ffbc d501 08bd a22b 053d ada3 0bbd
00000270: 5f0a 0abc 7256 133d fbff ba3b 4fd5 bdbc
00000280: e620 223d db6f 03bd 3514 be3c 9628 c5bc
00000290: 80db a2bb 80c6 353c b2cb 8ebb 4356 c63c
000002a0: 5d71 0cbd 4845 803c 2195 37bc c7d3 f73b
000002b0: af90 c8bc cf65 a63c db38 2bbd 8151 00bc
000002c0: 68e6 cfbc ccdf 193c 0ec6 a23c e022 d23a
000002d0: 3c1d 9a3c 8b6f 26bd 80b1 393a 9431 1ebc
000002e0: c3de 2c3d 92de 70bc 6428 eb3c 4471 99bc
000002f0: a793 653c 2412 9cbc 6642 c13b e3e2 a6bc
00000300: 2a43 283d f26b 073c 0923 563c 46aa cf3c
00000310: 36ce b2bc 5262 20bd 2873 843b c19d f1bc
00000320: 349e 13bc ff1e 01bd 102b 5d3c a5f9 10bd
00000330: b867 ff3c 3c35 c33c 70b0 15bd f694 333c
00000340: b921 b13c 656a f93c 76c5 773c 1cb6 a0bc
00000350: 34cc 443c 384e 233d a801 2fbc 90c3 cbbc
00000360: 64be 91bc a7a9 11bb b0be ddbb 83bd 853c
00000370: c0eb 0cbd adec babc ec2f 7f3c 60db 9b3c
00000380: 90c4 c83c af64 00bc f4e2 4f3c 00b2 84bc
00000390: 282c 923b 16c1 28bd 6b3d b53c 662b ae3c
000003a0: d07a a63c 904b 013c 8d0b b33c 4efe 533c
000003b0: 9509 093d 1216 133b d425 983c 3ec7 843c
000003c0: a01f 5b3c c4bd ac3c bc45 b63c 3219 4abc
000003d0: 909b 2c3c 3825 82bc 5e87 c33c 87b2 133d
000003e0: 7da4 09bc 1b05 dfbc c25c 103d af8c 8fbc
000003f0: 62a2 16bd 3c98 64bc ea1a fc3c 3abc d23c

layer1.0.bias f4 [256]
0.017624432 0.009579653 0.015991757 0.040901482 0.016216148 -0.03925847 0.03432185 0.0024899212
0.0018419198 -0.00891399 -0.03925154 0.023804251 -0.008123203 0.027587473 0.022511594 -0.0020494717
-0.01379648 0.01597748 -0.012018806 0.008557341 0.040965576 0.004661241 0.024617221 0.029876156
-0.034455825 0.034008756 0.001411149 -0.020980684 -0.0032952966 -0.013329482 -0.011131936 0.037278295
0.034170467 0.018304588 -0.020027645 -0.0365103 0.023516053 -0.04183852 -0.010237059 0.0030032962
-0.01826808 0.011987937 0.026221655 0.007665277 0.0051754704 0.035540193 -0.03752343 0.016697032
-0.0149749275 0.0049874904 -0.025062893 0.017790914 -0.023561172 -0.036756378 -0.012964955 -0.0147007415
-0.030346846 0.030141758 -0.001540507 0.010599326 0.04088488 0.007402379 -0.032695152 -0.009811722
-0.012787324 0.005318115 -0.026203645 -0.004968173 0.0116167655 -0.01935048 0.00010176938 -0.020723186
-0.020981146 -0.03010887 -0.028349504 -0.03781399 -0.0072245966 0.019114148 0.029665316 -0.028577738
0.013920523 -0.010143906 0.039434016 0.013971327 0.03204111 -0.014407251 0.04026064 0.03166865
-0.021293387 -0.014537186 -0.031728294 -0.02043239 -0.030666959 -0.03269091 0.038248222 -0.028121918
-0.04082668 0.03592253 -0.013286419 -0.00050712976 -0.017841792 0.03574534 0.015272472 0.03224767
-0.01766194 0.017933512 -0.028732084 -0.03697338 0.024613608 -0.008314715 0.010355488 -0.033717122
0.016413802 -0.008350654 0.03436312 0.041230537 -0.013734893 -0.036174644 0.02555121 -0.01988412
-0.030390564 0.021142272 -0.02942234 -0.012791108 0.038877558 0.040154863 0.02988562 -0.01530197
-0.0069478275 -0.03586745 0.007949123 -0.015179955 -0.0073296414 -0.0017572723 -0.03460366 -0.029794935
-0.01816544 0.00014807066 0.033103876 0.018012222 -0.0014540994 -0.025884105 0.027713152 -0.018353922
-0.031113375 -0.025335236 0.03768582 -0.024574107 -0.01971461 -0.004291872 -0.008154725 0.0032801277
0.034826644 0.02359539 -0.018598659 0.019717894 0.031574905 -0.023023386 0.024873283 0.0011816126
0.035691302 -0.037267573 0.04026144 0.019106893 -0.012083479 0.021185325 0.026247777 0.019008698
0.022639608 0.03003191 0.019381437 -0.021556249 -0.018065618 0.036117762 -0.040444672 -0.012890896
0.03127181 -0.042001944 0.003165191 0.037644718 -0.009238933 0.035682116 0.011617256 -0.036858976
-0.032212816 -0.012499075 0.038918756 -0.0009093987 -0.00420921 0.0072929063 0.00075943855 -0.015283856
-0.035127472 -0.010619324 -0.028436288 0.009982949 0.033691887 -0.01903943 -0.0035827449 0.017492602
0.0055969562 -0.017526424 0.039577723 -0.004051693 0.00428769 0.020868342 -0.02588348 -0.027140727
-0.001831673 0.00629124 -0.022378184 -0.02029082 -0.03368685 0.015319891 0.027999021 -0.004165888
0.038742546 0.0030987111 0.0421112 -0.0060947845 -0.012644887 -0.005197024 -0.024907032 0.031393513
-0.029964136 0.0070469975 0.021261089 -0.037386436 0.029734055 -0.0075321957 -0.0046641664 -0.023964625
-0.010862709 -0.0011651621 0.041995246 0.04021349 0.0077640293 0.034253635 -0.036341578 -0.03528463
-0.040198047 -0.004359644 -0.038001463 -0.0063396273 0.014392487 -0.00788164 -0.022904769 0.0034051808
0.01957463 -0.037295178 0.031424653 -0.01799102 -0.04164593 -0.041839562 0.008250943 0.021844
00000000: 1d61 903c faf3 1c3c 2501 833c 5088 273d
00000010: bad7 843c 7dcd 20bd 1195 0c3d f22d 233b
00000020: 936c f13a fc0b 12bc 39c6 20bd 2201 c33c
00000030: 2f17 05bc 20ff e13c 3c6a b83c 6e50 06bb
00000040: a20a 62bc 34e3 823c 87ea 44bc 1734 0c3c
00000050: 85cb 273d 53bd 983b 0eaa c93c d7be f43c
00000060: 8d21 0dbd c44c 0b3d 4ef6 b83a afdf abbc
00000070: e7f5 57bb e663 5abc b962 36bc 20b1 183d
00000080: 55f6 0b3d 81f3 953c 0411 a4bc d38b 15bd
00000090: bda4 c03c de5e 2bbd 56b9 27bc f3d2 443b
000000a0: f1a6 95bc 0d69 443c ccce d63c 012d fb3b
000000b0: fe96 a93b 9892 113d 2bb2 19bd 37c8 883c
000000c0: 6659 75bc 1a6e a33b b250 cdbc 40be 913c
000000d0: 5c03 c1bc db8d 16bd f66a 54bc 61db 70bc
000000e0: f399 f8bc d9eb f63c d6ea c9ba cca8 2d3c
000000f0: e776 273d a88f f23b 5aeb 05bd 58c1 20bc
00000100: ed81 51bc 9543 ae3b 07a9 d6bc 0ecc a2bb
00000110: 3f54 3e3c e684 9ebc 056d d538 acc3 a9bc
00000120: a7e0 abbc e0a6 f6bc 383d e8bc d8e2 1abd
00000130: 4fbc ecbb 4695 9c3c ad04 f33c dc1b eabc
00000140: e812 643c a032 26bc 9085 213d fee7 643c
00000150: 8a3d 033d 640c 6cbc 57e8 243d fdb6 013d
00000160: 786f aebc 612d 6ebc 87f5 01bd d461 a7bc
00000170: 4639 fbbc e7e6 05bd 2baa 1c3d f05f e6bc
00000180: e039 27bd 8123 133d 48af 59bc e7f0 04ba
00000190: f328 92bc b569 123d 6439 7a3c 2216 043d
000001a0: c6af 90bc 4de9 923c 8c5f ebbc 6671 17bd
000001b0: 7aa2 c93c 713a 08bc 11aa 293c f71a 0abd
000001c0: 3d76 863c 2ed1 08bc 58c0 0c3d 5ae1 283d
000001d0: 5108 61bc dd2b 14bd c550 d13c 06e4 a2bc
000001e0: a2f5 f8bc 8f32 ad3c 1f07 f1bc cc91 51bc
000001f0: 133e 1f3d 6d79 243d b0d2 f43c 1db5 7abc
00000200: 9aaa e3bb bfe9 12bd 0a3d 023c 59b5 78bc
00000210: 7d2d f0bb 4654 e6ba 91bc 0dbd 8214 f4bc
00000220: b0cf 94bc 6a43 1b39 ee97 073d 5e8e 933c
00000230: 7b97 beba e70a d4bc b106 e33c f75a 96bc
00000240: 7ae1 febc d78b cfbc 725c 1a3d a34f c9bc
00000250: 8980 a1bc d5a2 8cbb 659b 05bc 69f7 563b
00000260: 62a6 0e3d 1f4b c13c 375c 98bc 6c87 a13c
00000270: b054 013d 8a9b bcbc 0ec3 cb3c 57e0 9a3a
00000280: 0b31 123d e2a5 18bd 2ee9 243d 0f86 9c3c
00000290: c9f9 45bc d98c ad3c 9405 d73c 21b8 9b3c
000002a0: b376 b93c 7b05 f63c d2c5 9e3c bb96 b0bc
000002b0: 59fe 93bc 38f0 133d 50a9 25bd 5634 53bc
000002c0: df16 003d 3b0a 2cbd 186f 4f3b 5931 1a3d
000002d0: e55e 17bc 6927 123d 4e56 3e3c 70f9 16bd
000002e0: 96f1 03bd ecc8 4cbc 4669 1f3d b764 6eba
000002f0: 6aed 89bb 55f9 ee3b 0f15 473a 2369 7abc
00000300: d3e1 0fbd acfc 2dbc 38f3 e8bc 868f 233c
00000310: 8100 0a3d 94f8 9bbc 7ccc 6abb a54c 8f3c
00000320: ac66 b73b 9393 8fbc 401c 223d 10c4 84bb
00000330: c07f 8c3b 16f4 aa3c 9809 d4bc 3b56 debc
00000340: bf14 f0ba bf26 ce3b 7452 b7bc ef38 a6bc
00000350: 39fb 09bd 4800 7b3c 345e e53c 0082 88bb
00000360: 81b0 1e3d bf13 4b3b cb7c 2c3d c2b6 c7bb
00000370: 802c 4fbc cc4b aabb d509 ccbc 7c96 003d
00000380: 5977 f5bc 80ea e63b bc2b ae3c 8522 19bd
00000390: d594 f33c a3d0 f6bb ddd5 98bb 7651 c4bc
000003a0: 81f9 31bc 5ab8 98ba 3503 2c3d e7b6 243d
000003b0: 6669 fe3b 8a4d 0c3d e8da 14bd 9e86 10bd
000003c0: b5a6 24bd 58db 8ebb 6ca7 1bbd a6bc cfbb
000003d0: 77ce 6b3c ff21 01bc c8a2 bbbc 7429 5f3b
000003e0: f95a a03c d4c2 18bd 23b7 003d e761 93bc
000003f0: ec94 2abd f65f 2bbd f72e 073c 30f2 b23c

layer2.0.weight f4 [84, 256]
0.04086805 0.048839826 0.050380163 -0.006586953 -0.014163241 -0.04149694 0.04048396 0.05741233
0.018567389 0.017807253 -0.03191218 -0.019952895 -0.023327477 -0.06022337 -0.0027031056 0.05492303
-0.060916543 0.018642863 0.037345387 -0.0338528 0.009068388 -0.019839453 -0.007908272 -0.036925733
0.0068786955 -0.017764935 -0.031840116 -0.060752805 -0.012648946 -0.04807207 -0.051539578 -0.057333898
-0.039334107 -0.031238372 -0.0014283262 -0.021384899 -0.007598839 -0.053845037 0.04777985 0.005512576
-0.048593134 -0.01029383 0.06031783 -0.017824093 -0.04860096 -0.007068637 0.020273862 -0.031584796
-0.012748958 -0.019801145 -0.0057823285 0.036121987 0.057425898 -0.0028234469 -0.046636615 -0.054476645
0.06022523 -0.050382484 0.04795746 0.0025532178 0.023125382 -0.0500636 0.04838427 0.036559477
-0.035770293 0.0074379393 0.036455587 0.034524992 -0.038103033 0.03322061 0.04149309 -0.03680972
-0.013988001 -0.05253566 -0.034899425 -0.035529044 0.011572981 0.01691257 -0.012779092 -0.01825718
-0.049487777 0.037235297 0.002035264 0.017897066 -0.007040191 -0.06027914 0.014349754 0.062213458
0.047924872 0.00020813933 -0.052265376 0.029225616 0.01572988 -0.032989 -0.0030509096 -0.04319194
-0.03910681 0.031063084 -0.010639094 0.026923446 -0.0107514635 0.032311708 -0.05317613 0.057675183
0.042488784 -0.032218292 0.031027893 -0.043266013 -0.05713521 0.026698064 -0.030965565 -0.009428493
-0.03714038 -0.01681813 0.05138284 0.021490429 -0.04701848 -0.011718406 -0.031546004 0.038633298
-0.033879757 0.017230116 -0.049266614 -0.026701927 0.040313035 -0.035897512 0.057736184 -0.025905324
-0.03361447 0.036369585 0.025418557 -0.03352846 0.024554621 0.060584277 -0.018124703 -0.0566356
0.03733586 0.00962192 0.018410323 0.05996913 0.018224627 -0.0019590703 0.015933203 -0.052828398
-0.02955173 0.039028738 0.0049901484 -0.052122995 0.013159432 -0.018595252 0.05000997 -0.004352575
-0.011442458 -0.028310034 0.048622612 0.050960105 -0.014730909 -0.030450696 0.03256163 -0.05415622
0.027375124 -0.006674731 0.058857925 -0.058903437 -0.061723232 0.05311739 0.022191077 -0.0212519
-0.008841205 -0.0013358247 -0.015405921 0.035596445 -0.053399358 -0.058566567 -0.050547287 -0.02286617
0.048333097 -0.045907397 0.037854258 0.045478262 -0.021695767 0.055922814 0.04407659 -0.021222923
0.04710306 -0.011731632 0.03865501 0.003116562 -0.051188122 -0.06071985 -0.009183787 -0.023008533
0.0021746368 -0.05155607 -0.021458765 0.05782121 -0.019868743 0.041175533 -0.010271281 0.019480966
-0.060880728 0.009220529 0.033372894 -0.016671248 -0.050839007 -0.033300173 -0.00012241038 -0.0054756394
0.03737172 0.019374661 -0.009869377 0.016634759 -0.0105430465 0.024155123 0.05276009 0.06020936
0.03907204 0.03897674 -0.058818072 0.016505944 -0.04387525 0.03947933 0.002735497 0.008524415
-0.017511452 0.025431862 0.030380784 -0.022248402 -0.032321967 -0.045486707 -0.009512133 -0.02213471
0.053981386 0.0578607 0.0009236514 0.005896733 -0.04620593 0.017731514 0.015611996 0.037163224
-0.033476833 0.010668883 0.016664866 -0.03132036 -0.061506815 0.057206374 0.03693505 -0.0136787435
0.038383648 0.051483028 0.056658592 -0.05769704 -0.024147244 0.062044457 0.029127747 0.033182856
00000000: 4265 273d 450c 483d 6e5b 4e3d 5ed7 d7bb
00000010: f00c 68bc b2f8 29bd 82d2 253d 3129 6b3d
00000020: a31a 983c 84e0 913c 59b6 02bd 4174 a3bc
00000030: 4419 bfbc c8ac 76bd 9626 31bb f9f6 603d
00000040: a083 79bd ebb8 983c 7af7 183d 3ca9 0abd
00000050: 9393 143c 5986 a2bc b291 01bc 703f 17bd
00000060: ae66 e13b c587 91bc c86a 02bd efd7 78bd
00000070: 863d 4fbc 38e7 44bd 2a1b 53bd f3d6 6abd
00000080: cd1c 21bd 9de7 ffbc ad36 bbba 622f afbc
00000090: aeff f8bb 9d8c 5cbd ceb4 433d d7a2 b43b
000000a0: 9809 47bd 74a7 28bc d40f 773d d503 92bc
000000b0: cd11 47bd 06a0 e7bb 5f15 a63c 0f5f 01bd
000000c0: 01e1 50bc 0336 a2bc b079 bdbb a6f4 133d
000000d0: 6b37 6b3d 9409 39bb 0906 3fbd e722 5fbd
000000e0: bbae 763d dd5d 4ebd 0b6f 443d e353 273b
000000f0: 7171 bd3c 7d0f 4dbd 962e 463d 64bf 153d
00000100: df83 12bd f5b9 f33b 7452 153d 146a 0d3d
00000110: ed11 1cbd 5612 083d a9f4 293d cac5 16bd
00000120: ee2d 65bc a22f 57bd b3f2 0ebd e786 11bd
00000130: 9a9c 3d3c 3b8c 8a3c 665f 51bc 1590 95bc
00000140: b2b3 4abd 0a84 183d 1062 053b de9c 923c
00000150: 67b1 e6bb 42e7 76bd 3b1b 6b3c 8ad3 7e3d
00000160: df4c 443d fa3f 5a39 3814 56bd 8f6a ef3c
00000170: f3db 803c 791f 07bd c5f1 47bb 08ea 30bd
00000180: 762e 20bd 0278 fe3c 984f 2ebc 8f8e dc3c
00000190: e826 30bc 4859 043d 37cf 59bd d03c 6c3d
000001a0: b808 2e3d 54f7 03bd 352e fe3c b437 31bd
000001b0: 9c06 6abd e6b5 da3c 7fab fdbc f779 1abc
000001c0: 8320 18bd 2dc6 89bc d076 523d b20c b03c
000001d0: 7396 40bd 8ffe 3fbc 6236 01bd f33d 1e3d
000001e0: 80c5 0abd 2c26 8d3c cacb 49bd 00be dabc
000001f0: 481f 253d 4509 13bd c77c 6c3d 6737 d4bc
00000200: 54af 09bd 46f8 143d 943a d03c 2355 09bd
00000210: c626 c93c 3827 783d 427a 94bc bbfa 67bd
00000220: 7ded 183d 42a5 1d3c 3fd1 963c 31a2 753d
00000230: d04b 953c bf63 00bb 5986 823c 9762 58bd
00000240: 7816 f2bc 99dc 1f3d 6684 a33b ec7e 55bd
00000250: a99a 573c 1255 98bc 41d7 4c3d 0ca0 8ebb
00000260: 2679 3bbc 72ea e7bc 8128 473d 8bbb 503d
00000270: e959 71bc bd73 f9bc 585f 053d ead2 5dbd
00000280: cc41 e03c b4b7 dabb 0215 713d bb44 71bd
00000290: 80d1 7cbd 9f91 593d 10ca b53c 7718 aebc
000002a0: b4da 10bc d716 afba 1e69 7cbc 94cd 113d
000002b0: 49b9 5abd 7fe3 6fbd ac0a 4fbd d651 bbbc
000002c0: edf8 453d 6509 3cbd 110d 1b3d 6a47 3a3d
000002d0: 52bb b1bc 520f 653d a889 343d b2db adbc
000002e0: 23ef 403d 0836 40bc b754 1e3d 3c3f 4c3b
000002f0: a3aa 51bd 61b5 78bd 9877 16bc 647c bcbc
00000300: 5a84 0e3b 752c 53bd 4bca afbc efd5 6c3d
00000310: c6c3 a2bc ada7 283d e048 28bc 8c96 9f3c
00000320: 125e 79bd b411 173c 04b2 083d 2492 88bc
00000330: 903c 50bd c365 08bd 495b 00b9 fe6c b3bb
00000340: 1713 193d 9cb7 9e3c 2bb3 21bc 9e45 883c
00000350: bebc 2cbc f7e0 c53c f71a 583d 179e 763d
00000360: 010a 203d 13a6 1f3d 38eb 70bd 7937 873c
00000370: 89b6 33bd 14b5 213d 0646 333b fda9 0b3c
00000380: 2d74 8fbc 7b56 d03c 1fe1 f83c 4842 b6bc
00000390: 0a64 04bd 4550 3abd c7d8 1bbc da53 b5bc
000003a0: 961b 5d3d 57ff 6c3d 3221 723a 6239 c13b
000003b0: 6e42 3dbd ae41 913c 75c9 7f3c 7738 183d
000003c0: 011f 09bd 8acc 2e3c c284 883c c749 00bd
000003d0: 92ee 7bbd 3b51 6a3d 3549 173d cf1c 60bc
000003e0: 2c38 1d3d dedf 523d d712 683d bb53 6cbd
000003f0: 71d0 c5bc 5422 7e3d 509d ee3c bfea 073d

layer2.0.bias f4 [84]
0.036400903 0.0016336922 -0.035398807 -0.05993837 -0.0009964741 0.013830695 0.036530275 -0.04892109
0.044935264 -0.004068432 0.027639331 -0.05585693 0.017154185 0.03829113 0.011507417 -0.042628195
-0.027822018 0.053366113 0.035824638 -0.0041122567 0.028533937 0.039923195 -0.019654868 -0.0577771
0.059882995 -0.014625668 -0.011286386 -0.014430471 0.0029984564 0.020184113 -0.04168622 -0.062279876
-0.021563867 0.05564969 -0.0478335 -0.018326469 0.01833524 0.051414926 -0.0236741 -0.023119517
-0.028862579 0.011006429 0.05536607 -0.050361294 -0.031896207 0.014424217 0.043300558 0.054487273
0.0071630166 -0.016031904 0.059952732 0.035993256 0.052041482 0.044898994 0.0012707715 0.0008759854
0.06124722 0.052645735 -0.009765389 0.02610974 0.025456546 -0.013936897 0.038649254 0.007476032
-0.003924758 -0.016771415 -0.060457252 -0.013039781 0.042079877 -0.035698395 0.04855172 0.053646643
-0.013922282 0.06037441 0.0094038835 -0.006100962 0.012648279 0.03907936 -0.02962212 -0.028068935
-0.030523282 0.0016514873 -0.031688623 0.051312406
00000000: 1d19 153d 9d21 d63a 57fe 10bd f081 75bd
00000010: 1f9c 82ba 249a 623c c5a0 153d 7b61 48bd
00000020: 0a0e 383d 7b50 85bb e16b e23c 3cca 64bd
00000030: ef86 8c3c 29d7 1c3d 9b89 3c3c e79a 2ebd
00000040: 00eb e3bc 6d96 5a3d dbbc 123d 1cc0 86bb
00000050: 01c0 e93c 8186 233d 3f03 a1bc aea7 6cbd
00000060: df47 753d 7fa0 6fbc 89ea 38bc c86d 6cbc
00000070: c081 443b 2759 a53c 2bbf 2abd 2f19 7fbd
00000080: b5a6 b0bc eef0 633d 0fed 43bd 6421 96bc
00000090: c933 963c 7598 523d 30f0 c1bc 2465 bdbc
000000a0: 3771 ecbc 4f54 343c 88c7 623d a547 4ebd
000000b0: 99a5 02bd 8d53 6c3c ed5b 313d 0c2e 5f3d
000000c0: bdb7 ea3b 5755 83bc ff90 753d aa6d 133d
000000d0: 7329 553d 02e8 373d 0490 a63a 63a2 653a
000000e0: 5dde 7a3d 0ea3 573d 03ff 1fbc 18e4 d53c
000000f0: 3f8a d03c 9557 64bc ae4e 1e3d 80f9 f43b
00000100: 429b 80bb 3564 89bc 06a2 77bd cea4 55bc
00000110: f35b 2c3d 7b38 12bd 2bde 463d 95bc 5b3d
00000120: 481a 64bc 284b 773d bf12 1a3c 94ea c7bb
00000130: ba3a 4f3c ae11 203d 17aa f2bc d3f0 e5bc
00000140: f60b fabc b876 d83a eecb 01bd f52c 523d

layer3.0.weight f4 [8, 84]
0.07891256 0.023810128 0.07090794 -0.006549701 0.065039344 0.043416724 -0.06740797 -0.049407687
0.08804293 0.08792427 -0.06699844 0.049303297 -0.025933972 0.028098287 0.02734708 -0.10137667
0.054572944 0.08246957 -0.0836357 0.07092861 -0.071952835 -0.081317805 -0.09452388 -0.071970075
0.07350059 -0.05589357 -0.0025803298 -0.0648421 -0.055952016 -0.06538247 0.037202384 0.09379825
0.10893862 -0.070113346 0.02220105 0.016645702 0.06119456 0.036679376 0.039939933 0.108271986
0.09104657 -0.068521485 -0.07380278 0.09884148 0.01572203 0.10250872 -0.060893632 0.0645005
-0.013114221 0.09288334 0.074413076 -0.08234696 0.020400112 0.07257591 -0.040036272 -0.0891635
-0.09069713 0.04006865 0.06798481 -0.046073362 0.010527545 -0.09958501 0.04069253 -0.07710295
-0.025600074 0.03367461 0.08798255 -0.007149301 -0.10711774 -0.034791943 0.023801448 -0.08536628
-0.08477363 -0.077871285 -0.062470876 0.10565595 0.10853468 -0.034705184 -0.0041905395 -0.092874706
-0.0034774423 0.06679234 0.028180119 -0.056540947 0.07141375 0.051387455 0.00853641 0.07822844
0.09991745 -0.030742534 -0.056518458 0.016210672 -0.030849695 -0.039284624 0.057070587 -0.050542302
0.029640866 0.03126074 0.06476684 0.021120744 -0.09433481 0.07287331 0.02040456 0.034969106
0.052603394 0.06876021 -0.021982305 -0.050774835 -0.049719412 -0.09189339 -0.07013255 0.04673452
-0.051683962 0.029247517 -0.10753637 0.099689245 -0.030584242 0.08098957 0.10422482 0.07265637
-0.03943374 0.084448434 0.086120136 0.042891864 -0.089232765 0.10730647 0.065485746 0.030699473
0.032453034 -0.010843023 -0.10759403 -0.045830358 0.0038103536 -0.0019010288 -0.09184803 -0.07477374
-0.005205817 -0.009051825 -0.007134385 0.062238656 0.052066874 -0.090212494 -0.037479952 0.03660836
-0.025779065 0.10352173 0.026846021 -0.015647009 0.09324576 0.0383051 0.02590114 -0.030140335
-0.052313626 -0.04136759 -0.071610026 -0.1031957 0.03532644 0.005858668 0.040167127 -0.061237086
0.07761346 -0.011791715 0.009536035 0.05060723 -0.025942244 -0.029946176 -0.013629479 -0.01319615
0.10097336 0.00545559 0.07427525 -0.073873475 -0.01271662 -0.0639537 0.030487867 0.0054095914
0.08278676 -0.08600232 -0.046606485 -0.059648514 0.07267587 0.04355602 0.035079032 -0.0573663
-0.013919702 0.027848851 -0.09872513 -0.047466666 0.018877456 -0.10569839 0.08855737 0.074646346
-0.01526252 -0.023487322 0.05196768 -0.063627824 0.046228997 -0.10896035 0.0051371334 0.0109760845
0.070554174 -0.0026663542 0.08257658 0.097532205 0.09704364 -0.0026644277 -0.06518979 0.0028428205
0.027395878 0.05364424 -0.063695036 -0.03514663 -0.009323693 -0.027462961 -0.00084960245 -0.06282916
-0.018756667 0.08343473 -0.01834233 -0.06917663 0.033147786 -0.07950227 0.09254303 -0.009842069
-0.10547926 -0.086032055 -0.08102036 0.027099399 0.013887132 0.1069383 -0.023630342 -0.09883433
-0.04578252 -0.050474513 -0.06968747 0.050542086 0.084966496 -0.0057147513 0.013013234 0.03781564
0.003228757 0.08455516 0.015372601 0.049645673 -0.054822244 0.044254698 0.03153984 0.009649103
0.07174653 0.015739998 0.05358644 0.029602926 0.0233087 0.06848743 0.09462785 -0.084440455
00000000: e99c a13d 750d c33c 2f38 913d e09e d6bb
00000010: 5933 853d bcd5 313d 310d 8abd b75f 4abd
00000020: da4f b43d a411 b43d 7a36 89bd 41f2 493d
00000030: 7b73 d4bc 612e e63c fc06 e03c 929e cfbd
00000040: e187 5f3d cee5 a83d 3249 abbd 0543 913d
00000050: 025c 93bd f389 a6bd bc95 c1bd 0c65 93bd
00000060: 7a87 963d a8f0 64bd c01a 29bb efcb 84bd
00000070: f12d 65bd 3fe7 85bd 8761 183d 4c19 c03d
00000080: 361b df3d 9697 8fbd fade b53c 915c 883c
00000090: 26a7 7a3d 1d3d 163d 0e98 233d b4bd dd3d
000000a0: a076 ba3d fe54 8cbd e925 97bd 676d ca3d
000000b0: 7dcb 803c 17f0 d13d 9a6b 79bd d718 843d
000000c0: 08dd 56bc 9f39 be3d e265 983d 86a5 a8bd
000000d0: 231e a73c aea2 943d 13fd 23bd 5a9b b6bd
000000e0: 6bbf b9bd 061f 243d 9f3b 8b3d 6cb7 3cbd
000000f0: b97b 2c3c 3af3 cbbd 36ad 263d 27e8 9dbd
00000100: 3fb7 d1bc 63ee 093d 3230 b43d af44 eabb
00000110: 8c60 dbbd ff81 0ebd 41fb c23c 84d4 aebd
00000120: cc9d adbd fb7a 9fbd 76e1 7fbd 2662 d83d
00000130: 6e47 de3d 0627 0ebd cb50 89bb 1835 bebd
00000140: cde5 63bb 6cca 883d fed9 e63c 7b97 67bd
00000150: 5f41 923d a77b 523d 4cdc 0b3c 3b36 a03d
00000160: 85a1 cc3d c4d7 fbbc e67f 67bd 3ecc 843c
00000170: 80b8 fcbc eae8 20bd d9c2 693d 7205 4fbd
00000180: 67d1 f23c 430b 003d 7aa4 843d 6905 ad3c
00000190: 9c32 c1bd 9a3e 953d 7727 a73c c43b 0f3d
000001a0: a876 573d 27d2 8c3d 3c14 b4bc 46f9 4fbd
000001b0: 95a6 4bbd 9a32 bcbd a8a1 8fbd b26c 3f3d
000001c0: 90b2 53bd 7d98 ef3c 073c dcbd e029 cc3d
000001d0: ce8b fabc dcdd a53d d373 d53d ddcc 943d
000001e0: 4685 21bd 4df3 ac3d c15f b03d 61af 2f3d
000001f0: abbf b6bd 7fc3 db3d 641d 863d 767d fb3c
00000200: 79ed 043d efa6 31bc 425a dcbd 9db8 3bbd
00000210: 20b7 793b f12b f9ba d21a bcbd f922 99bd
00000220: 8f95 aabb 1b4e 14bc 8fc7 e9bb f6ed 7e3d
00000230: 1344 553d 54c1 b8bd 9484 19bd a6f2 153d
00000240: 9e2e d3bc 3303 d43d 30ec db3c 282e 80bc
00000250: a2f7 be3d cfe5 1c3d a12e d43c dde8 f6bc
00000260: d046 56bd 1071 29bd 47a8 92bd 4458 d3bd
00000270: 75b2 103d 12fa bf3b 4986 243d bdd3 7abd
00000280: cef3 9e3d 0a32 41bc 083d 1c3c 8749 4f3d
00000290: d484 d4bc af51 f5bc 2e4e 5fbc aa34 58bc
000002a0: 1fcb ce3d cec4 b23b 9f1d 983d fa4a 97bd
000002b0: 5f59 50bc 28fa 82bd b1c1 f93c f142 b13b
000002c0: 1b8c a93d fc21 b0bd 71e6 3ebd 0052 74bd
000002d0: 16d7 943d cc67 323d 08af 0f3d edf8 6abd
000002e0: 760f 64bc 4623 e43c 6730 cabd 686c 42bd
000002f0: e5a4 9a3c 6678 d8bd 915d b53d 2fe0 983d
00000300: a60f 7abc 7c68 c0bc 10dc 543d 4e4f 82bd
00000310: 9e5a 3d3d 9b26 dfbd 6655 a83b 09d5 333c
00000320: b57e 903d 00be 2ebb e91d a93d f7be c73d
00000330: d1be c63d ae9d 2ebb 3a82 85bd 9d4e 3a3b
00000340: 526d e03c 10ba 5b3d 8b72 82bd eaf5 0fbd
00000350: 67c2 18bc 01fa e0bc dbb7 5eba 93ac 80bd
00000360: 95a7 99bc d4df aa3d a742 96bc 7aac 8dbd
00000370: f9c5 073d 16d2 a2bd 3387 bd3d a140 21bc
00000380: 8305 d8bd 9331 b0bd 01ee a5bd 8fff dd3c
00000390: da86 633c 7802 db3d 6b94 c1bc a769 cabd
000003a0: 7486 3bbd 5dbe 4ebd 4eb8 8ebd 3805 4f3d
000003b0: ea02 ae3d cf42 bbbb 7635 553c 93e4 1a3d
000003c0: 8e99 533b 412b ad3d 5ddd 7b3c 4359 4b3d
000003d0: 4a8d 60bd 6a44 353d eb2f 013d 4517 1e3c
000003e0: d8ef 923d 2bf1 803c 747d 5b3d d681 f23c
000003f0: e3f1 be3c 2343 8c3d 3fcc c13d 1eef acbd

layer3.0.bias f4 [8]
0.036766123 0.014090263 -0.064020135 -0.06281473 -0.023527514 -0.05416757 -0.04868977 -0.105282806
00000000: 1398 163d d9da 663c fd1c 83bd 02a5 80bd
00000010: c6bc c0bc d0de 5dbd ed6e 47bd 839e d7bd
