DigitalRecognition-master/model_params/GDUT_net_withMAP_0.pt (torch, 665623 bytes, 6 tensors)

layer1.0.weight f4 [256, 560]
000000 40 b4 8e 3b 58 63 12 3c 30 6e 73 bc a0 38 9b 3a
       0.0043549836 0.008934818 -0.014857814 0.0011842437
000010 76 f2 99 bc c7 63 13 bd 3a 63 27 3d 51 82 1e bd
       -0.018792372 -0.035983827 0.040866114 -0.0386985
000020 8d c1 1f bd 10 62 66 3b 7e aa 90 3c 0e 4f c9 bc
       -0.039002944 0.0035153665 0.017659422 -0.024573829
000030 50 8a 61 3c 2c 0f 17 bc b7 4e 90 bc d2 7b 25 3d
       0.013765886 -0.009219926 -0.01761566 0.040401287
000040 52 35 ee bc cc 95 f7 3c e8 cd 78 bc 52 2d 3f bc
       -0.02907816 0.030222796 -0.015185811 -0.01166852
000050 f4 b0 fd 3c 10 ea c2 3b b4 74 2c bc 50 6f 36 bb
       0.030968167 0.0059483126 -0.010525871 -0.0027837344
000060 ce af 20 3d f4 5e 62 3c 8e 1f 9d 3c 0c 08 1d bd
       0.03923016 0.013816584 0.019180086 -0.038337752
000070 53 65 c5 bc 18 40 be bc d8 a9 30 3c c6 b2 12 3d
       -0.024096167 -0.023223922 0.010782681 0.035815023
000080 30 d1 b2 3b b0 97 45 3c 48 59 fa 3c f8 c0 f3 3c
       0.005457066 0.012060091 0.03056015 0.0297551
000090 f4 b1 33 bc 4a c6 2c 3d e0 8c 7b bb b6 7f c2 bc
       -0.01096772 0.04218129 -0.0038383529 -0.023742538
0000a0 ca c5 08 bd 04 fd 01 3d fc 0b bd 3c 02 0a 1e 3d
       -0.03339175 0.031735435 0.023077004 0.038583763
0000b0 14 51 0c bd 80 11 00 3a 90 45 a2 3b 36 aa dc bc
       -0.03425701 0.000488542 0.00495214 -0.026936632
0000c0 c6 e9 0b bd 29 34 08 3b a3 f1 62 bb c2 b9 01 bd
       -0.03415849 0.0020783043 -0.003462889 -0.031671293
0000d0 b8 2f dc bc af eb bf 3c c0 18 7d 3b a0 e9 4e bb
       -0.026878223 0.023427812 0.0038619488 -0.0031572357
0000e0 30 d4 a0 bb 33 a8 11 bd ea 94 02 bd ee ce 7d bc
       -0.004908107 -0.035560798 -0.031880297 -0.01549123
0000f0 b4 25 8e 3c b3 0e 00 bd 70 8f 66 3c 42 8a 27 3d
       0.017351963 -0.03126402 0.014072284 0.040903337
000100 4c d7 00 3d 7e 2b 38 3c bb b7 9d 3c b6 c6 cb bc
       0.031455323 0.011240838 0.019252649 -0.024875026
000110 d3 5b 1b 3d 3f a9 f8 3c c6 ef 36 bc 74 33 e2 bc
       0.037929367 0.03035414 -0.011165565 -0.027612425
000120 0f 5b 86 3c 84 1b 9d bc b1 8a d2 bc cc 30 d5 bc
       0.016400842 -0.01917816 -0.025700899 -0.026024245
000130 88 c3 0f 3d 4e 15 0e 3d 90 61 27 3b 42 eb 4a bc
       0.035098583 0.034688286 0.002554033 -0.012385191
000140 00 73 e8 3c 7e 9e 1b 3d 6c df 4c 3c 0b 53 ca bc
       0.028375149 0.037992947 0.01250444 -0.024697801
000150 b0 4e 0b 3d f5 90 b2 3b 56 9d 01 bc 18 d1 94 bc
       0.03401059 0.005449409 -0.007911047 -0.01816611
000160 b4 f1 11 3a 08 cd 24 bd f6 d2 a6 bc f3 e0 f9 3c
       0.00055673276 -0.040234596 -0.020364266 0.030502772
000170 ce 05 9f 3c 5a bc 95 bc ef c0 67 3c fa ba ad 3b
       0.019411948 -0.01827829 0.01414512 0.0053018304
000180 84 70 06 bc e6 84 d2 bc 88 20 56 3c 09 c3 ed bc
       -0.008205537 -0.025698137 0.0130692795 -0.029023664
000190 a6 3c 15 3d 06 8d 61 bc a4 c3 cc 3c 28 09 ae bb
       0.036434792 -0.013766533 0.024995632 -0.00531115
0001a0 4c ac e4 3c 25 83 c6 3b cb f7 0e bc d8 e9 d2 3b
       0.027914189 0.006058114 -0.008726071 0.0064365678
0001b0 05 d2 21 3d a5 4a 91 3b 66 14 03 3d 8b 78 7f bc
       0.03950693 0.004433947 0.032001875 -0.0155927045
0001c0 47 9c 4c bc df 3a 41 3c a2 63 23 bd 49 ff 23 3d
       -0.012488431 0.011793821 -0.03988994 0.04003838
0001d0 6a 3d db bc 10 a7 58 3b 08 16 c2 3c 60 e3 73 bb
       -0.026762683 0.0033058561 0.023692146 -0.0037214383
0001e0 8a 54 ea bc 50 9d d4 bb d0 16 80 3c d4 21 b4 3c
       -0.028604764 -0.0064884797 0.015635878 0.021988787
0001f0 5a 63 b1 3a 76 3e 2c bc 56 50 26 bd 05 58 7b 3c
       0.0013533637 -0.010512939 -0.040603958 0.01534081
000200 08 e7 cf 3c 1a 2d c0 3c cd 27 c8 bc e8 26 ce 3b
       0.025378719 0.023459006 -0.024433041 0.006291259
000210 22 78 1e bc ca 9b c5 3b be 52 c2 3c 05 9d 03 3d
       -0.009672197 0.0060305344 0.023721095 0.032132167
000220 5a 12 a3 3b ca df 18 3d 53 54 b7 bc 90 bc 43 bc
       0.004976553 0.037322797 -0.022379076 -0.011946812
000230 68 a7 0b bd c6 96 1c bd 54 e8 be 3c 1d 99 83 3c
       -0.034095198 -0.038229726 0.023304142 0.016064221
000240 fe f2 8e 3b 46 22 97 39 fa db 16 bd dd 3b df 3c
       0.004362463 0.000288265 -0.03683088 0.027250225
000250 25 91 f5 3c bb 32 59 3c 93 b0 7e bb c9 30 2e bb
       0.029976437 0.013256724 -0.003886257 -0.0026579371
000260 84 54 a6 3c b2 b2 84 3c e6 e7 18 bc 53 9a ba bc
       0.020303972 0.01619849 -0.009332633 -0.022778666
000270 66 94 f9 bb b9 58 80 bc 0c f5 08 3d c8 70 a5 bb
       -0.0076165674 -0.015667306 0.03343682 -0.005048845
000280 80 36 dc 3b ec bd 06 3d dc 70 e5 3c d4 81 04 bd
       0.006720364 0.032895967 0.028007917 -0.032350376
000290 2e f2 81 bc 7b f4 1a bd 43 94 10 3d 73 18 7d bb
       -0.01586255 -0.03783081 0.035297643 -0.003861931
0002a0 77 6b 22 3c fb 2a 97 bc b4 3f c7 bc 0d af 07 3b
       0.009913317 -0.018453112 -0.024322368 0.0020703704
0002b0 7f ad 2c 3c ee f3 a6 3c ef 67 a3 3c 7e 9e 95 bc
       0.010539412 0.020379987 0.01994702 -0.018264052
0002c0 29 74 c1 39 39 0d ba 3c 86 d5 09 bd 7a a3 28 3d
       0.00036898375 0.022711383 -0.033650897 0.04117153
0002d0 7a c9 15 bd b0 5d 1e bc df 52 ea bc 08 af a3 bc
       -0.036569096 -0.0096658915 -0.02860397 -0.019980922
0002e0 6e d5 0a bd b0 59 9d 3c 2a 3f a3 3c b0 5b cb bb
       -0.03389495 0.019207805 0.01992758 -0.0062059984
0002f0 57 9b 8b bc 52 18 e0 3b 8b ac 0f 3d d5 c0 87 3c
       -0.017041845 0.0068388367 0.03507666 0.016571442
000300 a1 17 10 bd 06 26 c9 3c 95 0a ef 3c 0e e7 18 3d
       -0.035178784 0.024554264 0.02917985 0.037329726
000310 6c 8c 9e 3c b1 82 22 bd 59 bf ac 3c 30 09 fc bc
       0.019354068 -0.03967542 0.021087335 -0.0307661
000320 4c 9f 92 bc 00 55 0e 3d 08 6f 0e bc 01 e0 e4 bc
       -0.017898224 0.03474903 -0.008693464 -0.027938845
000330 23 cb 1c 3d ce c4 e8 3c 28 0b d1 bc 58 b5 23 bd
       0.038279664 0.028414156 -0.025518015 -0.039967865
000340 dd 5a 6b bc a4 ea 01 bd eb 71 02 3d 6b d8 0a bd
       -0.014364925 -0.03171791 0.031846922 -0.0338978
000350 b1 cf 6c 3c e0 23 21 3b 29 84 b1 3c 0e f0 4e 3c
       0.014453814 0.0024588034 0.021669464 0.012630476
000360 90 e8 fc 3c 47 48 94 3b 52 48 1f bd f0 29 8e bb
       0.030872613 0.0045252177 -0.03888733 -0.0043384954
000370 80 c3 0b bd 34 27 0d 3d 25 bd 9c bc 75 00 96 3b
       -0.03412199 0.034461215 -0.01913316 0.004577691
000380 ca 3d a8 3c 56 1b c5 bc 3e c0 25 bd b7 bb 05 bd
       0.020537276 -0.024060886 -0.04046654 -0.032649722
000390 c1 f9 0f bc c4 70 14 3d 9b ea 86 3c aa 4c d4 bc
       -0.008787573 0.036240354 0.01646929 -0.025915463
0003a0 77 4f 08 bd 47 17 a5 3b 32 2d b6 bc 7b a9 82 3c
       -0.03327891 0.0050381753 -0.022238348 0.015949955
0003b0 16 e9 e2 3c 0f 73 6d bc 0d e4 f4 3b 40 5f 1f 3b
       0.027699035 -0.014492764 0.007473475 0.0024318248
0003c0 88 52 18 bc e0 1a 95 3b 32 5c 24 3d 84 50 18 3d
       -0.009297021 0.004550323 0.040126987 0.03718616
0003d0 c6 13 01 3d ec 9d bd 3c 40 84 54 ba 6e da 3f 3c
       0.031512998 0.023146592 -0.0008106865 0.011709793
0003e0 66 7a e7 bb fa 74 08 3c 7b 0b 7e bc 24 09 cd 3c
       -0.0070641516 0.008328671 -0.015505667 0.025028773
0003f0 4f 00 8e 3c b7 12 3c 3c d3 4c 25 bd 72 87 73 3c
       0.017334132 0.011479071 -0.04035647 0.014863836

layer1.0.bias f4 [256]
000000 07 bb e4 39 8f 49 43 3c cf ab 4d bc 86 c2 71 3c
       0.00043626895 0.011919393 -0.012553169 0.014755851
000010 5a ab e9 3c dd 84 2d bd be 60 5f bc f8 3f 10 bd
       0.02852409 -0.042363036 -0.013633905 -0.035217255
000020 c7 43 a6 bc 78 ba ef 3c fe e3 d8 3b 43 ce 05 3d
       -0.02029599 0.02926372 0.0066189757 0.03266741
000030 c3 23 44 bb 27 05 b2 bc 8a 74 8f bc b5 f2 87 bc
       -0.0029928542 -0.021730972 -0.017511625 -0.016595224
000040 06 11 58 3c cb d8 14 bd 2c 58 99 bb 92 df 0a 3d
       0.013187652 -0.036339562 -0.0046797004 0.03390462
000050 b4 07 2b bc c9 db 11 3d 2a 9b 0a bd 11 f8 82 3c
       -0.010438848 0.035609994 -0.033839382 0.015987428
000060 50 c3 0e bd 50 d8 76 3c 36 bb a4 3b f4 c5 d2 bc
       -0.034854233 0.015066221 0.0050272 -0.025729157
000070 62 0b 24 bb 57 3b c2 3c 9d a6 e7 3c 5e e6 5d bb
       -0.0025031199 0.023709936 0.02827769 -0.0033859233
000080 a0 98 47 bb d5 48 fb bc 6e f9 f3 3c 0f b3 26 bd
       -0.0030455962 -0.030674377 0.029782023 -0.040698107
000090 ed a8 dd 3b e2 ee 03 bd 20 70 af ba 70 bf 5c 3c
       0.0067645223 -0.03221024 -0.0013384856 0.013473377
0000a0 8d e4 cb bc 54 1c 19 3d 07 d4 3d bc b7 20 25 bd
       -0.024889255 0.03738053 -0.011586196 -0.040314402
0000b0 b3 c6 41 3c 2b c5 ce 3c 3e f6 48 bc c0 95 2f bd
       0.011827159 0.025240501 -0.01226574 -0.042867422
0000c0 96 1d 06 3c 95 52 81 ba aa 2f 22 3d d3 43 91 3b
       0.008185765 -0.000986653 0.039596237 0.004433134
0000d0 02 a1 4d 3b 6e c7 55 3c 1a 87 e9 3c 5f 67 ee 3c
       0.0031376486 0.013048036 0.028506804 0.029102026
0000e0 69 32 7f bc c0 1f a3 bc 2d 91 04 bb 25 aa 19 3d
       -0.015575984 -0.0199126 -0.0020228133 0.037515778
0000f0 af 6a 9f bb b1 36 ba bc 9a 73 cd bc 6f 99 92 3c
       -0.0048650126 -0.022731157 -0.025079537 0.017895428
000100 7c ed 17 bd cf 75 0f 3d af b0 d5 3c b2 5e 9e bc
       -0.037091717 0.03502446 0.026085226 -0.019332264
000110 87 a4 fe 3c 75 13 a5 bc 86 d4 48 bc 30 e5 b9 ba
       0.031084312 -0.02015088 -0.012257701 -0.0014182683
000120 53 11 28 3d fd 34 11 3d 30 20 15 3d 6e 85 42 bc
       0.041032147 0.035450924 0.03640765 -0.011872632
000130 64 55 9d 3c 25 e2 97 3a 42 4b 13 bc b3 fc 5f 3c
       0.019205756 0.0011587782 -0.008990111 0.013671088
000140 b0 dd 01 3d 65 e3 e9 3b 5f 1e e6 3b 88 34 0c 3d
       0.03170556 0.0071377032 0.0070226635 0.034229785
000150 21 53 16 3d 27 f1 21 bd 10 02 a4 bc 3b 88 dd bb
       0.03670037 -0.03953662 -0.020020515 -0.0067606247
000160 d9 36 25 3d 99 0b 10 bd c0 30 d3 3c b6 71 28 3c
       0.04033551 -0.03516731 0.025780082 0.010281017
000170 98 e7 0b bd 71 e4 d3 bb 44 56 14 bd 19 66 ab 3a
       -0.034156412 -0.0064664413 -0.03621508 0.0013076692
000180 20 14 2a 3d ba a1 50 3c 4b 28 1c ba 7e 66 96 bb
       0.0415231 0.012733871 -0.0005956932 -0.0045898547
000190 28 14 b9 3c 5d 8f ee 3c 48 31 1a 3c a6 8e 31 bb
       0.022592619 0.029121095 0.009411164 -0.0027093082
0001a0 12 ed b1 3b ad 70 13 3b 6b ec 89 3c fb bd e0 bc
       0.0054298723 0.002249758 0.016836366 -0.02743434
0001b0 c9 7d f4 3c a6 23 19 3d 90 5e c2 bc 9c 4d da 3c
       0.029845135 0.037387513 -0.023726732 0.026648335
0001c0 ae e5 a2 bc 05 c8 4f 3c 64 70 23 bd fb 6f 9d bc
       -0.01988491 0.012681966 -0.039902106 -0.019218436
0001d0 72 ef 00 bd 8f a2 3a bc a0 b0 11 bd 53 48 a9 bc
       -0.031478353 -0.011391296 -0.035568833 -0.02066437
0001e0 b5 77 94 bb 33 bc ad 3c c9 c6 1f bd 02 8d 2b bd
       -0.0045308718 0.021207904 -0.039007936 -0.041882522
0001f0 0e d9 e1 3b d6 1d 63 bb 7b c9 b1 bb ce a7 ef bc
       0.00689233 -0.0034655235 -0.0054256297 -0.02925482
000200 86 45 b1 3c b9 50 ba 3b 67 4c b8 bc 12 ec fa 3c
       0.021639597 0.0056858924 -0.022497369 0.030630145
000210 6c 56 27 3d 5b 23 09 bd c0 11 1f 3d a1 3d 16 3d
       0.040853903 -0.033480983 0.038835287 0.036679868
000220 4e bd ed 3c a9 0b ca 3c 87 ec cb 3c a0 61 37 bb
       0.029020932 0.024663763 0.024893058 -0.0027981773
000230 17 94 ef 3c cc a8 db 3c e8 3b da bc 26 00 d1 ba
       0.02924542 0.026813887 -0.026639894 -0.0015945479
000240 e7 f0 e5 3c e2 78 50 3c 61 14 cf bc d7 84 0b ba
       0.028068973 0.012724133 -0.025278272 -0.0005322224
000250 ec a0 b1 bc b8 ee e9 3b 2a 56 2c 3c b8 21 5b 3c
       -0.021683179 0.007139053 0.01051859 0.013374738
000260 95 bd 5f bc fb 45 82 3c 0c 33 ab 3c a3 1f f9 3c
       -0.01365604 0.01590251 0.020898364 0.030410593
000270 f1 77 38 bb 0e 04 82 3c 52 d0 2c 3c a9 cf 0d 3c
       -0.0028147663 0.015871074 0.010547714 0.008655467
000280 58 5f 16 bd ca 02 db 3c 59 c3 b5 ba 38 9b 83 bc
       -0.03671202 0.026734728 -0.0013867422 -0.016065225
000290 51 01 27 bd 6b ec de bc a1 c2 86 b9 4f fd 05 bd
       -0.04077274 -0.027212342 -0.00025703482 -0.032712277
0002a0 4b 0f 3c 3c 22 42 26 bd 27 c2 81 3c 3f 53 d0 3c
       0.0114782555 -0.040590413 0.01583965 0.02543032
0002b0 d2 91 0b 3d 2f f9 08 3d 0e 79 bc 3c e6 f0 81 3b
       0.034074612 0.033440765 0.023006942 0.003965485
0002c0 07 a1 78 bc 7f 9f 11 3c 21 f6 ef bc d7 4e 18 bc
       -0.015175111 0.0088881245 -0.029292168 -0.009296141
0002d0 d1 5e db 3c d0 8c 27 3d 76 65 6e bc b5 18 61 3c
       0.02677861 0.040905774 -0.014550557 0.013738801
0002e0 9e 70 2f bc a6 a2 17 bd 85 df 58 bb 65 c5 a9 bc
       -0.010708002 -0.037020348 -0.0033092212 -0.020724008
0002f0 f2 f5 99 3c 8b cb b8 3c bb 5b 90 bc d3 56 bb bc
       0.018794034 0.022557994 -0.017621865 -0.02286855
000300 46 3e 96 bc 0e de d2 3c f4 13 e8 3c 90 94 0e bd
       -0.018340241 0.02574065 0.028329827 -0.03480965
000310 b7 6b c2 3c 0d 40 15 3c 51 69 d1 bc 49 e2 b5 3b
       0.023733003 0.009109509 -0.025562914 0.005550657
000320 4f 08 5e 3b d1 5f 17 3d 72 82 06 bc b2 9f 65 bc
       0.0033879464 0.036956612 -0.0082098115 -0.014015125
000330 a0 8a 84 3c 15 de c1 3c 97 f6 5c 3c b5 03 9d bc
       0.016179383 0.023665467 0.013486526 -0.019166807
000340 48 b3 9a bc 2e a9 98 bc c3 a4 da 3c 64 81 b1 3c
       -0.018884316 -0.018635359 0.026689893 0.021668144
000350 8a 65 86 3c 93 df 85 bc 03 54 a5 bc d0 74 d0 3c
       0.01640584 -0.01634196 -0.020181661 0.025446326
000360 30 f7 ff bb d9 63 17 3d 23 7a c7 bc a6 fd 67 bb
       -0.0078114495 0.036960457 -0.024350232 -0.003539899
000370 09 42 52 3c d2 a8 0e bd 82 7f e5 bc 6f 11 8c 3c
       0.012833127 -0.03482897 -0.028014902 0.017098157
000380 7b 32 42 bc aa c9 69 3c ec d0 23 bd 92 4a e1 bb
       -0.011852856 0.014269272 -0.039994165 -0.0068753446
000390 60 93 96 3c 92 29 1e bd f7 9e f2 bc c2 8a e9 3a
       0.01838082 -0.038613863 -0.029616816 0.0017817842
0003a0 8d 7b 35 bb eb c3 c4 bc 12 e8 d1 3c e5 9f ca 3c
       -0.002769205 -0.024019202 0.025623355 0.024734447
0003b0 63 e7 f2 bc 72 4f d2 3c 10 79 42 bb 04 95 ab bc
       -0.02965135 0.025672648 -0.002967421 -0.02094508
0003c0 ec ee ca bc 4b 29 0d 3c bb cf 26 3d 97 2b e7 3c
       -0.02477213 0.008615802 0.04072545 0.028219027
0003d0 51 43 c2 3a fd 12 f4 bc ae 19 d1 bc ad 8a 02 bd
       0.0014821087 -0.02979421 -0.02552494 -0.031870533
0003e0 16 f5 91 bc 63 93 1d bd 8d 4a d4 bc 28 cd 3f 39
       -0.017817061 -0.038470637 -0.025914455 0.00018291606
0003f0 69 e5 d7 bb 54 a8 94 bc 37 72 d8 bb 4a 7b 00 bd
       -0.006588627 -0.018146671 -0.0066054123 -0.031367578

layer2.0.weight f4 [84, 256]
000000 c6 df e8 bc 10 36 dd bc 89 f4 23 bd 2a 94 0d 3d
       -0.028427016 -0.027003318 -0.04002813 0.03456513
000010 c7 b2 66 3d cd 6c 04 3d 3f ed 34 3d f0 33 28 3d
       0.05632284 0.032330323 0.044171568 0.041065156
000020 a6 43 21 3d 31 3b 05 3d a3 57 75 3d 45 c6 6d 3d
       0.039371155 0.032527152 0.05989803 0.058050413
000030 b0 d1 eb bc 50 52 76 bd 09 c6 c6 3c 5e b8 44 bc
       -0.02878651 -0.060137093 0.024264352 -0.012006847
000040 e4 0a 1d 3d e9 41 50 bd ed 77 c1 bc 09 eb b0 bc
       0.038340464 -0.050844107 -0.023616755 -0.021596448
000050 dd e4 0a bd 02 fc 41 3d 2c d6 c2 3c c8 53 2f bd
       -0.033909667 0.047359474 0.023783766 -0.04280451
000060 4a 59 c7 3b b6 de 15 bd 96 97 89 bc 4d e1 41 bd
       0.006083642 -0.036589347 -0.016795915 -0.047334004
000070 cb 14 4c 3d 9b c0 51 3d d5 8a 0c bd c4 a6 9d bc
       0.049824517 0.051209074 -0.034312088 -0.01924456
000080 f6 8e 4a 3d 59 5c 5f 3d b2 b3 a3 bc ad da 3c 3d
       0.049452744 0.05453143 -0.019983146 0.046106983
000090 4b 59 4c bd ca 21 bc 3b b8 22 b1 3c 05 62 46 3d
       -0.049889844 0.0057413327 0.021623 0.048433322
0000a0 90 a1 61 bd a6 3d 1c 3d 1c 41 3a 3c 93 50 4c 3d
       -0.05508572 0.03814473 0.011368062 0.04988153
0000b0 a9 7e 03 3d c8 a0 3c 3d 76 3f 4e ba 58 e4 87 3c
       0.032103214 0.04605177 -0.0007867733 0.016588375
0000c0 53 eb d2 3c f7 5b e6 3c 7f 20 ec bc 3c 85 71 3d
       0.025746977 0.028120024 -0.02882409 0.058964953
0000d0 16 75 f7 bc b8 92 75 3c 35 72 48 bd 7a c1 38 3d
       -0.030207198 0.014988594 -0.04893704 0.04510639
0000e0 81 1e 48 3c a1 48 1a 3d 37 aa 10 3c 03 b2 06 3d
       0.012214304 0.03766692 0.008829645 0.03288461
0000f0 24 0b 8c 3c 9a c5 0b bd 19 da 6b 3d 82 b2 a6 39
       0.017095156 -0.034123994 0.05758104 0.00031794986
000100 e9 84 07 bd e4 7b 42 3d ae ea 35 bd c5 5b 1b 3d
       -0.033085737 0.047481433 -0.04441326 0.037929315
000110 3f be b4 3c 41 06 28 3d 67 f4 a0 3c 8f 30 c1 3c
       0.022063373 0.04102159 0.01964779 0.023582725
000120 e2 b8 61 3d e3 c8 21 bc 67 22 12 3d d6 68 15 3d
       0.05510796 -0.009874555 0.03567734 0.036476932
000130 1b f0 2f 3d 35 44 5c 3d 1f f0 40 bd ac aa 40 3d
       0.04295359 0.053775985 -0.047103997 0.047037765
000140 73 02 bf bc 65 57 0a 3d 6d ad c2 3c 06 4b fa 3c
       -0.023316598 0.033774752 0.023764336 0.030553352
000150 3f ef e4 3c 20 c1 43 bd 1d a8 32 bd b8 53 87 bc
       0.027946113 -0.0477916 -0.043617357 -0.016519412
000160 75 8a 2b bd 8c f2 55 bd 8f a4 2b 3d d1 7b 4c bd
       -0.04188009 -0.052233264 0.041904982 -0.049922768
000170 ac ca 7e 3c 30 5d 75 bb f1 1f 73 3d 06 fa 1d 3d
       0.01555125 -0.0037439577 0.059356634 0.03856852
000180 9d 21 a9 3c 76 42 59 3d 5f 26 a7 ba a4 88 e4 3c
       0.02064591 0.053041898 -0.0012752524 0.027897187
000190 55 6e 39 3d f8 88 03 3d b0 2c 48 3c c9 23 bd bc
       0.045271236 0.032113045 0.012217686 -0.023088353
0001a0 d9 86 9b 3c 29 c8 72 bd cc a2 2b bd f1 6e 1a 3d
       0.018985199 -0.05927292 -0.041903302 0.03770346
0001b0 66 b0 5f 3d b7 4d c1 bc da ad 41 3d d1 7d 5f 3d
       0.054611586 -0.023596628 0.04728494 0.054563347
0001c0 8a eb 21 bd ff 8b ee 3c d0 be 14 3c 6c 48 42 bd
       -0.03953127 0.02911949 0.009078696 -0.047432348
0001d0 f0 33 cb bc a1 e4 13 ba 8b 9a 79 bc c8 16 63 3c
       -0.02480504 -0.00056416733 -0.0152346 0.013860412
0001e0 96 69 03 bd 59 e9 72 bd 63 c3 31 3c b0 b8 b7 bc
       -0.032083116 -0.05930457 0.0108498065 -0.022426933
0001f0 e1 bb ed 3b b6 0a 33 3c be bd 38 3d 56 11 37 bd
       0.007255063 0.010927847 0.045102827 -0.044694267
000200 98 8f 9f bc 5e 43 ce 3c cc f3 1d 3c a5 9f 3d 3c
       -0.01947765 0.025178608 0.009640645 0.011573707
000210 b9 d9 4e bc 43 17 1e 3d 7c 79 6e 3c d6 06 56 3d
       -0.012625151 0.038596403 0.014555331 0.052252613
000220 67 f1 3e bc 0e 32 c0 bc b5 ea d8 3c e0 29 67 bd
       -0.0116542345 -0.023461368 0.026479105 -0.05643642
000230 33 4d 77 bd a6 f6 65 3d 2e 3d 28 bc 16 63 33 bd
       -0.060376357 0.056143425 -0.010268493 -0.043795668
000240 10 37 ab bb ee 5a 05 bd 52 f2 3e 3d 05 2c eb bc
       -0.00522507 -0.03255742 0.046617813 -0.028707514
000250 28 7e 2c bd 91 10 90 bc 51 7c 17 3d 9c f3 1a bd
       -0.0421125 -0.017586024 0.03698379 -0.03782998
000260 3a d4 cd bb 91 50 26 bd ce 21 d4 ba 8a 5a 19 bd
       -0.006281403 -0.040604178 -0.0016184391 -0.03743986
000270 09 2f 44 bd 62 66 7c 3d 16 5f 0b bd 4c 40 3c 3d
       -0.04789642 0.061621077 -0.034026228 0.045959756
000280 21 85 94 bc 82 e3 59 bd 2a 5c 08 bd df c5 52 bd
       -0.018129887 -0.053195484 -0.03329102 -0.051458236
000290 be e8 38 3d 0c a7 be 3c ff 23 5a 3d d8 04 92 3c
       0.045143835 0.023273014 0.053256985 0.017824575
0002a0 73 fa 3c 3b b0 d4 69 3b 15 7e 92 3c fe 2a 45 bd
       0.0028835803 0.003567975 0.017882386 -0.048136704
0002b0 b3 c3 4e bd 92 55 11 3c 44 6f d3 bc f8 2f 56 bd
       -0.050479602 0.008870499 -0.025809892 -0.05229184
0002c0 6f 68 fd bc 7d e2 95 bb e2 ee f0 bb e9 56 7b 3d
       -0.030933587 -0.0045741186 -0.007352696 0.06136218
0002d0 0a 0c 6c 3c da 36 ce bc 71 b0 75 3d 59 50 53 bd
       0.014407167 -0.02517264 0.05998272 -0.051590297
0002e0 43 65 39 bc 4b ca 05 bd 1e 95 6d bd de 09 0e 3d
       -0.011315647 -0.032663625 -0.058003537 0.03467738
0002f0 12 a1 63 3d 2e bb 9d ba 0d 3c af 3c 99 83 52 bd
       0.05557353 -0.0012033933 0.02139094 -0.051395033
000300 ec 4a 45 bd ea cd 70 bd d4 eb 7c bb 04 41 67 bd
       -0.048167154 -0.058790125 -0.0038592713 -0.056458488
000310 04 4c 4d 3b 85 4e 2a bd 9f 79 48 bd 68 93 9b bb
       0.0031325826 -0.04157879 -0.048944112 -0.004747797
000320 8a 42 69 bd f2 1e 93 bb 2f ac 60 bd 8c 54 65 bd
       -0.056948222 -0.004489773 -0.054851707 -0.055988833
000330 3e a3 50 3d 58 d8 34 bc 26 c9 44 3d 65 83 60 bc
       0.05093693 -0.0110379085 0.048043393 -0.013703202
000340 f3 a5 94 3c f9 75 5d bd 95 49 35 3c 2b 30 71 bd
       0.018145537 -0.054067586 0.011064907 -0.058883827
000350 69 1f 6c 3c 72 a7 eb ba 9c b4 56 bd 6f bc 1f 3c
       0.014411786 -0.001797898 -0.052418336 0.009749516
000360 a2 13 bd bc de 7f e2 3c 01 86 35 bd cd 2a 46 bd
       -0.02308065 0.027648862 -0.04431725 -0.04838066
000370 8b 2c 42 bd 54 ae 31 3d 85 9c 15 3d c2 dd 76 3d
       -0.04740576 0.043379143 0.03652622 0.06027008
000380 79 5b 0d bd e3 63 3a bd e6 fc 7b bc a7 14 85 bc
       -0.034511063 -0.045505416 -0.01538012 -0.0162452
000390 5a d5 18 bd 6b 8b 9f 3c 17 ae 83 3c f3 de 6d 3d
       -0.037312843 0.01947566 0.016074223 0.05807395
0003a0 2f 9d f0 3c c9 a6 0e 3d f8 ec 0a 3d f6 d2 8c 3c
       0.029371826 0.034827027 0.033917397 0.017190438
0003b0 f1 c7 6f 3d 28 66 e6 bc 6e ef 0c bd 97 f8 80 bc
       0.05854029 -0.028124884 -0.034408025 -0.015743537
0003c0 2c 20 5d 3d b9 65 e3 3c 78 f9 bf bb f8 6f 4f bd
       0.05398576 0.027758466 -0.0058585964 -0.05064389
0003d0 6d 48 d0 3c f4 ee fd bc fb 37 b2 3c 5d c2 4a 3d
       0.02542516 -0.03099773 0.02175521 0.049501766
0003e0 46 20 e7 bb c6 7a e5 3a f4 23 05 bd d1 f1 02 3d
       -0.007053408 0.0017507903 -0.03250499 0.031968895
0003f0 21 e4 94 bc 41 8d 7d 3d 1d 90 c3 bc f0 1c 88 3c
       -0.018175187 0.06190229 -0.02387243 0.016615361

layer2.0.bias f4 [84]
000000 9b 97 c1 3c 6c d1 e1 bc 39 88 ae bc 28 77 e4 bc
       0.023631861 -0.02756568 -0.02130519 -0.02788885
000010 eb 9a 7b bc fe ea 5c bc 7e a3 10 3d 02 05 87 bc
       -0.01535676 -0.013483761 0.03531217 -0.01648188
000020 f8 94 79 bd fe 0a a7 bc 68 47 46 bd f8 7b 0f bd
       -0.060933083 -0.020390984 -0.048407942 -0.035030335
000030 5b 38 6e 3d b6 61 45 3d fc 1a a1 bb 53 66 bd bc
       0.058159214 0.048188888 -0.004916547 -0.023120081
000040 46 b0 81 bc e4 7a 95 3c 25 03 15 3a bd 62 98 3c
       -0.015831124 0.018247075 0.00056843675 0.01860177
000050 75 03 f0 ba b4 dd df 3c 3d 0a 64 3c 58 b1 e0 bb
       -0.0018311577 0.027327396 0.013918457 -0.0068570785
000060 10 81 bf bb 14 a9 c2 bc 59 17 33 bc 6b 1d 72 bd
       -0.005844243 -0.023762263 -0.0109308595 -0.059110086
000070 b4 ed 0d 3d 75 38 76 3c 9c e7 80 bd aa 32 32 bd
       0.03465052 0.015028109 -0.06294176 -0.04350535
000080 8b 82 fa bb 3e 7c ad 3b 4e 09 5e 3d 7e 62 da 3c
       -0.0076449565 0.005294352 0.054208092 0.026658293
000090 c8 8a 38 3c 7b c4 67 bc 2b 03 1d 3c d6 6e 0f 3d
       0.011263557 -0.014145966 0.009583275 0.03501781
0000a0 52 b8 1d bd 93 9f 39 bd 6f 9d 43 3d e7 f6 75 3d
       -0.03850586 -0.045318197 0.047757562 0.060049918
0000b0 35 01 26 bd 70 92 80 3c 3e 51 ac bc 93 c3 29 3d
       -0.040528495 0.015694827 -0.021034833 0.04144628
0000c0 13 df 09 3d 3d a3 8f bc c5 ca 9d 3c 66 ed 66 3d
       0.033660006 -0.017533893 0.019261727 0.056378745
0000d0 58 c1 24 3b 75 f3 99 bb a2 63 6f bd 74 6a 6a bd
       0.0025139656 -0.004698212 -0.058444627 -0.057230428
0000e0 1f 00 d2 3c a2 47 2c 3d 32 60 82 bc b9 17 a2 bc
       0.025634823 0.042060502 -0.01591501 -0.019786702
0000f0 26 10 47 3b e9 dc 86 bc 82 1a ea bc 70 9a 89 bc
       0.0030374615 -0.01646276 -0.028577093 -0.016797274
000100 05 21 35 3b b2 ee 21 3d b1 0c 0d 3d 93 29 9f bc
       0.002763809 0.03953428 0.03443593 -0.019429004
000110 0f 2a 72 3d c6 c0 24 3d ea d7 25 bd 4c fb 51 bd
       0.05912214 0.040222906 -0.040489115 -0.051265046
000120 ea 96 5b 3d 9f fe 23 3d 01 83 47 bc ee 71 4f 3c
       0.05361072 0.040037747 -0.01217723 0.01266144
000130 a1 b9 e5 bc 8b a1 77 bd 5d df fc 3c 79 a6 56 bd
       -0.028042616 -0.060456794 0.030868227 -0.052404854
000140 b6 30 a3 3c a1 0e 9f 3c ad d8 40 bd 9a 29 fd bc
       0.019920688 0.019416155 -0.047081638 -0.030903626

layer3.0.weight f4 [8, 84]
000000 93 ac f4 bc 74 ec c3 bc 79 46 9e 3d e7 42 ea bc
       -0.029867446 -0.02391646 0.07728285 -0.028596355
000010 2e 0b df bd f5 53 0a bd cf b7 d1 bd a7 16 20 bd
       -0.10890804 -0.033771474 -0.10240137 -0.039084103
000020 35 78 11 3d 56 b7 9d 3c c7 de d3 3d 57 b7 ab 3d
       0.03551503 0.01925246 0.10345226 0.08384579
000030 93 a4 71 bd 61 db 85 3d b7 b7 84 3d d2 3e 8e bd
       -0.05899484 0.06535984 0.06480353 -0.06945576
000040 1a ce 42 bd a6 5f 7f 3d 11 16 ce bd 24 e1 81 bc
       -0.047559835 0.062347077 -0.100628026 -0.015854426
000050 f6 98 3a 3d fb 4e 2a bd dd 2a eb 3c 74 18 d3 bd
       0.04555603 -0.041579228 0.028706962 -0.103073984
000060 56 08 64 3d d8 19 71 3d 80 75 9f bd 4f 73 c5 3b
       0.055672012 0.058862537 -0.07786083 0.0060257087
000070 75 90 30 3c 87 4f e8 3b 4f 10 19 3c 92 0f e4 3b
       0.010776629 0.0070895585 0.009342267 0.006959864
000080 20 45 c5 3d 67 dd 7e bd 75 2a 16 bd 97 1d 40 3b
       0.09632325 -0.062222864 -0.036661584 0.0029314512
000090 21 72 ac bd ff 57 86 bd 42 c0 d5 bd 82 80 f3 bc
       -0.08420206 -0.06559753 -0.10437061 -0.029724363
0000a0 a5 63 ec 3b e3 0f e3 3c e3 16 97 3d 12 f7 7b bd
       0.007214027 0.027717536 0.07377412 -0.06151492
0000b0 79 9a 07 3c e9 a2 b0 3d 6c 92 41 3d 5a 2b df bd
       0.008276575 0.08624823 0.04725878 -0.108969405
0000c0 4d f1 67 bd 68 1c a1 3d 67 ea 2f bd ad 65 27 bc
       -0.056626607 0.07866746 -0.042948153 -0.0102171125
0000d0 ee 62 65 3d bc 83 42 bb 16 22 3b 3d 47 af 61 3d
       0.05600255 -0.002968057 0.045686804 0.055098798
0000e0 3c 1f 21 bd c0 a1 49 bd 48 cd c0 3d f2 52 c6 bd
       -0.039336428 -0.049226522 0.09414154 -0.09683789
0000f0 32 d2 d1 bd ff 46 aa bc cb b7 49 3d 37 e7 56 bd
       -0.1024517 -0.020785807 0.049247544 -0.052466597
000100 3a 9e 9c bd 49 bc c3 bd 04 e0 a7 3d 24 f0 ac 3d
       -0.07647367 -0.09557397 0.081970245 0.08444241
000110 3f 42 b8 3d 32 45 b8 bc 5f 63 c4 bd 64 1d 08 bc
       0.089970104 -0.022493932 -0.09589266 -0.0083077885
000120 6a aa 27 3c af 21 ca bd 10 f2 d6 bd 42 b2 13 bd
       0.010233501 -0.09869706 -0.104953885 -0.03605867
000130 da ca 0e 3d f8 00 9b bd 32 51 4e 3d 1b 1d bf bd
       0.034861423 -0.07568544 0.050370403 -0.09331723
000140 02 f0 41 3d 2b 19 91 bc 7b 06 be ba b6 c4 bb 3d
       0.04734803 -0.017712196 -0.0014497781 0.09168379
000150 24 c2 a7 bd 74 83 cc bd b4 66 db bc ea cc 07 bd
       -0.08191326 -0.0998601 -0.026782371 -0.033154406
000160 24 e7 8a bc 56 55 a3 bc e3 e0 86 bd 5b 70 a5 bd
       -0.01695592 -0.019938152 -0.065858625 -0.08078071
000170 3f 32 c1 3d 00 6f b8 3d ce ab 85 3d e9 a7 03 3d
       0.09433412 0.090055466 0.0652691 0.032142553
000180 0e a0 b9 bd 59 b1 8b 3d d1 fe a6 3d 83 1e cd bd
       -0.09063731 0.06820936 0.08154071 -0.10015585
000190 55 c3 a3 bd 5e 4a 7d 3b c1 3c 94 3d 8c 47 e4 bb
       -0.07996241 0.0038649063 0.072381504 -0.006966537
0001a0 81 39 41 bd 31 25 8f bd 6e 40 0f 3d 95 91 1f bd
       -0.04717398 -0.069895156 0.034973554 -0.038957197
0001b0 bc 40 21 3d e9 51 8f bd f5 4f 70 bc d6 46 c2 3d
       0.039368376 -0.06998045 -0.014667501 0.09486167
0001c0 b7 68 71 bd e8 1a e0 bd 90 db 42 bd 7c eb c7 3d
       -0.058937754 -0.10942632 -0.047572672 0.09761712
0001d0 cb 82 73 bd b2 26 eb bc 36 74 dc 3c 1e 14 e8 bb
       -0.059450906 -0.028704975 0.026910882 -0.0070824763
0001e0 fe 2d c8 3c 48 32 c9 bd 96 71 ba 3d 10 87 c6 3c
       0.024435993 -0.098240435 0.09103696 0.024234325
0001f0 a6 80 a4 3d b4 f1 47 bc e3 f8 69 bc ee f8 d9 bd
       0.0803235 -0.012203623 -0.014280531 -0.10643183
000200 d1 18 36 3b ea ee 00 bc dc 85 0c 3d ea ab fa ba
       0.0027785788 -0.007869462 0.034307346 -0.0019124721
000210 04 66 ab bc cf 61 e4 bc 8d fd fa bb d6 62 53 3c
       -0.020922668 -0.02787867 -0.00765962 0.012901982
000220 8d 7f d0 bd 0e 1c 2c 3b 21 3f f4 bc 3c aa ac bb
       -0.101805784 0.002626184 -0.029815258 -0.005269317
000230 ef 38 7c bd a4 a6 ba bd cb 28 9f 3d c6 4d c9 bd
       -0.061577734 -0.091138154 0.077714525 -0.09829287
000240 ab d7 13 bd 18 eb 88 bd 89 ed 53 bd 26 9c da 3d
       -0.03609435 -0.066854656 -0.051740203 0.10674314
000250 04 b5 a0 bd be 9e ac bd 41 ca 87 3d 7c 94 f5 3b
       -0.07847026 -0.08428715 0.06630374 0.0074945074
000260 47 af 4e 3d 2f a1 a8 3d 2d b2 c0 bd a9 55 74 bd
       0.050460126 0.08233868 -0.09408984 -0.059652004
000270 b7 0f 52 bc 2a 6a 4f bd cc d1 a1 3c 10 f6 82 bb
       -0.0128211295 -0.050638355 0.01975336 -0.003996618
000280 c4 59 47 3c b7 bc 41 bd 81 89 a6 bb 78 d5 97 3c
       0.012167398 -0.047299113 -0.0050823097 0.018534407
000290 19 d7 d2 bd ae f3 f1 bb 61 0a a2 3d 4b 01 c3 bd
       -0.10294933 -0.007383785 0.07912136 -0.09521731
0002a0 8a 11 96 bc 26 cc 3e bd 15 cf 3b 3d 4a f7 e4 3c
       -0.01831891 -0.04658141 0.045851786 0.027949948
0002b0 20 3d 53 bd bd 17 e5 bc b6 97 1b 3d 91 65 be bc
       -0.051571965 -0.02796542 0.03798648 -0.02324179
0002c0 f5 79 c6 3d 6a ca 33 3c 30 2e d2 bd 0a 29 a1 bc
       0.0969123 0.010973552 -0.10262716 -0.01967289
0002d0 da b3 e7 bc 44 87 f5 bc 47 25 2d bd e1 67 5e 3c
       -0.028284002 -0.029971726 -0.04227188 0.013574571
0002e0 57 6c 73 bd 00 1d 19 bd b5 05 fc 3c 89 57 c3 3d
       -0.059429493 -0.037381172 0.03076444 0.095381804
0002f0 07 8d 6d bd 97 48 c8 bd f6 85 a3 3c 8b ed 16 bc
       -0.057995822 -0.097794704 0.019961338 -0.009211908
000300 20 2e c5 bd 84 42 c7 3d 32 cf aa 3d 90 06 c0 3d
       -0.09627938 0.09729484 0.083403006 0.09376252
000310 79 f8 ce bd 17 6d a5 3d d5 79 85 bc 94 db 81 bd
       -0.10105986 0.08077448 -0.016293446 -0.06340709
000320 7a 2c 87 bd 82 b6 43 bd d3 6a 70 3b ec c4 95 bc
       -0.0660028 -0.047781475 0.0036684766 -0.018282376
000330 f4 a3 55 3d 9b ea a1 bd ce 7b 1d bd db c0 a0 3d
       0.05215831 -0.079060756 -0.038448147 0.07849284
000340 b2 51 27 bd 50 c3 59 bd 86 09 9f 3c 94 d7 a5 3d
       -0.040849395 -0.05316478 0.01941372 0.08097759
000350 e0 7b bd bd 01 39 86 bc 14 7a 74 bd d3 fa f4 bc
       -0.09252143 -0.016384603 -0.059686735 -0.029904759
000360 ef 65 03 3c d0 15 81 3d 1a 07 62 bd bf a4 a6 3d
       0.008019908 0.063029885 -0.055182554 0.081368916
000370 1b 39 ad 3d 42 2b 51 3d 71 b4 c5 bd 9a 7b 4a bd
       0.08458158 0.051066644 -0.09653557 -0.049434282
000380 8d b2 a1 bd 4f 3f 80 3d 58 4f 82 ba 2e c0 97 3d
       -0.07895384 0.06262075 -0.0009941859 0.07409702
000390 21 68 c8 3d ff d6 45 3c d2 8d a8 bd a6 0f 0c bc
       0.09785486 0.012075185 -0.08230175 -0.008548653
0003a0 1c ee de 3c cb b3 c6 3d 15 0c b7 3d a6 c2 77 bd
       0.027213149 0.097022615 0.08937851 -0.060488366
0003b0 fd c1 84 3c 65 b6 b5 bd 44 35 c7 3d aa c6 0e bd
       0.016205782 -0.088726796 0.097269565 -0.03485743
0003c0 07 e9 c6 bc dd 84 54 bd 20 5d 88 3d e6 23 86 bd
       -0.024281038 -0.05188452 0.06658387 -0.06549816
0003d0 d1 90 d6 3a f7 fa 3b 3d fd 0a 16 3d 30 7e 99 bc
       0.0016370063 0.045893636 0.036631573 -0.018736929
0003e0 83 13 41 bd 03 16 b1 3d c0 4e 93 3c 6f ed 06 bd
       -0.04713775 0.086467765 0.017981887 -0.032941278
0003f0 c5 8f 98 bd c3 23 98 bd fc 8b bc bd c4 a1 ce bd
       -0.07449297 -0.07428696 -0.092063874 -0.10089448

layer3.0.bias f4 [8]
000000 74 60 3a bd 1c d7 ce bd f2 fd 6b 3c 58 b2 c0 3d
       -0.04550214 -0.100996226 0.014403807 0.09409016
000010 8d f9 b8 bd d0 68 7e 3d 04 ff ed 3b d0 62 12 3d
       -0.09031973 0.062111676 0.0072630662 0.035738766
