DigitalRecognition-master/model_params/GDUT_net_8.pt (torch, 664983 bytes, 6 tensors)

layer1.0.weight f4 [256, 560]
0	0x3c77f30c	0.0151336305
1	0x3d15e7b6	0.03659793
2	0x3da30203	0.07959368
3	0x3c3d14b4	0.011540581
4	0x3cf54040	0.029937863
5	0x3c99c332	0.018769834
6	0xbc501f38	-0.012702756
7	0xba04a200	-0.000505954
8	0xbb672690	-0.0035270788
9	0x3c0104f0	0.007874712
10	0xbcd4c255	-0.025971571
11	0xbcef5c1a	-0.029218722
12	0xbdc4a9c0	-0.0960269
13	0xbd7822fe	-0.060580246
14	0xbd1bf4ed	-0.038075376
15	0x3d296200	0.041353226
16	0xbbb43db0	-0.005500518
17	0xbd17fec1	-0.037108187
18	0xbcdb2f9b	-0.026756098
19	0x3d2b29aa	0.04178778
20	0xbc163b50	-0.009169415
21	0x3c90bc70	0.017667979
22	0x3ca6ffb8	0.020385608
23	0xbd079577	-0.033101525
24	0x3cea2d34	0.028586008
25	0xbc9fc1f1	-0.019501658
26	0xb98ae257	-0.00026490047
27	0x3d133836	0.03594228
28	0xbb9daf36	-0.0048121465
29	0x3ceb5f15	0.028731862
30	0xb9db1a5d	-0.00041790577
31	0x3bd2e854	0.006436387
32	0x3b7eb6d9	0.003886631
33	0xbcecdafa	-0.02891301
34	0x3d1a4e9e	0.03767263
35	0xbc643006	-0.013927465
36	0xbcf63b3f	-0.030057548
37	0xbd220e49	-0.039564405
38	0xbd248bd3	-0.04017241
39	0xbcee761d	-0.029109055
40	0x3c674318	0.0141151175
41	0x3ccb847c	0.024843447
42	0xbd0b5b73	-0.03402276
43	0xbd095570	-0.033528745
44	0xbc2fecfc	-0.010737654
45	0x3c93a35e	0.018022235
46	0x3d5972a3	0.05308784
47	0x3ddd1e38	0.107967794
48	0x3dd9495e	0.10609697
49	0x3dde43c7	0.10852771
50	0x3ca16355	0.019700686
51	0x3bb648cd	0.0055628777
52	0xbb6efbb7	-0.0036465952
53	0x3cdda4d5	0.027056137
54	0x3d7e5897	0.062096205
55	0x3ce8263a	0.02833854
56	0x3b15dfe0	0.0022869036
57	0xbd0f0291	-0.034914557
58	0xbca98c8e	-0.020696905
59	0xbcdb1f3e	-0.026748296
60	0xbc51f774	-0.012815345
61	0x3c0dead0	0.008661941
62	0x3d0102c2	0.03149677
63	0xbc471fb0	-0.012153551
64	0xbc079438	-0.008275084
65	0x3dade7d0	0.0849148
66	0x3dbfa7f3	0.09358206
67	0x3d954da0	0.072901964
68	0x3d5f0df2	0.05445666
69	0xbb7ffb6c	-0.0039059771
70	0x3ce37747	0.027766837
71	0xba1983c2	-0.000585612
72	0xbcddbec1	-0.027068498
73	0xbd198435	-0.037479598
74	0x3c15cd9d	0.00914326
75	0xbbfb6deb	-0.0076730154
76	0xbbf33a50	-0.007422723
77	0xbd00cfe0	-0.031448245
78	0x3b383960	0.002811037
79	0x3cb4cbe8	0.022069886
80	0x3c9d7252	0.019219551
81	0x39979480	0.00028911605
82	0xbd211c1b	-0.039333444
83	0xbd1816f2	-0.037131257
84	0xbd2321bd	-0.039827097
85	0x3d9d86d5	0.07691733
86	0x3c5cdd06	0.0134804305
87	0x3c2f49c1	0.010698737
88	0x3bbe5ab0	0.0058091506
89	0x3d2c5158	0.042069763
90	0x3ccb1a6f	0.024792878
91	0x3c8d446e	0.017244544
92	0xbd7e8677	-0.062139954
93	0xbcf000ad	-0.029297197
94	0x3d53f636	0.051748477
95	0x3d08a566	0.03336086
96	0x3ccc20a8	0.024917915
97	0xbb2f0e90	-0.002671156
98	0x3c5579c8	0.013029523
99	0x3ccb2e14	0.024802245
100	0x3c027850	0.007963255
101	0x3d19dc20	0.037563443
102	0xbd004a08	-0.0313206
103	0x3b715930	0.0036826842
104	0xbda24873	-0.07923975
105	0xbd3d2b98	-0.046184152
106	0xbd0d55b1	-0.03450555
107	0x3b71c02d	0.0036888227
108	0x3d18aeb8	0.037276
109	0x3cdbe0e8	0.026840642
110	0xbd31ea4e	-0.04343634
111	0x3cd94381	0.026521446
112	0x3c44e378	0.012017123
113	0xbcbbbb53	-0.022916472
114	0x3bf19e14	0.0073735807
115	0x3d2eb105	0.042649288
116	0xbd155ba2	-0.03646434
117	0xbbfe41f8	-0.007759329
118	0xbcbde42f	-0.023180095
119	0x3c5731b4	0.013134409
120	0x3c9472e0	0.018121183
121	0xbd29cd5f	-0.041455623
122	0x3c790a00	0.015200138
123	0xbd219710	-0.039450705
124	0xbcc7932e	-0.024362173
125	0x3d043d2e	0.032284908
126	0xbd380a46	-0.044931673
127	0xbb70fccc	-0.0036771772
128	0xbddba3b1	-0.10724581
129	0xbdf0175d	-0.11723206
130	0xbd873529	-0.06601936
131	0xbdfc535f	-0.12320589
132	0xbdbc68bd	-0.09199665
133	0xbdb6a476	-0.08918087
134	0x3b3ac3e5	0.002849811
135	0xbd4e5161	-0.050370578
136	0xbd4b8dfe	-0.04969596
137	0xbcfbe3d0	-0.030748278
138	0xbd882dcd	-0.06649361
139	0xbd8d9ae8	-0.06914312
140	0xbcddb1ec	-0.027062379
141	0xbc2d3a30	-0.010572955
142	0x3cec34d4	0.028833784
143	0x3ceb14a0	0.028696358
144	0xbda43771	-0.08018387
145	0x3cc4b135	0.02401028
146	0x3c918c5c	0.017767124
147	0x3c425f9d	0.011863616
148	0xbd51aaca	-0.051188268
149	0xbdb7e579	-0.08979315
150	0xbdbcf5ab	-0.09226545
151	0xbde7accf	-0.113122575
152	0xbdbd4528	-0.09241706
153	0xbd08be63	-0.033384692
154	0xbc9ae7a7	-0.018909289
155	0xbdb0c4e6	-0.086313054
156	0xbc218823	-0.009859118
157	0x3cec1740	0.02881968
158	0xbcccd77f	-0.0250051
159	0xbd9dde71	-0.07708443
160	0xbd1c8199	-0.03820953
161	0x3cfb8cec	0.030706845
162	0x3ba81260	0.0051291436
163	0xbd1733fd	-0.036914814
164	0xbcd9d09b	-0.026588729
165	0xbca3f182	-0.02001262
166	0xbd4ec2fe	-0.050478928
167	0xbbaaaa26	-0.0052082716
168	0xbd41e97d	-0.047341812
169	0xbde0d9f2	-0.1097907
170	0xbdc73561	-0.09726978
171	0xbd9df4f8	-0.0771274
172	0xbd20f597	-0.039296713
173	0xbd94fd51	-0.07274879
174	0xbca63a58	-0.020291492
175	0xbb39ee73	-0.0028370887
176	0x3cf06377	0.029344304
177	0x3c0bdabc	0.008536037
178	0xbcb88d30	-0.022528261
179	0xbd3c26bb	-0.045935374
180	0xbcaaebb4	-0.020864345
181	0xbcb6f4af	-0.022333471
182	0x3cc25e38	0.023726568
183	0x3c90bb60	0.017667472
184	0xbd86fa0a	-0.0659066
185	0x3d1d78c3	0.038445245
186	0x3d1a5018	0.03767404
187	0x3db8b57a	0.09018989
188	0xbd9e22b3	-0.07721462
189	0xbda6f368	-0.08151895
190	0xbd4c4557	-0.049870815
191	0xbd39a2bf	-0.045321222
192	0xbda2e4a2	-0.079537645
193	0xbdc40cc7	-0.095727496
194	0x3bbc5f2b	0.0057486496
195	0xbceb150c	-0.02869656
196	0x3d7625cd	0.060094643
197	0xbd45d2b3	-0.04829664
198	0xbd168806	-0.036750816
199	0xbd017658	-0.031607002
200	0x3c04e910	0.008112207
201	0xbc6b8170	-0.014374122
202	0xbcd374d3	-0.025812542
203	0x3c9db374	0.019250609
204	0xbd3fe9fa	-0.046853997
205	0x3d86ca19	0.06581516
206	0x3d675b46	0.05648353
207	0x3b10b972	0.002208319
208	0x3d8438a7	0.06456118
209	0xbbf024c3	-0.007328601
210	0xbd4b2198	-0.049592584
211	0xbd4c29b1	-0.049844448
212	0xbd4fde86	-0.050749324
213	0xbdd005e1	-0.10157371
214	0xbd2aff19	-0.041747186
215	0xbd4a7d02	-0.049435623
216	0xbd5a764a	-0.053335465
217	0xbd9463c1	-0.07245589
218	0xbcbccb02	-0.02304602
219	0xbd01a4f6	-0.03165146
220	0x3c39e038	0.011344962
221	0x3d016eba	0.031599738
222	0xbc934458	-0.017976925
223	0xbd1495f9	-0.036275838
224	0x3cc953ff	0.024576185
225	0x3cf0e7a2	0.029407326
226	0x3c93db0c	0.018048786
227	0x3c7ddb34	0.015494157
228	0xb9134f83	-0.00014048633
229	0x3c4ddef9	0.012565368
230	0xbcd0e69d	-0.02550059
231	0xbc19ed73	-0.009394991
232	0xbd80b086	-0.06283669
233	0x3b7e381b	0.0038790766
234	0xbd36db4b	-0.044642728
235	0xbcb98fdb	-0.022651603
236	0x3c0c9a60	0.008581728
237	0x3ceade0c	0.028670333
238	0xbd010f9c	-0.031509027
239	0x3c447198	0.0119899735
240	0x3c2b97ac	0.010473173
241	0x3d10ed12	0.035382338
242	0xbb7c0c00	-0.00384593
243	0x3ca73f68	0.020415977
244	0x3d4c69d1	0.049905602
245	0x3da8cb4d	0.082419015
246	0x3d19084a	0.03736142
247	0x3c85b9af	0.016323892
248	0x3cdd50eb	0.027016124
249	0xbcf337d4	-0.029689707
250	0xbd5bfe2f	-0.053709205
251	0xbca7d5ce	-0.020487692
252	0xbd89966a	-0.06718142
253	0x3d28aea2	0.041182168
254	0x3d3366df	0.043799277
255	0xbc8907c9	-0.016727345

layer1.0.bias f4 [256]
0	0xba62376b	-0.0008629474
1	0x3c8d1736	0.017222982
2	0xbba018eb	-0.004885783
3	0x3cc6870d	0.02423432
4	0xbbaa6859	-0.0052004275
5	0x3c4904b1	0.012269185
6	0xbd754321	-0.059878472
7	0xbd87ac58	-0.06624669
8	0xbc921c02	-0.01783562
9	0xbd0cb20b	-0.034349483
10	0xbdbe8183	-0.09302046
11	0xbd6d4f56	-0.05793699
12	0xbc8f2bd6	-0.017476957
13	0xbd8aafd1	-0.067718156
14	0x3cbbe63a	0.022936929
15	0x3b822d13	0.0039726584
16	0xbc9706eb	-0.018435916
17	0xbcc18563	-0.023623174
18	0xbd8f1923	-0.06987216
19	0xbd6ac584	-0.05731727
20	0x3d476602	0.048681267
21	0x3cecbb58	0.028897926
22	0x3d211af7	0.039332356
23	0xbd8b3b7f	-0.06798457
24	0xbcab7f1d	-0.020934636
25	0xbbf024b1	-0.0073285927
26	0x3c0adc52	0.00847538
27	0xbd9926c2	-0.074780956
28	0xbc59e39b	-0.013298894
29	0xbca9987e	-0.020702597
30	0xbd20fba7	-0.039302494
31	0xbd572914	-0.05252941
32	0xbc80a7d6	-0.01570503
33	0xbb19d5be	-0.0023473348
34	0x3bc6f371	0.006071501
35	0x3ccf0674	0.025271632
36	0x3c851dbc	0.01624953
37	0xbdac1342	-0.08402111
38	0x3d60679b	0.054786306
39	0xbd5d27ef	-0.05399316
40	0xbde65742	-0.11247112
41	0xbc2602f6	-0.010132542
42	0xbcc62602	-0.024188045
43	0xbd34b298	-0.044115633
44	0xbd3d61ef	-0.046235975
45	0xbd432045	-0.047638196
46	0xbbd18513	-0.0063940375
47	0xbd55e228	-0.052217633
48	0x3b1a1ddf	0.002351634
49	0xbd0e3033	-0.034713935
50	0xbca62e07	-0.02028562
51	0xbcfa80a2	-0.030578915
52	0xbdc3d86b	-0.09562763
53	0xbc9dd0bf	-0.019264577
54	0x3d034e62	0.032057174
55	0xbcb752e2	-0.022378389
56	0xbd21f881	-0.039543632
57	0x3d8028f1	0.06257809
58	0xbb8711ea	-0.0041220086
59	0x3d094439	0.033512328
60	0xbc8e779e	-0.017391022
61	0xbcfc8376	-0.030824404
62	0xbd59c143	-0.053162824
63	0xbcccbc59	-0.024992155
64	0xbd60f362	-0.054919608
65	0xbd325bd2	-0.043544598
66	0x3cbce417	0.02305798
67	0xbcae88da	-0.02130549
68	0xbd528c4f	-0.05140334
69	0x3ca44ed2	0.020057116
70	0xbda88448	-0.08228356
71	0xbc99f9f3	-0.018795943
72	0xbd8b704f	-0.068085305
73	0x3b4b82b6	0.0031053252
74	0xbc530fe7	-0.012882209
75	0xbd36107f	-0.044449326
76	0xbd8bfbe5	-0.068351544
77	0xba20b7b4	-0.00061308895
78	0xbcfab33c	-0.030603044
79	0xbd382bcf	-0.044963654
80	0xbce89a1c	-0.028393798
81	0xbd4d4988	-0.050118953
82	0x3d7e04ac	0.062016174
83	0xbb9da884	-0.0048113484
84	0xbd15586d	-0.036461283
85	0xbc5bf02f	-0.013423963
86	0x3c13a2f0	0.009011015
87	0xbd6e9d00	-0.058255196
88	0xbcb220b6	-0.021744113
89	0x3d75e06a	0.06002847
90	0x3d542c60	0.05180013
91	0x3d26eccb	0.040753167
92	0xbd1290e0	-0.035782695
93	0xbdc3ebb2	-0.0956644
94	0xbd88505d	-0.06655953
95	0xbcb6dcdd	-0.022322113
96	0xbcffe24b	-0.031235835
97	0xbd344250	-0.044008553
98	0xbd1644fd	-0.036686886
99	0x3c0f8b9c	0.008761313
100	0x3c7331b3	0.014843392
101	0x3a836ca3	0.0010026883
102	0xbd947433	-0.07248726
103	0xbd4dd528	-0.05025211
104	0xbd0b65c1	-0.034032587
105	0xbd5fa44a	-0.054600038
106	0x3ccdb38f	0.025110034
107	0x3c82116e	0.015877452
108	0xbd8f9e1d	-0.070125796
109	0xbdccb42d	-0.09995303
110	0xbc5aa1d1	-0.013344244
111	0xbcec3a9e	-0.028836545
112	0xbba8d423	-0.005152242
113	0xbd850412	-0.06494917
114	0xbbc95b76	-0.006144936
115	0xbdae0d0e	-0.08498584
116	0xbcbe48af	-0.023228018
117	0x3dce4af5	0.10072891
118	0xbca98a6a	-0.020695884
119	0x3ce570eb	0.028007945
120	0xbc292070	-0.010322675
121	0x3cb23711	0.021754773
122	0x3bfbaef0	0.0076807663
123	0xbce022e2	-0.027360383
124	0xbd19da1c	-0.03756152
125	0x3aceca39	0.001577682
126	0x3d8f26f2	0.0698985
127	0xbd906caf	-0.0705198
128	0x3ce97b2f	0.028501121
129	0xbd734d9e	-0.059400193
130	0x3c43a4fe	0.011941193
131	0x3d548586	0.05188515
132	0xbd9c268c	-0.0762454
133	0xbd295415	-0.041339952
134	0x3d24fcf6	0.040280305
135	0xbd86b6bd	-0.06577823
136	0xbda425cd	-0.080150224
137	0xbbf442f7	-0.007454272
138	0xbccbfbfa	-0.024900425
139	0xbca0a529	-0.019610004
140	0xbd8d0013	-0.0688478
141	0xbab9b351	-0.001416782
142	0x3d9ccd7b	0.0765638
143	0x3c3259ea	0.010885695
144	0xbd9490a4	-0.072541505
145	0xbdb15733	-0.0865921
146	0xbd873bd6	-0.0660321
147	0xbd48b644	-0.049001947
148	0x3a73e705	0.0009304139
149	0x3c88d6b8	0.016703948
150	0x3d0d01a4	0.034425393
151	0xbd4e885c	-0.05042301
152	0xbda8606b	-0.08221515
153	0xbbc164eb	-0.005901923
154	0xbd462a0c	-0.048379943
155	0xbbe2c748	-0.006920729
156	0xbd13552f	-0.03596991
157	0xbd88b1a7	-0.066745095
158	0xbc516c74	-0.012782205
159	0xbd011895	-0.031517584
160	0xbd179a46	-0.03701236
161	0xbc18e762	-0.00933251
162	0xbce57c77	-0.028013451
163	0xbd602e3e	-0.0547316
164	0x3ab73693	0.0013978056
165	0xbd0f0f27	-0.03492656
166	0xbd222b5a	-0.039592125
167	0xbc7d00a4	-0.015442047
168	0xbd0bf8f7	-0.03417298
169	0xbd5d3dc6	-0.05401399
170	0xbd2fd45f	-0.042927142
171	0xbcb12509	-0.021624105
172	0x3b9d557b	0.00480145
173	0xbd87a20b	-0.06622704
174	0xbd927aa9	-0.07152302
175	0xbbb5ad12	-0.005544313
176	0xbd12d216	-0.035844885
177	0xbb45159d	-0.0030072697
178	0xbd56d1f0	-0.052446306
179	0xbbc63a66	-0.006049442
180	0xbce97ffd	-0.028503412
181	0xbbe4b148	-0.0069791414
182	0xbc9055d3	-0.01761905
183	0xbd4ab693	-0.049490523
184	0xbcf01fa6	-0.029311966
185	0xbc8a5cc9	-0.016889947
186	0xbd90dcfd	-0.070734
187	0xbd9c0d9c	-0.07619783
188	0x3d94bf41	0.07263041
189	0x3c8d1cae	0.01722559
190	0xbc36ccc5	-0.011157219
191	0x3cc9a0b2	0.024612758
192	0x3b69ee02	0.0035694842
193	0xbda31d2d	-0.07964549
194	0x3c26c6a7	0.010179198
195	0xbd381bb2	-0.044948287
196	0xbcb59fa6	-0.022170853
197	0x3c28257d	0.010262844
198	0xbce6e634	-0.028185941
199	0xbc4f8fe0	-0.01266858
200	0xbd0d1183	-0.03444053
201	0xbda001e3	-0.0781286
202	0x3ca57d6a	0.020201404
203	0xbc0726ae	-0.008248968
204	0x3c70d17d	0.014698383
205	0x3cb25c86	0.021772634
206	0xbc023d25	-0.007949148
207	0xbcbe0c92	-0.023199353
208	0xbd5a483a	-0.053291537
209	0xbb6f196b	-0.0036483656
210	0xbc01cf68	-0.007922985
211	0xbd9dc6ec	-0.07703957
212	0x3d2b17a4	0.041770592
213	0xbc9f6eb5	-0.019461969
214	0x3c239fdc	0.009986844
215	0xbd49d6d6	-0.04927715
216	0xbbb9a5e2	-0.0056655267
217	0x3aaabca0	0.0013026185
218	0x3c78fed5	0.015197475
219	0xbda7c4a1	-0.08191801
220	0xbcbf564b	-0.023356577
221	0xbcc8d6b4	-0.02451644
222	0x3d65c4bb	0.05609582
223	0xbd206c3c	-0.03916572
224	0xbd295054	-0.041336372
225	0xbda95679	-0.082684465
226	0x3c068ef5	0.008212795
227	0x3bf39e69	0.0074346554
228	0xbd91fe5d	-0.07128594
229	0xbd62b720	-0.055350423
230	0x3ac178d2	0.0014760739
231	0xbc84a274	-0.016190745
232	0x3c26d02b	0.010181467
233	0x3c88e35e	0.01670998
234	0x3c6e2c0d	0.01453687
235	0xbda11dcc	-0.078670114
236	0xbca42b4d	-0.020040179
237	0xbd559f63	-0.052153956
238	0x3ba2bb18	0.004966151
239	0x3cdb1427	0.026743008
240	0x3d5436e6	0.051810168
241	0xbd22af81	-0.039718155
242	0xbcc504f4	-0.024050213
243	0xbdb3d4cb	-0.087808214
244	0xbd5f6995	-0.05454405
245	0xbc8b1306	-0.016976845
246	0xbd953b72	-0.07286729
247	0xbd004c6e	-0.03132289
248	0xbdb0f7cd	-0.08641014
249	0xbd68baef	-0.0568189
250	0xbd4a07d3	-0.049323868
251	0x3d77d32c	0.060504124
252	0xbce239b8	-0.027615413
253	0xbcd4898e	-0.025944497
254	0x3a82ccc4	0.0009979238
255	0x3c2c298d	0.010507953

layer2.0.weight f4 [84, 256]
0	0x3d6c091e	0.057625882
1	0xbdb87837	-0.09007304
2	0xbd54636c	-0.05185263
3	0xbd9d6822	-0.076858774
4	0x3d5b7f52	0.05358822
5	0x3c7bdc68	0.015372373
6	0x3bf22230	0.0073893294
7	0xbc34ba18	-0.011030696
8	0x39978600	0.00028900802
9	0xbc3b7c88	-0.011443265
10	0xbc3757e8	-0.011190392
11	0x3c14e590	0.009087935
12	0x3cfd0c64	0.030889697
13	0xbc6eef48	-0.014583416
14	0xbdb8dc71	-0.09026421
15	0xbda63b50	-0.08116782
16	0xbd62dc2a	-0.055385746
17	0x3cc95234	0.02457533
18	0x3bb74270	0.0055926368
19	0xbd07f68e	-0.033194117
20	0xbce89ae8	-0.028394178
21	0x3b11f340	0.0022270232
22	0x3cdc838c	0.026918195
23	0xba984e80	-0.0011620075
24	0xbc7033a8	-0.014660753
25	0x3cb2ada4	0.021811314
26	0xbd45b1f4	-0.048265412
27	0x3c0c7be8	0.008574463
28	0xb9ee6758	-0.00045471895
29	0x3cfee30c	0.031114124
30	0x3d3bd068	0.04585305
31	0xbce5a218	-0.028031394
32	0xbb1c88a0	-0.0023885146
33	0xbce50ed4	-0.027961172
34	0xbc037550	-0.008023575
35	0x3d6ce422	0.057834752
36	0x3cc31c30	0.023817152
37	0x3d3279c0	0.04357314
38	0xbd7e65a4	-0.06210865
39	0x3a879a80	0.0010345727
40	0xbbe48a90	-0.0069745257
41	0xbd633070	-0.055466115
42	0x3d127bf2	0.035762735
43	0xbb8dbd70	-0.004325561
44	0xbcd46c00	-0.025930405
45	0x3bf341b0	0.007423602
46	0xba635680	-0.00086722523
47	0x3cee41c0	0.029084086
48	0x3d0bb6d0	0.03410989
49	0xbd94a582	-0.072581306
50	0xbd83d515	-0.064371265
51	0xbcb88130	-0.022522539
52	0x3ce7ceac	0.028296791
53	0x3cacd070	0.021095484
54	0xbbd24470	-0.00641685
55	0x3d14af34	0.0362999
56	0xbb493ca0	-0.0030706301
57	0xbd16fcd8	-0.036862224
58	0xbd1157ba	-0.035484053
59	0x3d4c5d0a	0.049893416
60	0xbd14fa6a	-0.036371626
61	0x3c437938	0.011930756
62	0xbcb6a1e4	-0.022293992
63	0xbce933c7	-0.028467072
64	0x3d77cca6	0.060497902
65	0xbd49f8da	-0.04930959
66	0xbb87f7d0	-0.0041494146
67	0x3c0b6fc8	0.008510537
68	0xbca1b044	-0.01973737
69	0xbcf0b104	-0.029381283
70	0x3d2153a2	0.0393864
71	0xbd18ec28	-0.03733459
72	0xbcf5db14	-0.030011691
73	0x3d21ab14	0.039469793
74	0x3d2a7dd8	0.04162392
75	0xbc1aee00	-0.009456158
76	0x3d632acc	0.055460736
77	0x3cbc156c	0.022959433
78	0xbcda3e88	-0.026641145
79	0xbc9cce40	-0.019141316
80	0x3d09c4bc	0.033634886
81	0x3d60978e	0.054832034
82	0xbd85cf23	-0.06533649
83	0x3d27e688	0.040991336
84	0xbd6a76f2	-0.05724234
85	0x3cb800e4	0.022461362
86	0xbd735132	-0.059403606
87	0xbd251998	-0.04030761
88	0xbb7c00c0	-0.0038452595
89	0xbd9ade70	-0.07561958
90	0xbd25f780	-0.040519238
91	0x3c984d31	0.018591495
92	0x3cd2f394	0.025750913
93	0x3c85c9dc	0.016331606
94	0x3d5bbd5c	0.053647384
95	0x3cb720e0	0.022354543
96	0x3d605364	0.054767027
97	0x3c850ef4	0.016242482
98	0x3b28b640	0.0025743395
99	0xbd337a2c	-0.043817684
100	0xbd246053	-0.040130924
101	0x395f4800	0.0002129376
102	0xbd3f74be	-0.046742193
103	0xbc69e270	-0.014275178
104	0x3cf88a30	0.03033933
105	0xbcf2e99c	-0.02965241
106	0xbce25858	-0.027630016
107	0xbcb2d9b1	-0.021832319
108	0xbc4b8830	-0.012422606
109	0xbc7d1208	-0.0154461935
110	0x3d31f772	0.043448873
111	0xbc05c798	-0.008165263
112	0x39c35c00	0.00037261844
113	0x3d022b60	0.031779647
114	0x3c3bf9f8	0.011473171
115	0x3d536858	0.05161318
116	0x3c4fb2a8	0.012676872
117	0x3cc69913	0.024242913
118	0x3c78d7e2	0.015188189
119	0x3c883bd8	0.016630098
120	0xbd4878aa	-0.0489432
121	0xbd1e144a	-0.038593568
122	0xbda89b1c	-0.0823271
123	0xbd04d4c2	-0.032429464
124	0x3d0717f2	0.03298182
125	0xbd223de0	-0.03960979
126	0xbd83058d	-0.06397543
127	0xbd4b2d72	-0.049603887
128	0xbc3678b0	-0.011137173
129	0xbd0fd414	-0.035114363
130	0xbad35680	-0.0016123801
131	0xbd36afd6	-0.044601284
132	0x3cdcd3e8	0.026956514
133	0x3d49d4d4	0.049275234
134	0x3d4b6f86	0.049666904
135	0x3bc8f7d0	0.006133057
136	0x3d2ea85a	0.04264102
137	0xbd4d0e40	-0.050062418
138	0xbd50198c	-0.050805613
139	0x3c322710	0.010873571
140	0x3d64a608	0.055822402
141	0xbdb7216e	-0.08941923
142	0x3cb65bb9	0.022260534
143	0xbd737088	-0.05943349
144	0xbd788bad	-0.06068008
145	0xbd313362	-0.043261893
146	0xbcc4b1fc	-0.02401065
147	0xbd749ac4	-0.05971791
148	0x3b1c80a0	0.0023880377
149	0xbd217402	-0.039417274
150	0xbce1f5cc	-0.027583025
151	0x3d59cea2	0.053175576
152	0xbd2b4010	-0.04180914
153	0x3d3c49f4	0.045968965
154	0x3b859b40	0.004077345
155	0x3d0746da	0.033026554
156	0xbca7c758	-0.020480797
157	0x3d2d89ea	0.042367853
158	0x3d2f1a8a	0.04274992
159	0xbcc8e630	-0.024523824
160	0x3b87a510	0.00413955
161	0xbd507944	-0.050896898
162	0xbca73168	-0.0204093
163	0x3b9b61e0	0.004741892
164	0xbd4d75cc	-0.050161168
165	0x3cf206a0	0.029544175
166	0x3d71a966	0.05899944
167	0xbc0eee00	-0.008723736
168	0xbb0a76e0	-0.0021127984
169	0x3ce70670	0.028201312
170	0xbd5aaf94	-0.0533901
171	0x3b4dca80	0.0031401217
172	0xbc1e3f6d	-0.009658677
173	0x3d082416	0.03323754
174	0x3d6b6a3a	0.057474352
175	0x3ce7118e	0.028206613
176	0x3d2ff6bc	0.042959914
177	0xbbf22a20	-0.0073902756
178	0xbd5b2a58	-0.05350718
179	0x3cce3ed8	0.02517645
180	0xbd353af0	-0.04424566
181	0xbcf5712c	-0.029961191
182	0x3d32f958	0.043694824
183	0x3b8cf630	0.004301809
184	0x3d00d168	0.031449705
185	0xbd54f0b7	-0.051987376
186	0x3d7738d8	0.060356945
187	0xbd61a9d2	-0.055093594
188	0x3cb6d24d	0.022317076
189	0xbdb5e769	-0.088820286
190	0x3c546780	0.012964129
191	0xbd136af6	-0.035990678
192	0xbdb739be	-0.0894656
193	0x3d647222	0.055772908
194	0xbd5cfc18	-0.053951353
195	0xbcb720cc	-0.022354506
196	0x3d080e76	0.033216916
197	0x3d2a341e	0.04155361
198	0x3ca9ea9c	0.020741753
199	0xbcec3a1c	-0.028836302
200	0xbd69ff60	-0.05712831
201	0x3d20fe7a	0.039305188
202	0x3d19abdc	0.037517413
203	0xbca10a9c	-0.01965838
204	0xbdbaf971	-0.091296084
205	0xbc3f63e0	-0.011681527
206	0xbd403789	-0.046927962
207	0xbd219132	-0.03944511
208	0x3c81a5e0	0.015826166
209	0xbda103f8	-0.07862085
210	0x3d6caeda	0.05778394
211	0x3c05a108	0.008156069
212	0x3c9916fc	0.018687718
213	0x3ad23440	0.00160373
214	0xbaf905f2	-0.0018998964
215	0xbbd94550	-0.006630577
216	0xbd0fbaca	-0.035090245
217	0xbd214da1	-0.039380673
218	0xbd74b47c	-0.059742436
219	0x3b5c7640	0.0033639818
220	0xbc5839a1	-0.013197334
221	0x3c351a88	0.011053689
222	0x3c2b0634	0.010438491
223	0xbcb8838c	-0.022523664
224	0xbd1626d6	-0.03665813
225	0xbcd6ddd8	-0.02622883
226	0x3d06b673	0.03288884
227	0xbd18e3da	-0.03732667
228	0x3cfba964	0.03072042
229	0x3c65bb68	0.014021732
230	0x3ba15c60	0.004924342
231	0x3d24dcb2	0.040249534
232	0xbcc7033a	-0.02429353
233	0x3c1e70f0	0.009670481
234	0x3d45e1d8	0.048311085
235	0x3d46e2fa	0.048556305
236	0xbcc93354	-0.024560608
237	0xbd1b6d5a	-0.037946083
238	0x3c0d57a7	0.008626855
239	0x3d4b7158	0.04966864
240	0xbcef358b	-0.029200336
241	0x3cd17514	0.025568523
242	0xbc35a958	-0.011087738
243	0xbce2bff0	-0.027679414
244	0xbd08e046	-0.03341701
245	0x3d0b55e2	0.03401745
246	0x3d2d7a30	0.042352855
247	0xbc08c6c8	-0.008348174
248	0x3ac0f080	0.0014720112
249	0xbd71ba18	-0.059015363
250	0xbcc094a4	-0.023508377
251	0x3c6816bf	0.014165579
252	0xbd023b2e	-0.03179472
253	0xbc8e8b48	-0.017400399
254	0x3d370a28	0.04468742
255	0xbc2d0430	-0.01056008

layer2.0.bias f4 [84]
0	0x3d20431b	0.039126497
1	0x3c3a9bc0	0.011389673
2	0x3bf066dd	0.007336481
3	0x3d169e2c	0.03677194
4	0x3c6b7587	0.014371282
5	0xbc751f29	-0.014961042
6	0x3ccf7365	0.02532358
7	0x3d3f88a6	0.046761177
8	0xbd7a86fe	-0.061163895
9	0x3d1297b9	0.035789225
10	0x3c80e14c	0.01573243
11	0xbd5f7f1f	-0.05456459
12	0x3c41239c	0.011788275
13	0x3d40937a	0.047015645
14	0x3cd9df35	0.026595691
15	0xbd4fc35d	-0.050723422
16	0x3d4f128c	0.050554797
17	0xbcd448ca	-0.025913615
18	0xbd2e86a8	-0.042608887
19	0x3d6708f6	0.05640503
20	0x3c11d82c	0.008901637
21	0x3c28cfa8	0.010303415
22	0xbd5dfd38	-0.054196566
23	0x3c9ccc50	0.019140393
24	0xbc80f658	-0.015742466
25	0x3ca941e6	0.020661306
26	0x3d33085e	0.04370915
27	0xbd3f92ae	-0.046770744
28	0x3d80496f	0.06264006
29	0xbda9f6b6	-0.082990095
30	0xbc79b95a	-0.015241945
31	0xbcc5b02d	-0.024131859
32	0xbc0fdd04	-0.008780722
33	0xbdd98040	-0.10620165
34	0xbd83d849	-0.064377375
35	0xbd64f6f9	-0.055899594
36	0xbc8d6361	-0.017259302
37	0x3d7479a5	0.05968632
38	0x3cc61f2a	0.024184782
39	0xbd8a3425	-0.06748227
40	0xbc425a28	-0.011862315
41	0xbcc8fbb0	-0.024534076
42	0xbc8881a9	-0.01666339
43	0x3d32243c	0.043491587
44	0xbc12054f	-0.0089123985
45	0xbc382935	-0.011240293
46	0xbd15361c	-0.036428556
47	0xbd8fd0d3	-0.07022252
48	0xbdaa0c9a	-0.08303185
49	0xbd201142	-0.03907896
50	0xbd8cf4ac	-0.06882605
51	0xbdcc9f1e	-0.09991287
52	0xbdca9d6d	-0.09893308
53	0xbd054062	-0.032532103
54	0xbd71319d	-0.058885206
55	0x3d711d21	0.05886567
56	0xbdad2289	-0.08453853
57	0x3d51da84	0.051233783
58	0x3dbc99bc	0.0920901
59	0x3c5a2b77	0.013316027
60	0xbd510f93	-0.051040243
61	0xbdb41d98	-0.08794707
62	0x3cbd4418	0.023103759
63	0xbcca701c	-0.024711661
64	0xbd3f6b04	-0.046732917
65	0xbb0e6a94	-0.0021731006
66	0xbdc9d32f	-0.09854733
67	0xbd2f6690	-0.04282242
68	0xbca5154c	-0.020151757
69	0x3d2f32a2	0.042772897
70	0xbda5546f	-0.08072745
71	0xbda33dda	-0.079707816
72	0x3c99bd9a	0.018767167
73	0xbd7097b6	-0.058738433
74	0x3d2035cd	0.03911381
75	0x3c983dc3	0.018584138
76	0xbd94c103	-0.072633766
77	0xbc836f9b	-0.016044429
78	0xbd62c449	-0.055362973
79	0x3b506b9b	0.003180242
80	0xbd230b64	-0.039805785
81	0xbd8228db	-0.06355449
82	0xba314e27	-0.000676366
83	0x3d17a39c	0.037021264

layer3.0.weight f4 [6, 84]
0	0xb998e20f	-0.00029160126
1	0xbc1f4eb4	-0.009723354
2	0xbcac078c	-0.020999692
3	0xbcfe0464	-0.031007953
4	0x3b22c1d8	0.0024834778
5	0xbc039dc9	-0.008033224
6	0xbdd5f7a5	-0.10447625
7	0x3d8250bf	0.06363057
8	0xbd2f96f9	-0.042868588
9	0x3c14cb97	0.009081743
10	0xbc468d1a	-0.012118602
11	0x3ce9ebd7	0.02855484
12	0xbd5e6267	-0.054293063
13	0xbcb84b40	-0.02249682
14	0x3d582e1f	0.05277836
15	0x3b166838	0.0022950303
16	0x3c659bb8	0.014014177
17	0xbc74c3f6	-0.014939299
18	0xbdc791ad	-0.09744582
19	0x3de97569	0.11399347
20	0xbdf7a997	-0.120928936
21	0xbd3816c2	-0.04494358
22	0xbb7fc6e3	-0.0039028458
23	0x3dd53a9b	0.10411569
24	0xbd8f8b75	-0.07009021
25	0x3d1d1710	0.038352072
26	0xbd8ac901	-0.0677662
27	0x3d2c229d	0.042025197
28	0xbdec9d9e	-0.115535006
29	0x3b18155c	0.002320609
30	0xbda5b01e	-0.08090232
31	0xbc8d0182	-0.017212633
32	0xbd82ff1b	-0.06396314
33	0x3dfa5b5b	0.12224456
34	0xbda64fd1	-0.081206925
35	0xbd806785	-0.06269745
36	0x3db0f777	0.0864095
37	0x3c92db20	0.017926753
38	0xbd63a8ac	-0.05558078
39	0x3d59d1a5	0.05317845
40	0xbe0624fb	-0.13100044
41	0xbb495370	-0.0030719899
42	0x3cc7026b	0.024293145
43	0x3d0e408a	0.034729518
44	0x3db57c9a	0.088616565
45	0x3d902d39	0.070398755
46	0x3cf03c4e	0.02932563
47	0xbd450cbc	-0.048107848
48	0x3cd064d6	0.025438707
49	0x3d26fae8	0.040766627
50	0x3c22d1aa	0.009937683
51	0x3dca0e4d	0.09866009
52	0x3c4e0c5a	0.012576187
53	0xbdff118a	-0.12454517
54	0x3c629d96	0.013831517
55	0xbd8e91d1	-0.06961406
56	0x3d3a01b8	0.045411795
57	0xbdc2464c	-0.09486064
58	0x3cabc20d	0.020966554
59	0xbdcf9dd9	-0.10137529
60	0x3c2df20d	0.010616791
61	0xbdb841ed	-0.08996949
62	0x3d41157f	0.04713964
63	0x3d43011d	0.047608484
64	0xbd5ff499	-0.054676626
65	0xbd6e95b7	-0.058248248
66	0xbd3d576f	-0.04622596
67	0xbd60ff2e	-0.05493086
68	0x3db5b30e	0.088720426
69	0x3b39a38d	0.0028326244
70	0xbe19559b	-0.14974062
71	0xbd088d98	-0.03333816
72	0x3d239714	0.039939
73	0xbd517fa2	-0.05114711
74	0x3cdbd4ac	0.026834808
75	0xbdfab24a	-0.12241037
76	0xbd818710	-0.06324589
77	0x3e06712c	0.13129109
78	0xbde3fea0	-0.1113255
79	0x3d59f096	0.053207956
80	0xbc326510	-0.010888353
81	0x3d6a3c8a	0.05718664
82	0x3d4d2e57	0.05009302
83	0xbd5355a1	-0.051595334
84	0x3c05c8a8	0.008165516
85	0xbc56320d	-0.0130734565
86	0x3dd0d1ff	0.101963036
87	0xbc403508	-0.011731394
88	0x3dfa4d4c	0.122217745
89	0xbd78f5c7	-0.060781267
90	0x3d453584	0.04814674
91	0xbd87c52a	-0.06629403
92	0xbce243a1	-0.027620139
93	0x3ddb2e54	0.10702196
94	0x3e123b22	0.1428037
95	0x3e01c47d	0.1267261
96	0xbda3b3b6	-0.079932615
97	0x3d518ce7	0.051159766
98	0x3da90881	0.08253575
99	0xbcee4251	-0.029084357
100	0x3ddeb72f	0.10874783
101	0xbd1e1160	-0.03859079
102	0xbd463dcf	-0.04839879
103	0xbd130ed0	-0.0359028
104	0xbd516a31	-0.051126663
105	0xbd2010fc	-0.039078698
106	0x3dd1438d	0.102179624
107	0xbd7285db	-0.059209686
108	0xbc4557a4	-0.012044821
109	0xbcfc9a7c	-0.030835383
110	0x3d8cfc01	0.068840034
111	0x3d7c5c0b	0.061611217
112	0xbe0cc48b	-0.1374685
113	0xbd039ae5	-0.03213014
114	0xbdd7fac5	-0.10545877
115	0xbdc07d38	-0.093988836
116	0x3d52ee30	0.051496685
117	0xbd158a13	-0.03650863
118	0x3cc28819	0.023746537
119	0x3cf3498d	0.029698158
120	0x3b18f93b	0.0023341912
121	0x3c49d9c7	0.012319989
122	0xbcc8ad4e	-0.0244967
123	0x3c809168	0.015694335
124	0x3aaf4379	0.0013371549
125	0x3be023e2	0.006840215
126	0x3d9df907	0.07713514
127	0x3dd5e3e5	0.10443858
128	0xbd6064e3	-0.054783713
129	0xbd82f0b3	-0.06393566
130	0xbd5b2255	-0.05349954
131	0xbe011a62	-0.1260772
132	0x3d463dcb	0.048398774
133	0x3ddf2f33	0.108976744
134	0xbd95fcf4	-0.073236376
135	0x3da67d30	0.08129346
136	0xbbab9a2a	-0.0052368836
137	0xbcebb7f1	-0.028774234
138	0xbd72bc4d	-0.05926161
139	0xbde74ced	-0.11293969
140	0x3da08ced	0.078393795
141	0x3d860dea	0.06545623
142	0xbbb945ad	-0.005654058
143	0x3d3d6d01	0.046246532
144	0x3d9ece38	0.07754177
145	0x3dc6eb47	0.09712844
146	0x3d082dfb	0.033246975
147	0xbd4a3040	-0.04936242
148	0xbd8dda4f	-0.06926405
149	0x3d8056e3	0.06266572
150	0xbd2f3b51	-0.042781178
151	0xbd2350c6	-0.039871953
152	0xbd4498f8	-0.047997445
153	0xbd306c4f	-0.04307204
154	0x3cb6792f	0.022274582
155	0x3cbb8563	0.022890752
156	0xbda58c74	-0.0808343
157	0xbdcb7b39	-0.09935612
158	0xbb9141fa	-0.004432914
159	0xbd4b3dc0	-0.049619436
160	0xbc02db28	-0.007986821
161	0x3c4f55ad	0.012654704
162	0x3c754d5e	0.014972059
163	0x3d5d67da	0.05405412
164	0xbdb92def	-0.09041964
165	0x3dee7e81	0.116452225
166	0x3d20a19d	0.039216626
167	0xbda506d0	-0.0805794
168	0x3d704cbe	0.058666937
169	0x3dbbee7f	0.09176349
170	0xbdc002d1	-0.09375537
171	0xbc032bb0	-0.008006021
172	0x3ca34a7f	0.019932983
173	0x3db44ab0	0.08803308
174	0x3d447e82	0.04797221
175	0xbdaf5c78	-0.08562559
176	0x3db99b2a	0.09062798
177	0x3d535068	0.051590353
178	0xbbc723c5	-0.006077262
179	0x3e1331bd	0.14374442
180	0x3d816699	0.06318397
181	0xbdbf2feb	-0.093353115
182	0x3d497268	0.049181372
183	0xbdc1be62	-0.09460141
184	0xbcd5556c	-0.026041709
185	0x3db41549	0.08793122
186	0xbd832bc8	-0.06404835
187	0xbd6d3c8a	-0.057919063
188	0xbda6b6ad	-0.081403114
189	0xbdbb6a5e	-0.09151147
190	0x3bde65f7	0.0067870575
191	0xbd63a268	-0.055574805
192	0xbd8589d0	-0.06520426
193	0x39e2f854	0.00043291098
194	0xbd2bf973	-0.04198594
195	0xbda00d4c	-0.07815036
196	0xbd3e57de	-0.046470515
197	0xbe075a12	-0.13217953
198	0x3c3f2648	0.011666842
199	0x3d3c5df1	0.045988027
200	0x3d1ed848	0.03878048
201	0x3c94f7cb	0.018184563
202	0x3d387ba4	0.045039788
203	0x3da3c483	0.07996466
204	0xbd4114c0	-0.04713893
205	0xbd941669	-0.07230837
206	0x3d43b48b	0.0477796
207	0xbc9ff941	-0.019528033
208	0x3d1844f4	0.037175134
209	0x3e1c8324	0.15284401
210	0xbbe4c96a	-0.0069820182
211	0x3d5238c3	0.051323663
212	0x3d84ecc9	0.06490476
213	0x3d081b7a	0.03322933
214	0xbd6c57bf	-0.05770087
215	0xbd3f9273	-0.046770524
216	0x3c022f0a	0.007945785
217	0xbd122955	-0.03568395
218	0x3cbf3b09	0.02334358
219	0xbd8387ec	-0.064224094
220	0xbc29dba2	-0.010367306
221	0xbe0d0a8c	-0.13773555
222	0xbd6a5154	-0.057206467
223	0xbd06beb6	-0.03289672
224	0x3e1c997e	0.15292928
225	0x3bcd7724	0.006270306
226	0xbd98fbb6	-0.07469885
227	0x3ce79330	0.028268427
228	0x3da45cb0	0.08025491
229	0x3d68929c	0.056780443
230	0xbd227bc2	-0.039668806
231	0x3cf82b53	0.030294096
232	0x3d40ee12	0.04710204
233	0xbc4262b4	-0.011864353
234	0xbdd366fd	-0.10322378
235	0xbdf814a7	-0.12113314
236	0xbe07220f	-0.13196586
237	0x3c906c62	0.017629806
238	0xbd37dcb7	-0.044888224
239	0x3d15c174	0.036561444
240	0xb9e2764a	-0.0004319421
241	0x3d26c98e	0.04071956
242	0xbd030a05	-0.031991977
243	0x3dca6529	0.09882576
244	0x3c8ce931	0.017201038
245	0xbdeba5bc	-0.11506221
246	0x3e06ecc1	0.13176252
247	0xbd309194	-0.043107584
248	0xbb790ee0	-0.003800325
249	0x3dbff908	0.09373671
250	0xbcf765dc	-0.030199938
251	0xbd73ee80	-0.059553623
252	0xbd9a9f6a	-0.07549937
253	0x3df63111	0.120210774
254	0xbdb1dc11	-0.086845525
255	0xbdd67b3d	-0.104727246

layer3.0.bias f4 [6]
0	0x3d8452e3	0.06461122
1	0xbd3a36fe	-0.0454626
2	0x3d062e8d	0.032759238
3	0xbd99ab49	-0.07503373
4	0x3a6e2745	0.0009084831
5	0x3dc0f98c	0.09422597
