DigitalRecognition-master/model_params/GDUT_net_all_16.pt (torch, 665623 bytes, 6 tensors)

layer1.0.weight f4 [256, 560]
0	0x3c6bfd50	0.014403656
1	0x3c617458	0.013760649
2	0xbb747270	-0.0037299655
3	0xbb5727e0	-0.0032830164
4	0xbc1d8bc0	-0.0096158385
5	0x3d115a88	0.035486728
6	0xbc98d2f0	-0.01865527
7	0xbcd5be61	-0.026091756
8	0xbcc67db0	-0.024229854
9	0x3d0784f4	0.03308578
10	0x3b2b806e	0.002616908
11	0x3ca500f0	0.020142049
12	0x3c1d18d0	0.009588435
13	0xbcfc7d1c	-0.030821376
14	0xbc82b8cd	-0.01595726
15	0xbc0b6814	-0.008508701
16	0x3c5a2334	0.013314057
17	0x3d24702e	0.040146045
18	0xbd132704	-0.03592588
19	0x3c7a5e9c	0.015281346
20	0xbc8c0029	-0.01708992
21	0xbc93b5ef	-0.018031089
22	0xbc59271e	-0.013253955
23	0x3cdef5f8	0.027216896
24	0x3cfc5d49	0.0308062
25	0xbc195478	-0.009358518
26	0x3b834ed7	0.004007201
27	0x39dc2806	0.0004199149
28	0xbcd81afa	-0.02638005
29	0xbc61c803	-0.013780597
30	0x3d28ceb0	0.041212738
31	0x3cfed600	0.031107903
32	0x3c7a1cc1	0.0152656445
33	0xbd23e596	-0.040013872
34	0x3d046d94	0.032331064
35	0x3d22037d	0.039554108
36	0xbc6aafaa	-0.014324108
37	0xbcfbae76	-0.030722838
38	0xbd2270c5	-0.039658327
39	0x3c99b1ea	0.018761594
40	0xbd07f240	-0.033190012
41	0xbd16d8d0	-0.036827862
42	0xbd1cac64	-0.038250342
43	0xbd17e636	-0.03708478
44	0x3c64ea04	0.013971809
45	0xbc59d268	-0.013294794
46	0x3cc29254	0.023751415
47	0x3d0d8f1c	0.034560308
48	0xbd03b265	-0.032152552
49	0x3bf1f304	0.007383706
50	0x3d23c5ac	0.039983436
51	0xbcdea6ce	-0.027179148
52	0x3b4f6681	0.003164679
53	0x3cc7acf7	0.024374468
54	0x3c8b06d0	0.016971022
55	0x3d182c24	0.03715147
56	0x3d243783	0.040092003
57	0x3cb732f0	0.022363156
58	0x3aa82f80	0.0012831539
59	0x3cb74fa8	0.02237685
60	0xbd074a6d	-0.033029962
61	0xbc91d95c	-0.01780384
62	0x3cb1e2ec	0.02171465
63	0x3d29962e	0.041402988
64	0xbcfd11dc	-0.030892305
65	0xbc4f4f94	-0.01265325
66	0xbd1c6bf5	-0.038188893
67	0x3cc9180a	0.024547596
68	0xbd20e64f	-0.03928214
69	0xbc878f3c	-0.016547792
70	0xbd2e1fed	-0.042510916
71	0x3c2f28d0	0.010690883
72	0xbd01ca64	-0.031687155
73	0xbd051bc0	-0.032497168
74	0xba30d4c2	-0.00067455706
75	0xbcf9886d	-0.03046056
76	0xbc684bff	-0.014178275
77	0xbca09670	-0.019602984
78	0xbc475e6c	-0.012168508
79	0xbc2bf728	-0.010495938
80	0xbc2ade60	-0.010428995
81	0xbc3c2f2a	-0.011485854
82	0x3c935454	0.017984547
83	0x3cd46dd8	0.025931284
84	0xbcd9ce7c	-0.026587717
85	0xbce44776	-0.027866106
86	0x3c8fd2c0	0.017556548
87	0x3cc5791a	0.024105597
88	0x3d005a8d	0.031336356
89	0xbd1c0550	-0.038091004
90	0x3aa05c6b	0.0012234574
91	0x3bf6bd61	0.0075299
92	0xbcaa9bbc	-0.020826213
93	0xbd24d603	-0.04024316
94	0xbb910522	-0.0044256607
95	0x3ce3d03d	0.027809257
96	0xbcb78cc0	-0.022405982
97	0x3cf09d90	0.029372007
98	0x3c4a0b44	0.0123317875
99	0xbc0aa9b4	-0.008463312
100	0x3cc0d83c	0.023540609
101	0xbca72fb5	-0.02040849
102	0x3c782e18	0.015147708
103	0x3d1569bc	0.03647779
104	0xbcf0f9b9	-0.029415952
105	0x3d0b586d	0.034019876
106	0xbc87383d	-0.016506309
107	0x3ce1ded6	0.027572077
108	0x3c59c8fa	0.013292545
109	0xbd296680	-0.041357517
110	0xbcb85546	-0.022501599
111	0xbc97e72e	-0.018542852
112	0x3d158d94	0.036511973
113	0xbad9f666	-0.0016629219
114	0x3a64f1b7	0.0008733528
115	0x3d2e99b0	0.042627037
116	0xbc914433	-0.017732715
117	0xbd27ab21	-0.040934686
118	0xbcc8dfea	-0.024520833
119	0x3c0be688	0.00853885
120	0xbc247110	-0.010036722
121	0xbb92d0b0	-0.004480444
122	0x3a6d1b00	0.0009044856
123	0x3bc7ebc0	0.0061011016
124	0xbd02ff39	-0.03198168
125	0xbc6bdb91	-0.01439561
126	0x3b9fe0f9	0.0048791138
127	0xbc5e516e	-0.013569219
128	0x3d28f586	0.041249774
129	0xbb863ff4	-0.0040969793
130	0xbd271c34	-0.04079838
131	0x3bc5d85e	0.006037756
132	0xbcc751ff	-0.024331091
133	0x3c288e9d	0.010287908
134	0xbaf39d4b	-0.0018586306
135	0xbaff1dc3	-0.0019463826
136	0xbd1915d6	-0.03737434
137	0xbcb101ac	-0.021607243
138	0xbcb719e1	-0.022351207
139	0xbd146383	-0.036227714
140	0x3afb4fe0	0.0019173585
141	0x3b6ae270	0.0035840534
142	0x3bc6ee13	0.006070861
143	0xbc909dc1	-0.017653348
144	0xbce7f50a	-0.028315086
145	0x3cd597d2	0.02607337
146	0x3bf35359	0.0074257073
147	0x3a1140d0	0.0005540969
148	0xbc6db1fd	-0.014507768
149	0x3ce1603a	0.027511705
150	0x3cfcc13d	0.030853862
151	0xbc6dd9e7	-0.014517284
152	0xbcf72566	-0.0301692
153	0x3cd46cf9	0.025930868
154	0x3d0a7ca3	0.03381027
155	0xbba98394	-0.005173156
156	0xbc60ad72	-0.013713228
157	0xbcf2e86f	-0.029651849
158	0xbcb8427f	-0.022492645
159	0xbd1ab425	-0.037769455
160	0x3b146b80	0.0022647083
161	0x3aebc420	0.0017987527
162	0x3bde9ff8	0.006793972
163	0x3b6a0765	0.0035709974
164	0x3c7bc8df	0.015367716
165	0xb9deff5f	-0.00042533406
166	0x3c960e34	0.01831732
167	0x3c9378e2	0.018001977
168	0x3ccac6e4	0.024753042
169	0xbd29b642	-0.04143358
170	0xbd087805	-0.033317585
171	0x3cd06f93	0.025443828
172	0x3cf83d38	0.030302629
173	0x3bcc0c0d	0.0062270225
174	0x3bc8159a	0.0061060907
175	0xbb0c1ddf	-0.002138011
176	0x3d11af2b	0.035567444
177	0x3c22334d	0.009899926
178	0xbceda5fd	-0.029009813
179	0x3c2e87cc	0.010652494
180	0x3ca8182c	0.020519339
181	0xbc9e9221	-0.019356789
182	0xbb3d7f00	-0.002891481
183	0x3c1309e7	0.008974529
184	0x3d0d5e0b	0.034513514
185	0x3c4f11b0	0.012638494
186	0x3c7d4479	0.01545822
187	0xbc7c37aa	-0.015394131
188	0x3c4f9944	0.012670819
189	0x3c9a36f4	0.018825032
190	0xbc07a450	-0.008278921
191	0xbc3c7a5e	-0.011503784
192	0xbc28446d	-0.01027022
193	0xbcb787e7	-0.02240367
194	0x3c97f103	0.01854754
195	0x3d0572f7	0.032580342
196	0x39c129af	0.00036842885
197	0x3d2276bc	0.039664015
198	0xbc7f1762	-0.01556954
199	0xbc8e2ae3	-0.017354434
200	0xbbb499a8	-0.0055114813
201	0x3ca08d20	0.019598544
202	0xbaf0ba20	-0.0018366016
203	0xbce15d39	-0.027510272
204	0x3ca4f711	0.020137342
205	0x3b4519fb	0.00300753
206	0xbc280e19	-0.010257267
207	0xbc3a607f	-0.0113755455
208	0x3d14629e	0.03622686
209	0x3c37bb10	0.011214033
210	0x3b9598d2	0.0045653367
211	0x3ce75fa5	0.028243849
212	0xbcbba1d6	-0.022904318
213	0x3c5badec	0.013408165
214	0x3d0879b8	0.033319205
215	0xbc8862de	-0.016648706
216	0x3cbe5f5c	0.02323883
217	0xbd23a38a	-0.039950885
218	0xbc140bbf	-0.009036004
219	0x3d098ce0	0.033581614
220	0xbc97c939	-0.018528568
221	0xbd008c1c	-0.03138362
222	0x3d2533d2	0.040332623
223	0xbce9263b	-0.028460613
224	0x3c7642e4	0.015030596
225	0x3c711ec9	0.014716812
226	0xbc20b420	-0.00980857
227	0xbd17b64b	-0.037039082
228	0xbbeec80e	-0.007287032
229	0xbce4d8e5	-0.027935455
230	0xbc9164ad	-0.017748201
231	0x3c9c44b6	0.019075733
232	0x3c3e16b8	0.011602096
233	0x3c3f547e	0.011677859
234	0xbc4d9dc2	-0.012549819
235	0x3c1a8564	0.009431217
236	0x3c14bfca	0.009078929
237	0xbd2a482e	-0.041572742
238	0x3d2aecfe	0.04172992
239	0xbd01d239	-0.031694625
240	0xbc6dca7a	-0.014513606
241	0x3cebfc18	0.028806731
242	0xbcedb157	-0.029015226
243	0xbccab663	-0.024745172
244	0x3cc12e49	0.02358164
245	0x3d1395b3	0.036031436
246	0xbc74f312	-0.014950531
247	0xbcae99c6	-0.02131356
248	0x3cf4a1de	0.02986234
249	0x3d13b8dd	0.03606497
250	0x3c82ac9a	0.015951443
251	0x3d0663e3	0.032810103
252	0x3cd55344	0.02604068
253	0x3d28d066	0.04121437
254	0x3cda6921	0.026661457
255	0xba8b396e	-0.0010621974

layer1.0.bias f4 [256]
0	0xbc073195	-0.008251567
1	0xbd10f849	-0.035393033
2	0xbcf49d19	-0.029860066
3	0x3ce18812	0.027530704
4	0x3d0e85e1	0.034795646
5	0xbc981001	-0.018562319
6	0xbd0912eb	-0.033465307
7	0x3c8db713	0.01729921
8	0xbaba38e0	-0.0014207624
9	0xbd19f8db	-0.037590843
10	0xbd153b3e	-0.03643345
11	0x3b1aac55	0.0023601253
12	0x390bfe98	0.00013350917
13	0xbc9bc93c	-0.019016854
14	0xbd187436	-0.037220202
15	0x3cdc0b43	0.026860839
16	0x3cf3be9c	0.029753976
17	0xbc6016d1	-0.013677315
18	0x3c57f04d	0.013179851
19	0xbca9c314	-0.020722903
20	0x3c3ded77	0.011592261
21	0x3d05ac03	0.032634746
22	0xbccb6857	-0.024830027
23	0x3cf32f24	0.029685564
24	0xbcf4f0e2	-0.029900018
25	0xbb7f3044	-0.003893868
26	0x3d22cb2a	0.039744534
27	0xbafd7e95	-0.0019340093
28	0x3c66c3ef	0.0140848
29	0xbd0311fa	-0.031999566
30	0xbcaa0e6a	-0.020758826
31	0x3d0f102d	0.034927536
32	0x3c1affe7	0.009460426
33	0xbc9b37fc	-0.018947594
34	0xbc7a6e06	-0.015285021
35	0x3bc9b9fe	0.006156205
36	0xbb9538c8	-0.004553888
37	0xbcddb13d	-0.027062053
38	0xbd1b5e23	-0.037931573
39	0xbcfaeb7c	-0.030629866
40	0x3c6b0a03	0.014345649
41	0xbd1745ea	-0.03693191
42	0x3d252f79	0.040328477
43	0x3c1c7d9b	0.009551431
44	0xbd07c2cb	-0.033144753
45	0x3c6a31d4	0.0142941065
46	0xbcf3b177	-0.029747708
47	0xbb852757	-0.0040635276
48	0x3c9e3419	0.019311951
49	0xbc35d65d	-0.0110984715
50	0xbc45d5a6	-0.012074864
51	0xbcae5c0e	-0.02128413
52	0x3c95a11c	0.0182653
53	0x3c7dea12	0.015497701
54	0x3d22f02c	0.039779827
55	0x3c709a73	0.014685261
56	0x3bd2951f	0.006426468
57	0x3cc64c41	0.024206283
58	0x3d0d85f8	0.03455159
59	0xbd300b93	-0.042979788
60	0x3c4f2b1e	0.012644557
61	0x3c79bc18	0.015242599
62	0xbd1f1590	-0.038838923
63	0xbd1db9ee	-0.038507394
64	0xbc82c827	-0.01596458
65	0xbc242ad4	-0.010019977
66	0x3bc1e885	0.005917611
67	0xbcd2b017	-0.025718732
68	0x3cabc64c	0.020968579
69	0x3c634773	0.013872015
70	0x3c78cde7	0.01518581
71	0xbd09f506	-0.03368094
72	0xbd27a210	-0.04092604
73	0xbc7fbd33	-0.015609073
74	0xb98f7424	-0.00027361617
75	0xbcb584a6	-0.022157978
76	0xbcf9ca27	-0.030491902
77	0xbd148732	-0.036261745
78	0xbd0329d7	-0.032022323
79	0x3ca013a8	0.019540623
80	0x3d15e84e	0.036598496
81	0xbc9f1b0f	-0.019422082
82	0x3bc1f4f8	0.005919095
83	0xbcc985b9	-0.024599897
84	0x3cbc910c	0.023018382
85	0xbcbac1fe	-0.02279758
86	0xbd1e14a5	-0.038593907
87	0xbd314783	-0.04328109
88	0x3cb6aa5d	0.022298032
89	0xbd187c1b	-0.03722773
90	0xbc82bcc3	-0.01595915
91	0xbce977ac	-0.028499447
92	0xbcb9783c	-0.02264034
93	0xbbe89f5e	-0.007099076
94	0xbd2c4d0a	-0.042065658
95	0xbcf664cd	-0.030077362
96	0xbc973ee7	-0.018462611
97	0xbb750a85	-0.0037390303
98	0xbca7d2fd	-0.02048635
99	0xbd075a9a	-0.03304539
100	0x3d23a7ab	0.039954823
101	0x3c2cd9ec	0.0105500035
102	0x3ca0b02d	0.019615257
103	0x3bbc68a0	0.005749777
104	0x3c5dd70f	0.0135400435
105	0x3d06963a	0.03285811
106	0x3cbf8117	0.023376985
107	0x3d03a33e	0.0321381
108	0x3cf5c451	0.030000838
109	0xbb271e32	-0.0025500176
110	0xbc595604	-0.013265137
111	0xbd0afeb9	-0.03393433
112	0x3c92eb4e	0.017934468
113	0xbd07807e	-0.033081524
114	0xbd1b2abd	-0.037882555
115	0xbc7cd544	-0.015431706
116	0x3d16f071	0.036850397
117	0xbd229e84	-0.039701954
118	0x3c806bb5	0.015676359
119	0xbd241eb6	-0.04006835
120	0x3d01f803	0.031730663
121	0x3c025419	0.007954621
122	0xbca19a01	-0.019726755
123	0xbca86ee4	-0.02056069
124	0xbc4d928c	-0.0125471465
125	0x3cc4ded0	0.024032027
126	0xbcaf4b90	-0.021398336
127	0x3ceec7b0	0.029147953
128	0xbc850245	-0.016236434
129	0x3c6f8016	0.01461794
130	0xbcc08cd2	-0.023504648
131	0x3c8bbf44	0.017058976
132	0xbc7e2c67	-0.015513516
133	0xbcc9858d	-0.024599815
134	0x3c9cd98c	0.019146703
135	0x3cccdffc	0.025009148
136	0xbd25a9b7	-0.040445056
137	0xbc39e687	-0.011346466
138	0x3c651a92	0.013983386
139	0x3bea5375	0.007151062
140	0xbb102811	-0.0021996538
141	0x3d099f60	0.033599257
142	0xba477de4	-0.0007610007
143	0xb927c726	-0.0001600055
144	0xbceeba0e	-0.029141452
145	0x3d2063df	0.039157744
146	0x3c4a59e0	0.012350529
147	0xbc1f0bf1	-0.009707437
148	0xbb206cc2	-0.0024478887
149	0xbc38f546	-0.0112889465
150	0x3bc704d0	0.0060735717
151	0xbc0127be	-0.00788301
152	0xbc214f52	-0.009845572
153	0x3d1ab0bb	0.0377662
154	0x3bff55fe	0.0077922335
155	0x3d1903d3	0.037357163
156	0x3d2c7858	0.042106956
157	0xbcaa904a	-0.020820756
158	0x3a386ecd	0.00070355536
159	0xbd16de56	-0.03683313
160	0xbd17a8f0	-0.037026346
161	0xbd06356b	-0.032765787
162	0x3d2681c3	0.040651094
163	0xbc994e8d	-0.018714214
164	0x3a6ce9bb	0.0009037514
165	0x3d2562f0	0.040377557
166	0x3c69db0b	0.014273415
167	0x3ce89324	0.028390475
168	0xbc039178	-0.008030288
169	0xbd079ba2	-0.033107407
170	0x3ce654b4	0.028116561
171	0xbd016ecb	-0.0315998
172	0x3ce29f98	0.02766399
173	0xbc8a9bbd	-0.016919965
174	0x3be141a8	0.006874282
175	0xbc41bb76	-0.011824479
176	0x3cd496fc	0.025950901
177	0x3c9835e6	0.018580388
178	0xbd1dc150	-0.038514435
179	0x3c99cff5	0.01877592
180	0xbcd8310d	-0.026390577
181	0x3d29601f	0.041351434
182	0x3c1640f6	0.009170761
183	0x3b1c4280	0.0023843348
184	0xbd2bef5b	-0.041976314
185	0xbb70e465	-0.0036757227
186	0xbbf2d894	-0.007411072
187	0xbccd478c	-0.02505853
188	0x3c1093f4	0.008824337
189	0x3ce12fa5	0.027488539
190	0x3d1906a1	0.037359837
191	0xbd2c303f	-0.0420382
192	0x3cef73ef	0.029230086
193	0x3cd4fdf3	0.025999999
194	0x3cfd15fc	0.030894272
195	0x3cdbea65	0.026845166
196	0x3ae2fe43	0.0017318208
197	0xbb62a55e	-0.003458343
198	0xbc6c91bb	-0.014439042
199	0xbc0ddb01	-0.008658172
200	0x3cda5a82	0.026654486
201	0xbcf5e759	-0.030017542
202	0xb9b2c783	-0.00034099453
203	0x3d0280a0	0.031860948
204	0x3b385d50	0.002813179
205	0x3c9e9ae6	0.01936097
206	0x3b5d942a	0.0033810236
207	0xbbf749de	-0.0075466475
208	0x3c7dec54	0.01549824
209	0xbccc5780	-0.024944067
210	0xbbd4f695	-0.0064991214
211	0x3cb0bab2	0.021573398
212	0x3c9d539b	0.019204905
213	0x3cdab34d	0.026696825
214	0x3c2c0c08	0.010500915
215	0xbcceae4c	-0.025229596
216	0x3cd614ae	0.026132908
217	0xbbb114f7	-0.0054041105
218	0x3c1294a3	0.008946571
219	0x3d16ecd4	0.03684695
220	0xbc912629	-0.017718391
221	0xbc9afd28	-0.018919542
222	0xbba74554	-0.0051047
223	0x3d2352af	0.039873775
224	0xbd2964c8	-0.041355878
225	0x3bb3b651	0.0054843803
226	0x3c80ca86	0.01572157
227	0xb98d198f	-0.00026912658
228	0xbbc0a3b8	-0.005878892
229	0x3bade470	0.005306773
230	0xbb448663	-0.0029987327
231	0x3d179905	0.037011165
232	0x3cabecaa	0.020986874
233	0x3cd93a15	0.026516953
234	0xbc31bccb	-0.010848234
235	0xbca8ede0	-0.02062124
236	0xbc342154	-0.010994274
237	0xbd211bad	-0.039333034
238	0x3c9260b4	0.017868377
239	0xbd23d316	-0.03999623
240	0xbd11a972	-0.035561986
241	0xbc9e8713	-0.019351518
242	0xbd1ad1a5	-0.03779759
243	0x3cecd1c4	0.028908618
244	0x3c8252a4	0.015908547
245	0xbcc88867	-0.024479104
246	0xbcec0830	-0.028812498
247	0xbcf1a828	-0.029499128
248	0xbca64bc7	-0.020299805
249	0xbc95f2eb	-0.018304309
250	0xbcf28306	-0.029603492
251	0x3c2a7387	0.01040352
252	0x3c3195b2	0.010838913
253	0x3cccdab9	0.025006639
254	0xbcee9f0a	-0.02912857
255	0xbc45d13b	-0.01207381

layer2.0.weight f4 [84, 256]
0	0x3c10493a	0.008806521
1	0xbcb42067	-0.021988107
2	0xbd3e0600	-0.04639244
3	0x3d76c8bd	0.060250033
4	0x3d18d7de	0.037315242
5	0xbc8b1661	-0.016978445
6	0xbc86555c	-0.016398124
7	0x3ce2bb7b	0.027677288
8	0x3c9df9e5	0.019284198
9	0xbcee49a3	-0.029087847
10	0xbc433320	-0.011914045
11	0x3d022555	0.031773884
12	0xbc00f6f8	-0.007871382
13	0x3d17b2a7	0.03703561
14	0x3bae8cc2	0.005326838
15	0x3c641b16	0.013922473
16	0xbd7159a4	-0.05892338
17	0x3ccd7f93	0.025085246
18	0x3c370cf2	0.01117252
19	0xbcda93e8	-0.026681855
20	0x3c7767bf	0.015100419
21	0xbcc06d47	-0.023489607
22	0xbb8c709a	-0.004285884
23	0x3d4759ca	0.048669614
24	0x3ba672ee	0.0050796187
25	0x3b213ecd	0.0024604083
26	0x3ca46944	0.020069726
27	0x3c2618e9	0.010137775
28	0x3d267103	0.04063512
29	0x3ca775e7	0.020441962
30	0xbc931950	-0.017956406
31	0xbd308171	-0.043092195
32	0xbc73e157	-0.014885268
33	0xbd6f150e	-0.05836969
34	0xbd3f737a	-0.046740986
35	0x3d51f561	0.051259402
36	0xbcef5af0	-0.029218167
37	0xbcd28c37	-0.025701625
38	0xbd721999	-0.059106443
39	0x3d2d89c2	0.042367704
40	0xbcd0f1d4	-0.025505938
41	0xbd30d6a0	-0.043173432
42	0xbc5cb172	-0.013470041
43	0x3d04f691	0.032461707
44	0x3d3ca47c	0.046055302
45	0xbc57cc22	-0.013171228
46	0xbd5836d2	-0.052786656
47	0xbcab9f94	-0.020950116
48	0xbc48cc28	-0.012255706
49	0xbd7cb540	-0.06169629
50	0xbcf4989c	-0.029857926
51	0x3b4006db	0.0029300961
52	0xbc74287f	-0.014902233
53	0x3cf5f92e	0.030026045
54	0x3d11bde2	0.035581477
55	0xbd2c73c0	-0.042102575
56	0xbc54fc87	-0.01299966
57	0xbd3e55ac	-0.04646842
58	0xbbff054a	-0.007782613
59	0xbd3e12d7	-0.046404686
60	0xbb927683	-0.004469694
61	0x3d28c7dd	0.04120623
62	0xbd4e8920	-0.05042374
63	0xbd29c8c8	-0.041451246
64	0xbd310737	-0.04321977
65	0x3d7eefeb	0.062240522
66	0xbc13167e	-0.0089775305
67	0xbc2f5aa8	-0.0107027665
68	0x3d69f514	0.05711849
69	0xbd794f0d	-0.060866404
70	0xbb84d8c8	-0.0040541627
71	0x3d1d03da	0.03833375
72	0x3d1fd964	0.03902568
73	0x3cd89857	0.026439829
74	0xbca9df64	-0.020736404
75	0xbd0ff760	-0.035148025
76	0xbc872bad	-0.016500318
77	0xba452f10	-0.00075219665
78	0xbb31e881	-0.002714664
79	0x3d76d9e3	0.060266387
80	0xbd390696	-0.045172296
81	0xbce58222	-0.028016154
82	0x3d3d6790	0.046241343
83	0x3d0f7ae8	0.035029322
84	0xbd176430	-0.03696078
85	0xbd419400	-0.047260284
86	0xbd5bfb17	-0.053706255
87	0x3cb6d443	0.022318011
88	0xbd2674a0	-0.040638566
89	0xbc6a195a	-0.014288271
90	0x3c8220ea	0.015884835
91	0xbd629312	-0.05531604
92	0xbd5b7b9b	-0.053584676
93	0x3d35156a	0.044209875
94	0x3c7b9eea	0.015357712
95	0xbd504c6b	-0.050854128
96	0x3d3f0e1c	0.046644315
97	0x3b323e2b	0.00271977
98	0x3bca3c1e	0.0061717173
99	0x3d581359	0.052752826
100	0xbd2d7f15	-0.042357523
101	0x3cbed49f	0.023294745
102	0xbb9ced95	-0.004789064
103	0x3d7bc386	0.061465763
104	0xbce1abb0	-0.027547687
105	0xbd20c7d0	-0.039253056
106	0x3cf4aeeb	0.029868564
107	0x3d1c64fd	0.038182247
108	0x39d41e84	0.00040458527
109	0x3d515556	0.051106773
110	0x3d11b963	0.03557719
111	0xbd25d9ea	-0.040491022
112	0x3cdba43f	0.026811717
113	0x3ce44fd3	0.027870094
114	0x3cca25bd	0.024676198
115	0x3d356146	0.04428222
116	0xbce1d0bf	-0.027565358
117	0xbd68d13f	-0.056840178
118	0xbd06c9fe	-0.03290748
119	0xbd54e13a	-0.051972605
120	0x3d1c036a	0.038089193
121	0x3c4d8b5f	0.012545436
122	0xbcb1279c	-0.021625333
123	0xbc04abe9	-0.008097627
124	0x3d4435e2	0.04790295
125	0xbc9e02b7	-0.019288404
126	0x3c304d40	0.010760605
127	0xbc0ef5a2	-0.008725556
128	0xbcbcfa3d	-0.023068542
129	0x3c987bbf	0.018613694
130	0xbc1ed176	-0.009693494
131	0x3d393e46	0.045225404
132	0xbcabd9c3	-0.02097786
133	0xbb662714	-0.0035118507
134	0x3d0c8dc8	0.0343149
135	0x3c2ce5b2	0.0105528105
136	0x3a89cc9c	0.0010513249
137	0xbcea1923	-0.02857644
138	0xbd070419	-0.032962892
139	0x3d51abce	0.051189236
140	0x3d13e258	0.03610453
141	0xbc574c4a	-0.013140747
142	0x3d3fc8f0	0.04682249
143	0xbc727bf4	-0.014800061
144	0x3c0a38d2	0.008436399
145	0xbca945e0	-0.020663202
146	0x3c112d5c	0.008860912
147	0x3c973476	0.018457633
148	0xbcff7853	-0.031185305
149	0x3d4924cb	0.049107354
150	0x3d0d095a	0.034432746
151	0xb94224c4	-0.00018514978
152	0x3d137108	0.035996467
153	0xbc35cde1	-0.011096449
154	0xbd24a499	-0.040196035
155	0xba80795c	-0.0009801793
156	0x3d7c10f4	0.061539605
157	0x3d0f95b3	0.035054874
158	0xbd1367e1	-0.03598774
159	0x3cfec1d2	0.03109828
160	0xbd228c19	-0.03968439
161	0x3d778dc9	0.06043795
162	0x3ca59536	0.02021275
163	0xba815605	-0.0009867555
164	0xbd30b265	-0.04313888
165	0xbc0b38c8	-0.008497424
166	0xbd69be8d	-0.05706649
167	0xbd4c750f	-0.049916323
168	0x3cab291b	0.020893624
169	0xbc4eec5c	-0.012629595
170	0x3c6006b1	0.01367347
171	0x3d3c84ac	0.046024963
172	0xbc29d01b	-0.010364558
173	0xbd75f3ce	-0.060046963
174	0xbd2db64b	-0.042410176
175	0x3cde4aa9	0.02713521
176	0x3c6aff51	0.014343099
177	0x3d035943	0.03206755
178	0xbce14eec	-0.027503453
179	0xbcb8b24d	-0.022545958
180	0x3bbec6fd	0.005822061
181	0x3d63ad7b	0.055585366
182	0xbd1689ec	-0.036752626
183	0xbd0f2de8	-0.03495589
184	0xbc87e17d	-0.016587013
185	0xbd306dc8	-0.043073446
186	0xbc76cc5f	-0.015063374
187	0x3d6997b4	0.05702944
188	0xbc906e6a	-0.017630775
189	0x3d203ebd	0.039122332
190	0xbd351acc	-0.04421501
191	0x3d7038e1	0.058647994
192	0xbd4782f4	-0.04870887
193	0x3bc5c826	0.0060358224
194	0xbc86d7d1	-0.016460331
195	0x3d6b358c	0.057424113
196	0xbd24d914	-0.040246084
197	0xbd7165c5	-0.058934946
198	0x3d348d28	0.04407993
199	0xbd66e3ca	-0.05636958
200	0xbd3d7e21	-0.046262864
201	0xbce91537	-0.028452499
202	0x3d532b26	0.05155482
203	0xbd06c373	-0.03290124
204	0x39ed285d	0.00045234236
205	0x3d18e284	0.037325397
206	0xbcd35f37	-0.025802238
207	0x3d18fdae	0.037351303
208	0xbd3e03f6	-0.046390496
209	0xbca10d93	-0.019659793
210	0xbd67373d	-0.056449164
211	0x3d4620d2	0.048371144
212	0xbbe0b793	-0.0068578213
213	0x3d3dbd31	0.046323005
214	0xbc407e6f	-0.011748894
215	0xbd3feb56	-0.046855293
216	0xbc097097	-0.00838866
217	0x3d517ef6	0.05114647
218	0x3d3b18f3	0.04567809
219	0x3b37af3e	0.0028028036
220	0xbd2a4fc9	-0.041579995
221	0x3c2f06c7	0.010682768
222	0xbd0fd35e	-0.035113685
223	0x3d0d2979	0.03446338
224	0x3c687e53	0.014190274
225	0xbc9a1e8e	-0.018813398
226	0xbd0b193f	-0.033959623
227	0x3d07fd58	0.03320059
228	0xbd0f5a96	-0.0349985
229	0x3d330cd6	0.043713413
230	0x3c81349e	0.01577216
231	0x3cc29f9a	0.023757745
232	0x3d68e071	0.05685467
233	0x3d6ea89a	0.05826626
234	0x3ce8a00c	0.028396629
235	0xbd24871e	-0.04016792
236	0x3bed92aa	0.0072501497
237	0x3d7ca98e	0.061685137
238	0x3cda1cd0	0.026625067
239	0x3d2c78ed	0.04210751
240	0xbca9e2c9	-0.020738022
241	0xbc89bc66	-0.016813468
242	0xbb92d54c	-0.0044809934
243	0x3c8fae67	0.017539216
244	0x3d80805f	0.06274485
245	0xbbcff4df	-0.0063463296
246	0xbcf0fdf8	-0.029417977
247	0xbab5c5d8	-0.0013868166
248	0x3d6e96c2	0.058249243
249	0xbd670431	-0.05640048
250	0x3cd6c5c5	0.02621735
251	0xbcaf747f	-0.021417854
252	0x3d6873d0	0.056751072
253	0xbc6f2914	-0.014597196
254	0xbd09797e	-0.03356313
255	0xbd6eaca2	-0.058270104

layer2.0.bias f4 [84]
0	0xbd7697c1	-0.060203318
1	0xbc054faf	-0.008136674
2	0xbd63f047	-0.05564907
3	0x3d15c210	0.036562026
4	0xbcac17a6	-0.02100737
5	0x3d14f8bb	0.03637002
6	0xbbfe8dc3	-0.007768364
7	0xbd603f74	-0.054748014
8	0x3d54feb6	0.052000724
9	0xbc51da90	-0.012808457
10	0xbb69bf40	-0.0035666972
11	0x3bd7d4bc	0.006586639
12	0x3d70584b	0.058677953
13	0x3d7bc94e	0.061471276
14	0x3baf4d7a	0.005349812
15	0x3d28ae22	0.04118169
16	0xbc4e2388	-0.0125817135
17	0x3ccdbe67	0.025115205
18	0x3c01cf53	0.007922965
19	0x3d6acb8a	0.057323016
20	0x3cf9e0fa	0.030502785
21	0x3cb33652	0.021876488
22	0x3c343113	0.010998028
23	0xbd532a2a	-0.051553883
24	0xbce92a8b	-0.028462669
25	0x3d2cf546	0.0422261
26	0x3c3ea1d1	0.01163526
27	0xbc0a92a0	-0.00845781
28	0x3cdd9ccf	0.027052311
29	0x3cd98ab8	0.026555404
30	0xbcea9aaa	-0.028638203
31	0x3cd70794	0.02624873
32	0x3c482b33	0.012217331
33	0xbd0bedf1	-0.034162465
34	0xbd12f78d	-0.035880614
35	0xbd445a0e	-0.047937445
36	0x3ca63dc8	0.020293131
37	0x3bee01e6	0.00726341
38	0x3d0c24b2	0.034214683
39	0x3a5430cc	0.00080944295
40	0x3ce56831	0.028003784
41	0x3b19e894	0.0023484575
42	0xbca88203	-0.020569807
43	0xbc9ab3a8	-0.018884495
44	0x3b6ddb70	0.0036294125
45	0x3d764f40	0.060134172
46	0x3cc6d864	0.024273105
47	0x3af412e6	0.0018621355
48	0x3c320f07	0.010867841
49	0x3bc9cb4b	0.0061582676
50	0x3ca6092a	0.020268042
51	0x3d752a33	0.059854697
52	0xbd1a0070	-0.037598073
53	0xbce99cc0	-0.028517127
54	0xbc85b491	-0.016321452
55	0x3d0af44b	0.033924382
56	0xbc29add5	-0.010356386
57	0xbbabd150	-0.005243458
58	0xbd262f88	-0.040572673
59	0xbd521750	-0.051291764
60	0x3cbe861f	0.023257313
61	0xbd4535f2	-0.04814715
62	0xbd015fbd	-0.031585444
63	0x3d6c9c57	0.057766285
64	0x3c3ff934	0.0117171295
65	0x3d3af3db	0.045642715
66	0xbca2b904	-0.019863613
67	0xbcc10cc9	-0.023565667
68	0x3cfd8583	0.030947452
69	0xbcd8ac43	-0.026449328
70	0xbc93d9dd	-0.018048221
71	0xba90ce69	-0.0011047843
72	0x3bbca035	0.005756403
73	0x3d452c6a	0.04813806
74	0x3c1c7c39	0.009551101
75	0x3ca1efa0	0.019767582
76	0xbcd949ec	-0.026524507
77	0x3c9e39ea	0.019314725
78	0x3d1b9799	0.03798637
79	0xbc9ccdf5	-0.019141177
80	0xbc924dba	-0.017859329
81	0x3d3b7d0a	0.045773543
82	0x3cea78d4	0.028622068
83	0xbd0e2884	-0.034706607

layer3.0.weight f4 [8, 84]
0	0xbcdad3f5	-0.026712397
1	0xbdd3bb77	-0.103384905
2	0x3d319db3	0.043363284
3	0x3d9dba24	0.07701519
4	0x3da2f2e7	0.07956486
5	0xbd621e7f	-0.055204865
6	0xbd914541	-0.07093287
7	0xbb1b4eeb	-0.0023698162
8	0x3c94939a	0.018136788
9	0xbc82a320	-0.015946925
10	0xbc1bb559	-0.009503686
11	0xbcf1bced	-0.029509032
12	0xbd28dfe8	-0.04122916
13	0xbc8f71e6	-0.017510366
14	0x3d9c1fad	0.07623229
15	0xbd2b8d47	-0.04188278
16	0x3dd8c2f0	0.105840564
17	0xbdabdaf1	-0.08391369
18	0x3dc03f98	0.093871295
19	0xbd2dbff5	-0.042419393
20	0x3d2701bd	0.040773142
21	0x3dc1055c	0.0942485
22	0xbccc0221	-0.024903359
23	0xbda952af	-0.08267724
24	0xbdd7df5d	-0.1054065
25	0x3d85fceb	0.06542381
26	0x3d2cdc54	0.04220231
27	0x3ae0490e	0.0017111616
28	0xbda5f434	-0.08103219
29	0xbda3ec54	-0.080040604
30	0x3d3ef540	0.046620607
31	0x3dbf8023	0.09350612
32	0xbd87131c	-0.06595442
33	0x3c7cc836	0.015428593
34	0xbdb395c6	-0.087688014
35	0x3dae1acd	0.085012056
36	0x3c8bf7db	0.01708596
37	0xbd21f5de	-0.039541118
38	0xbd68697e	-0.05674123
39	0x3d460a24	0.048349515
40	0x3c8f8cc8	0.017523184
41	0xbd8b51a4	-0.06802681
42	0x3d9b34ca	0.07578428
43	0xbd9675ba	-0.07346673
44	0x3db43259	0.087986656
45	0xbc65cb56	-0.01402553
46	0xbdc70edc	-0.09719631
47	0x3dc595fd	0.096477486
48	0x3dc2a130	0.095034
49	0xbd69cdcc	-0.05708103
50	0xbcaa2ab3	-0.020772314
51	0x3ce1cae1	0.02756256
52	0x3bd1b798	0.00640006
53	0xbdab0404	-0.08350375
54	0x3d7203a0	0.05908549
55	0xbdb86980	-0.090044975
56	0x3c4ff337	0.012692264
57	0xbdd56bb6	-0.10420935
58	0x3dbdf703	0.09275629
59	0x3cc343d5	0.023836056
60	0x3a76c8a6	0.0009414054
61	0xbdb9ef8a	-0.090788916
62	0xbdbe25fa	-0.09284587
63	0x3d38fb79	0.045161698
64	0xbc1ba108	-0.009498842
65	0xbd5f8ca1	-0.054577474
66	0x3d145b54	0.03621991
67	0xbd90625f	-0.07050013
68	0xbdbc6c8c	-0.09200391
69	0xbdd571bc	-0.10422084
70	0xbc279d3d	-0.01023036
71	0xbdb8ace3	-0.090173505
72	0x3d184215	0.037172396
73	0xbdd111d8	-0.102084816
74	0xbd9d4cef	-0.076806895
75	0xbbfaa2d3	-0.0076488047
76	0xbd579809	-0.052635226
77	0x3d82bbb0	0.06383455
78	0x3d89de81	0.067318924
79	0x3d282397	0.041049566
80	0x3d802820	0.06257653
81	0xbbbc9e84	-0.005756201
82	0xbd11aaf6	-0.03556343
83	0x3d73355a	0.059377052
84	0x3d9b38ce	0.07579194
85	0x3cc2b85f	0.023769556
86	0x3d2b2a02	0.04178811
87	0x3b4b4c24	0.0031020725
88	0x3be87b88	0.007094804
89	0x3d56a735	0.052405555
90	0xbcde5feb	-0.027145347
91	0xbbda21df	-0.00665687
92	0x3d99c419	0.07508106
93	0x3da48456	0.080330536
94	0xbd71d417	-0.059040155
95	0x3b9de4fe	0.0048185578
96	0xbd9d29c8	-0.07673985
97	0xbcbdf760	-0.023189247
98	0x3db4c021	0.08825708
99	0xbc259be8	-0.010107972
100	0xbdc3f95b	-0.09569045
101	0xbd98e764	-0.07466009
102	0xbd386944	-0.045022264
103	0xbdc5a6a9	-0.096509285
104	0xbd3729c0	-0.04471755
105	0xbda88805	-0.08229069
106	0xbd2ff6db	-0.04296003
107	0x3daa3172	0.08310212
108	0xbd932acc	-0.07185897
109	0x3d85adaf	0.06527268
110	0xbda06d44	-0.07833341
111	0xbcd0b95d	-0.025479013
112	0xbda2d3b6	-0.07950537
113	0xbd0a3584	-0.033742443
114	0x3d44d9dd	0.048059333
115	0x3dddd683	0.108319305
116	0x3d02dd1d	0.03194915
117	0x3cc730e5	0.024315307
118	0x3d89bb26	0.06725149
119	0xbcaab300	-0.020837307
120	0x3d673daa	0.05645529
121	0xbd0db7f2	-0.034599252
122	0xbcdf5608	-0.027262703
123	0x3dad8e42	0.08474399
124	0x3dbe8141	0.09301997
125	0xbd5e52e6	-0.054278277
126	0xbc27a5d8	-0.010232411
127	0x3d921484	0.07132819
128	0xbd7f1191	-0.062272612
129	0xbd095744	-0.03353049
130	0x3d48748a	0.048939265
131	0x3dcefe6e	0.10107122
132	0x3d9014a5	0.07035188
133	0xbd1838ab	-0.037163418
134	0xbc95d3c3	-0.018289452
135	0x3d3ca7ad	0.046058346
136	0x3d071c97	0.03298625
137	0x3d99f76c	0.07517895
138	0x3cb6e525	0.022326062
139	0x3d1a9c31	0.037746612
140	0x3d8120ac	0.0630506
141	0xbd866062	-0.06561352
142	0x3d287956	0.04113134
143	0x3d159c75	0.036526162
144	0xbca73433	-0.020410633
145	0x3cf44466	0.029817771
146	0xbbc52cfa	-0.0060173245
147	0xbd53f0c5	-0.051743288
148	0xbdd08ed9	-0.10183496
149	0xbdb2dcbb	-0.08733507
150	0xbda65c3f	-0.08123063
151	0x3da5d9ff	0.0809822
152	0xbda14c00	-0.07875824
153	0xbddd0078	-0.10791105
154	0x3d3d0131	0.046143714
155	0x3ca6d6fa	0.02036618
156	0xbd0fa7e0	-0.035072207
157	0xbcb04093	-0.021515166
158	0xbda5c4a9	-0.080941506
159	0xbd7a0334	-0.06103821
160	0x3d5ef85a	0.054436065
161	0xbd6a539b	-0.05720864
162	0xbbb15804	-0.0054121036
163	0xbc2d3cbe	-0.010573564
164	0xbd48bfec	-0.049011156
165	0x3ddf3c4f	0.10900175
166	0x3ba8a96e	0.0051471507
167	0x3d435f33	0.04769821
168	0xbdc39553	-0.09549966
169	0xbd38fac1	-0.045161013
170	0x3d44ca7f	0.048044678
171	0xbda60913	-0.081071995
172	0x3cb52b39	0.022115337
173	0xbd678e0e	-0.05653196
174	0x3dcb0774	0.09913531
175	0xbd5e5302	-0.05427838
176	0xbdb1b74c	-0.08677539
177	0x3ddbe46c	0.107369274
178	0x3c3abc3f	0.01139742
179	0x3d97e5f0	0.07416904
180	0x3c3fb7d5	0.011701544
181	0xbdd29b78	-0.102835596
182	0xbd0055b0	-0.031331718
183	0xbca5f1c7	-0.02025689
184	0x3db891f2	0.09012212
185	0xbdc60c8a	-0.096703604
186	0xbc3d41f6	-0.011551371
187	0xbd136864	-0.035988227
188	0xbdc35cfe	-0.09539221
189	0x3dbe35e5	0.09287623
190	0x3d72ba50	0.059259713
191	0x3d493c44	0.04912974
192	0xbd13dc2d	-0.036098648
193	0xbd470d06	-0.048596404
194	0x3cb3e6da	0.021960665
195	0x3c8db1d5	0.017296711
196	0x3d19c222	0.037538655
197	0x391575b9	0.00014253602
198	0xbd14f008	-0.036361724
199	0xbd1d8f9a	-0.038467027
200	0xbc80fd22	-0.015745703
201	0x3d464ca1	0.048412923
202	0xbc967ac9	-0.018369095
203	0x3ce2238c	0.02760484
204	0xbd54506f	-0.05183452
205	0xbba5b390	-0.005056806
206	0xbd64fa45	-0.055902738
207	0x3da9bd85	0.08288101
208	0xbd9e5a83	-0.077321075
209	0x3dc79d9f	0.09746861
210	0x3b3f3b49	0.0029179624
211	0x3dd68f56	0.10476558
212	0x3d5b470f	0.053534564
213	0x3dbdea4d	0.09273205
214	0x3d13bec4	0.0360706
215	0x3ddbbb58	0.10729092
216	0x3cf5b9b6	0.02999578
217	0x3da5f920	0.081041574
218	0xbdce4925	-0.10072545
219	0x3dd97fef	0.106201045
220	0x3d51990e	0.051171355
221	0x3d879329	0.066198654
222	0x3ddb2b30	0.10701597
223	0xbcc59573	-0.024119115
224	0x3dab5b11	0.08366979
225	0x3d98d7a7	0.074630074
226	0x3db78837	0.08961528
227	0x3db479bb	0.08812281
228	0xbcf8141f	-0.030283032
229	0x3dd89c06	0.10576634
230	0xbcfcf3f0	-0.030878037
231	0xbdc1fef4	-0.094724566
232	0x3d2a53ad	0.041583706
233	0xbd80d3dd	-0.0629041
234	0x3db998a9	0.09062321
235	0xbd42182c	-0.047386333
236	0xbd37fa72	-0.044916578
237	0x3cdfdba0	0.027326405
238	0x3d76040f	0.060062464
239	0x3c8635a9	0.016383009
240	0xbda2b326	-0.07944326
241	0xbd92a25c	-0.07159874
242	0x3dcf1959	0.101122566
243	0x3dc8995a	0.097948745
244	0x3d53f7f1	0.051750127
245	0x3ad11f5d	0.0015954782
246	0x3d078b05	0.033091564
247	0x3d343f04	0.04400541
248	0x3db8146a	0.08988269
249	0x3dba08e7	0.09083729
250	0xbda2c450	-0.079476
251	0xbda0ae73	-0.078457735
252	0x3d2ecb6d	0.04267447
253	0x3d49e788	0.04929307
254	0xbcff1c5e	-0.031141456
255	0x3dad4515	0.08460442

layer3.0.bias f4 [8]
0	0xbb9193b2	-0.0044426555
1	0x3b95bfe1	0.004569993
2	0x3d507484	0.050892368
3	0x3d3bfdea	0.04589645
4	0x3db0399c	0.08604738
5	0x3bb5ec1c	0.005551828
6	0x3dcb97aa	0.09941037
7	0xbce00b98	-0.027349278
