DigitalRecognition-master/model_params/GDUT_net_all_3.pt (torch, 665623 bytes, 6 tensors)

layer1.0.weight f4 [256, 560]
0.02156879 0.030701376 0.020131554 0.020428322 -0.017906263 -0.011314508 0.040714763 -0.03686689
0.02630539 -0.006734315 0.018759653 -0.0057949685 -0.028212372 -0.0019983463 0.04130751 -0.034143705
-0.0024394244 0.0137347095 -0.023896812 0.008257359 -0.031006273 0.014681309 -0.031974655 -0.031081915
-0.03540053 -0.0043487037 -0.009684483 0.016795509 0.0036134135 -0.032176074 -0.0037416662 0.005762726
-0.03511531 -0.0012216105 0.026283268 0.022794023 0.032335285 -0.0053500533 0.018008113 0.024479672
0.007571496 0.0023850873 0.011256605 0.032252066 -0.027112681 -0.018098943 0.04197438 0.02121012
0.041004818 0.013549787 -0.033873275 0.024815436 0.03045775 0.030645454 -0.030104805 0.022951247
0.025771417 0.030325904 0.019814026 0.039745934 -0.006883014 0.04139819 -0.032990646 0.031818613
-0.01655773 -0.03681441 -0.03602949 0.025566546 0.013155463 -0.0034410513 -0.012001315 0.0069866707
-0.014817851 -0.003188183 0.018591933 -0.001723642 -0.016350286 0.026567794 -0.022150187 -0.007227231
-0.014576539 0.012731597 0.03684038 -0.009191528 -0.006420158 0.03938376 0.025304204 -0.005084308
0.014073354 0.022923911 0.015549727 -0.025626276 -0.036462393 -0.001882716 -0.027324958 -0.0065706316
-0.021248104 0.021316513 -0.02569887 -0.021214675 -0.028587759 -0.035119276 -0.035713073 0.025632516
-0.03011456 0.0358867 0.0042306404 -0.028332036 -0.03461091 0.00038148265 0.04036794 0.012155218
0.02519741 -0.0167411 -0.034964293 0.009271692 0.015624923 0.000862658 0.015119325 -0.007822324
0.0034962595 -0.032549933 0.008331645 -0.015271973 -0.022865353 0.04079084 0.022986537 0.037245747
0.0024908446 -0.012988887 0.022539038 -0.0054994943 -0.027600644 -0.040862404 0.038230322 -0.03359164
-0.0020201437 0.021691121 0.025241598 -0.01891893 0.041802295 0.039171375 0.014927379 0.009056838
0.021212867 0.025919948 -0.03947164 0.026719656 -0.0085237 0.031429987 -0.034948766 -0.025952453
0.0132493675 0.0071814302 -0.012787829 0.03920829 -0.021574771 -0.021082195 -0.0034228945 -0.041737765
-0.028077908 -0.014745235 -0.012100796 0.0048094415 -0.016762178 0.012260007 -0.027217653 -0.007958304
-0.028488144 0.01775382 0.035404455 0.0041664145 0.037779953 -0.012150352 0.008070866 -0.020527713
0.0048139635 -0.027956897 -0.028699094 0.028817177 -0.039561246 -0.03113412 0.029166058 0.006775475
-0.028773526 -0.0060352413 0.042382576 -0.038732797 0.042127334 0.038990237 0.01290821 0.036512867
-0.00853368 0.042305123 -0.038280528 -0.013756515 0.034222465 -0.031127023 -0.005742342 -0.009340197
0.021100946 0.019033674 -0.025528025 -0.03988604 -0.003401572 -0.020512938 -0.009823281 -0.00086231175
-0.0070758117 -0.016860748 0.04039914 -0.0062166937 -0.0028084526 0.020185847 -0.026674267 0.041806307
-0.0380355 -0.035421006 0.042142723 0.029990138 0.017709423 0.017066702 -0.0017026775 -0.033517413
0.00423077 -0.00025545308 0.023096953 -0.008104875 0.0019807462 0.010262758 0.020910472 -0.0061860364
-0.028056907 -0.025942162 0.0359251 0.014036989 -0.02934248 0.027397815 -0.024608422 -0.02146136
-0.025816401 0.030627705 -0.013056545 -0.0040133125 0.0044626123 -0.03445367 -0.0024516368 -0.006871228
-0.04034433 0.03246535 0.039429653 -0.022904862 0.014655856 -0.0034449308 0.016153801 0.02047846
00000000: 08b1 b03c 7481 fb3c eeea a43c 4c59 a73c
00000010: 28b0 92bc 7c60 39bc 86c4 263d bc01 17bd
00000020: 677e d73c 87ab dcbb d8ad 993c b8e3 bdbb
00000030: a21d e7bc b0f6 02bb 1032 293d 45da 0bbd
00000040: c0de 1fbb 8c07 613c 3fc3 c3bc e049 073c
00000050: de00 febc e089 703c dbf7 02bd 809f febc
00000060: 2500 11bd 927f 8ebb aaab 1ebc bc96 893c
00000070: 05cf 6c3b 0fcb 03bd be36 75bb 40d5 bc3b
00000080: 12d5 0fbd 721e a0ba 0250 d73c 88ba ba3c
00000090: 0172 043d 804f afbb c085 933c 9889 c83c
000000a0: 501a f83b 204f 1c3b a06d 383c be1a 043d
000000b0: 6a1b debc 3c44 94bc 54ed 2b3d d8c0 ad3c
000000c0: abf4 273d edff 5d3c b4be 0abd be49 cb3c
000000d0: 8882 f93c 2d0c fb3c 5a9e f6bc 4104 bc3c
000000e0: 941e d33c 086e f83c 0651 a23c a2cc 223d
000000f0: e88a e1bb 2691 293d 3321 07bd 3c54 023d
00000100: 14a4 87bc b5ca 16bd a993 13bd ef70 d13c
00000110: 038a 573c 4383 61bb 2aa1 44bc 71f0 e43b
00000120: 92c6 72bc d6f0 50bb 1c4e 983c d4eb e1ba
00000130: 09f1 85bc b4a4 d93c 4f74 b5bc 68d2 ecbb
00000140: 70d2 6ebc 3098 503c f0e5 163d 1098 16bc
00000150: 3060 d2bb de50 213d c34a cf3c 449a a6bb
00000160: ed93 663c edca bb3c 48c4 7e3c 32ee d1bc
00000170: 9759 15bd 77c5 f6ba 97d8 dfbc 744e d7bb
00000180: 8110 aebc f89f ae3c 7086 d2bc 66ca adbc
00000190: e030 eabc 3bd9 0fbd df47 12bd 48fb d13c
000001a0: cfb2 f6bc effd 123d 2fa1 8a3b 9618 e8bc
000001b0: 2bc4 0dbd bc01 c839 da58 253d ae26 473c
000001c0: cc6a ce3c a224 89bc b836 0fbd 4be8 173c
000001d0: adff 7f3c 0024 623a 0cb7 773c 3429 00bc
000001e0: 8021 653b 1453 05bd 7481 083c 4c37 7abc
000001f0: 1f50 bbbc 4c14 273d 434e bc3c ff8e 183d
00000200: 703d 233b 57cf 54bc caa3 b83c 1a35 b4bb
00000210: bf1a e2bc 565f 27bd 6697 1c3d 6397 09bd
00000220: 6364 04bb 94b1 b13c 78c7 ce3c dffb 9abc
00000230: e238 2b3d 2a72 203d f791 743c 2263 143c
00000240: 9bc6 ad3c 1256 d43c 04ad 21bd 2ee3 da3c
00000250: fda6 0bbc bbbc 003d 7026 0fbd 3d9a d4bc
00000260: e013 593c 3452 eb3b 0b84 51bc df98 203d
00000270: 93bd b0bc 91b4 acbc a452 60bb 38f5 2abd
00000280: a403 e6bc 0096 71bc 6b42 46bc 8598 9d3b
00000290: d650 89bc 32de 483c 8ef7 debc 8c63 02bc
000002a0: f85f e9bc 7670 913c 4304 113d 6b86 883b
000002b0: 27bf 1a3d 4512 47bc aa3b 043c bc29 a8bc
000002c0: 74be 9d3b dd05 e5bc 5d1a ebbc 0012 ec3c
000002d0: f90a 22bd fb0c ffbc a8ed ee3c ce04 de3b
000002e0: 75b6 ebbc 46c3 c5bb 5a99 2d3d 48a6 1ebd
000002f0: b68d 2c3d 3ab4 1f3d f57c 533c 848e 153d
00000300: d9d0 0bbc 2348 2d3d 0bcc 1cbd 0263 61bc
00000310: db2c 0c3d 19fe febc 422a bcbb a007 19bc
00000320: e4db ac3c 82ec 9b3c 2620 d1bc 8b5f 23bd
00000330: e8ec 5ebb c00a a8bc d4f1 20bc c30c 62ba
00000340: 36dc e7bb 8d1f 8abc 9279 253d 68b5 cbbb
00000350: 040e 38bb ca5c a53c fe83 dabc 173d 2b3d
00000360: 1dcb 1bbd 9e15 11bd d99d 2c3d e1ad f53c
00000370: 5a13 913c 78cf 8b3c 602c dfba 8e49 09bd
00000380: 45a2 8a3b 55ee 85b9 d235 bd3c 4fca 04bc
00000390: 68cf 013b 2025 283c 704c ab3c 3cb4 cabb
000003a0: 99d7 e5bc a884 d4bc 3326 133d 66fb 653c
000003b0: a45f f0bc 6271 e03c 9a97 c9bc bccf afbc
000003c0: eb7c d3bc f4e6 fa3c 1eeb 55bc 1b82 83bb
000003d0: 1b3b 923b 4b1f 0dbd a4ab 20bb 0a28 e1bb
000003e0: 1940 25bd 63fa 043d fd80 213d faa2 bbbc
000003f0: 1e1f 703c 59c4 61bb fa54 843c 71c2 a73c

layer1.0.bias f4 [256]
0.028120684 0.035596248 0.0006641472 -0.00542155 -0.023009121 -0.02943785 -0.022156503 -0.0166171
0.04224745 0.012488182 -0.019750923 -0.035610005 -0.038472533 0.038409125 0.039563663 -0.03744057
0.01913833 -0.03632802 0.012662366 -0.019696666 0.02060891 -0.019449666 -0.033012327 0.02223787
0.036173794 0.002568286 0.027984856 -0.040936776 -0.01892809 -0.01072438 0.03488869 0.03429731
0.003499282 -0.028222336 0.023064317 -0.025418963 -0.03823353 0.031525083 0.009820821 -0.017332697
-0.022871353 -0.012805909 -0.00966025 -0.005204413 -0.030329922 -0.0038980755 -0.014528381 0.00452727
0.022699779 -0.026012702 -0.023412379 0.008255225 -0.028325086 -0.041605856 0.026358046 0.016242284
-0.031639583 -0.00041077906 0.008210208 0.016750704 -0.03722883 0.010237036 -0.015791345 0.0036251391
0.031027265 0.028548324 -0.025664061 -0.010377452 -0.01808205 0.027949011 -0.003958539 -0.0036138769
0.0027924504 -0.03190811 -0.025720825 -0.03532658 0.026442163 -0.035424106 0.007458864 0.034444656
0.027199578 0.03926469 -0.03027991 0.0076359627 -0.025172392 -0.012161933 0.0068102335 -0.024398446
-0.011389358 0.017476562 -0.039085668 -0.014135593 0.0054909037 -0.0008497742 -0.008057529 -0.0028281761
0.003614841 0.04036405 -0.0025818443 -0.021916043 0.025003161 -0.02256951 -0.0228486 -0.039264794
0.03142228 0.018151367 -0.041822165 0.017838184 0.0279504 -0.004864629 0.033831917 -0.03883342
-0.0025788024 0.04270901 0.02687725 0.03960196 -0.030545782 0.0010869474 -0.019462347 0.030401098
-0.027137762 -0.016477272 0.011711632 0.029200751 0.012738555 -0.028211633 0.024705637 -0.014428108
-0.0040640035 -0.02334601 -0.012650105 -0.03761822 0.0073392857 0.00087644474 -0.028164014 -0.028337779
0.0017229608 -0.028837968 0.034810707 -0.035181895 -0.0045846924 -0.012581721 0.011415378 0.018952025
0.028549789 -0.02706431 0.004968326 0.030900648 -0.029938923 -0.0087404195 -0.026880376 0.027068103
0.034544818 0.015626524 -0.041126102 -0.037683625 0.0101192575 -0.035357732 -0.0340537 0.020919893
0.00788054 -0.030492084 0.03780621 -0.0016446074 0.023217376 0.007765407 0.040057205 0.018001994
-0.014658339 -0.0356574 -0.020706702 0.0023157173 -0.019307522 -0.003105879 -0.03464869 0.037391644
-0.021432433 -0.03287636 -0.015347728 0.0020721862 -0.005416473 -0.002350723 -0.0026951756 -0.0004688102
0.007730142 -0.007667536 -0.028756581 -0.025187202 -0.04150415 0.015374802 -0.032195453 0.03409829
-0.026476966 -0.0056363493 -0.033489954 -0.04219269 0.03418716 0.032977406 0.038939673 -0.022847334
0.030052226 0.02207213 -0.008797867 -0.022567023 -0.010197854 0.015507862 0.028323635 0.013949364
0.036883865 -0.03825826 0.023508212 -0.01458089 0.032579016 0.0423714 0.03407722 0.022281177
0.00064552965 0.0026146607 -0.03327714 0.034679815 -0.037266858 0.0016230308 0.036593206 -0.0361766
-0.024975853 -0.042547613 -0.002935439 0.00020278168 -0.03923461 -0.0006434578 0.013115133 0.011888282
0.038596414 0.029510343 0.01636064 0.020699536 -0.022567801 -0.021676006 0.033405665 0.04173799
0.020507205 -0.037156757 0.03292941 -0.03086102 -0.02748091 -0.009802848 0.04150255 0.0299574
0.024032984 0.024983518 0.0054953657 -0.026673924 0.02652687 0.039159976 0.0036816048 -0.029422857
00000000: 595d e63c 5fcd 113d 2a1a 2e3a 42a7 b1bb
00000010: a07d bcbc a527 f1bc 8e81 b5bc 9620 88bc
00000020: aa0b 2d3d 3b9b 4c3c b0cc a1bc ccdb 11bd
00000030: 6095 1dbd e352 1d3d 820d 223d 485b 19bd
00000040: fdc7 9c3c b1cc 14bd d075 4f3c e75a a1bc
00000050: 04d4 a83c e854 9fbc ef37 07bd 322c b63c
00000060: f92a 143d b050 283b 7f40 e53c 52ad 27bd
00000070: 150f 9bbc 4fb5 2fbc 71e7 0e3d 567b 0c3d
00000080: 3654 653b 8732 e7bc 61f1 bc3c 6e3b d0bc
00000090: c39a 1cbd 7220 013d 82e7 203c 4dfd 8dbc
000000a0: b45c bbbc e0cf 51bc 0646 1ebc c889 aabb
000000b0: 7576 f8bc db76 7fbb 7208 6ebc 7e59 943b
000000c0: e3f4 b93c 9718 d5bc 51cb bfbc ec40 073c
000000d0: 030a e8bc e76a 2abd d4ec d73c 8a0e 853c
000000e0: 8298 01bd d55d d7b9 1c84 063c c638 893c
000000f0: 427d 18bd 3eb9 273c da5c 81bc be93 6d3b
00000100: e42c fe3c 2dde e93c 703d d2bc 3006 2abc
00000110: cf20 94bc 53f5 e43c a2b6 81bb cbd6 6cbb
00000120: 8b01 373b 14b2 02bd 7bb4 d2bc 9bb2 10bd
00000130: 3c9d d83c de18 11bd 7c69 f43b d715 0d3d
00000140: a6d1 de3c 03d4 203d 930d f8bc 1937 fa3b
00000150: 5536 cebc d842 47bc 6128 df3b 40df c7bc
00000160: 6e9a 3abc 022b 8f3c 4b18 20bd f998 67bc
00000170: 0aed b33b 62c3 5eba ba03 04bc ec58 39bb
00000180: f8e6 6c3b c654 253d 2934 29bb 4689 b3bc
00000190: 6ed3 cc3c b1e3 b8bc fd2c bbbc 1fd4 20bd
000001a0: a6b4 003d 2db2 943c b84d 2bbd 6221 923c
000001b0: 3df8 e43c 7767 9fbb 5693 0a3d cb0f 1fbd
000001c0: 2001 29bb a5ef 2e3d ae2d dc3c aa35 223d
000001d0: 263b fabc e777 8e3a 806f 9fbc b90b f93c
000001e0: 0350 debc 58fb 86bc 25e2 3f3c 6a36 ef3c
000001f0: 5fb5 503c 151c e7bc 7a63 ca3c df63 6cbc
00000200: 552b 85bb 2240 bfbc 6342 4fbc 9015 1abd
00000210: 647e f03b 36c1 653a 38b8 e6bc a124 e8bc
00000220: f9d4 e13a 9a3d ecbc ac95 0e3d e41a 10bd
00000230: 303b 96bb 9023 4ebc 9107 3b3c 4741 9b3c
00000240: 3fe1 e93c f9b5 ddbc 57cd a23b 5b23 fd3c
00000250: 7942 f5bc fa33 0fbc 3c34 dcbc edbd dd3c
00000260: de7e 0d3d 3203 803c d873 28bd 255a 1abd
00000270: 3ecb 253c 45d3 10bd e47b 0bbd 3260 ab3c
00000280: 611d 013c 89ca f9bc afda 1a3d de8f d7ba
00000290: 5e32 be3c f574 fe3b 0613 243d eb78 933c
000002a0: 8829 70bc 7e0d 12bd 1aa1 a9bc 4ac3 173b
000002b0: cf2a 9ebc 018c 4bbb c9eb 0dbd fb27 193d
000002c0: 1293 afbc 5da9 06bd 0975 7bbc 84cd 073b
000002d0: ab7c b1bb 960e 1abb 8ba1 30bb a4ca f5b9
000002e0: 224d fd3b f43f fbbb ec92 ebbc 6455 cebc
000002f0: 4100 2abd 98e6 7b3c 61df 03bd a6aa 0b3d
00000300: 39e6 d8bc 20b1 b8bb c32c 09bd 3ed2 2cbd
00000310: d607 0c3d 5113 073d 357f 1f3d 552a bbbc
00000320: 1630 f63c 9dd0 b43c ee24 10bc 7ade b8bc
00000330: e614 27bc b014 7e3c f806 e83c e08b 643c
00000340: 8913 173d b1b4 1cbd 4b94 c03c afe4 6ebc
00000350: 9371 053d a28d 2d3d 8e94 0b3d 0487 b63c
00000360: c338 293a ba5a 2b3b 9c4d 08bd 6c0c 0e3d
00000370: 22a5 18bd e0bb d43a c2e2 153d ea2d 14bd
00000380: 299a ccbc 6846 2ebd 7f60 40bb cba1 5439
00000390: 78b4 20bd b9ad 28ba dbe0 563c 12c7 423c
000003a0: 4617 1e3d adbf f13c c006 863c 1392 a93c
000003b0: 1ce0 b8bc e191 b1bc 61d4 083d 74f5 2a3d
000003c0: bafe a73c af31 18bd fde0 063d 40d0 fcbc
000003d0: a51f e1bc 209c 20bc 94fe 293d 3969 f53c
000003e0: d2e0 c43c 3caa cc3c 7812 b43b 4683 dabc
000003f0: e14e d93c 3666 203d 1447 713b 3408 f1bc

layer2.0.weight f4 [84, 256]
0.051809695 0.041061625 0.04886833 0.037295397 0.022680916 -0.021738105 0.05540578 -0.02667569
-0.014044357 -0.050248444 -0.029144077 0.025983708 -0.016076557 0.051323567 -0.044443842 0.04206711
0.060265437 0.017162377 0.015471472 0.0032205607 0.0011487808 0.051484957 -0.0020472654 0.0077619534
0.038335998 0.03489184 -0.026743695 -0.031892695 0.060523547 0.03715558 0.002903473 -0.009962906
0.031087168 -0.051870827 0.024913188 -0.040210713 0.046540152 -0.046407867 0.03472272 0.060443003
0.030203037 -0.038049147 0.03941358 -0.048587263 0.062708676 0.042817205 0.010169405 0.04042645
0.014665042 0.04457858 -0.032281186 -0.019078605 -0.054161496 -0.02950424 -0.033922084 -0.044390056
-0.04630372 0.048637003 -0.046337105 0.028111503 -0.048090436 0.05749515 -0.00097401027 -0.044179227
0.02022862 -0.0023966713 0.053666804 -0.038748335 -0.048375607 -0.011076006 0.04965593 -0.0003580141
0.04103047 -0.011444817 0.0054268166 -0.0176157 -0.0060878005 0.062002726 0.012282704 -0.05910956
0.018087002 -0.011180184 0.03988227 -0.055315934 0.059352312 -0.05358309 0.027347695 0.005485973
0.009397782 0.021625029 0.02371626 -0.030203499 -0.05337127 0.017295038 0.052154027 -0.029005738
-0.011312428 0.014414678 0.044286873 0.051749732 0.020501921 -0.0052130264 -0.057738204 0.061235286
-0.030332424 -0.01910803 -0.03221058 -0.0010224968 -0.04375774 0.057491515 0.028757252 0.021288881
-0.018286545 0.050462868 0.051828127 -0.06011902 -0.019238772 0.040679764 -0.0040680943 -0.049065627
0.05986402 0.051062815 0.036722805 0.03494966 0.025885753 -0.026795393 -0.04984276 0.02395165
-0.05413286 -0.04517292 0.052001692 0.04903805 -0.01814904 0.039918963 0.027864717 -0.0023668385
0.03482407 0.04516838 -0.046733495 -0.025194384 0.057044495 0.008928183 0.017293021 -0.050484635
-0.032026794 0.04760923 0.05375363 -0.028508557 0.005605342 0.04344975 0.02732332 -0.0522584
0.033254962 0.0038863302 -0.043338407 0.05830483 -0.04753575 -0.0019788223 0.05830143 0.009529199
0.04326829 0.04016706 0.023702053 0.017640442 -0.053200547 0.03199092 -0.0073673455 0.023675134
-0.056145594 0.024281565 0.039954267 0.012645418 0.0024081212 -0.005948788 0.01381516 0.018883705
-0.014805053 -0.060398456 0.044326384 -0.04086 0.018360626 0.029642878 -0.057341333 0.0045560137
-0.05367198 0.04372715 0.038835064 -0.018860493 0.035162356 0.02903441 -0.007900506 -0.029200278
0.020572199 0.03436131 -0.01870387 -0.0021616388 -0.008487284 0.038941603 0.03861118 0.009111434
-0.03207667 0.043946944 -0.017766666 0.020581534 0.009898926 -0.014205205 -0.01779575 -0.004852428
-0.033884235 -0.0441747 0.029278656 -0.030500427 -0.06168048 0.062968336 -0.038795795 0.0086691715
0.05936372 0.037296396 -0.025421146 -0.057963166 0.023939084 -0.030562185 0.0024852736 0.023621704
0.045084886 -0.05932957 0.044289753 0.055110995 -0.04465545 0.030673392 -0.05774284 0.023475097
-0.04680057 0.052422743 -0.01933191 -0.02797466 -0.01092995 0.023170017 -0.04703289 -0.04889223
0.05581531 -0.061437584 -0.009798691 0.03462428 -0.016066274 0.022261558 -0.04774575 -0.000969003
0.063973695 0.05655219 -0.0428233 0.009016109 0.001764249 -0.026586058 -0.0540377 -0.04207559
00000000: 6736 543d 3c30 283d 282a 483d 0fc3 183d
00000010: 54cd b93c 1c14 b2bc 2cf1 623d fa86 dabc
00000020: 4e1a 66bc 50d1 4dbd 8fbf eebc c9db d43c
00000030: fcb2 83bc a938 523d bf0a 36bd 904e 2c3d
00000040: e4d8 763d 1d98 8c3c 0f7c 7d3c 0b10 533b
00000050: b092 963a e4e1 523d 6a2b 06bb fc57 fe3b
00000060: 3506 1d3d bfea 0e3d 9815 dbbc eaa1 02bd
00000070: 8ae7 773d 7330 183d 3248 3e3b 753b 23bc
00000080: 84aa fe3c 8176 54bd be16 cc3c fdb3 24bd
00000090: e3a0 3e3d 2d16 3ebd 6939 0e3d 1593 773d
000000a0: 5c6c f73c 6cd9 1bbd 2270 213d 7003 47bd
000000b0: 686d 803d 1861 2f3d 939d 263c 3596 253d
000000c0: a545 703c 0798 363d 4739 04bd bc4a 9cbc
000000d0: 72d8 5dbd e0b2 f1bc e2f1 0abd 59d2 35bd
000000e0: f8a8 3dbd 9837 473d facb 3dbd 184a e63c
000000f0: 7afa 44bd 0980 6b3d b954 7fba 47f5 34bd
00000100: 7eb6 a53c 7911 1dbb b9d1 5b3d 93b6 1ebd
00000110: 8025 46bd 2378 35bc 0464 4b3d d7b3 bbb9
00000120: 910f 283d 0b83 3bbc 70d3 b13b cd4e 90bc
00000130: 2c7c c7bb 92f6 7d3d 653d 493c de1c 72bd
00000140: 312b 943c 172d 37bc 975b 233d f692 62bd
00000150: 691b 733d f179 5bbd 4608 e03c adc3 b33b
00000160: 28f9 193c f926 b13c 9a48 c23c 546d f7bc
00000170: d59b 5abd 53ae 8d3c 769f 553d 719d edbc
00000180: c357 39bc 8b2b 6c3c 2766 353d 87f7 533d
00000190: a5f3 a73c 09d2 aabb e57e 6cbd dad1 7a3d
000001a0: b47b f8bc 7188 9cbc 3eef 03bd 4d05 86ba
000001b0: 513b 33bd 397c 6b3d 5494 eb3c 0566 ae3c
000001c0: aacd 95bc 27b2 4e3d bb49 543d 5d3f 76bd
000001d0: a19a 9dbc d39f 263d a64d 85bb 0af9 48bd
000001e0: fa33 753d 3e27 513d a76a 163d 6027 0f3d
000001f0: 5c0e d43c 0382 dbbc ec27 4cbd 4036 c43c
00000200: 6bba 5dbd 3d07 39bd baff 543d 1fdc 483d
00000210: 4cad 94bc 1182 233d 8c44 e43c f61c 1bbb
00000220: afa3 0e3d 7b02 393d 9f6b 3fbd 7464 cebc
00000230: 7da7 693d 8347 123c 18aa 8d3c fac8 4ebd
00000240: 872e 03bd e501 433d c42c 5c3d c78a e9bc
00000250: 04ad b73b 5df8 313d 28d5 df3c e70c 56bd
00000260: 5b36 083d cdb1 7e3b 9d83 31bd 0cd1 6e3d
00000270: d9b4 42bd 21af 01bb 7bcd 6e3d 5c20 1c3c
00000280: 173a 313d 3786 243d cf2a c23c b082 903c
00000290: d1e8 59bd e908 033d c669 f1bb 5bf2 c13c
000002a0: ecf8 65bd 22ea c63c 16a7 233d ba2e 4f3c
000002b0: 92d1 1d3b 0dee c2bb fb58 623c 00b2 9a3c
000002c0: e590 72bc 5f64 77bd 958f 353d d15c 27bd
000002d0: 0669 963c 9fd5 f23c bfde 6abd 9d4a 953b
000002e0: 26d7 5bbd 3d1b 333d 8411 1f3d 5281 9abc
000002f0: 6706 103d 92d9 ed3c 2071 01bc 6c35 efbc
00000300: 0787 a83c 72be 0c3d dc38 99bc 48aa 0dbb
00000310: 400e 0bbc 3b81 1f3d c226 1e3d 2048 153c
00000320: d462 03bd b601 343d 668b 91bc 9b9a a83c
00000330: 1b2f 223c f3bc 68bc 65c8 91bc 1e01 9fbb
00000340: 32ca 0abd 88f0 34bd cbd9 ef3c 08dc f9bc
00000350: aca4 7cbd 8bf5 803d 57e8 1ebd 2409 0e3c
00000360: 5f27 733d 1bc4 183d 0240 d0bc c96a 6dbd
00000370: e61b c43c 8c5d fabc f9df 223b 4e82 c13c
00000380: eeaa 383d 9003 73bd 2c69 353d 11bc 613d
00000390: a2e8 36bd c446 fb3c c283 6cbd d94e c03c
000003a0: f4b1 3fbd 3bb9 563d f45d 9ebc 1d2b e5bc
000003b0: 8813 33bc 0ccf bd3c 8fa5 40bd 3843 48bd
000003c0: 989e 643d faa5 7bbd b08a 20bc 30d2 0d3d
000003d0: 6b9d 83bc df5d b63c 0c91 43bd b104 7eba
000003e0: a404 833d 45a3 673d 7c67 2fbd 4db8 133c
000003f0: 603e e73a 01cb d9bc a356 5dbd 7457 2cbd

layer2.0.bias f4 [84]
0.039789233 -0.008907854 0.032912735 -0.06154078 -0.02217889 -0.008207216 0.0066452245 0.035285693
-0.021199048 -0.04580863 0.03246411 0.04878307 -0.045815714 0.024527917 0.031247834 -0.038265307
-0.03030893 -0.0057120826 -0.046634536 -0.0057939407 -0.048493035 0.031685024 -0.007854282 -0.041976124
0.0055726464 0.046755094 -0.020768926 -0.05309284 -0.0011430976 -0.044749007 -0.009035632 0.053812135
0.04056672 0.04355379 0.033593845 0.00015573928 -0.03680622 -0.056410648 0.04700711 -0.020965487
0.043615565 -0.010175932 -0.01629044 -0.028646717 0.0066312733 0.0069034817 0.009205716 -0.04884853
-0.053978097 -0.053441484 -0.05668437 -0.036634926 -0.06157571 0.049014676 -0.039061137 0.035804458
0.0075749536 0.01361176 0.008204145 -0.06243074 -0.039345823 -0.03861809 -0.024869932 0.053562883
0.027171012 0.037443746 -0.048951115 -0.056738365 -0.02717041 0.05145853 -0.008368285 -0.044762537
0.026491662 0.058923442 0.05430721 0.05161508 -0.0011606812 0.03833773 -0.0063893353 0.043394145
-0.058621597 -0.023749469 -0.035449088 0.006319323
00000000: 09fa 223d 3ff2 11bc 81cf 063d 2f12 7cbd
00000010: 81b0 b5bc 8f77 06bc 2fc0 d93b bb87 103d
00000020: a0a9 adbc d4a1 3bbd 16f9 043d c2d0 473d
00000030: 42a9 3bbd c5ee c83c 75fb ff3c 15bc 1cbd
00000040: 6f4a f8bc 6c2c bbbb db03 3fbd 19db bdbb
00000050: a2a0 46bd 28c8 013d 3faf 00bc 28ef 2bbd
00000060: bf9a b63b 4582 3f3d 9823 aabc e177 59bd
00000070: fed3 95ba bc4a 37bd 300a 14bc 1d6a 5c3d
00000080: 4a29 263d 7565 323d b399 093d f24d 2339
00000090: 1ec2 16bd da0e 67bd 878a 403d d0bf abbc
000000a0: 3ca6 323d f4b8 26bc 8773 85bc 85ac eabc
000000b0: 274b d93b 9a36 e23b 92d3 163c 6515 48bd
000000c0: 2318 5dbd 75e5 5abd df2d 68bd 810e 16bd
000000d0: d036 7cbd 9dc3 483d 92fe 1fbd b2a7 123d
000000e0: 5137 f83b dc03 5f3c ae6a 063c 60b7 7fbd
000000f0: 1629 21bd 012e 1ebd 07bc cbbc c164 5b3d
00000100: be95 de3c 9d5e 193d f780 48bd 7d66 68bd
00000110: 7b94 debc 2ec6 523d 221b 09bc ec58 37bd
00000120: 0b05 d93c b559 713d 3d71 5e3d 566a 533d
00000130: 0022 98ba 0608 1d3d a15d d1bb 0fbe 313d
00000140: 331d 70bd 3f8e c2bc 1033 11bd 5312 cf3b

layer3.0.weight f4 [8, 84]
0.017840706 -0.08586828 -0.07856088 -0.07576672 0.09465941 0.094277926 -0.058414627 0.007020648
-0.028406322 0.086998634 -0.076538965 0.09504009 0.105300166 0.079080105 0.010899819 -0.05744091
-0.0992792 0.02582753 -0.03365351 0.054096546 -0.106723264 -0.056853075 0.039778102 -0.025447896
0.10738594 -0.06380471 -0.0354549 0.08546945 0.074538395 0.08487146 0.08437729 -0.053583156
-0.040830154 0.09225595 0.050384402 0.07303661 0.09268337 -0.06850904 0.073377326 -0.08112304
0.06829601 -0.047443975 0.043271154 0.093298 0.09876754 -0.001806474 -0.05372375 0.058019727
0.057470612 -0.1089276 0.014603195 0.08750095 -0.06723153 0.102279305 0.09484824 -0.020330047
0.0884045 0.10250939 -0.031633466 0.03214637 -0.10904798 0.0033357416 -0.030868001 -0.051313575
-0.08210876 -0.09348219 0.07174284 -0.059150405 -0.060783006 0.020610703 0.019778809 -0.055086803
-0.07538637 0.027723378 0.056538638 -0.038999014 0.034498017 0.045783926 -0.08466967 -0.04567331
-0.013142839 0.00982437 -0.023929782 0.088253595 0.052477237 -0.030882142 -0.06432424 -0.034046818
-0.020072037 -0.0742318 0.033807196 0.054865476 0.09290997 -0.00908157 -0.06958222 -0.002832916
0.07383209 0.039552853 -0.023956584 -0.027681699 0.10323286 0.017159214 -0.013022304 -0.07888917
-0.06391129 -0.050973557 -0.003136802 -0.06933505 0.06107284 0.008364066 -0.041045915 -0.0032235149
-0.059375565 0.06240749 0.03703049 -0.026141109 0.05669619 0.019989 0.013605052 -0.037392765
-0.0644683 -0.0033795678 -0.0048932256 0.026662132 -0.048210483 -0.07336114 -0.081697844 0.014854027
-0.0040073916 -0.032948826 -0.002726147 -0.038611364 0.056757715 -0.09504397 0.049299065 0.087613426
-0.037770074 -0.029925626 -0.04219718 0.10360728 -0.08534298 -0.09733875 -0.10201658 0.025986888
-0.06200662 0.07782703 -0.09684018 -0.025980739 0.06850851 0.07227639 0.055485547 -0.10149214
0.077228785 0.072779834 0.08884624 0.02334078 -0.041894346 -0.107001916 0.0234067 0.060809195
-0.09251684 -0.053401224 -0.053042714 -0.00046656808 0.06292192 0.07555436 -0.08916717 -0.09290403
0.04786114 -0.093729556 -0.07040474 0.016843772 -0.10172239 -0.08033294 -0.09850574 0.07212491
0.022744237 -0.0077615636 0.06761932 -0.024034848 0.07049335 0.09804618 0.015580004 -0.08551071
-0.09751681 0.005309811 -0.0856889 0.08749123 0.08172237 0.027092613 0.07320425 -0.08521965
-0.08398546 0.0081194285 0.061428703 -0.0042926343 -0.002345422 -0.084251754 -0.05724591 -0.039947882
0.08506578 -0.07123099 -0.018066738 0.011457931 -0.07856399 0.10164543 -0.10619999 -0.103119366
-0.064784296 0.027958777 0.032257453 -0.10121904 0.10088365 -0.09816634 0.047563612 0.02257078
-0.02729382 0.023848785 -0.082168944 -0.08607797 0.024950175 -0.08541095 0.077928476 0.033891663
0.04193578 0.049283966 0.048368428 0.06268184 -0.10333628 0.08966258 -0.096665084 0.033760168
0.02970718 -0.063060135 -0.024866316 -0.043987308 0.019964643 0.03920687 0.07158074 -0.002320496
-0.058253523 -0.0064211935 0.03865235 -0.009794627 -0.052476052 0.06623752 0.062795736 0.08570582
0.017354991 0.10152483 -0.085111104 0.06265175 0.0355136 -0.09616448 -0.07602659 -0.058526106
00000000: ac26 923c b5db afbd 87e4 a0bd 952b 9bbd
00000010: cbdc c13d c914 c13d 2d44 6fbd 770d e63b
00000020: 60b4 e8bc 572c b23d 76c0 9cbd 61a4 c23d
00000030: 9da7 d73d c0f4 a13d 2895 323c 2947 6bbd
00000040: e552 cbbd 4294 d33c 43d8 09bd 5794 5d3d
00000050: ba91 dabd c5de 68bd 5dee 223d 1b78 d0bc
00000060: 29ed db3d 0bac 82bd 2839 11bd 9b0a af3d
00000070: 96a7 983d 17d1 ad3d 00ce ac3d 037a 5bbd
00000080: 853d 27bd b0f0 bc3d e05f 4e3d 3894 953d
00000090: c7d0 bd3d 784e 8cbd da46 963d d623 a6bd
000000a0: c7de 8b3d 9d54 42bd 183d 313d 0613 bf3d
000000b0: a346 ca3d 36c7 ecba 6f0d 5cbd 18a6 6d3d
000000c0: 4e66 6b3d 6f15 dfbd 3d42 6f3c b333 b33d
000000d0: afb0 89bd d077 d13d cb3f c23d 338b a6bc
000000e0: 6b0d b53d 71f0 d13d 1892 01bd e9ab 033d
000000f0: 8c54 dfbd 759c 5a3b e4de fcbc 2f2e 52bd
00000100: a328 a8bd 9773 bfbd e9ed 923d b247 72bd
00000110: 9af7 78bd c7d7 a83c 2b07 a23c b3a2 61bd
00000120: 2b64 9abd 231c e33c 0f95 673d 6ebd 1fbd
00000130: cb4d 0d3d ed87 3b3d 4b67 adbd f013 3bbd
00000140: 1055 57bc 65f6 203c 6408 c4bc 4dbe b43d
00000150: 5ff2 563d 8cfc fcbc 6dbc 83bd ad74 0bbd
00000160: 1d6e a4bc d806 98bd 6a79 0a3d 9fba 603d
00000170: 9547 be3d deca 14bc 1f81 8ebd 72a8 39bb
00000180: 4735 973d 2c02 223d 9940 c4bc bbc4 e2bc
00000190: c06b d33d 7b91 8c3c 805b 55bc a590 a1bd
000001a0: ece3 82bd a6c9 50bd ce92 4dbb 89ff 8dbd
000001b0: 8427 7a3d 6f09 093c c31f 28bd 9b41 53bb
000001c0: cb33 73bd ff9e 7f3d 48ad 173d e125 d6bc
000001d0: 443a 683d f9bf a33c b9e7 5e3c 2829 19bd
000001e0: f507 84bd bd7b 5dbb 5a57 a0bb 8b6a da3c
000001f0: 5b78 45bd 5e3e 96bd 3351 a7bd 4e5e 733c
00000200: 7050 83bb 59f5 06bd 28a9 32bb f326 1ebd
00000210: c77a 683d 6aa6 c2bd d1ed 493d ab6e b33d
00000220: cbb4 1abd 9626 f5bc f3d6 2cbd 0e30 d43d
00000230: 4dc8 aebd 8a59 c7bd 12ee d0bd 74e2 d43c
00000240: a7fa 7dbd c763 9f3d 2554 c6bd 8fd5 d4bc
00000250: 314e 8c3d a505 943d d044 633d 1cdb cfbd
00000260: 202a 9e3d 980d 953d 04f5 b53d 2a35 bf3c
00000270: 6899 2bbd d223 dbbd 68bf bf3c 1013 793d
00000280: 7879 bdbd 3ebb 5abd 5143 59bd b59d f4b9
00000290: 35dd 803d 3fbc 9a3d 479d b6bd 7844 bebd
000002a0: 0b0a 443d 48f5 bfbd 5c30 90bd f3fb 893c
000002b0: d453 d0bd 9985 a4bd 61bd c9bd 3ab6 933d
000002c0: 1f52 ba3c b754 febb ff7b 8a3d bbe4 c4bc
000002d0: d15e 903d 70cc c83d 4643 7f3c 3d20 afbd
000002e0: e5b6 c7bd ecfd ad3b a97d afbd 9a2e b33d
000002f0: 0f5e a73d 54f1 dd3c 1cec 953d a487 aebd
00000300: 9200 acbd 5a07 053c aa9c 7b3d 3aa9 8cbb
00000310: a7b5 19bb 2f8c acbd b07a 6abd 64a0 23bd
00000320: f836 ae3d 8ee1 91bd b200 94bc 0cba 3b3c
00000330: 28e6 a0bd 7b2b d03d 617f d9bd 3f30 d3bd
00000340: a1ad 84bd ce09 e53c 6420 043d ee4b cfbd
00000350: 169c ce3d 6f0b c9bd 10d2 423d 5be6 b83c
00000360: 4a97 dfbc 875e c33c 3148 a8bd a649 b0bd
00000370: 4f64 cc3c f0eb aebd f798 9f3d fcd1 0a3d
00000380: dac4 2b3d fcdd 493d f91d 463d 565f 803d
00000390: f9a1 d3bd 04a1 b73d 58f8 c5bd 1a48 0a3d
000003a0: 795c f33c ac25 81bd 72b4 cbbc 092c 34bd
000003b0: e48c a33c 6297 203d ec98 923d 7613 18bb
000003c0: 3f9b 6ebd e068 d2bb ed51 1e3d a579 20bc
000003d0: 21f1 56bd 89a7 873d 0d9b 803d 8886 af3d
000003e0: 0e2c 8e3c 40ec cf3d bb4e aebd 904f 803d
000003f0: b576 113d e2f1 c4bd d4b3 9bbd 12b9 6fbd

layer3.0.bias f4 [8]
-0.080985025 0.07005512 0.056256846 0.033381615 -0.00082690007 -0.08164533 -0.05182089 -0.07166717
00000000: 7adb a5bd 0f79 8f3d 946d 663d 29bb 083d
00000010: 53c4 58ba ab35 a7bd 2442 54bd 3dc6 92bd
