DigitalRecognition-master/model_params/GDUT_net_all_14.pt (torch, 665623 bytes, 6 tensors)

layer1.0.weight f4 [256, 560]
000000 56 c7 24 bd ae e6 05 3d 1f 1d 1c bd 30 60 16 3d
       -0.040229164 0.032690696 -0.03811371 0.036712825
000010 b0 32 25 bd e0 be a4 bc ec 93 25 bd b8 9e 04 3d
       -0.040331542 -0.020110548 -0.040424272 0.03237793
000020 0b fb 38 bc 86 9c 5f 3c 45 71 aa 3c 1c 08 19 bd
       -0.011290322 0.013648158 0.020805964 -0.03736125
000030 38 2e d7 bb 60 60 2a 3b bc 8d 30 bc ec 54 24 3d
       -0.006566789 0.0025997385 -0.01077598 0.04012005
000040 00 42 65 bc 50 79 ef bc c1 38 b9 bc 1f aa 15 bd
       -0.013992786 -0.029232651 -0.02261007 -0.036539193
000050 78 c8 8d bb 04 9b bf 3c 94 01 04 3c e6 ad 52 bc
       -0.0043268763 0.023389347 0.008057017 -0.012858843
000060 1e 18 5f bc 58 39 15 3d fa dd 28 3d 28 d9 26 3c
       -0.01361659 0.03643164 0.04122732 0.01018361
000070 a2 ee b3 3c 95 92 2a bd 18 c9 3c bc fe 65 a5 bb
       0.021964375 -0.041643698 -0.011522554 -0.005047559
000080 e9 22 15 3b 67 d2 a9 3c 24 78 1e bd 8d b6 4f 3c
       0.0022756404 0.02073021 -0.038688794 0.012677801
000090 7d 2d 83 3c 58 5b 17 3d f4 63 80 bc 10 41 d0 3b
       0.016012901 0.036952347 -0.015672661 0.0063554123
0000a0 ec e4 11 bd 24 f2 e0 3c 18 6b 73 3c 70 67 99 bb
       -0.035618708 0.027459212 0.014857076 -0.00468152
0000b0 70 c9 cd bc 34 e0 e7 bc c0 43 ee 3c 22 09 c7 3c
       -0.025120467 -0.02830515 0.02908504 0.024296347
0000c0 37 2f da ba b7 aa 27 bd 9b 77 08 bc 0b 97 19 b9
       -0.0016646151 -0.04093429 -0.008329297 -0.00014647485
0000d0 01 a0 bd 3c df 86 fa bc bd 44 ea 3c 29 10 02 3d
       0.023147585 -0.03058189 0.02859723 0.031753693
0000e0 cc 09 02 3d 98 15 df 3c 30 7b e4 3b c4 2d d2 3c
       0.031747624 0.027231976 0.006972693 0.025656588
0000f0 32 c8 05 3d 7c 51 f5 3c 38 0f c0 3b e4 80 18 3c
       0.032661624 0.029946081 0.005861189 0.009308074
000100 86 3e bd 3b c8 12 d7 3c 22 d6 fe 3c 1f cf 74 3c
       0.0057752756 0.026254073 0.031107966 0.01494196
000110 c0 02 a3 bb 94 7a a1 3c 96 8c 1c 3c 85 f5 a2 3c
       -0.004974693 0.01971177 0.009555003 0.019892463
000120 8e 46 69 bc d9 70 18 bd 72 e1 ea 39 a4 85 c9 bc
       -0.014238013 -0.037216995 0.00044799928 -0.024599858
000130 37 44 9e 3c 80 45 ba ba fc 75 40 3c e0 c0 9f 3b
       0.019319637 -0.0014211386 0.01174688 0.0048752874
000140 d4 6a d4 3c f0 4d a9 bc d8 40 9d 3c d4 fd 2a 3d
       0.025929846 -0.020667046 0.019195959 0.041745976
000150 43 0e 2a bd d6 9a 28 bb 1b 86 bf 3c 65 d4 a8 3b
       -0.041517507 -0.0025727055 0.023379376 0.0051522725
000160 06 42 16 bd 4f 6d 10 3d dd 31 f1 3c db 61 ec bc
       -0.03668406 0.035260495 0.029442722 -0.028855255
000170 19 42 02 3b fd a5 c1 bc 37 16 1b 3d 07 f3 55 3c
       0.0019875823 -0.02363872 0.037862983 0.0130584305
000180 25 fc 13 3c 5a 90 56 bc f0 ae c7 3c 10 dd f4 3c
       0.009032284 -0.0130959395 0.024375409 0.029890567
000190 c8 a1 26 3d a8 d1 9f 3b 0e 04 8d 3c c5 bf a2 bc
       0.04068163 0.004877288 0.017213847 -0.019866833
0001a0 ae f3 e2 3b 5d 21 4a bc 87 f2 3f bc 4b cd 0e bd
       0.0069260215 -0.012337056 -0.011715538 -0.03486375
0001b0 17 8b 04 bd c4 28 1a bd c3 d4 c3 3b fa b8 bf bc
       -0.03235921 -0.037636533 0.005976291 -0.023403633
0001c0 5f a9 54 3c da 41 47 bc 74 65 ce bc 0b 01 98 3c
       0.012979834 -0.012161696 -0.025194861 0.018555185
0001d0 6f ea 61 3c 34 e6 ce 3c 38 f3 ae 3b 1e e1 1e bd
       0.0137888035 0.025256254 0.0053390525 -0.038788907
0001e0 5e 85 0d 3d 8b 17 b0 bc 64 3d ea bc 0e 22 08 bd
       0.034551017 -0.021495601 -0.028593726 -0.033235602
0001f0 5a 38 ca bc 53 53 65 3c cd 7b 9a 3c 86 3d 23 bd
       -0.024685074 0.013996917 0.018857861 -0.039853595
000200 25 95 0b bd f3 59 fc bc f9 b0 13 3c 97 cd 86 3a
       -0.034077782 -0.03080461 0.009014362 0.0010284659
000210 40 2e 87 bc 19 44 12 3d f9 07 12 bc a1 f5 d6 bc
       -0.016501546 0.035709474 -0.008913034 -0.026240172
000220 19 f0 50 3c df d7 fb bc 8f ba b5 bc f0 32 c2 bb
       0.012752556 -0.030742584 -0.022183685 -0.0059264824
000230 74 35 72 3c 00 7f b5 b9 8c fa 1d 3d c3 2a 0f bd
       0.014783252 -0.00034617633 0.03856902 -0.03495289
000240 0b 61 2b bd 6a 8f 26 bd 32 7b 05 bd ca 27 13 3d
       -0.041840594 -0.040664114 -0.03258819 0.035926618
000250 1a e7 04 bd 66 8f f5 3b ec be a8 3c f2 c7 f2 bc
       -0.032446958 0.007493901 0.020598851 -0.029636357
000260 d2 8a 82 3b ab 99 23 bd c4 b6 1c 3d 9f 25 e5 3c
       0.003983834 -0.03994147 0.038260236 0.02797204
000270 48 f5 7c 3c 45 6d 2a bd 7d b6 0a bb 00 63 5e 3b
       0.015439339 -0.041608114 -0.00211659 0.003393352
000280 94 c0 d6 3c 9c 38 70 bc e1 69 19 3d 4a 68 57 bc
       0.026214875 -0.014661934 0.03745449 -0.013147423
000290 b7 5c 52 3c a5 ed dd 3c d2 7a 12 bd ae c7 47 bc
       0.012839488 0.027090857 -0.03576166 -0.012193603
0002a0 6b 2b 9e 3c e3 a8 e3 bb f4 60 8d bc e5 44 86 bc
       0.019307813 -0.006947623 -0.017258145 -0.016390273
0002b0 df 51 c1 3c ad c9 86 3c ff 67 d5 3c ab 79 c9 bc
       0.02359861 0.016453588 0.026050566 -0.024594149
0002c0 e4 b5 d8 bc c6 7f ba 3c e2 d3 1b bd 0a c1 97 3c
       -0.02645392 0.022766005 -0.038043864 0.018524665
0002d0 00 68 fd 39 ef 33 0f bd ec c3 a1 bc c1 b7 49 39
       0.00048333406 -0.034961637 -0.019746743 0.00019237307
0002e0 d0 83 0a bd c7 fe 06 3d f1 ac c9 3c a4 cc 04 bd
       -0.033817112 0.03295782 0.024618598 -0.032421723
0002f0 73 ce c9 3c 43 ae 23 3d 17 af b4 39 00 27 c6 bc
       0.024634575 0.03996111 0.00034462727 -0.024188519
000300 5d ad 09 3d 98 38 0e 3b 69 a2 e6 3c 66 c2 15 3d
       0.033612598 0.0021701213 0.028153615 0.036562346
000310 d5 90 2a 3d 43 e5 ab bc 85 4c 6d 3c f1 25 bc bc
       0.04164203 -0.020983344 0.014483576 -0.02296731
000320 f2 5a 8e 3c 83 84 cc bc 06 47 07 3d d3 df d5 bc
       0.01737735 -0.02496553 0.033026718 -0.026107704
000330 7b 50 32 3c c3 24 92 bc 80 47 20 bd 5c 8c 4c bc
       0.010883446 -0.017839795 -0.039130688 -0.012484636
000340 30 bf 95 bb bc 62 c7 ba 5c db db bc 61 b5 ab bb
       -0.0045699105 -0.001521192 -0.026837997 -0.005240128
000350 10 a9 2d bc 60 c5 88 bc d1 ee 24 bd 8c d1 88 bc
       -0.01059939 -0.016695678 -0.040266816 -0.016701482
000360 49 ba 10 bc 26 19 df 3c 0a cb 03 bd f1 4b 82 bb
       -0.008833476 0.027233671 -0.032176055 -0.003976338
000370 34 3c b8 bc 3c 99 4a 3c a8 52 ff 3c 7a 5d 7b 3a
       -0.022489645 0.0123656355 0.031167343 0.0009588819
000380 b5 29 a7 3c 57 74 1f 3d 4e bc c1 3c bb 73 65 3c
       0.02040563 0.03892931 0.023649361 0.014004643
000390 8a 79 e6 3b 31 d6 e7 bc 96 26 82 bc c9 58 e5 bc
       0.0070335316 -0.028300377 -0.01588754 -0.027996438
0003a0 14 fe 01 bd 98 7d f7 3c ce 53 8f bb 93 45 fd bc
       -0.03173645 0.030211255 -0.004374004 -0.030916965
0003b0 5b b8 64 bc db d8 7b 3b 22 f4 b5 bc f0 85 0a 3c
       -0.013959969 0.0038428816 -0.022211138 0.008454785
0003c0 9c 0b df 3c 28 da d0 3b d8 79 f5 bc 85 c3 f8 3a
       0.027227215 0.0063736625 -0.029965326 0.0018979168
0003d0 16 e4 c3 bc 60 99 1d 37 d3 fd 0e bc d9 8d 08 bc
       -0.02391247 9.39364e-06 -0.008727509 -0.0083346
0003e0 7a 0e d5 3a ae be 95 3c a4 85 8b bc fe 41 7d 3c
       0.0016254925 0.0182794 -0.017031498 0.015457628
0003f0 dd 7c 62 bc 11 39 20 3d 28 bd 05 bc ba 55 1a bd
       -0.013823715 0.039116923 -0.008162774 -0.03767941

layer1.0.bias f4 [256]
000000 c4 fb f8 3c eb cb c9 bc 05 15 0e bd f6 7f e9 bb
       0.030393489 -0.024633368 -0.034688015 -0.00712585
000010 67 70 cb 3c b1 63 e0 3c 90 8d 17 3d 73 4c 28 3d
       0.024833871 0.027391287 0.03700024 0.041088533
000020 16 32 16 3d 6a 87 01 3d 50 2a 40 bc b6 36 4c bc
       0.03666886 0.03162328 -0.011728838 -0.012464216
000030 5b ec b0 3c 50 17 cd bc 15 0c 3a 3c 00 91 fe bc
       0.021597078 -0.02503553 0.01135542 -0.031075
000040 0c 21 fd bb 90 8c 7a 39 c9 0f 1d 3d ab 09 2c 3c
       -0.0077248868 0.00023894222 0.038345132 0.010500352
000050 dd 1b 35 bc cb f3 94 bc 06 fc ba bc 7d 2f 44 bc
       -0.011054006 -0.018182656 -0.022825252 -0.011974213
000060 cd 22 bd 3c 63 37 c8 3c 44 d7 76 bc a7 28 13 bd
       0.023087883 0.024440473 -0.015065972 -0.03592744
000070 7c a8 60 bc ba 86 ce 3c 34 98 b6 bc 58 9b 14 3d
       -0.013712045 0.025210727 -0.022289373 0.03628096
000080 85 6f 72 3c d1 bf d5 ba ba b1 ae bc 87 40 c4 bc
       0.014797096 -0.0016307776 -0.021324981 -0.02395655
000090 ff ee 2b bd 1d c9 22 bd 1c a9 1b 3d 0a 27 12 3d
       -0.04197597 -0.039742578 0.038003072 0.03568176
0000a0 45 a0 a0 bb 4d ee a5 bc 6f 75 21 3d 19 88 65 bc
       -0.004901918 -0.020255232 0.039418634 -0.014009499
0000b0 58 36 18 bd 72 2a b1 bc bf 6d 6a 3c df 8c 00 3d
       -0.0371612 -0.021626685 0.014308392 0.031384345
0000c0 4c 82 cf bc e5 83 aa 3b d2 34 95 bb 0a 78 05 bd
       -0.025330685 0.0052037113 -0.004553416 -0.03258518
0000d0 80 0f 11 3a e0 f6 98 bc 38 ee 9e 3c 75 d0 78 3c
       0.0005533621 -0.018672407 0.0194007 0.015186419
0000e0 f0 92 03 bc c0 20 7a 3b f5 19 0c bd c9 1b 25 3d
       -0.008030638 0.0038166493 -0.034204442 0.0403097
0000f0 63 2d 26 bd 5f d3 28 bd c1 44 ef 3c 0f 6c 9c bc
       -0.040570628 -0.041217204 0.02920759 -0.019094495
000100 c4 3b 07 3d cd bf ff bb 59 c2 af 3c aa 6e 21 bd
       0.03301598 -0.007804847 0.021454977 -0.039412178
000110 17 d1 ae 3b 5a 5c 0d bd 74 ad b0 ba 66 37 97 bb
       0.005334984 -0.0345119 -0.0013479427 -0.0046147583
000120 6c c7 ba 3c 6c f3 b7 3a 5d 4a 1e bd 17 eb f5 bc
       0.02280017 0.0014034337 -0.038645137 -0.030019326
000130 1e ba ef 3a 84 a8 07 3c e4 55 a0 bc 00 5e 25 3d
       0.001828972 0.008279923 -0.019572206 0.04037285
000140 ae 1b e1 3c ff c8 16 bc 59 dc 14 3d 27 d1 e2 3c
       0.027479019 -0.009203195 0.036342952 0.027687622
000150 4d 06 88 3c 1d 48 23 3d e7 8e 10 3d 5d 42 08 bd
       0.016604567 0.039863694 0.035292532 -0.033266414
000160 83 ea f4 3c ba 05 09 3d d1 75 be bb d9 af 78 bc
       0.02989698 0.033452727 -0.0058123847 -0.015178644
000170 80 3f 88 bc 1f 40 12 bc 0f 69 fc bc 97 e2 a4 bb
       -0.016631842 -0.0089264205 -0.030811815 -0.0050318944
000180 30 c7 94 3c cb b9 b1 3a ec 69 92 bc 53 37 e1 bc
       0.018161386 0.0013559399 -0.017872773 -0.027492201
000190 9f 22 36 3c 16 87 1e bc 6e a6 04 3d b5 6d 1f bd
       0.011116653 -0.009675762 0.032385282 -0.038922984
0001a0 f5 3b 21 bc 9c 9d 38 3b 7e 15 2f bc cb eb 36 3a
       -0.009840955 0.0028170114 -0.0106862765 0.0006977885
0001b0 e9 b2 11 bd ee fc 80 bc 38 fa 29 3d 15 52 3f 3c
       -0.035571013 -0.015745606 0.041498393 0.011677285
0001c0 d3 f7 aa 3c d4 f1 f5 bc 7a a3 59 3c de 4b 2b 3c
       0.020870125 -0.03002254 0.013283605 0.0104551
0001d0 6a cb b3 ba 94 37 aa bc 29 7b 4d bc 9f 9a dc bc
       -0.0013717238 -0.020778455 -0.012541571 -0.026929198
0001e0 72 6a 2b 3c 8e 5a 29 bd e3 de 44 3c 3d 4f 21 3c
       0.01046239 -0.041346125 0.012016031 0.009845552
0001f0 13 2a 48 ba f0 47 ba bb 94 a7 8d bc ff 7e 32 bb
       -0.0007635664 -0.005684845 -0.017291822 -0.002723634
000200 38 50 26 bc 92 e5 5c 3b d6 01 a5 3c c9 71 0c 3d
       -0.010150962 0.003370617 0.020142477 0.0342882
000210 52 0b f7 bc f3 01 f9 bc ea a9 21 bd 08 e1 0e bc
       -0.030156765 -0.030396437 -0.039468683 -0.008720644
000220 66 b7 96 3c b6 03 25 3c ec af a4 3c ce 2d 91 bc
       0.018397998 0.010071686 0.020103417 -0.017722037
000230 d4 6c 9e 3c bd 18 ec 3a 77 4a 0d 3d 16 5b c5 3c
       0.019339003 0.0018012744 0.034494843 0.024091285
000240 95 4d 67 bb ea 2c 2c 3b 3e 4c fd 3c a3 02 1c 3d
       -0.0035294045 0.0026271888 0.030920144 0.038088452
000250 32 97 f0 3b 47 d3 a5 bc 4b 00 11 3d 4f 97 ba bc
       0.0073422426 -0.020242346 0.03540067 -0.022777228
000260 0b 41 2a 3d a8 65 6c 3c 2f 50 c5 ba 02 13 f6 bc
       0.041565936 0.014428534 -0.0015053804 -0.03003836
000270 c5 0f ab bc 15 24 0b 3d bd 2e 9a bc 91 fb 88 3c
       -0.020881543 0.033969957 -0.018821115 0.016721519
000280 f0 cd 09 bd 4b ca ab 3c fd 69 02 3d f2 54 ad bc
       -0.033643663 0.020970484 0.03183936 -0.02115867
000290 46 5d ce bc 19 84 da 3c 07 7b 02 3d 19 da c9 3b
       -0.02519096 0.026674317 0.03185561 0.0061600325
0002a0 8f c3 42 3c 2d e7 e9 3c ef 69 0b bd 81 16 44 bc
       0.011887445 0.028552616 -0.034036573 -0.011968256
0002b0 95 a7 23 3d 46 53 fd 3c 4f 08 b5 3c 24 3f 1c 3d
       0.03995474 0.030923497 0.022098688 0.038146153
0002c0 b8 59 23 bd 59 fe 1c 3d e1 a6 b1 bb 3a 58 37 bc
       -0.039880484 0.038328502 -0.005421505 -0.011190468
0002d0 b9 48 28 bc 02 40 d3 bc 86 2b 90 3b d8 f1 c1 bc
       -0.010271245 -0.025787357 0.0043997196 -0.02367489
0002e0 4a bb 0c 3d 84 fa 81 bc 95 aa 23 bb b0 ec 76 3c
       0.0343583 -0.015866525 -0.00249735 0.015071079
0002f0 76 1f 14 bd d4 2c 25 3d e0 12 07 bd de ec 96 3c
       -0.036162816 0.040325955 -0.032976985 0.018423494
000300 df 70 26 3d 97 1f f0 bc 25 02 e7 3c fd e9 96 b9
       0.040634986 -0.029311938 0.028199265 -0.00028784564
000310 bf 96 8e 3c c0 a5 66 bc 2a 47 0e bd 08 05 1f bd
       0.017405866 -0.014077604 -0.034735836 -0.038823158
000320 9b ab 75 3c 29 16 58 bc bc 26 5e 3c 35 9b ce bc
       0.014994527 -0.013188877 0.01355904 -0.025220493
000330 f3 75 1f 3d b2 98 f7 bb 24 5c 98 3c 85 84 03 3c
       0.038930845 -0.0075560445 0.018598624 0.008027201
000340 90 04 06 3d b0 4a 82 bb d1 b9 fd 3c 48 97 16 bd
       0.032719195 -0.0039761886 0.030972393 -0.036765367
000350 97 d6 fd bc 7e fe 28 3c de f8 b4 bc 45 74 e3 3c
       -0.030986113 0.010314582 -0.022091325 0.027765403
000360 1c e6 9b bc 13 e9 82 3b 9b 76 89 3b 28 d4 b9 3b
       -0.019030623 0.00399507 0.004195047 0.005671043
000370 88 16 81 3c ec ae 70 bc 63 c9 98 3c 59 64 33 bb
       0.015757814 -0.014690142 0.018650716 -0.0027373044
000380 59 18 13 3d f1 fe a8 bc 98 7b 92 3b 2d 5a b4 3c
       0.03591189 -0.020629378 0.0044703 0.022015655
000390 8e e1 18 3d c0 0d 1a 3d 68 81 0c bc 70 38 e2 3c
       0.03732448 0.03761077 -0.008575775 0.027614802
0003a0 50 5e ff bb f9 5c 38 bc b0 0c 83 3c 0c 18 bd 3c
       -0.0077932253 -0.011252635 0.01599726 0.023082756
0003b0 0b 0e 29 bd da 57 3b bc 5b f9 c7 3a d6 a5 f8 3b
       -0.041273158 -0.01143452 0.0015256809 0.0075881286
0003c0 e9 6a 1e ba 85 1c ea bc da f9 1f bd 6b 67 96 3c
       -0.00060431525 -0.028578052 -0.039056636 0.01835986
0003d0 53 37 fb 3b 17 84 df bb 59 ac ed 3b 48 5e 85 bc
       0.0076665073 -0.0068211663 0.0072532115 -0.016280308
0003e0 db a6 1a bd 8b 44 b0 3c 7d 81 17 bd cf c8 ed 3c
       -0.037756782 0.021517059 -0.036988724 0.029026417
0003f0 fc 80 37 3c fa a4 07 bd 8d 86 8b bc da 27 82 bc
       0.011200186 -0.03311632 -0.017031932 -0.015888143

layer2.0.weight f4 [84, 256]
000000 06 e9 f7 bc 73 92 55 bd 44 56 6c bd dc 62 63 bc
       -0.030262481 -0.052141618 -0.057699457 -0.01387855
000010 cb a9 39 bc fa c2 07 bd 91 9f 25 bd f6 09 4a 3c
       -0.011331986 -0.03314493 -0.040435378 0.012331476
000020 9e a2 5b 3d f7 a0 82 3b b4 16 de 3c cc b4 6a 3d
       0.05362188 0.0039864737 0.027110435 0.057301328
000030 df 7c 87 3c dc 8d 5b bd 2a 7e 0b 3d 08 dd 44 3d
       0.016539035 -0.053602085 0.034055866 0.048062354
000040 7d cf 3e 3d 10 78 44 3d 51 93 09 3d 91 92 38 bd
       0.046584595 0.047966063 0.033587757 -0.04506165
000050 5b 85 26 3d 1b e9 e7 3c 9a 16 66 3d fb 60 74 3c
       0.04065452 0.028309396 0.0561739 0.0149157
000060 20 35 d0 ba 7d b9 32 bb b7 d4 29 3d 56 e7 d6 3c
       -0.0015884973 -0.0027271204 0.041462626 0.026233356
000070 da ce 70 3c 63 67 d6 3a c4 2d d7 bb a3 8f 05 bc
       0.014697755 0.0016357716 -0.006566735 -0.008151921
000080 e5 67 27 bd 76 7e 59 bd a5 d0 6e 3d 60 96 0b bd
       -0.040870566 -0.05309912 0.058304448 -0.034078956
000090 59 eb ce bc 52 f0 56 bd f2 35 1b 3d 2e 0b 7e 3d
       -0.025258707 -0.05247528 0.037893243 0.06202238
0000a0 aa 55 32 3d 55 9e 2d 3d 2f fd 62 3d 41 f8 58 bc
       0.043538727 0.042387325 0.055417236 -0.013242782
0000b0 ea 98 4b bd 6e f7 2f bd 66 53 ca 3c a4 2a 04 3d
       -0.049706377 -0.042960577 0.02469797 0.032267228
0000c0 1b 8b 70 3d 74 b7 ce bc a0 59 61 3d f3 b4 4d bc
       0.05872641 -0.025233962 0.055017114 -0.012555349
0000d0 60 7f 4e 3b 65 05 0e bd 75 11 2a 3d 4b fe b6 bc
       0.0031509027 -0.034673113 0.041520555 -0.022338053
0000e0 ec 49 01 3c 60 50 75 3d 68 6c 44 3d 37 8e 93 ba
       0.0078911595 0.059891105 0.047954947 -0.0011257593
0000f0 58 60 4b bd 45 bb 05 bd 8f 9a 2e 3c fb f1 32 3d
       -0.049652427 -0.032649297 0.010656967 0.0436878
000100 e1 e5 5e bd 32 54 4c bd 1e cf 88 bc 60 31 f1 bc
       -0.05441845 -0.049884982 -0.016700324 -0.02944249
000110 6f 0c 14 bd 1a 55 4e bc e6 e6 42 3c 8a 2f 4f bd
       -0.03614467 -0.012593532 0.011895871 -0.050582446
000120 42 f2 08 3d 9c 2f 7f 3b 6a 5c 39 3d 80 0c 3c 3d
       0.03343416 0.003893829 0.04525415 0.04591036
000130 4d 8d 7d bd 6f b7 37 3c 7e 6f 33 3b ea 08 01 bd
       -0.061902333 0.011213168 0.0027379687 -0.03150264
000140 b2 9b 7f 3d eb 70 d6 3c bc 27 49 3c 1e 91 f4 bb
       0.062404342 0.02617689 0.01227754 -0.0074635884
000150 cf 89 51 bd 05 cd 24 3b 4f 50 5f bc d8 3c 91 bb
       -0.051156815 0.0025146615 -0.013629987 -0.004432302
000160 77 39 55 3b 49 b2 ba bc e2 50 6f bd c5 1f 3d ba
       0.0032535472 -0.022790091 -0.058426745 -0.0007214512
000170 bf 69 a1 bc 8a b7 99 bc 6e 82 2d bd a1 bb 75 bd
       -0.019703744 -0.018764276 -0.042360716 -0.05999339
000180 48 4b ea bc 9b e7 37 bd 27 e9 1f 3c bb 91 24 3c
       -0.02860035 -0.04489861 0.009760178 0.0100445105
000190 96 fe 48 bb 34 84 67 bd d2 8d 36 bd f4 33 f4 bc
       -0.0030669323 -0.056522563 -0.044568844 -0.02980993
0001a0 50 4f f9 3b e1 1f 85 bc 77 d1 3e bc bc 56 fa 3c
       0.0076083317 -0.016250553 -0.01164662 0.030558936
0001b0 6e 43 06 bd 21 0b f9 bc be 15 8b bb e2 c3 e7 3c
       -0.03277915 -0.030400814 -0.004244535 0.028291646
0001c0 2f a1 4b 3d da 22 a8 3c 16 4c 7b 3d b4 ca 6e 3d
       0.049714264 0.020524431 0.061351858 0.05829878
0001d0 92 66 18 bd 9a 94 9e 39 d2 1a 93 3c 16 95 45 bc
       -0.037207194 0.00030246825 0.017957125 -0.012059471
0001e0 3c c4 86 3c 7b 0d 11 ba 0e 33 9a 3c 99 a5 5b bc
       0.016450994 -0.000553332 0.018823173 -0.013406181
0001f0 79 5f bc bb e4 92 65 3c 46 e0 06 bc f4 a5 2e bd
       -0.005748686 0.014012072 -0.008232182 -0.042638734
000200 64 b0 cf bc b4 86 3e 3c 38 cb 43 bd bf 03 12 3c
       -0.025352664 0.011628795 -0.047801226 0.008912026
000210 64 77 09 3c 77 0c 67 3d 57 37 b1 3c 4d 9d 59 bc
       0.008390281 0.05640837 0.021632833 -0.013282132
000220 87 b4 0b bd 36 a5 80 3d e4 a8 ae 3b 49 1a 2b 3d
       -0.03410771 0.062815115 0.005330192 0.041773114
000230 56 9e 08 3d 0e a9 fa 3c 54 1c 53 bc c3 70 0f bd
       0.033354126 0.03059819 -0.012885172 -0.035019647
000240 9c 4a e6 bc 9a bc 31 3d df 09 6a bd 9c df 9c bb
       -0.028111748 0.043392755 -0.05713832 -0.0047873985
000250 5b f9 69 3d b2 e5 15 bd 83 bb b7 3c 33 86 62 bd
       0.05712257 -0.036596008 0.02242828 -0.055303764
000260 51 41 30 bd 23 da 6a 3c 79 34 8f bc 1f 17 0e bc
       -0.04303104 0.014334234 -0.017481076 -0.008672505
000270 86 b0 4e 3d 2f 86 2a 3c 5d 2a 2d bd 74 6e b1 bc
       0.050461315 0.010407968 -0.04227673 -0.021659113
000280 19 c6 00 3c e4 96 75 3d c7 d2 16 3d b9 46 d5 bc
       0.00785973 0.059958354 0.036822107 -0.0260347
000290 31 4a 60 3d 17 69 2a 3c 12 e3 d5 3c f3 dd 1e 3c
       0.054758254 0.010401032 0.026109252 0.0096964715
0002a0 70 15 a8 3c 74 4a 2e 3d f2 c0 54 3d e8 5b 28 3c
       0.020518035 0.042551473 0.05194182 0.010275818
0002b0 9b 7b d8 3c b4 e8 69 bd 24 8d 4f 3d 2f 77 a2 3c
       0.026426127 -0.05710669 0.05067171 0.019832222
0002c0 38 91 ed 3c e3 54 2b bd 1d 3a fc 3c 9d a9 17 bc
       0.02899991 -0.041829 0.03078943 -0.009256748
0002d0 e9 84 6e 3c 68 5c b9 3b 65 8f 18 bd f3 bb ad bc
       0.014558055 0.0056567676 -0.037246127 -0.021207785
0002e0 38 8f dc 3c 36 1a ed 3c 62 6e 70 3d 32 48 fd 3c
       0.02692376 0.028943162 0.05869902 0.030918214
0002f0 4d 20 41 ba 48 31 44 bd b1 2a 5f bd 23 b2 30 3d
       -0.0007367179 -0.04789856 -0.054484073 0.043138634
000300 68 7a 37 bc 53 37 79 3d dd 3d 8f bc 49 39 c7 bc
       -0.0111986175 0.060843777 -0.017485553 -0.024319308
000310 1b 49 02 3d b1 ec 82 3b c7 3b 6e 3d 07 f6 47 bd
       0.031808 0.003995501 0.058162477 -0.048818614
000320 e1 85 99 3c 89 27 5b 3d 10 d0 13 3d f7 b4 cf 3c
       0.018740596 0.0535045 0.036087096 0.025354845
000330 ba 4f 73 3d e2 c5 68 bd 6e ef 86 3c 5e 77 23 3d
       0.059402205 -0.05682934 0.01647159 0.03990876
000340 e8 f2 66 3c 20 2b 3e 3d 86 c9 69 3d f4 0b 1f bd
       0.014095999 0.046427846 0.057076953 -0.03882976
000350 0c b4 42 3d db e1 32 bd 74 25 23 3c 15 db 19 3c
       0.047534987 -0.043672424 0.00995766 0.009390612
000360 2e 3f ce 3b 8d 3c f8 bc be 8e 7b bc f0 1e 8b 3c
       0.0062941527 -0.03030231 -0.015353857 0.016982526
000370 a8 2e 1d bc 5b e7 79 bd 5e da 04 3d ab 4e 6f bd
       -0.009593643 -0.061011653 0.032434814 -0.058424633
000380 b1 08 62 bc 73 5f bc 3c f6 d4 3c bd 21 1f 98 3c
       -0.0137960175 0.022994732 -0.046101533 0.01856953
000390 27 8c 03 3d 18 8b 6e 3d 53 eb d6 bc 64 78 77 bd
       0.03211608 0.05823812 -0.026235258 -0.060417548
0003a0 bb f0 e4 3a e9 c1 3d bd 12 a8 26 bc b7 1b 3e 3d
       0.0017466763 -0.046327505 -0.010171907 0.04641315
0003b0 bb bb 47 3c 65 61 94 bc e2 81 75 bd 44 7c 54 3d
       0.0121907545 -0.018112848 -0.05993832 0.05187632
0003c0 76 b2 78 3c a7 a5 27 3d e7 17 b9 3c e8 ca 4c bc
       0.015179267 0.040929463 0.022594405 -0.0124995485
0003d0 66 86 65 bd 69 d4 c0 bc e5 05 a4 3c 3f 73 4a bd
       -0.056036375 -0.023538785 0.020022342 -0.049426313
0003e0 58 8e a1 bc 96 cf 37 bd 77 39 34 3d af 3b 09 3d
       -0.019721195 -0.044875704 0.044000115 0.033504184
0003f0 4c fd ef 3c 4a 60 68 bd 85 e8 03 3d 93 d4 ef bc
       0.029295586 -0.056732453 0.03220417 -0.029276168

layer2.0.bias f4 [84]
000000 10 6c 4c 3c 74 fb 46 bd b7 9f 5c bc e6 72 ec bc
       0.012476936 -0.048579648 -0.013465813 -0.028863382
000010 d9 6c 4b bb 50 cf 58 bc da ba ca 3a 43 62 12 bd
       -0.003104022 -0.013233021 0.0015467063 -0.03573824
000020 2c 54 04 bd 3c e6 7b 3d 70 f3 84 3c 94 56 81 bc
       -0.032306835 0.061498865 0.016229361 -0.015788354
000030 35 fa 6d 3c f3 d1 1b 3d ca 8c ef bc ea f1 24 bb
       0.014524986 0.03804202 -0.029241938 -0.0025168606
000040 c0 f9 5d bd f0 92 b1 3c b4 8d 6c 3d b3 02 19 bd
       -0.05419326 0.02167651 0.057752326 -0.03735609
000050 69 17 dd 3c 74 9c 1e 3d 7c a5 62 bd 67 eb c8 3c
       0.026988702 0.038723424 -0.0553336 0.024526311
000060 90 29 7a 3d c1 d6 29 3d dc 8e 5a bd 0a eb 36 bd
       0.061074793 0.04146457 -0.053358898 -0.044657744
000070 a0 67 76 3d 26 78 47 bd 79 7e 70 3d 9d 5c 75 bd
       0.06015742 -0.048698567 0.058714364 -0.059902776
000080 8b f0 a4 3c 82 54 f7 3c c4 f4 0f 3d 31 53 31 3d
       0.020134231 0.030191664 0.035145536 0.043292228
000090 d7 78 03 bd ff 7f 32 bd a8 dd ad bc af bd 17 3d
       -0.032097664 -0.043579098 -0.021223858 0.03704613
0000a0 a3 40 5b 3d 47 09 7d 3d 1e b2 ff 3c 91 1d c8 3c
       0.05352844 0.061776426 0.031212863 0.02442816
0000b0 e8 f0 4d 3c eb d5 3f bd 1e 3c 7d bc 57 23 4b bd
       0.012569644 -0.046834867 -0.015456228 -0.04959425
0000c0 20 d1 70 bd 7c 1e a2 bc e6 d4 f0 bc 94 fb 61 bd
       -0.058793187 -0.019789927 -0.029398393 -0.055171564
0000d0 82 89 96 3b 16 1d c7 bc 1e 92 53 bc b9 b4 18 bd
       0.004594029 -0.024305861 -0.012913255 -0.037281726
0000e0 c4 05 20 3d 06 82 82 3c 51 04 da 3c d0 f1 11 bd
       0.039068 0.01593114 0.026613386 -0.035631
0000f0 17 20 8c bc 3f d9 4a bc 2e 8e 0e bd 1c 77 b0 bc
       -0.017105145 -0.012380897 -0.034803562 -0.02154117
000100 c4 90 5b 3d e4 32 f2 3c 3c c4 0c bd 33 87 e7 bb
       0.053604856 0.029565282 -0.03436683 -0.0070656775
000110 aa a6 22 3d 3d 1a 0e 3c 44 67 f1 bc 08 11 7c 3d
       0.039709724 0.008673248 -0.029468186 0.06153968
000120 9a 54 0f bc 7f d0 ba bc ca ff 38 3d 03 fe 5c bd
       -0.008748198 -0.022804497 0.045165814 -0.053953182
000130 29 5f 20 bd dc a8 7e 3d 4f 08 64 3d 62 11 57 3d
       -0.03915325 0.062172756 0.055671986 0.052506812
000140 25 c9 43 3d 02 09 3c 3c a1 b0 9c ba e3 98 14 bd
       0.04779925 0.011476757 -0.0011954495 -0.036278617

layer3.0.weight f4 [8, 84]
000000 7f b2 a5 bd 6c 68 dd 3d d5 b1 b7 bc 47 67 3d bd
       -0.08090686 0.108109325 -0.022423664 -0.04624107
000010 9d cd 9d 3d c1 d5 ac bd da e5 c5 bd 5a e8 a8 bc
       0.07705233 -0.08439208 -0.09662981 -0.020618606
000020 40 81 df bc 31 98 9c bd 6e 5f de 3c ed 8c 90 bd
       -0.02728331 -0.07646216 0.027145114 -0.070581295
000030 41 b2 84 bd 1a a3 8c bd 3b a3 81 3d 9f 88 d4 bd
       -0.06479312 -0.06867047 0.06329962 -0.10377621
000040 23 03 68 bb bd f3 7f bd de e8 44 3d af 3d a8 3c
       -0.003540226 -0.062488306 0.048073642 0.020537226
000050 fc 3d b0 bd 7e 3b c1 3d b0 55 b8 3d 67 a1 65 3d
       -0.086055726 0.09435175 0.090007186 0.05606213
000060 75 f3 85 bd 5e 03 ee 3c 21 cf ca 3d 96 1b 3b bd
       -0.06540576 0.02905434 0.09902788 -0.045680605
000070 af fa f1 3c a0 0b 38 bd d9 33 7b bc 65 c9 45 bd
       0.02953848 -0.04493296 -0.015332186 -0.048287768
000080 25 3b 24 bc 41 2b 33 3c ff d2 93 bd 6c 77 88 3c
       -0.010023867 0.0109356055 -0.07217979 0.016658507
000090 fe 47 ca bd 82 3f 68 3d 90 6e c0 bb e5 d4 56 3d
       -0.09877013 0.05670119 -0.005872555 0.052449126
0000a0 e9 2e b4 bd 58 9e 90 3d b4 91 70 3c be 6b 54 3d
       -0.0879801 0.07061452 0.014683176 0.051860563
0000b0 a6 cd 10 3d 3f a5 03 bd 3d 14 ca 3d ec b5 ba 3d
       0.03535237 -0.032140013 0.098671414 0.0911673
0000c0 b9 f3 1c 3c 75 ab 82 bc 53 94 a3 3d 48 df 2b bc
       0.009579592 -0.015950898 0.07987275 -0.010490246
0000d0 c5 07 90 bc 0a 85 5e bd 1b bb b6 3b 6b a7 e3 3c
       -0.01758183 -0.054326095 0.005576504 0.027789792
0000e0 47 a9 8e bd 9c 7c bd bb 23 58 3f bd 44 df e1 3c
       -0.06965881 -0.005782677 -0.046714913 0.027572282
0000f0 2e 1a 56 3d ed ee 92 3d 46 ee a3 bd 28 dd be 3c
       0.05227106 0.07174478 -0.080044314 0.023298815
000100 c5 64 2e bd dc 13 10 ba 78 b4 1b bd 4f 9d bd bd
       -0.04257657 -0.00054961233 -0.038013905 -0.0925852
000110 0e 3c 19 3d 39 04 2b bd 40 3b 0a 3c 2f 19 96 bc
       0.03741079 -0.041752074 0.008436978 -0.018322555
000120 66 5a ec ba ae 56 ab 3d 8c 93 c2 bd b9 1a 1d 3d
       -0.0018032312 0.08366142 -0.095007986 0.038355563
000130 3b 74 b8 bd be 35 77 3d 40 79 de bb 72 70 ab 3d
       -0.09006544 0.060353987 -0.0067893565 0.083710566
000140 e3 d0 a7 bd 8b 2c 33 bd 97 2f 94 3c 6f 86 8a 3d
       -0.08194139 -0.04374365 0.018089099 0.067639224
000150 a1 69 cb 3d 17 01 45 3b 44 32 95 bd 65 d9 5f bc
       0.099322565 0.0030060464 -0.07284978 -0.013662671
000160 11 b4 26 3d 20 65 cf bd f9 b3 b4 3d ac 85 66 3d
       0.04069907 -0.1012671 0.088233896 0.056279823
000170 2d 2c bc 3d 3d b6 c6 bd 23 fd ce 3b c3 74 5a bc
       0.09188113 -0.09702728 0.0063167973 -0.013333502
000180 e8 99 32 bd a9 d3 89 bc 43 8f 29 bd 6b a5 c9 3d
       -0.043603808 -0.01682456 -0.04139639 0.09846004
000190 b8 9f bd bd 27 c4 d8 bb 69 8e 51 3d 3c 62 a4 bd
       -0.092589796 -0.00661518 0.051161204 -0.08026549
0001a0 f4 20 9b bd c7 c2 b4 3d 2c bb da bd 13 1b be bd
       -0.07574645 0.08826213 -0.106802315 -0.09282508
0001b0 28 5c 4a 3c ff 18 32 3d ff 45 11 3d d5 9d 82 3d
       0.012351073 0.04348087 0.035467144 0.0637776
0001c0 29 5b ce bd 7d 48 92 bd e4 7a 93 3d 92 9a 5d 3d
       -0.10075981 -0.07142732 0.07201174 0.054102488
0001d0 98 e5 59 bd 37 0d 9d 3c 7b 3c 1e bd 93 ef 41 bd
       -0.053197473 0.01917134 -0.038631897 -0.047347616
0001e0 56 93 26 bd 63 20 78 bd 4a 13 56 3d 53 d1 68 3d
       -0.040667854 -0.06057776 0.05226449 0.056840252
0001f0 f8 c4 e0 3b 0e e1 f4 bc cf fc 1b 3c b9 d7 f6 3c
       0.006859418 -0.02989247 0.0095207235 0.030132161
000200 3b fd d8 3d 37 82 8a 3c e6 71 e2 3b 7a 49 92 3d
       0.10595175 0.016907794 0.0069105504 0.07142921
000210 1a 31 7d 3d c3 9e d7 3d 83 40 37 bd 1a 06 91 bd
       0.061814405 0.10528328 -0.044739258 -0.07081242
000220 07 81 9a bd ce 56 a0 3d e6 b3 33 3d 33 8e 4c bd
       -0.07544141 0.07829057 0.043872736 -0.0499403
000230 86 d6 71 3d 99 10 b0 bd 1c b7 11 bd d8 a8 c9 3d
       0.059042476 -0.08596916 -0.035575017 0.098466575
000240 9c 3f b1 bd 14 3a ce 3d 31 ae 7e 3d c3 29 aa bd
       -0.08654711 0.10069671 0.06217784 -0.08308747
000250 6a 36 91 3c 5d 79 57 bd ed 1e 6e bb bd 1c 1b bd
       0.017726142 -0.052605975 -0.0036334351 -0.037869204
000260 c9 4a d9 3c af 71 5f bc 66 b9 22 bd ea ee 44 3d
       0.026524918 -0.013637944 -0.03972759 0.04807941
000270 41 79 8a bb 4a cd 44 3a 51 e2 bd bc 22 e7 42 bd
       -0.0042258804 0.0007507397 -0.023179205 -0.047583707
000280 81 e6 9b 3d e0 bd 42 bd f7 2e 9b bd fd bc d2 3c
       0.076123245 -0.04754436 -0.07577317 0.025724882
000290 cf 8c 0b 3c e1 46 96 3d 24 e1 82 3d 12 5e 3b bd
       0.008517458 0.07337738 0.063905984 -0.04574401
0002a0 1d ca 2c 3d 48 a9 1a 3b 46 5c a5 3d ac 37 27 3d
       0.042184938 0.0023599435 0.080742404 0.040824577
0002b0 b0 ac a7 bd b1 61 96 3c 65 f1 69 3d 78 a8 a8 bd
       -0.081872344 0.01835713 0.057114977 -0.08235258
0002c0 10 bf 03 3c 77 bd 42 3d 10 d0 4e 3d e0 e0 5b bc
       0.008041158 0.04754397 0.050491393 -0.013420314
0002d0 93 e2 8c 3c f2 29 14 b8 a9 06 06 bd 12 38 06 3d
       0.017197883 -3.5325014e-05 -0.032721195 0.032768317
0002e0 53 b6 d8 bd f9 9a e9 bb f0 4b 28 3a 26 cf a4 3d
       -0.105816506 -0.00712907 0.0006420007 0.08047323
0002f0 ce 4e ac bd b1 d8 c1 3d 50 0c d2 bd 86 21 dc bd
       -0.08413468 0.09465159 -0.10256255 -0.107485816
000300 65 cf 01 3d 21 ea bb 3d ae 30 51 3c 8a 0d c4 bd
       0.031691927 0.09175516 0.012767954 -0.09572895
000310 95 95 ce bc 67 9a dd bc f6 56 48 3d 11 ee 12 3d
       -0.02521781 -0.027051164 0.048911057 0.03587157
000320 a1 f8 26 bd fa e9 a6 bd 58 09 8e 3d 5b db ba bd
       -0.040764455 -0.08150096 0.06935376 -0.0912387
000330 b9 40 0d bd 8c a4 a4 3d 2c 74 c8 3c ce a2 59 bd
       -0.034485552 0.08039197 0.024469458 -0.05313378
000340 52 d8 9f 3d 5d f0 dd 3b 6c 8d b1 bd 92 d7 c0 bd
       0.07804932 0.0067730383 -0.08669552 -0.09416117
000350 75 4a 5d bd 50 c5 c1 bd 1f 5c 7d bd 98 45 27 bc
       -0.054026086 -0.094614625 -0.06185543 -0.010209464
000360 f6 90 37 3d 6f 94 35 3d 18 38 96 3d 50 d2 37 3c
       0.04481598 0.04433101 0.07334918 0.011219576
000370 71 39 21 3a a2 ba 00 3d d3 b6 d6 3d bf eb f4 bc
       0.0006150222 0.031427987 0.1048409 -0.029897569
000380 af a6 7f bd a7 3a 56 bd 8c 4d c2 3c 7e 72 7d 3c
       -0.06241482 -0.05230203 0.023718618 0.015469192
000390 80 0c aa 3d 66 a5 18 3d 9c 6e 81 3c 0b 4c d8 bc
       0.083031654 0.03726711 0.015799813 -0.026403448
0003a0 90 62 6e bd 63 fd a1 3b d5 91 14 3d 7c ce ae bc
       -0.058199465 0.004943536 0.03627189 -0.021338694
0003b0 03 24 be bd 4e 30 a2 bd 64 b1 cf 3c d9 04 97 bd
       -0.092842124 -0.0791937 0.025353141 -0.073739715
0003c0 90 e0 0e 3d 53 8c 14 bc 47 48 7d bb 0c a9 6d bd
       0.03488213 -0.009066659 -0.0038647817 -0.058022544
0003d0 b5 a0 c8 3d bf 91 ac bd 63 99 50 3c 8c 94 0a 3d
       0.097962774 -0.08426236 0.012731883 0.03383307
0003e0 91 0e b3 3d b6 54 ca bd 23 a5 27 3c 3b 15 fb 3c
       0.08743013 -0.098794386 0.010232243 0.030649772
0003f0 56 2b 12 3b a4 7b ca bd 73 80 b7 3d fb 04 82 bd
       0.0022303662 -0.09886864 0.089600466 -0.06348606

layer3.0.bias f4 [8]
000000 2f be 2a bd 7b a3 9f 3d 7e fa bb bd 51 5c d5 bd
       -0.04168528 0.07794853 -0.09178637 -0.104179986
000010 94 9b 2e bd 39 f1 56 bd 59 0d cb bd 54 20 fa 3a
       -0.04262884 -0.05247614 -0.09914655 0.0019083121
