DigitalRecognition-master/model_params/GDUT＿net_5.pt (torch, 664983 bytes, 6 tensors)

layer1.0.weight f4 [256, 560]
0	0x3c8115de	0.015757497
1	0xbd164757	-0.03668913
2	0xbd08048f	-0.033207472
3	0xbceb3d41	-0.028715732
4	0x3c01c8b8	0.00792139
5	0xbb816b10	-0.0039495304
6	0xbd07e3d8	-0.033176273
7	0x3bd4eaf8	0.006497737
8	0x3c5aa550	0.013345078
9	0xbcf32baa	-0.029683907
10	0xbc579622	-0.013158353
11	0x3cd32798	0.025775716
12	0xbc52e01a	-0.012870813
13	0xbd863b87	-0.06554323
14	0xbd6e7493	-0.058216643
15	0x3ccf5a20	0.02531153
16	0x39bd6700	0.0003612563
17	0xbce21512	-0.027597938
18	0xbc1f94b0	-0.00974004
19	0x3c6bbbc4	0.0143880285
20	0xbceb33b6	-0.028711181
21	0xbc6d0444	-0.014466349
22	0xbc5280d4	-0.012848098
23	0x3a7f80c0	0.0009746663
24	0xbcaeea4f	-0.021351961
25	0x3c8aec0e	0.016958263
26	0xbd5f6efa	-0.054549195
27	0xbd50e4a0	-0.050999284
28	0xbd900d7a	-0.070338205
29	0xbd3ea788	-0.04654649
30	0xbce45d13	-0.027876412
31	0xbd7b5f3c	-0.06137012
32	0xbdb65372	-0.08902635
33	0x3af7bfa0	0.0018901713
34	0xbcadea91	-0.021230014
35	0xbc970d12	-0.01843885
36	0xbc1376d8	-0.0090005025
37	0xbc9bdf60	-0.019027412
38	0x3c767340	0.015042126
39	0xbca8f0f6	-0.020622712
40	0x3c65573c	0.013997849
41	0xbc8e13ab	-0.017343363
42	0x39b21880	0.0003396906
43	0xbd0edf5c	-0.03488098
44	0xbba38de0	-0.004991278
45	0xbd3627a2	-0.04447139
46	0x3bfc13a1	0.0076927696
47	0x3cb5f1fd	0.022210116
48	0xbc452827	-0.012033499
49	0xbcd039d2	-0.025418196
50	0xbcf4bd65	-0.029875467
51	0xbd833556	-0.064066574
52	0xbc3b5b84	-0.011435393
53	0xbc766e54	-0.015040953
54	0xbc9f092f	-0.019413559
55	0xbc429592	-0.011876481
56	0xbcbd5d64	-0.023115821
57	0x3b96d138	0.0046025775
58	0xba546180	-0.0008101687
59	0x3ca6b958	0.02035205
60	0x3ccf4534	0.025301553
61	0x3cbc9ec8	0.023024932
62	0xbca18d8f	-0.01972082
63	0xbce0b702	-0.027431015
64	0xba3c4640	-0.0007182099
65	0xbd4b2c8f	-0.04960304
66	0xbb5ba73c	-0.0033516428
67	0xbd0319d9	-0.032007072
68	0xbd29b3ee	-0.04143136
69	0x3ba566b7	0.005047645
70	0xbc19462f	-0.009355112
71	0xbcc9dda8	-0.024641827
72	0xbd8ec0a0	-0.06970334
73	0xbd0b4f64	-0.03401126
74	0xbcf3ab16	-0.029744666
75	0xbd2cd868	-0.04219857
76	0x3cbf89a4	0.023381062
77	0xbd23a9e0	-0.039956927
78	0xbc8cd011	-0.017189058
79	0x3d092a26	0.03348746
80	0xbd181946	-0.037133478
81	0x3ce173a0	0.027520955
82	0xbd0f876a	-0.03504125
83	0xbc52c0c4	-0.012863342
84	0x3cfdb05c	0.030967884
85	0xbd577c4b	-0.05260877
86	0xbd42a9cb	-0.04752521
87	0xbd03d6d0	-0.032187283
88	0xbbf576b0	-0.0074909553
89	0xbd60a2bc	-0.054842696
90	0xba11fe92	-0.0005569245
91	0xbd84bcae	-0.064813
92	0xbd3bbc95	-0.045834143
93	0xbd8bdb77	-0.06828969
94	0xbb5d7903	-0.0033794052
95	0xbd013285	-0.03154232
96	0xbbb16ce8	-0.005414594
97	0x3bcadb50	0.006190695
98	0x3c3dcec4	0.011584941
99	0x3cefc534	0.029268838
100	0xbc897d97	-0.016783519
101	0xbc908e0f	-0.017645864
102	0x3d051ab4	0.03249617
103	0xbd773a01	-0.06035805
104	0xbd1678d3	-0.03673632
105	0xbd700ea5	-0.058607716
106	0xbd3c87f0	-0.046028078
107	0xbc7efd63	-0.015563342
108	0xbb0002dd	-0.0019532957
109	0x3d01aedf	0.03166091
110	0x3ca7c406	0.020479213
111	0x3c538744	0.012910668
112	0xbd20cf2a	-0.039260067
113	0x39da9200	0.0004168898
114	0xbc64d826	-0.013967549
115	0x3c1f0a69	0.009707072
116	0xbc122178	-0.008919112
117	0x3d181956	0.037133537
118	0x3cd492c8	0.025948897
119	0xbcd5e56a	-0.02611037
120	0xbcd9a293	-0.02656678
121	0x3d244d4a	0.04011277
122	0xbce8ffd4	-0.0284423
123	0xbd0a5b5d	-0.033778537
124	0xbd7a114e	-0.06105166
125	0x3d11ed7a	0.035626866
126	0xbd2ecf77	-0.042678323
127	0xbd1e2ef7	-0.038619008
128	0xbdb68c03	-0.08913424
129	0xbd7fcd1c	-0.062451467
130	0xbd0e488f	-0.034737166
131	0xbda7966b	-0.08182987
132	0xbc83ce09	-0.016089456
133	0xbb0e909d	-0.0021753677
134	0xbd4aa10b	-0.04946999
135	0xbd279462	-0.040912993
136	0xbc5b076f	-0.0133684715
137	0xbd6a289f	-0.057167646
138	0xbd38ed29	-0.04514805
139	0xbd222487	-0.039585616
140	0xbd142478	-0.03616759
141	0x3ccea05c	0.02522295
142	0x3bdc75b8	0.0067279004
143	0xbc055e70	-0.008140191
144	0xbca21882	-0.019787077
145	0xbae06a73	-0.0017121568
146	0xbd19d81f	-0.037559625
147	0xbcc05035	-0.023475746
148	0xbd4961f4	-0.04916568
149	0xbdc9952d	-0.09842906
150	0xbdbc8445	-0.09204916
151	0xbdb3cd6c	-0.087794155
152	0xbd2cd527	-0.042195465
153	0xbbe5c91d	-0.0070125
154	0xbd5884ed	-0.052861143
155	0xbd85f623	-0.065410875
156	0xbc6e73e2	-0.014553996
157	0x3d27523a	0.0408499
158	0xbce72e56	-0.028220337
159	0xbdab8ece	-0.08376847
160	0x3d2ab550	0.04167682
161	0x3c52a4c0	0.012856662
162	0xbcf04734	-0.029330827
163	0xbcc8d6a9	-0.02451642
164	0xbcb8936d	-0.022531236
165	0x3bb00dc5	0.005372735
166	0xbcb58a33	-0.022160625
167	0xbcf7cbc3	-0.030248528
168	0xbdaa93a9	-0.08328945
169	0xbd31596d	-0.043298174
170	0xbdc3496f	-0.09535491
171	0xbd9cf888	-0.07664591
172	0xbda8eb03	-0.0824795
173	0xbc9b2b2b	-0.018941483
174	0x3c51faad	0.012816113
175	0xbc05f898	-0.008176945
176	0x3c9d2114	0.019180812
177	0xbd0cea30	-0.034403026
178	0xbc613e5c	-0.013747778
179	0xbc39d06d	-0.0113411965
180	0xbd05eccc	-0.03269653
181	0xbcfdea45	-0.030995497
182	0xbd0b3de2	-0.033994563
183	0x3c084b44	0.008318726
184	0xbd395b38	-0.04525301
185	0x3b8dcbc3	0.004327269
186	0xbc3a3794	-0.01136579
187	0xbd504d2a	-0.05085484
188	0xbccbab5b	-0.024861982
189	0xbcf44aa5	-0.02982075
190	0xbd339931	-0.043847267
191	0xbd8f6167	-0.07001
192	0xbc4e157f	-0.012578367
193	0xbd59ecaf	-0.053204235
194	0xbcdebf29	-0.027190762
195	0xbc382091	-0.011238233
196	0x3ac0adec	0.001470027
197	0xbd90dc00	-0.07073212
198	0xbd758f5d	-0.059951175
199	0xbd9c6ead	-0.07638297
200	0x3c1af9e8	0.009458996
201	0xbd0d8cce	-0.03455811
202	0xbacaa880	-0.0015461594
203	0x3c83db2c	0.01609572
204	0xbd55b797	-0.052177038
205	0xbd462799	-0.048377607
206	0xbd127443	-0.035755407
207	0xbd4964d9	-0.04916844
208	0xbd13564e	-0.03597098
209	0xbcd045a0	-0.025423825
210	0xbd12568a	-0.03572706
211	0xbd27aaf9	-0.040934537
212	0xbd96c363	-0.07361486
213	0xbce257c9	-0.02762975
214	0x3bd9eef0	0.006650798
215	0x3cf9be24	0.030486174
216	0xbb75038e	-0.0037386152
217	0xbd1350f3	-0.03596587
218	0xbb963578	-0.0045840107
219	0xbd470fe3	-0.048599135
220	0x3c23f28c	0.010006558
221	0xbb7e5410	-0.003880743
222	0xbd00543c	-0.031330332
223	0xbc305dd4	-0.010764558
224	0x3b57a416	0.00329042
225	0xbbe2195b	-0.0068999953
226	0xbd8e6f84	-0.06954864
227	0xbdadd1ff	-0.08487319
228	0xbd3afb0f	-0.045649584
229	0xbdc02a26	-0.09383039
230	0xbd294e88	-0.04133466
231	0xbda609aa	-0.08107312
232	0xbcbad490	-0.022806436
233	0xbb9425ce	-0.004521108
234	0xbc44b4e6	-0.01200602
235	0xbc5db58e	-0.013532056
236	0xbd0cc3c1	-0.034366373
237	0xbd2b1408	-0.04176715
238	0xbc05c964	-0.008165691
239	0x3c48b050	0.012249067
240	0xbd16a408	-0.036777526
241	0x3d148680	0.03626108
242	0x3cb14680	0.021640062
243	0x3d160624	0.03662695
244	0xbc7f494a	-0.015581438
245	0x3c9d5d9d	0.019209677
246	0xbdb732b1	-0.089452155
247	0xbd1933ff	-0.037403103
248	0xbd9d58d0	-0.07682955
249	0xbd66267e	-0.056189053
250	0xbdb6e8df	-0.089311354
251	0xbd3f55d4	-0.04671271
252	0xbd391059	-0.045181606
253	0xbccc20d5	-0.024918
254	0x3d0c20fb	0.03421114
255	0x3cf67714	0.030086078

layer1.0.bias f4 [256]
0	0xbd925ebf	-0.07146978
1	0xbc6b020e	-0.014343752
2	0xbd6dfce3	-0.0581025
3	0x3cfdc1af	0.030976145
4	0xbc58ff53	-0.013244468
5	0x3c265572	0.010152208
6	0xbd9e20f1	-0.07721127
7	0xbd07b955	-0.03313573
8	0xbc3b66bc	-0.011438068
9	0xbc65690e	-0.014002098
10	0xbc8ce3eb	-0.017198524
11	0x3a67007d	0.00088120234
12	0xbd944de4	-0.07241419
13	0xbd59ce73	-0.0531754
14	0xbdb21b5f	-0.08696627
15	0xbd1bbee9	-0.038023863
16	0x3c68c666	0.014207458
17	0xbd3cd5ce	-0.046102338
18	0xbda0c7b6	-0.07850592
19	0xbdabb0e5	-0.08383349
20	0xbd46e014	-0.04855354
21	0xbcfcceff	-0.030860422
22	0x3d1f6d9d	0.038922895
23	0xbd4093ad	-0.047015835
24	0x3d016d26	0.031598233
25	0xbdb52d6f	-0.088465564
26	0xbd0ae288	-0.033907443
27	0xbc70d9e5	-0.014700388
28	0xbd8b6a35	-0.06807367
29	0xbdac1286	-0.084019706
30	0x3cf87f6e	0.0303342
31	0xbd2085c1	-0.039190058
32	0xbd1dcc20	-0.038524747
33	0xbc89d5ab	-0.016825518
34	0xbd54302b	-0.05180375
35	0xbd9ccda7	-0.076564126
36	0xbd3b0201	-0.045656208
37	0xbd0a618f	-0.033784445
38	0x3d06baec	0.032893106
39	0x3c869d74	0.016432501
40	0xbd26bd1d	-0.040707696
41	0xbc06fa3c	-0.008238371
42	0xbd9af9a1	-0.07567144
43	0xbd333e99	-0.04376087
44	0xbd432bb1	-0.04764909
45	0xbc90bcad	-0.017668093
46	0xbbcd5e8c	-0.0062673744
47	0xbd84c47e	-0.064827904
48	0x3ccfd23e	0.025368806
49	0xbd250251	-0.040285412
50	0xbdb70bcc	-0.08937797
51	0x3d2400fe	0.04004001
52	0xbda7b034	-0.08187905
53	0xbd05be10	-0.03265196
54	0xbd477f74	-0.048705533
55	0xbd843350	-0.064550996
56	0xbd8bcf35	-0.06826631
57	0x3b368000	0.002784729
58	0xbcd1d7ec	-0.025615655
59	0xbdb23a44	-0.087025195
60	0xbcb9785b	-0.022640398
61	0x3d421ff5	0.047393758
62	0xbda12ac4	-0.07869485
63	0xbd292485	-0.041294593
64	0xbd8c51dd	-0.06851552
65	0xbd3e40df	-0.046448585
66	0xbdad8e73	-0.08474436
67	0x3b045e8d	0.0020197958
68	0xbd4fa5ac	-0.050695106
69	0xbc541009	-0.012943276
70	0xbc43f905	-0.011961226
71	0xbc98b465	-0.018640706
72	0x3c8a3419	0.016870545
73	0xbd886e60	-0.06661677
74	0xbdadbd2c	-0.08483347
75	0x3c840ab8	0.016118392
76	0xbd490701	-0.049078945
77	0xbc837658	-0.016047642
78	0x3d34a9a0	0.04410708
79	0x3d1d8d11	0.03846461
80	0xb98daec9	-0.0002702384
81	0xbd1a2f5d	-0.037642825
82	0xbcb8af8a	-0.022544641
83	0xbd121176	-0.035661183
84	0xbd360019	-0.044433687
85	0x3d01b0a8	0.031662613
86	0xbd86b781	-0.06577969
87	0xbdaf5cf7	-0.085626535
88	0x3ca2e048	0.019882336
89	0xbc4cf3b8	-0.012509279
90	0xbbe17fb2	-0.0068816775
91	0xbcd71821	-0.026256623
92	0x3d63a705	0.055579204
93	0xbcc2f807	-0.02379991
94	0xbc484289	-0.0122228945
95	0xbd8e32c3	-0.06943276
96	0xbc7b55b9	-0.015340262
97	0xbc7ccbe8	-0.015429474
98	0xbd1bccb9	-0.038037036
99	0xbd1f150b	-0.038838428
100	0xb91df609	-0.00015064342
101	0xbd21ff09	-0.03954986
102	0x3d1f4ba0	0.03889048
103	0xbdb2dc8f	-0.087334745
104	0xbd38442c	-0.04498689
105	0x3b8b3317	0.0042480337
106	0xbd680593	-0.05664594
107	0x3c2c0bbf	0.010500847
108	0xbdc7758f	-0.097392194
109	0x3c6be3dd	0.014397589
110	0x3cca23e6	0.02467532
111	0xbcac3bcf	-0.021024613
112	0xbcada58c	-0.021197103
113	0x3b8bf9d3	0.0042717247
114	0xbc86cedd	-0.016456062
115	0x39f3d180	0.0004650466
116	0xbdc1510c	-0.094392866
117	0xbd6f9357	-0.058490124
118	0xbd2e05a3	-0.042485844
119	0xbdaa2986	-0.08308701
120	0x3d5ddbb0	0.05416459
121	0x3ce4194d	0.027844096
122	0xbd7e26fc	-0.062048897
123	0x3cb19c52	0.021680985
124	0xbd87acf5	-0.06624786
125	0xbd0f681f	-0.035011407
126	0xbd9b5cfe	-0.07586096
127	0xbdb1aefe	-0.08675955
128	0x3b59c030	0.0033226125
129	0x3b939f50	0.0045050755
130	0xbd245e27	-0.040128853
131	0xbd7bd16c	-0.061479017
132	0xbc09ea4d	-0.008417678
133	0xbd69394a	-0.0569394
134	0xbd073ed7	-0.033018913
135	0xbcf28bab	-0.029607615
136	0xbd66971b	-0.05629645
137	0xbd5b419c	-0.053529367
138	0x3d212eee	0.039351396
139	0x3cd223d8	0.025651857
140	0xbd0eec88	-0.034893543
141	0x3d63cbde	0.055614345
142	0x3c8f8e42	0.017523888
143	0xbdaf2716	-0.08552377
144	0x3d0b2ea5	0.03398003
145	0xbd6295f3	-0.055318784
146	0xbc18e3e4	-0.009331677
147	0xbca16983	-0.019703632
148	0xbd10fc3a	-0.035396792
149	0xbcda887f	-0.026676415
150	0xbd938d15	-0.07204644
151	0x3d42b711	0.047537867
152	0xbd151808	-0.03639987
153	0xbd2316f7	-0.039816823
154	0xbc91fb5a	-0.01782005
155	0xbc7e156c	-0.015508037
156	0xbcb06cf4	-0.021536328
157	0xbd889a53	-0.0667006
158	0xbd213396	-0.039355837
159	0xbdb4e171	-0.08832062
160	0xbd5a71c6	-0.05333116
161	0xbc8bf571	-0.017084809
162	0xbd4680f0	-0.048462808
163	0xbd7c65cb	-0.061620515
164	0xbc4668d8	-0.012109958
165	0xbcf76726	-0.030200552
166	0xbc75d5b8	-0.015004568
167	0xbcba22a9	-0.022721605
168	0xbd1129fb	-0.035440426
169	0xbda653f1	-0.08121479
170	0xbd0d0b90	-0.034434855
171	0xbcc20760	-0.023685157
172	0xbd119a93	-0.035547804
173	0xbd3dfe29	-0.046384964
174	0xbd454499	-0.048161123
175	0x3cac9509	0.02106716
176	0xbc727d32	-0.014800357
177	0x3cb82300	0.022477627
178	0xbc320eac	-0.010867756
179	0xbd21e181	-0.039521698
180	0xbd445d82	-0.04794074
181	0xbd402749	-0.046912465
182	0xbd67acdc	-0.056561336
183	0xbd2cf200	-0.042222977
184	0x3ca01298	0.019540116
185	0xbd69f03f	-0.057113882
186	0xbd3fdca5	-0.046841282
187	0x3bdbbc92	0.006705829
188	0xbd21bfcf	-0.039489564
189	0xbd996adf	-0.07491087
190	0xbd7487b7	-0.05969974
191	0x3bbfb20e	0.005850083
192	0x3c0ab677	0.008466355
193	0xbc7fde9e	-0.015617041
194	0xbda00f37	-0.07815402
195	0xbb559de6	-0.0032595336
196	0xbd04badb	-0.03240476
197	0xbc40fb04	-0.011778597
198	0xbd4674f9	-0.048451398
199	0xbd1485a2	-0.036260255
200	0xbc0db06f	-0.008648022
201	0x3d2e3a0f	0.042535838
202	0x3bacaf10	0.0052698925
203	0xbdb32d6d	-0.08748899
204	0xbcce1151	-0.025154741
205	0xbd1b940a	-0.037982978
206	0xbd9d94ab	-0.07694372
207	0xbd9a1184	-0.07522872
208	0xbcc93a35	-0.024563888
209	0xbccf01fe	-0.025269505
210	0xbd14ea75	-0.03635641
211	0x3d46d9f2	0.048547693
212	0xbc388e78	-0.011264436
213	0x3d0b8240	0.034059763
214	0xbc319b67	-0.010840273
215	0x3d93f202	0.07223894
216	0x3a1120df	0.0005536209
217	0xbd9e3bcf	-0.07726251
218	0xbc92d9ac	-0.01792606
219	0xbca9caec	-0.020726644
220	0xbce282c1	-0.027650239
221	0xbd0dc8a3	-0.03461517
222	0xbdbb17a9	-0.09135372
223	0x3cc8085c	0.024418049
224	0xbcc39277	-0.02387355
225	0xbc6a315c	-0.014293995
226	0x3c1ffd48	0.009764977
227	0xbabf39b9	-0.0014589346
228	0xbdb2d621	-0.08732248
229	0xbcbc9095	-0.02301816
230	0xbdae6704	-0.085157424
231	0xbcd2e6d7	-0.025744839
232	0xbdade0fb	-0.08490177
233	0xbc23e865	-0.010004138
234	0xbcbf642f	-0.023363201
235	0xbd4b5f31	-0.04965133
236	0xbd1e948b	-0.03871588
237	0xbd765189	-0.06013635
238	0xbcc4f8e1	-0.024044456
239	0xbcfe5b44	-0.031049378
240	0xbd56bcb4	-0.052426055
241	0x3c234af6	0.009966603
242	0xbda7cb03	-0.08193018
243	0xbcd208fd	-0.025639052
244	0xbd489bb1	-0.048976604
245	0xbcf05dad	-0.029341543
246	0xbda64c13	-0.08119979
247	0x3a8bc1d4	0.0010662624
248	0xbd821acf	-0.063527696
249	0xbdb21062	-0.08694531
250	0xbc5899d0	-0.0132202655
251	0xbd2ccca3	-0.042187344
252	0x3b8796c8	0.0041378476
253	0xbd44f085	-0.04808094
254	0xbd3bd347	-0.045855787
255	0xbd8df8ef	-0.06932246

layer2.0.weight f4 [84, 256]
0	0xbd947d08	-0.0725041
1	0xbc0bdcde	-0.008536546
2	0x3cd88d60	0.0264346
3	0x3d9a37a4	0.07530144
4	0x3d52edf7	0.051496472
5	0x3baeda2c	0.0053360667
6	0x3c35a915	0.011087676
7	0x3cad0ab8	0.021123275
8	0xbb3ce666	-0.0028823852
9	0x3d5e038b	0.054202598
10	0x3cc17202	0.023613933
11	0xbc6b78cc	-0.014372062
12	0xbc3fce6f	-0.011706932
13	0x3d82f598	0.063944995
14	0x3d1da01a	0.038482763
15	0x3afebb36	0.0019434455
16	0xbca32a33	-0.019917583
17	0x3d46c02d	0.048523117
18	0xbdda2180	-0.10650921
19	0x3dc6e93c	0.09712455
20	0x3c108862	0.008821579
21	0xbd0c7f5b	-0.034301143
22	0xbcde6f9b	-0.027152827
23	0x3d8dd3f5	0.06925193
24	0x3d6741ec	0.056459352
25	0x3dcef6b6	0.1010565
26	0xbafa0dfe	-0.0019077656
27	0xbd19ef41	-0.037581686
28	0x3dc3ccb2	0.09560527
29	0x3da907dc	0.08253452
30	0x3dbf4d27	0.093408875
31	0x3cc5f36b	0.024163922
32	0xbc452ad2	-0.012034135
33	0x3d856f80	0.065154076
34	0x3d74748e	0.059681468
35	0x3da811cb	0.08206519
36	0xbd8f0809	-0.069839545
37	0x3d4d1e83	0.050077926
38	0xbcb3b900	-0.0219388
39	0x3d239f7e	0.039947025
40	0xbb5b9800	-0.0033507347
41	0xbb65d3bb	-0.0035068828
42	0xbce5666e	-0.028002944
43	0x3dd0f560	0.102030516
44	0x3d29c7a7	0.04145017
45	0xbd5ea91e	-0.0543605
46	0x3ca32653	0.019915735
47	0xbd116adc	-0.0355023
48	0xbcec2af5	-0.028829077
49	0x3b9138b3	0.004431808
50	0x3d40fbec	0.04711525
51	0xbd2b062c	-0.041753933
52	0xbcc8150b	-0.024424097
53	0xbcc5ac9c	-0.024130158
54	0x3d6b7e07	0.057493236
55	0xbc87eb3b	-0.016591659
56	0x3d86172d	0.06547389
57	0xba02ef15	-0.00049947324
58	0x3d87e7ca	0.06636007
59	0x3d2537fa	0.040336587
60	0xbd487eb5	-0.048948962
61	0xbd70d9d1	-0.058801476
62	0xbc699d53	-0.0142587
63	0xbc0372c9	-0.008022972
64	0xbd4a61bd	-0.049409617
65	0xbca38b63	-0.019963926
66	0x3d61fa2a	0.055170216
67	0xbd379494	-0.04481943
68	0xbdd1149e	-0.102090105
69	0xbd49db85	-0.049281616
70	0xbcbcd490	-0.023050576
71	0x3d79deaf	0.061003383
72	0x3d237bd2	0.039913006
73	0xbccc7175	-0.024956444
74	0xbb587a4b	-0.0033031877
75	0x3c0b2183	0.008491877
76	0x3dad1362	0.084509626
77	0x3c13b3e7	0.00901506
78	0x3d4599a9	0.048242245
79	0xbdab51c9	-0.08365209
80	0xbc967b0f	-0.018369226
81	0xbcbc5e81	-0.022994282
82	0x3d703ec5	0.05865361
83	0xbd471fb6	-0.048614226
84	0x3d2d4bc6	0.04230859
85	0x3d76b894	0.06023462
86	0x3d377929	0.04479328
87	0xbc66de5a	-0.014091099
88	0x3d61faea	0.05517093
89	0xbcc04749	-0.023471491
90	0x3ac67935	0.0015142324
91	0x3c9fef3e	0.01952326
92	0x3d20a2d7	0.039217796
93	0xbd7d6250	-0.061861336
94	0x3dcc1ad5	0.09966055
95	0xbd57fda0	-0.05273211
96	0x3cc1e72e	0.023669805
97	0x3d653353	0.05595715
98	0xbd783f4b	-0.060607236
99	0xbba2e90d	-0.0049716295
100	0x3de84028	0.11340362
101	0xbb5c5bc0	-0.0033624023
102	0x3d20fcc8	0.03930357
103	0xbd59a0d2	-0.053131886
104	0x3c976120	0.01847893
105	0x3cc7e536	0.024401288
106	0x3da35a5a	0.079762176
107	0x3bd5234c	0.006504452
108	0x3cc92e14	0.024558105
109	0x3d48a86c	0.048988745
110	0x3d22a7ff	0.039710995
111	0x3cb7c3fe	0.022432324
112	0xbdcf08f2	-0.10109128
113	0xbd101652	-0.035177536
114	0x3c703dd6	0.01466318
115	0xbbc87220	-0.0061171204
116	0x3ddb665b	0.10712882
117	0x3ba12076	0.0049171997
118	0x3c20ad90	0.0098070055
119	0xbd9add74	-0.0756177
120	0x3da9aabe	0.082845196
121	0x3d41fd73	0.04736085
122	0x3daafc09	0.08348853
123	0x3ca67de6	0.020323705
124	0xbba01168	-0.0048848875
125	0x3d9535ac	0.07285628
126	0x3c2d184c	0.010564875
127	0x3af640c9	0.0018787618
128	0x39939100	0.00028146058
129	0x3da5e116	0.08099572
130	0x3d62f0c6	0.0554054
131	0x3c838c7c	0.0160582
132	0xbce15daa	-0.027510483
133	0xbc29fe7f	-0.010375618
134	0x3ccec114	0.025238551
135	0x3dce8555	0.10084025
136	0x3bdb170b	0.0066860965
137	0xbd5d0490	-0.05395943
138	0x3c962a95	0.018330852
139	0x3d02a6d8	0.031897396
140	0xbcc740e0	-0.024322927
141	0xbd357587	-0.044301536
142	0xbc97f501	-0.018549444
143	0x3c54f0be	0.012996851
144	0xbcf26fdd	-0.029594356
145	0xbd984d7c	-0.07436654
146	0xbd5be1ea	-0.053682245
147	0x3da9f539	0.08298726
148	0x3db91eb6	0.09039061
149	0xbd642b8b	-0.05570559
150	0x3db60448	0.08887535
151	0xbcc06888	-0.023487344
152	0x3b21c7a0	0.0024685636
153	0x3dd7e388	0.10541445
154	0x3bce2a8f	0.0062916945
155	0x3d212120	0.03933823
156	0xbc906074	-0.017624117
157	0x3cd20188	0.025635496
158	0x3bd63d50	0.0065380707
159	0xbd965587	-0.07340532
160	0x3cd46f1c	0.025931887
161	0x3cb226f7	0.021747096
162	0x3d609f82	0.05483962
163	0xbcaed2b2	-0.021340702
164	0x3c812f87	0.015769733
165	0x3d78f1cf	0.06077748
166	0xbd5bee58	-0.0536941
167	0xbd51fcc6	-0.051266454
168	0x3da0664c	0.078320116
169	0x3db61a92	0.08891787
170	0xbd9bd044	-0.07608083
171	0x3d42f253	0.04759438
172	0xbc19cee5	-0.009387706
173	0x3d220ff2	0.039565988
174	0x3dcd33d9	0.10019655
175	0x3d5c7fb1	0.053832714
176	0x3d90bb09	0.07066924
177	0x3ca8bbfa	0.020597447
178	0xbd725fca	-0.059173383
179	0xbdae974f	-0.085249536
180	0x3bc8459a	0.006111813
181	0x3dd67c6d	0.10472951
182	0x3bfa92db	0.007646901
183	0x3d1aa3b3	0.037753772
184	0xbceabb68	-0.028653815
185	0x3d15b3c1	0.03654838
186	0x3d80b337	0.062841825
187	0x3c87769c	0.01653605
188	0x3cc94937	0.024571044
189	0xbdb02d7b	-0.08602425
190	0x3cf70846	0.030155312
191	0xbd8da5ed	-0.069164135
192	0x3ceb2289	0.028702991
193	0xbd0a8878	-0.033821553
194	0xb7e4c982	-2.7273552e-05
195	0x3cbc9613	0.02302078
196	0xbc686d70	-0.014186248
197	0xbd2ecd3f	-0.042676207
198	0x3d149e47	0.036283758
199	0xb9a4b000	-0.00031411648
200	0x3d04fe9a	0.03246937
201	0xbddd33eb	-0.10800918
202	0x3cce9727	0.02521856
203	0x3d4b55f7	0.04964253
204	0x3c02b5bc	0.007977899
205	0xbd5e954b	-0.054341596
206	0x3d870dc0	0.065944195
207	0xbc040da8	-0.0080598965
208	0xbd992ae8	-0.07478887
209	0x3db40de3	0.08791711
210	0xbc58a240	-0.013222277
211	0x3d9d99fe	0.07695387
212	0x3d3c13a2	0.04591716
213	0xbcf08fc8	-0.029365435
214	0x3cb62cb0	0.022238106
215	0x3d9f1866	0.077683255
216	0x3b92ec82	0.0044837603
217	0x3d846f6e	0.06466566
218	0xbbbb2710	-0.0057114437
219	0x3dff9878	0.12480253
220	0xbc977966	-0.018490504
221	0x3d5cd812	0.053917
222	0x3d94623e	0.07245301
223	0x3d7dca6d	0.061960626
224	0x3d004da1	0.031324033
225	0x3d47738d	0.048694182
226	0x3d8a8f3a	0.067655995
227	0xbdedc523	-0.116098665
228	0xbdc69966	-0.09697227
229	0x3d592217	0.053011026
230	0xbd405220	-0.04695332
231	0x3cc85a07	0.02445699
232	0x3d626800	0.055274963
233	0x3d91ac1a	0.07112904
234	0xbbcb510d	-0.0062047304
235	0x3d1ab445	0.037769575
236	0x3d977558	0.073954284
237	0x3c992e4f	0.01869884
238	0xbd1b2c12	-0.037883826
239	0x3d314811	0.04328162
240	0x3d8fc400	0.07019806
241	0x3cc3c0ec	0.023895703
242	0x3d4fc72f	0.050727066
243	0x3d0c3587	0.034230735
244	0x3d817117	0.06320398
245	0xba639d83	-0.0008682834
246	0xbdb17d83	-0.086665176
247	0x3d25276c	0.0403208
248	0xbdb1026f	-0.08643042
249	0xbc378c1f	-0.011202841
250	0xbd7fa4c0	-0.062412977
251	0x3b9d9ea5	0.0048101717
252	0x3bd34f41	0.006448657
253	0xbd8a2d3d	-0.0674691
254	0xbb5d67b1	-0.0033783729
255	0x3d7c2c9b	0.061565977

layer2.0.bias f4 [84]
0	0x3b98f1fd	0.004667519
1	0xbc4ec8a2	-0.012621077
2	0xbce3f858	-0.02782838
3	0xbcbc193e	-0.022961255
4	0xbc046fcb	-0.008083294
5	0xbd30cf27	-0.043166306
6	0xbd6a128d	-0.057146598
7	0xbd4fa9ab	-0.050698917
8	0xbd93d5b3	-0.07218494
9	0xbc3a7464	-0.011380289
10	0xbd0e079a	-0.03467522
11	0x3d04b0d2	0.03239519
12	0xbdd9a764	-0.1062763
13	0xbd6520f8	-0.055939645
14	0xbda6b3a8	-0.081397355
15	0x3c9a8d85	0.01886631
16	0xbd17bd64	-0.03704585
17	0xbd9179b0	-0.07103288
18	0xbd0e0f6d	-0.03468268
19	0xbd884596	-0.066538975
20	0xbc93a2ab	-0.018021902
21	0x3cd660f1	0.026169272
22	0x3ab2c865	0.0013640044
23	0xbd7ac6e0	-0.06122482
24	0x3c4ca0e2	0.012489529
25	0xbc8c8b3b	-0.017156234
26	0xbddf7aba	-0.1091208
27	0xbdb2dbf1	-0.08733357
28	0xbdd67573	-0.104716204
29	0xbd806c57	-0.06270664
30	0xbd153bae	-0.036433868
31	0xbcca04cf	-0.024660496
32	0xbdab2ddc	-0.08358356
33	0xbd6d2313	-0.057894778
34	0x3b9e8384	0.004837455
35	0xbc28a568	-0.010293342
36	0x3cf8ddf6	0.030379277
37	0xbcd3e887	-0.025867714
38	0xbc9099e4	-0.017651506
39	0xbcac3df7	-0.02102564
40	0xbd246288	-0.04013303
41	0xbd9f659c	-0.07783052
42	0x3baa8dfc	0.005204914
43	0xbc35e628	-0.011102237
44	0x3c5c392d	0.013441366
45	0x3ca3f149	0.020012515
46	0x3bca6d78	0.0061776005
47	0x3ce0ea81	0.02745557
48	0xb882ead2	-6.242622e-05
49	0x3d4ca5f6	0.04996296
50	0x3d927f34	0.07153168
51	0x3ce91431	0.02845201
52	0x3c10c09e	0.008834986
53	0xbd569575	-0.052388627
54	0x3af69974	0.0018814043
55	0xbd8f63ae	-0.07001434
56	0xbd416a99	-0.0472208
57	0xbda63f1b	-0.08117505
58	0x3d2b746c	0.041859075
59	0xbd8d11d6	-0.068881676
60	0xbd229139	-0.039689276
61	0xbddc2ffa	-0.10751338
62	0xbd34d4cf	-0.044148263
63	0xbdb872b8	-0.09006256
64	0x3d2922cb	0.041292947
65	0xbccea7d2	-0.025226507
66	0x3d9879dd	0.074451186
67	0x3d0af219	0.03392229
68	0xbc3e6b50	-0.011622265
69	0xbd678ec2	-0.05653263
70	0xbd93da7c	-0.07219407
71	0x3ce758e1	0.028240623
72	0x3b016c5a	0.001974842
73	0xbd81c4d5	-0.06336371
74	0xbcda6a26	-0.026661944
75	0xbda62a06	-0.08113484
76	0xbc07d937	-0.008291534
77	0x3d72716f	0.05919021
78	0xbdd1771d	-0.10227797
79	0xbcc6e6ab	-0.024279913
80	0xbca82a8e	-0.020528104
81	0xbce42f81	-0.027854683
82	0xbdcbba81	-0.09947682
83	0xbd9637e1	-0.07334877

layer3.0.weight f4 [6, 84]
0	0xbd65b547	-0.056081083
1	0x3e08cf20	0.13360262
2	0x3d649b0a	0.05581192
3	0x3cd55fba	0.026046623
4	0x3dbf532a	0.09342034
5	0x3d11007e	0.03540086
6	0xbd53872b	-0.051642578
7	0xbd2921de	-0.041292064
8	0xbd1034c6	-0.03520658
9	0xbdb75e0f	-0.08953487
10	0x3dd609ae	0.10451065
11	0x3db35991	0.08757318
12	0xbd144bdf	-0.03620517
13	0x3e19399f	0.14963387
14	0x3d48f6b7	0.04906341
15	0x3d8cf66b	0.06882938
16	0x3ca4070e	0.020022895
17	0x3e0e6b87	0.13908206
18	0x3b8fde10	0.0043904856
19	0x3d90ca72	0.070698634
20	0x3b1ddd55	0.0024088223
21	0x3c9e2a65	0.019307325
22	0x3db98bc3	0.090598606
23	0xbda17fa2	-0.07885672
24	0x3dcf4459	0.10120458
25	0x3be2527d	0.006906806
26	0xbbdce584	-0.0067412276
27	0xbd3da073	-0.046295594
28	0xbd537de9	-0.05163375
29	0xbd07f8f2	-0.033196397
30	0x3e18a801	0.14907838
31	0x3cef969a	0.029246617
32	0xbd74f2f5	-0.059802014
33	0x3d86efa3	0.06588676
34	0x3d2d97a1	0.042380933
35	0xbd35cb88	-0.044383556
36	0xbd834e02	-0.06411363
37	0xbc88c321	-0.016694607
38	0xbc2de142	-0.010612788
39	0x3bcd1400	0.0062584877
40	0x3d31019f	0.043214437
41	0xbd9f8122	-0.07788302
42	0x3d2693db	0.04066835
43	0xbd87dc1a	-0.06633778
44	0xbd483291	-0.04887635
45	0xbe00155a	-0.12508145
46	0x3dd70ee7	0.10500889
47	0x3da25c39	0.07927746
48	0x3dbfe919	0.09370632
49	0x3cc7333e	0.024316426
50	0x3d89dd8e	0.06731711
51	0x3cad8f71	0.021186562
52	0x3db8328a	0.089940146
53	0xbd952300	-0.07282066
54	0x3dd81331	0.105505355
55	0xbd8b8e2b	-0.06814226
56	0x3c517c7f	0.01278603
57	0x3be80d6b	0.0070816777
58	0x3d69d9f4	0.057092622
59	0x3dd080d6	0.101808235
60	0xbb5be4b1	-0.0033553059
61	0x3d90a18b	0.07062062
62	0x3d943b9d	0.07237933
63	0x3ca318c3	0.019909268
64	0x3d283d29	0.041073952
65	0x3d5f523f	0.054521795
66	0x3d7e0065	0.062012095
67	0xbcc921f6	-0.024552327
68	0x3d51c168	0.051209837
69	0x3dcb0fac	0.099150985
70	0x3db2e365	0.08734778
71	0x3d7b7899	0.061394308
72	0x3dd4d9d8	0.10393113
73	0xbc51eb90	-0.01281251
74	0xbdbe8201	-0.0930214
75	0xbdbff5c5	-0.09373049
76	0x3cbde36c	0.023179732
77	0xbbdfbb62	-0.0068277577
78	0xbb26ee22	-0.0025471528
79	0xbd3cc8cb	-0.04608993
80	0xbd36d220	-0.044633985
81	0xbc720578	-0.014771812
82	0x3da82c1b	0.082115375
83	0x3cd13ef5	0.025542716
84	0x3e021ae4	0.1270557
85	0x3c5f9673	0.01364671
86	0x3dd55e2d	0.10418353
87	0x3ae42826	0.0017406985
88	0xbd1b6c69	-0.037945185
89	0xbd043639	-0.032278273
90	0xbd1cd165	-0.03828563
91	0xbcf631b1	-0.030052992
92	0x3dd6da62	0.10490872
93	0xbddc9f0c	-0.10772523
94	0xbd3d8796	-0.046271883
95	0xbbe99050	-0.007127799
96	0xbd106467	-0.035252
97	0x3d90698a	0.0705138
98	0xbd606db6	-0.05479213
99	0xbd6ed04f	-0.058304127
100	0x3e19d05c	0.15020889
101	0xbcad357f	-0.021143673
102	0xbc8d8fa9	-0.017280417
103	0x3d8a7f95	0.067626156
104	0x3e08c7ce	0.1335747
105	0x3da955c2	0.0826831
106	0x3d05bbcc	0.0326498
107	0x3c823238	0.015893087
108	0x3db6e677	0.089306764
109	0x3ca5c83f	0.020237086
110	0x3e053336	0.13007817
111	0x3cab0fe6	0.020881604
112	0x3d868164	0.06567648
113	0xbc970a80	-0.018437624
114	0x3ddf6cb6	0.10909407
115	0xbc2a1245	-0.010380332
116	0x3ca7bf7b	0.020477047
117	0xbdc32e77	-0.09530347
118	0x3c969fe5	0.01838679
119	0xbd84af7a	-0.06478782
120	0xbd798b7d	-0.060924042
121	0x3c315d73	0.010825503
122	0x3cb31651	0.021861227
123	0xbd3d4522	-0.04620851
124	0x3d7f861c	0.062383756
125	0xbdb0d4fd	-0.08634374
126	0x3e1dc2e9	0.15406384
127	0x3c697f92	0.014251607
128	0x3d561614	0.05226715
129	0x3d1fea10	0.03904158
130	0x3da598c7	0.080857806
131	0xbcf0dedd	-0.029403144
132	0xbd116252	-0.035494156
133	0x3dd21c14	0.10259262
134	0xbd9253dd	-0.07144902
135	0x3ced4e1c	0.02896791
136	0x3d582f17	0.052779283
137	0x3dd9b7f9	0.10630793
138	0x3dde6bae	0.10860382
139	0xbc8c95e4	-0.017161317
140	0x3d67bfb8	0.05657932
141	0x3d5bd203	0.05366708
142	0xbd0ee9ac	-0.034890816
143	0xbd1ec165	-0.038758654
144	0x3db713c4	0.08939317
145	0xbcdb0fcd	-0.026740933
146	0xbd6dca2d	-0.058054138
147	0x3dbe83ba	0.093024686
148	0x3dd040df	0.10168623
149	0x3d3613ac	0.044452354
150	0x3da3975f	0.07987856
151	0xbd3821fa	-0.044954278
152	0x3cfe5c76	0.031049948
153	0x3d88bfae	0.06677185
154	0x3da451c7	0.0802341
155	0x3db24495	0.08704487
156	0xbd96997c	-0.073534936
157	0x3defe71d	0.11714003
158	0x3d9e9bd3	0.07744565
159	0xbd6b3776	-0.05742594
160	0xbd85974e	-0.06523
161	0xbdec5655	-0.11539904
162	0xbd42f7ad	-0.047599483
163	0x3d9ed67d	0.07755754
164	0x3d806c6d	0.062706806
165	0x3df5b908	0.119981825
166	0x3d938e6d	0.072049
167	0x3d3574d8	0.044300884
168	0x3dfcfc31	0.12352789
169	0xbd4723a3	-0.04861797
170	0x3bcddbf0	0.006282322
171	0x3c2193b0	0.009861872
172	0x3d4cf219	0.05003557
173	0x3d02e0ac	0.031952545
174	0x3d161901	0.03664494
175	0x3cb370b9	0.021904336
176	0x3cd20f12	0.025641952
177	0xbd2a41d5	-0.04156669
178	0x3dd21679	0.102581926
179	0x3d8295a6	0.063761994
180	0xbcb7fe5b	-0.022460153
181	0x3c768642	0.015046658
182	0xbdd60e04	-0.10451892
183	0xbcd8f341	-0.02648318
184	0xbd551de2	-0.05203045
185	0x3cfa9860	0.030590236
186	0xbc28a43b	-0.010293062
187	0x3da7c4f0	0.0819186
188	0x3d5c0c47	0.053722646
189	0x3d92398b	0.07139882
190	0x3c3eaedc	0.011638369
191	0x3bc215fe	0.005923032
192	0x3d3fcfea	0.04682914
193	0x3d55ad51	0.05216724
194	0xbcae440a	-0.021272678
195	0x3d83b114	0.06430259
196	0x3d291f41	0.04128957
197	0xbd84e051	-0.064880975
198	0xbb56346b	-0.0032685052
199	0x3d3a3ade	0.045466296
200	0x3d5b0609	0.053472552
201	0x3d317005	0.04331972
202	0x3addda99	0.0016926109
203	0x3c8bf14c	0.017082833
204	0xbd529cd8	-0.05141911
205	0x3d7d579c	0.06185113
206	0xbb78431f	-0.0037881804
207	0xbd7df7f5	-0.06200405
208	0x3da295bb	0.07938715
209	0x3d89aecf	0.06722795
210	0x3d2afa8f	0.041742858
211	0x3d133bb3	0.035945605
212	0x3b9d0c53	0.004792729
213	0xbd25e969	-0.0405058
214	0x3a4906e5	0.0007668569
215	0xbca2697f	-0.019825695
216	0x3d800c03	0.06252291
217	0x3c0c751c	0.008572843
218	0x3d1380b0	0.036011398
219	0xbcfa2265	-0.030533979
220	0x3dd563eb	0.104194485
221	0x3d812a96	0.06306951
222	0x3d481369	0.048846636
223	0x3c634400	0.013871193
224	0x3dd49a35	0.10380975
225	0xbd6f7231	-0.05845851
226	0xbd371315	-0.044695932
227	0x3de70987	0.11281114
228	0xbd3c23dc	-0.045932636
229	0x3d57cf0d	0.052687693
230	0x3b539a4e	0.0032288018
231	0xbd4956db	-0.049155097
232	0x3d1dd668	0.03853455
233	0x3de68526	0.11255865
234	0x3d9f3d2f	0.07775342
235	0x3dec329f	0.11533093
236	0x3d88ea25	0.066852845
237	0x3dec2d79	0.11532111
238	0xbbd37d0e	-0.0064541167
239	0xbc3a1e5b	-0.011359776
240	0xbd62f22f	-0.055406746
241	0x3cf879e3	0.030331558
242	0xbcb90cf6	-0.022589188
243	0x3d505d58	0.05087027
244	0x3d975435	0.07389108
245	0xbcbc8843	-0.023014193
246	0x3d6b0459	0.057377193
247	0x3e1e60a5	0.15466554
248	0xbdd2d182	-0.10293867
249	0x3d8bd4fd	0.06827734
250	0xbd2a1073	-0.041519593
251	0xbc92d547	-0.017923964
252	0x3d81375f	0.06309389
253	0x3d03e669	0.032202158
254	0xbd8e3b26	-0.069448754
255	0x3dea482a	0.114395455

layer3.0.bias f4 [6]
0	0x3da45dec	0.08025727
1	0xbd90c57c	-0.07068917
2	0xbd8cbcc7	-0.06871944
3	0x3ddd2284	0.10797599
4	0xbd6be511	-0.0575915
5	0xbb40717c	-0.0029364517
