DigitalRecognition-master/model_params/GDUT_net_all_11.pt (torch, 665623 bytes, 6 tensors)

layer1.0.weight f4 [256, 560]
00000000: 1a72 063d 0cb0 013c 8103 a1bc 400e 5dbb
00000010: 3a12 903c aab7 57bc 20ab 7dbb ee3a 0b3d
00000020: a478 be3c 39ab 0e3c 378b a9bc e2cc 15bd
00000030: c4f0 13bd e6d9 143d 1953 8dbc e8ac cf3b
00000040: f8e5 c93b 82d3 073d d8af c1bb f0d2 013d
00000050: 10c2 3f3c 762f 1fbd 625e 893c fdac b0bc
00000060: 60c1 c73c 99ad dfbc 4e95 953c 32e7 02bd
00000070: 98c3 b8bc eebc 013d 688e 94ba 1d5f f53b
00000080: d150 d839 2c13 cd3c 616a 87bc 9734 94bc
00000090: d648 0abd 14fb 863c 1841 de3c d0aa b63b
000000a0: 90d2 8e3b 0061 a7ba 3cf2 dfbc 3c2f e33c
000000b0: d529 e3bc 229f 21bc c707 24bd a114 ac3a
000000c0: c8a1 8bbc 59d3 3c3c 662c c9bc 6ca5 fe3c
000000d0: 65c1 0d3d 6573 743c 4038 0fbd 5d30 9dbc
000000e0: c89c 113d d01f f2bb 9811 873c 144e 0e3d
000000f0: bcea cd3c ac1e 96bc f068 1d3b 807e 0abc
00000100: 1664 1bbd 93fe 1f3d d6ed 94bc f39f 903b
00000110: b494 e5bb cbd9 db3c 82ce ac3c 5119 edba
00000120: f1f5 ecbc 76cc af3c 5cc8 8a3b f95d 753c
00000130: 3a8a 26bd 2b6e 19bd 906a 00bc e08a b0bc
00000140: c2f1 273d 58ed 3cbc caaa 8f3c 7431 04bd
00000150: 7fb7 ffbc 8216 8c3c 7280 a33c 8644 833c
00000160: d4e3 b6bb 2fa7 2cbc 2a64 123d c0b4 83bc
00000170: 804b 49bc 371b 9e3c b7e2 b83c 457f fdbc
00000180: 24d8 06bd d430 cdbc 023d 69bc c0aa 69bb
00000190: f4d9 8c3c 34bd 583c c0f5 e23c bc34 963c
000001a0: ed9d 11bd 1cbf b13c ee61 aaba c1dc c23c
000001b0: a201 cbbc 3d39 a83c 0084 553c 2a17 27bd
000001c0: 4e1b b1bc 07e2 2c3d 251b 0dbd c2ba 5b3c
000001d0: 804d ffbc 64d3 f83c 2862 4fbc 1821 963b
000001e0: f7a2 2bbd ee30 04bd 1ef1 283d 140a f03c
000001f0: 7e1a 29bd 42b8 c9bc fe51 0fbd 54b4 0b3c
00000200: 1ce7 0b3d be1d c53b ed42 cebc d847 e63b
00000210: 6584 f5bc 9d7d 863b 48fd d8bc bc0c 173d
00000220: 28eb b73c cc74 1e3d 87b4 88bc 1c06 453c
00000230: 80df a4bc 6ea3 3ebc a05b 97ba 2044 2c3c
00000240: 25f3 693c a2f6 7ebc 92b1 183d 2574 d5bc
00000250: 6c06 c03c 2949 833c b097 c13c 15c4 253d
00000260: ae0f 123d ffd1 25bc e84f 14bd 2009 8ebc
00000270: 3aa8 4ebc e0a3 ed3a 000b 903b f089 793b
00000280: c436 07bd 7bd8 1dbd 9bb6 dcbc c8dd 223c
00000290: 93ff 49bc 39e7 e3bb 3d48 d93a f182 113d
000002a0: 7469 e0bc 1c14 0d3c 4e81 0bbd 69ff 223d
000002b0: 2cc6 523c 15e2 fe3c 4faf c4bb 7764 96bc
000002c0: 9dbd ddbc 70a4 773b a446 b0bc 285a 373c
000002d0: 8006 f439 8485 10bd f4bf b53c 9243 90bc
000002e0: f13c 573c 9f9d 09bd d75a 883c 9df2 05bd
000002f0: 9ac1 b83b 4d32 26bd fd3f 40bb 7943 17bd
00000300: 18bb 53bb aa28 d0bc 4bfd c1bc 83d4 1f3c
00000310: 3f1e 013d b027 06bd 59af a4bc 40a6 b0bb
00000320: b0b7 11bb e230 833c e096 463c 1e42 a9bc
00000330: 17dc da3b 349e ad3a 44c5 8bbc e3f9 dc3c
00000340: 00b2 093c e03d cfbc 5f24 38bc b82b b33c
00000350: 8ced 773c 9f82 fd3c 1bd2 a7bc 6d7a 053d
00000360: b622 2f3a 4198 86bc b025 56bb c614 69bc
00000370: 0048 a63b 6071 de3c 8a93 e8bc a8df 22bc
00000380: 0ff5 643c 762f cebc e882 2abb b0b9 98bc
00000390: 691a 90bc bb31 a83c 7440 ba3c b24b 5dbc
000003a0: a706 41bc bde9 9e3b 712f 333c a0d7 cfbb
000003b0: 3b05 a0bc 9b9a 083d eea9 60bc 7871 02bd
000003c0: 7816 bdbb b8cd 0b3c 82a2 133d 30ef 54bb
000003d0: e003 8b3c d1de 8cbc 9e77 813c 729f 273d
000003e0: d631 033d 6670 003d b1d6 9abc a984 003d
000003f0: e106 febc b3ac ddbc ba02 acbc 0d00 8f3a
0.03282366 0.007915508 -0.019654991 -0.0033730417 0.017586816 -0.0131663475 -0.0038706735 0.033991747
0.023250885 0.008707815 -0.020696266 -0.036572345 -0.036118284 0.036340617 -0.017251538 0.0063377507
0.0061614476 0.033160694 -0.005910855 0.031695306 0.011703983 -0.03886362 0.016768638 -0.021566862
0.0243842 -0.027304458 0.01825967 -0.031958766 -0.022554204 0.031674318 -0.0011333944 0.007488145
0.00041258943 0.025033556 -0.016530218 -0.018091483 -0.033760868 0.016477145 0.027130648 0.0055745617
0.004358597 -0.0012769997 -0.027337186 0.027732484 -0.027729908 -0.0098646 -0.04004648 0.0013128706
-0.017044917 0.011524999 -0.024557304 0.031084739 0.034608264 0.01492009 -0.034965754 -0.0191881
0.03554991 -0.0073890463 0.016487882 0.03474243 0.025136344 -0.018325172 0.0024018846 -0.0084530115
-0.037937246 0.03906114 -0.018179815 0.0044135987 -0.007006252 0.02683725 0.021094564 -0.001808921
-0.028925868 0.0214598 0.0042353105 0.014976018 -0.040659167 -0.03745858 -0.0078379065 -0.021550596
0.041002043 -0.011531197 0.017537493 -0.032273725 -0.031215427 0.017100576 0.019958708 0.016023885
-0.0055813584 -0.010537907 0.035740055 -0.0160774 -0.012286067 0.019300086 0.022569044 -0.030944476
-0.03292097 -0.025047697 -0.014235737 -0.0035654753 0.017193772 0.013228703 0.027705073 0.018335693
-0.035551 0.021697573 -0.0012999156 0.023786904 -0.024781052 0.020535106 0.0130319595 -0.040793575
-0.021619465 0.042207744 -0.034449715 0.013411226 -0.031164885 0.030374236 -0.01265768 0.004581582
-0.041903462 -0.032273225 0.041245572 0.02930168 -0.04128503 -0.024623994 -0.034990303 0.00852688
0.03415595 0.0060155084 -0.025178397 0.0070276074 -0.029970357 0.0041043297 -0.026487961 0.03687738
0.022450998 0.038685605 -0.016687645 0.012025382 -0.020126104 -0.011635644 -0.0011547692 0.010514289
0.014279162 -0.0155617315 0.03727872 -0.026056359 0.023440562 0.016026096 0.0236319 0.0404702
0.035659485 -0.010120868 -0.036209017 -0.017338336 -0.0126133505 0.0018130504 0.0043958426 0.0038076602
-0.033011213 -0.03853653 -0.026942542 0.009940572 -0.012329 -0.006955054 0.0016577315 0.035525266
-0.027394034 0.0086107515 -0.03405886 0.03979436 0.012864631 0.031113664 -0.0060023437 -0.018358452
-0.027067954 0.0037787221 -0.02151806 0.0111909285 0.0004654415 -0.03528358 0.022186257 -0.017610345
0.013137088 -0.033597585 0.016644878 -0.032702077 0.0056383135 -0.040575314 -0.0029335015 -0.03692958
-0.0032307561 -0.025410015 -0.02368035 0.009755257 0.031522986 -0.032752693 -0.020103144 -0.0053909123
-0.002223473 0.01601452 0.012120932 -0.02066141 0.006679069 0.0013246001 -0.017061837 0.026974624
0.008404255 -0.025298059 -0.01123914 0.021871433 0.015132319 0.030946074 -0.020485928 0.032587457
0.00066808925 -0.016430022 -0.0032676272 -0.014226144 0.005074501 0.02715367 -0.028390665 -0.009941019
0.013974442 -0.025169116 -0.0026017968 -0.01864323 -0.017590718 0.020531526 0.022735812 -0.013506817
-0.011781371 0.004849641 0.010936604 -0.006342843 -0.019533744 0.03335057 -0.013712389 -0.031846493
-0.0057705007 0.008532934 0.03604365 -0.00324912 0.016969621 -0.01719609 0.015804108 0.040923543
0.03202995 0.03135719 -0.018901201 0.031376515 -0.03100914 -0.027059888 -0.020997394 0.0010910049

layer1.0.bias f4 [256]
00000000: c942 d13c cd66 0c3c db1e 97bc eed9 d2bc
00000010: 5a12 a0bc 40bc 94bc 4e60 cc3c 3b41 643c
00000020: f7f6 f4bc fb4a 1a3d 4459 ac3c 78bc b93c
00000030: d463 33bb 0824 123d 3a47 0ebd 9204 fdbc
00000040: 511c 1b3d 2894 9e3c bbb2 3bbc bc7d 173d
00000050: 7cd8 263b a029 243d 392f 4fbc d6ce ffba
00000060: 0303 dabc 07f8 0f3d 862c ef3c 81c8 033d
00000070: 7f1d d2bb 81bd 27bd 6815 183c 66a2 71ba
00000080: ea8f 8cbc b97d c8bc ef50 2f3d bf4a 1dbd
00000090: 6343 aa3c be4a df3c 29a3 123d 9a01 003d
000000a0: a14d e5bc 02ae 193d a2c6 953a 3313 27bd
000000b0: e217 fc3b ee5f 6b3b c718 eebb 5a27 04bd
000000c0: fcac ca3c abc5 543c 8b5d d4bc 2db0 26bc
000000d0: a491 ff3b a685 173c 27fd 4bbb 398f d5bb
000000e0: ff8b a6ba ee31 153d f7da df3c 813c 4d3c
000000f0: 049a 113d 7404 bebb 86dd c43b d579 af3c
00000100: 8356 b7bc 4fb8 c83c 928e b03b a1da 25bd
00000110: 8d49 0abc 8184 f8bb 5637 bd3c 3013 603c
00000120: 38d6 c23c f169 233c 88c7 b63c ecce 943c
00000130: 782d 813c 5717 ef3c 0bf6 bf3c 4cf0 7e3c
00000140: c920 01bd f467 cb3c 09fa e23c 115b 57bc
00000150: bc68 183d d056 ee3b ecba e03c 4aa7 c43c
00000160: 494c c4bb 2b5b febc a495 cd3b fde1 06bd
00000170: ff3c 95bc d843 14bd 340d 03bd 16a8 093d
00000180: 9b29 073d 5c8e ed3b cd19 2bbd 7f3c 9ebc
00000190: 5046 f23c 737b 283d 20e4 2a3d 38d7 dcbc
000001a0: 0983 ae3b 3da0 f5bc f433 143d d20b 9c3c
000001b0: 4916 3d3a dd1e 33bc 7157 413c ba46 87bc
000001c0: 202d debc c224 d13c 0034 dcbb 93ee 9fbc
000001d0: 5149 b93c f955 11bd 5cf8 dc3c 3ba8 dd3c
000001e0: cfe1 a3bc f311 133c 8c49 093d 788d 093d
000001f0: dfa7 1fbc 2e28 9e3c 312c 1a3b 63f1 f7bc
00000200: 5a4b f13c 28f6 97bc 76e8 08bd 7c5e 9ebc
00000210: 8629 d93c eba1 783c 0ebe 423c ad7d 1c3d
00000220: 4752 513a 836c 1dbd d75c 89bc 000b 0c3d
00000230: 0098 11bd ad4f e1bc 70bb 653b ea07 e93b
00000240: c906 aebc 5901 02bd ffb4 6ebc 6869 b83c
00000250: e60b c5bc 1015 053d 752f 183d ed32 273d
00000260: afc9 78bc 00b6 16bd 13da 0c3c 4d00 19bd
00000270: 13f8 423c 93e7 57bc ebba b8bc 21d0 d03a
00000280: 5167 cebc 3a15 10bd 9ada dabc faa9 b3bc
00000290: a188 16bd 21ed ecbc 3db4 003d d030 273d
000002a0: 2a08 87bc c28b 163b 6495 bfbc ae02 f53c
000002b0: b40d c33b 3bbe 37bc 8a20 aebc 8d09 b13c
000002c0: b581 133d 8f89 d3bb d2a6 a7bc 4835 babc
000002d0: 307c 013d 0594 25bd d0ba 80bb 80ca f7bc
000002e0: 4a8f 0e3d b26b df3c 8640 23bd bf3a d7bc
000002f0: 6ea1 9cbc a3a4 fbbc 25ef 19bd 553d 283d
00000300: 61a8 f7bc 6a1f 18bd 734f e63c 9662 c8bc
00000310: a474 113d 17da aa3c b0f8 f93c a775 f73b
00000320: 21a8 0dbb 1fc3 97bc d751 093c ff89 25bd
00000330: aa54 a5bc d8db 6d3c f1aa 12bc a5bd cabc
00000340: f2a6 03bd 52ee 133d b2c9 9e3c 3583 85ba
00000350: b0e5 08bc 766a e9bc c9ec 203d a164 4fbc
00000360: 00a1 9a3c 017c dfbc 1d49 783c 8b06 26bc
00000370: 4b5f 59bc d7f3 cfba c051 c0ba 98a6 97bb
00000380: 3ad8 303c b9d4 aebc d212 283d 0e7a 233d
00000390: f696 01bd ea1b 08bc 5ff5 033d fce7 1fb9
000003a0: c18a 1ebd 6d69 05bc a979 2dbc c674 223d
000003b0: a258 19bc 38ee 423c ef22 c93c 6e2b a53c
000003c0: 0ebb 1a3d 1319 de3c 9d3b 843c 122c 03bd
000003d0: 90b6 4abc 514e f8b9 b048 91bc 3702 4abb
000003e0: 4816 8abb a18a 21bd d074 a9bc be5b 9fbc
000003f0: 01e8 eebc 77a1 1f3d 039d 0ebd 88c6 0b3d
0.025544541 0.0085694315 -0.01844733 -0.025738683 -0.01954 -0.01815617 0.024948265 0.013931568
-0.029902918 0.037669163 0.021038659 0.022672877 -0.0027372735 0.035678893 -0.034735896 -0.030885968
0.0378688 0.019357756 -0.011456187 0.036985144 0.0025458625 0.04007876 -0.012645536 -0.0019516598
-0.026612764 0.035148647 0.029196035 0.032173637 -0.0064122076 -0.04095221 0.009282447 -0.00092176197
-0.017158467 -0.024474012 0.042801794 -0.03840136 0.020784086 0.02725732 0.035800133 0.031251527
-0.027991118 0.037519462 0.0011426995 -0.040789794 0.0076932767 0.0035915333 -0.0072661373 -0.03226409
0.024740689 0.012986581 -0.025923511 -0.0101738395 0.007799344 0.009248173 -0.0031126232 -0.0065173176
-0.0012706517 0.03642457 0.02732609 0.012526632 0.03554727 -0.0057988707 0.006007853 0.021420399
-0.02238012 0.024501948 0.0053880895 -0.040491704 -0.008440387 -0.007584155 0.023097675 0.01367645
0.023783788 0.009973989 0.02231194 0.018165074 0.015768752 0.029185934 0.023432752 0.015560221
-0.031525407 0.024829842 0.027707117 -0.0131442705 0.037209257 0.0072735325 0.027432881 0.02400555
-0.005990539 -0.031049332 0.006273942 -0.032930363 -0.018217562 -0.036197513 -0.031995013 0.033607565
0.032998662 0.0072496366 -0.041772652 -0.019315956 0.029574543 0.041133355 0.041721463 -0.026958093
0.005325679 -0.029983634 0.03618236 0.019048605 0.00072130986 -0.010932651 0.011800633 -0.016513217
-0.027121127 0.025530223 -0.006720066 -0.01952294 0.022617968 -0.03548238 0.026973896 0.027057758
-0.020005135 0.008976447 0.033517405 0.03358218 -0.009744613 0.019306269 0.0023524875 -0.03026647
0.029454876 -0.018549994 -0.033424817 -0.019332163 0.026509058 0.015175323 0.011886133 0.03820579
0.00079849776 -0.038433563 -0.016767902 0.034190178 -0.03554535 -0.027503813 0.0035054348 0.007111539
-0.02124347 -0.031739566 -0.01456952 0.0225112 -0.024053525 0.03249079 0.037154634 0.04082005
-0.015184804 -0.036794662 0.008596915 -0.037353802 0.011899966 -0.01317777 -0.022550067 0.0015931168
-0.02519575 -0.035176493 -0.026715565 -0.021931637 -0.036751393 -0.028921666 0.03142189 0.040818036
-0.016483385 0.0022971486 -0.023386665 0.029908504 0.0059525613 -0.011214788 -0.02125575 0.021611
0.03601237 -0.0064556072 -0.020465288 -0.022730485 0.031612575 -0.040424366 -0.00392852 -0.030247927
0.03480462 0.027273033 -0.039856456 -0.02627313 -0.019119944 -0.030718153 -0.03758158 0.041074116
-0.030231657 -0.037139334 0.028114056 -0.024461072 0.035511628 0.020855946 0.030514091 0.007551867
-0.0021615105 -0.018525658 0.008381329 -0.040414806 -0.020181973 0.014517747 -0.008951888 -0.024748633
-0.032141633 0.03611595 0.019383285 -0.0010186197 -0.008355543 -0.028493147 0.039288316 -0.012658269
0.018875599 -0.02728081 0.01515415 -0.010133396 -0.0132673485 -0.0015865517 -0.0014672801 -0.004628014
0.01079374 -0.021341668 0.041033573 0.039911322 -0.03163811 -0.0083074365 0.032216426 -0.00015249843
-0.038706545 -0.008142811 -0.010588088 0.039662145 -0.009359511 0.011897616 0.02455279 0.02016231
0.037776046 0.027111566 0.016141707 -0.03202445 -0.012372628 -0.00047360596 -0.017734855 -0.0030824074
-0.004214082 -0.039438847 -0.020685583 -0.019452926 -0.029163362 0.038972344 -0.034817707 0.03412488

layer2.0.weight f4 [84, 256]
00000000: 409d f3bc 1fa2 993b a9da 7a3a 0cac f8bb
00000010: cef1 0e3c 37e9 a03c d9dc 6dbd 84f6 0bbd
00000020: d80a c0b8 7652 49bd 13d7 81bd 870e 19bd
00000030: a559 523d a5a3 a8bc 36b3 c8bc 7451 4cbd
00000040: 19e3 703d 4bad 293d ec7d 2bbd 5fa1 3a3b
00000050: 8b15 c1bc af43 303d 6418 373d 0614 033d
00000060: 376a 783d d6d3 8e3c 0c2f 053d 9f06 a63c
00000070: 4434 ad3c 91fc 41bd 002e 54b9 e024 2abc
00000080: 51e7 5f3d 87fa be3c 2e78 483d fb2a 33bd
00000090: 23dd 203d 4389 f3bc 073d 7ebd dc92 653d
000000a0: 4a58 3d3d b5bc 16bd b306 5f3b 5815 883c
000000b0: e8ea 573d 4fa1 ec3c 0880 01bc 6790 4e3c
000000c0: 00e4 7d3c b6d9 5fbc 45df a13c a358 013d
000000d0: f6dc e93c c020 ff3c 36ed 46bd 5747 87bc
000000e0: 725b 3f3d 7bb0 a23c 5034 1dbd 263e ec3c
000000f0: f576 343d fac0 47bc 045e 4e3d 1536 f23b
00000100: dba1 28bd c6df ab3c 0b13 b9bc 8401 753d
00000110: e32c 08bd 3479 efbc 541b 423c e795 80bd
00000120: 95e5 163d a0e2 2a38 604c 8e3c eca5 94bc
00000130: cd3e 36bb 44db 0ebd e19b 5bbd 3a4d 0cbc
00000140: aa54 493d 6dfb 8fbb eaec 443d 4427 563d
00000150: 5347 72bd 9025 fa3c 9fab 013d a1a0 febc
00000160: c836 45bc e7bf 953c a7ee 663d cc88 2cbd
00000170: f212 d7bc 00a3 78bb af0b 2a3d 4064 653d
00000180: 2a45 fd3c 453b ba3c 9de3 ec3c 577b e73b
00000190: 20c7 87bc 5c55 ba3c ddbb 53bc 6b79 4c3d
000001a0: efb1 27bd 002d 0c3a 46fc 5d3d 93cd 173d
000001b0: 9edd c83c a85f 27bb e715 f33c b5cd 433c
000001c0: 6387 c83c 8f2e 5dbc 9f20 db3c fd2b e93c
000001d0: 9e16 c63c b5ac aebc 89c0 0f3d 73a6 543d
000001e0: f789 d0bc 7e09 c6bc 0344 72bc 164e 073d
000001f0: ebc0 64bd 858d 35bd 74e4 133a a06f 103d
00000200: 060b 17bd 433c 4c3d 0a71 cd3c 682d 03bd
00000210: 7179 b13b fb2d 1cbd 2d00 0b3c 8b9f 1b3d
00000220: 633e 2b3d 46d7 ccbc fb9e bd3c e852 0ebd
00000230: 2815 73bd 9318 623d 60f1 b43b 83f1 2cbd
00000240: ce17 74bb f5da 19bc 626b 2d3d 0e4a 663b
00000250: bec7 71bd dd22 473d 6e59 6c3d aa42 3cbd
00000260: 228b 06bd a0c9 75bd f563 e9bc 8073 60bd
00000270: 4a61 7ebd 6c9b 453d 03c4 25bd d1d9 debb
00000280: cbe0 19bc fbb2 5abd 6fa4 61bd 5509 25bc
00000290: 6f16 c5bc 6493 90bc 7918 7dbd 7c7d 4d3d
000002a0: ed23 0f3d 1bca 62bd 843c babc f0bf ea3b
000002b0: 9f26 58bd 8fa1 d23b adbd 5dbc 1c71 073d
000002c0: 2d00 e7bc 4e60 29bd 679e c5bc 7f38 66bd
000002d0: 43a1 3d3d a55d 51bc 0f65 af3c d2bb 643c
000002e0: 3a9f b2bc 5ce3 66bd 2a63 debc 9b8b 7abd
000002f0: b9b8 2cbd e09e 203d 54a2 4e3d 05e9 f0bc
00000300: 8665 fe3b b481 783d 8429 aa3c 53f4 53bd
00000310: f09a 50bd deb6 57bd 74e4 74bd 0626 59bc
00000320: 0f6c fa3c e306 8e3c 122d 70bd 74f9 78bd
00000330: 722e 22bd 1f29 21bd eaa9 c2bc 1034 64bc
00000340: dc90 6abd b61d 15bd 8015 003c bba7 00bd
00000350: 3c87 763c b18b 293d 11c8 dc3c de72 49bd
00000360: 09ed 7ebc cf30 95bc cd08 033d 20e6 11bd
00000370: f0e4 9d3c 9c2c 38bd f2d1 1a3d 5cab e9bc
00000380: 3484 57bd ae5d 723c cba7 463d c03e 40bd
00000390: 2df4 2c3d d6d0 34bd 0068 083b c144 363d
000003a0: 72c6 4abc 73e1 273c 4354 65bd fc43 353d
000003b0: d296 2d3d 947e ea3c 6669 47bd 1ec2 34bd
000003c0: 4d3d fe3c 23d1 793b a874 23bd afe9 1e3d
000003d0: fc69 c23c 0c4a a43b f865 1c3d 8d5e 80bd
000003e0: 6677 21bd 3acd 12bd 57e3 083b c1d8 5bbd
000003f0: 6545 b03c c344 b1bc 413f 053d b247 8bba
-0.029738069 0.004688516 0.0009569326 -0.007588869 0.008724643 0.019642456 -0.058071945 -0.034170642
-9.157293e-05 -0.049150907 -0.0633985 -0.03736737 0.051355023 -0.020585844 -0.024499517 -0.049882367
0.058810327 0.04142503 -0.041868135 0.0028477532 -0.023569843 0.043033298 0.044700995 0.032001518
0.06064817 0.017434996 0.03251557 0.020266829 0.021143086 -0.047360007 -0.00020235032 -0.010384768
0.05466396 0.02331282 0.048942737 -0.04374216 0.039273392 -0.029728537 -0.06206992 0.05604826
0.046226777 -0.03680106 0.0034031093 0.01661174 0.05271426 0.028885512 -0.00790406 0.01260767
0.015496254 -0.013662746 0.019759784 0.03157867 0.028547745 0.031143546 -0.048566066 -0.01651351
0.04671807 0.019859543 -0.038379967 0.028838228 0.04405876 -0.012192005 0.05038263 0.007391701
-0.041169982 0.020980727 -0.022592088 0.0598159 -0.033245932 -0.029232599 0.011847336 -0.062785916
0.03684004 4.074222e-05 0.017370403 -0.018145524 -0.0027808428 -0.034877077 -0.053615455 -0.008563334
0.049153008 -0.004393986 0.0480775 0.05228354 -0.05915005 0.03053549 0.03165781 -0.031082453
-0.012036987 0.018279983 0.05637994 -0.042122647 -0.026254151 -0.0037938952 0.04151505 0.05600381
0.030916769 0.02273334 0.028917128 0.007064264 -0.016574442 0.02274578 -0.012923208 0.04992048
-0.040941175 0.00053472817 0.054195665 0.037061285 0.024519738 -0.0025539193 0.02967353 0.0119509
0.02447862 -0.01349987 0.026748953 0.028463358 0.024180707 -0.021322588 0.035095725 0.05191655
-0.025456412 -0.024174448 -0.014786723 0.033033453 -0.055848043 -0.044324417 0.0005641647 0.035262704
-0.036875747 0.049862158 0.025078315 -0.032025725 0.0054160883 -0.038129788 0.008483929 0.03799395
0.041807543 -0.025004994 0.023147097 -0.034747034 -0.059346348 0.055199217 0.005521938 -0.04222251
-0.0037245634 -0.009390582 0.042338736 0.0035139355 -0.05902838 0.048617233 0.057702474 -0.045962013
-0.03284753 -0.060006738 -0.028490046 -0.05479765 -0.0621045 0.048243925 -0.040470134 -0.006800868
-0.009391974 -0.053393345 -0.055088457 -0.010073026 -0.024058549 -0.017648406 -0.061790917 0.0501685
0.03494637 -0.055368524 -0.022733934 0.007163994 -0.052771207 0.0064279507 -0.013533992 0.033066854
-0.028198326 -0.04135161 -0.024123384 -0.056206223 0.04629637 -0.012778674 0.021410493 0.0139607955
-0.02180444 -0.05636917 -0.027146894 -0.061168294 -0.042168353 0.039214015 0.050447777 -0.029407987
0.0077635674 0.06067057 0.02077175 -0.051746678 -0.05092901 -0.05266463 -0.059788182 -0.013253694
0.030569104 0.017337268 -0.058636732 -0.060784772 -0.039595075 -0.039345857 -0.023762662 -0.013928428
-0.057267055 -0.036405288 0.007817626 -0.03140996 0.015046891 0.041392986 0.026950868 -0.04918181
-0.015559443 -0.01821175 0.031990815 -0.035619855 0.019274205 -0.044964418 0.037797876 -0.028524093
-0.052616313 0.014792843 0.048499864 -0.046934843 0.04222505 -0.044144474 0.0020813942 0.044499163
-0.012376415 0.010246622 -0.05598856 0.044254288 0.04238016 0.02862481 -0.0486845 -0.044130437
0.03103509 0.003811904 -0.039906174 0.038797077 0.023732178 0.00501371 0.038183182 -0.06268034
-0.039420508 -0.03584025 0.0020887458 -0.05367351 0.021517465 -0.021639233 0.032531027 -0.0010626225

layer2.0.bias f4 [84]
00000000: 923c a5bc 5c7d c73c d628 54ba d8a3 793c
00000010: f6fd c93b 958d b8bc 4684 9f3a cf98 da3c
00000020: de7a 543d eda4 713d 83b9 773b 057c eebc
00000030: 1c19 043d cb18 12bc 48df 97bb 3d6b 203d
00000040: 8666 3d3d 54d2 b33a 2d3e d93c 36f4 003d
00000050: 7ebb 293d 21f1 613d 34db 06bd cb9b 653d
00000060: a91d 793c e200 53bd 58c2 52bd 2e3e 7f3d
00000070: a8b3 773c c6f3 943c e45f 46bd 7c21 4bbd
00000080: db7f 173d 34c4 24bd bcce abbb a968 7abd
00000090: db53 a83c 3432 6bbd dd2d 33bd 7878 733d
000000a0: 2156 383d 3816 cebb dca4 3f3d c06f 82bd
000000b0: b270 01bd 3ddb 37bd 7970 11bd aed2 71bd
000000c0: b807 d23c a338 19bd b35b f13c b681 55bd
000000d0: 7c89 b33c e69f 0c3c 7f98 41bd 8929 27bc
000000e0: e64f 573d ec1a 30bd a591 443d e951 23bd
000000f0: 688b 143d 01fa e1bc f75b 6c3d 1cf7 07bd
00000100: 7af2 143d 79db b7bc de89 52bd af71 b4bc
00000110: 3432 813c 2b97 32bd cb22 32bd 27ea 333b
00000120: 5705 e739 42c9 30bc 3a40 c3bc a4ea d5bb
00000130: 1326 fdbc 6891 d03c de61 2e3c 53e4 44bc
00000140: f2c5 323d a2a9 743b 62c0 263d e7fe 44b9
-0.020170484 0.024351768 -0.0008093243 0.015236817 0.0061643077 -0.02252845 0.0012170158 0.026684193
0.051874988 0.058995176 0.0037799783 -0.029111871 0.03225051 -0.008917044 -0.0046347715 0.03916477
0.046240352 0.0013719299 0.026518906 0.031482898 0.041438572 0.0551616 -0.032923892 0.05605678
0.015204825 -0.051514514 -0.051454872 0.06231516 0.015118517 0.018182646 -0.048431292 -0.04959248
0.036987167 -0.040226176 -0.0052431505 -0.061134968 0.020547798 -0.057420924 -0.04374491 0.05944106
0.045004014 -0.00628927 0.04678808 -0.06368971 -0.031601615 -0.044886816 -0.035507653 -0.05903881
0.025638446 -0.03740753 0.02946267 -0.052125655 0.021916144 0.008583045 -0.047264572 -0.010202774
0.05256643 -0.042994425 0.04799046 -0.039873037 0.03626576 -0.027585031 0.057704892 -0.033194646
0.036364056 -0.02244352 -0.05140101 -0.022026865 0.015771009 -0.043601196 -0.043490212 0.0027452798
0.00044063732 -0.010790171 -0.023834337 -0.0065282155 -0.030901944 0.02545996 0.010643451 -0.012017327
0.043645807 0.0037332554 0.040710814 -0.00018786975

layer3.0.weight f4 [8, 84]
00000000: 30bb 8f3a 728e 9fbb 4d1f 993d 6426 aabd
00000010: f9fd 093d b7d8 8abd 09af a7bd 3e99 863d
00000020: 70ff 8d3d 50de dd3d c627 ac3c 7312 d43d
00000030: 15f4 d83d 8696 953c 1126 803d dbf6 9d3d
00000040: 706c 983c 3f1f 113d 3915 89bd 785a 47bd
00000050: 3827 453c 8c89 993d df3b ab3d 3f74 48bd
00000060: 8127 dfbc 063e 1ebd 08d2 0abc 57dd d43c
00000070: a119 ccbd 2305 a6bd 0802 58bd 14b2 18bc
00000080: 9497 a43c 219d dabd 08f5 573b 4d64 703d
00000090: 2980 82bb 3ef5 babd f619 343d 2426 8f3d
000000a0: a5f7 1fbd 128b 41bd b3a5 3ebd 5fdf 6dbd
000000b0: c18b 01bb d7ec 933d 9243 693c 26ab d1bd
000000c0: 5aaa 423d 4fca aabc 55ce c5bd 1cdb cfbd
000000d0: 2c54 d03d 514e 863d 23f6 3d3d 66c2 c9bc
000000e0: 96c3 0c3d 0a56 2f3a d083 413d 8d4d 253c
000000f0: 8273 573d 9f6d a23c e1b2 d03a d554 cabd
00000100: bf27 3c3d 64fa a9bd 2049 4f3d cc4b 5a3d
00000110: 664a ffbc b8dd 0c3d c24a 3d3d 0dcb 2c3d
00000120: 0993 433d 39c2 bcbc 0202 a2bd 40fe 1b3d
00000130: ec4b 97bd 3696 aa3d 23af ba3d 5d52 9d3c
00000140: c0fe 43bd 0126 f7bc 91ba e03b d819 c9bd
00000150: ea19 aa3c 8acf b83d 40dc bcbd cdb1 cfbd
00000160: c4e7 fdbc 063a 68bd fdb7 543d fccd cc3d
00000170: db19 abbc 9ded 92bd e362 c33d e02d 86bc
00000180: d120 3b3d d7aa 283c ec93 1c3c 4365 dfbb
00000190: e2b2 c13c 2c85 df3c 169e be3d d08d d13b
000001a0: 7237 9c3d 66d3 a43d b8a0 96bd 922d cdbc
000001b0: 712a 553c 6b38 3f3d 8a17 1b3d ab28 48bd
000001c0: 9287 013d 47cd a8bd 1a97 cb3d f043 5e3d
000001d0: 29e1 873c dcff 08bd a98f 5cbd 36c4 76bd
000001e0: 841a 953c 268c 053d 8783 833d 6607 a2bd
000001f0: a999 203d 848e fe3a a81c 68bd b361 b33d
00000200: 545d e4bc f618 b2bd c88e 213d 39aa dc3d
00000210: f769 cf3d a8c3 b73c 7fe6 9dbd 17eb cc3d
00000220: eb1f cd3d ee23 8c3d 4ff8 3d3c 3f0b 5cba
00000230: f6ed a93d 26c8 9abd 234b 6d3d 0d27 a33d
00000240: de73 dc3d 3e8f 893d 982f 0a3d bb43 b03d
00000250: 9415 453d 7b32 d1bd d97f bebd dcda 59bc
00000260: 2aa8 503d 3cc7 c5bc b619 c23d e365 fdbc
00000270: 70be 20bd bf71 b2bd 577c be3d 4913 94bd
00000280: 5263 96bd dc09 0dbc 95a5 863d 084d 00bc
00000290: f593 b3bd 5bab a9bd 2762 c0bc e3bd c63d
000002a0: 59ab ce3d 98b5 c03d 165f a9ba cb62 87bc
000002b0: 51af 283c d2d5 153d b3d6 043d e058 9a3d
000002c0: c1a5 dabd 8c9c 3dbd f2b8 4a3d 0297 193d
000002d0: a070 30bc 2c4f bebd 3491 ed3c 636c aa3b
000002e0: d445 9abd 71df ac3c b343 8c3d 79e0 cd3d
000002f0: 9ce6 ee3c 1514 3e3c fbeb 363d c982 ca3d
00000300: 7d12 093c 78c8 b43d 5d9e d53d 7603 16bd
00000310: 9bc4 ba3d 3ccd 97bd f379 03bd 3cba 85bd
00000320: bde7 d6bc 4dd2 05bd 64d8 acbd 01f2 c1bb
00000330: c581 913d ac0a 90bd c9bd 68bd 832b 72bd
00000340: 17ba b9bd d58e 81bd dc3f 06bc fb8a 99bd
00000350: f86e 863d 4552 bdbc 3eb1 d03c 93c2 c8bd
00000360: ab33 a73d 01f9 72bc 0fe7 90bc 3c39 073d
00000370: 294a 86bd 0a4e d23d 4906 7f3d 2abd c73b
00000380: d07f 0e3d c0e7 03bd f61d 0ebd 21ee 8abb
00000390: 798a a83c 56dc 45bd 5a86 523d ca35 293d
000003a0: 0d82 f03c a750 66bd f86b 463d 082b 52bc
000003b0: ecd3 2ebd 2227 09bd 5a58 b7bd 51b4 323d
000003c0: 8722 783d 380a afbd c561 93bd f08c de3c
000003d0: 7a8a c0bd 6e1b 1fbd 03b5 90bd 5a6d a2bd
000003e0: 3651 f73b e050 2c3d 5f6e dd3d 3dbe b63c
000003f0: da6e 88bd f135 343c 6bae 7d3d d384 c3bd
0.001096582 -0.0048692757 0.07476673 -0.08308104 0.033689473 -0.06779616 -0.08187682 0.065721974
0.069334865 0.10833418 0.02101506 0.103550814 0.1059343 0.018260252 0.062572606 0.077130996
0.018606395 0.03543019 -0.06693501 -0.048670262 0.012033276 0.07496938 0.08361029 -0.048938986
-0.027240517 -0.03863337 -0.008472927 0.02598445 -0.09965826 -0.081064485 -0.052736312 -0.009319801
0.02009181 -0.10674501 0.0032952446 0.058689404 -0.003982563 -0.091288075 0.04397007 0.069896966
-0.03905453 -0.04725177 -0.04654474 -0.05807435 -0.0019767138 0.07222908 0.014237301 -0.10237722
0.04752574 -0.020848421 -0.09658495 -0.10149214 0.101723045 0.065579064 0.046377312 -0.02462883
0.034366213 0.0006688541 0.047244847 0.01008929 0.05260039 0.019827662 0.0015922451 -0.09879462
0.045936342 -0.08299711 0.050606847 0.05329494 -0.031163406 0.034391135 0.046213873 0.04218583
0.047747646 -0.023041831 -0.07910539 0.03808427 -0.07387528 0.08329432 0.09115436 0.019204313
-0.04785037 -0.030169489 0.006858178 -0.098193824 0.02076431 0.0902396 -0.09221697 -0.10141335
-0.030994304 -0.05669596 0.051933277 0.10000226 -0.020886352 -0.071742274 0.095403455 -0.016379297
0.045685593 0.010294638 0.009556752 -0.0068174913 0.023644868 0.027285181 0.09307496 0.006395079
0.07627763 0.080481336 -0.073548734 -0.025046144 0.013010607 0.046684664 0.037864245 -0.04886691
0.03162343 -0.082422785 0.0994093 0.05426401 0.016586857 -0.03344713 -0.053847943 -0.060245715
0.01820112 0.03260436 0.06421571 -0.079115674 0.03920904 0.0019421135 -0.056667954 0.08758869
-0.027876534 -0.08696167 0.039442807 0.10774655 0.10127633 0.022432163 -0.07709979 0.10005777
0.100158535 0.068427905 0.011594846 -0.000839401 0.082973406 -0.075577065 0.057932984 0.07966433
0.107642874 0.067167744 0.033736795 0.086066686 0.04811628 -0.102147065 -0.09301729 -0.013296809
0.050941624 -0.024142854 0.0947756 -0.030932372 -0.039244115 -0.087131016 0.0930106 -0.07230241
-0.073431626 -0.008608308 0.06574551 -0.007830866 -0.08768455 -0.082846366 -0.023484303 0.09704187
0.10091276 0.09409636 -0.0012922015 -0.0165266 0.010295705 0.036580868 0.032431316 0.07536483
-0.10676146 -0.046291873 0.049492784 0.037497528 -0.010769039 -0.092924446 0.028999902 0.005200909
-0.0753285 0.021102639 0.0684885 0.100525804 0.029162697 0.011601468 0.044658642 0.098882265
0.008366224 0.08827299 0.10430596 -0.036624394 0.09119531 -0.07412192 -0.03209872 -0.06529662
-0.026233548 -0.03267126 -0.08439711 -0.0059187417 0.0710483 -0.070332855 -0.05682162 -0.059123527
-0.09068697 -0.06326071 -0.008193936 -0.074972115 0.06564134 -0.023110518 0.02547514 -0.09802737
0.08164152 -0.014829875 -0.017688302 0.033013567 -0.06557114 0.10268791 0.062261853 0.006095548
0.03478986 -0.032203436 -0.03469654 -0.004239813 0.020573841 -0.04830583 0.05139766 0.041311063
0.029358888 -0.05622926 0.04844281 -0.012827642 -0.042682573 -0.033484586 -0.089523986 0.043628994
0.060579803 -0.08546871 -0.071963824 0.027166814 -0.09401412 -0.03884452 -0.07065775 -0.079310134
0.007547523 0.042069316 0.10812067 0.02230751 -0.06661768 0.010999189 0.061933916 -0.095468186

layer3.0.bias f4 [8]
00000000: 7f2c 12bd 1cad 31bd 3913 893d 1ca8 ed3c
00000010: 7532 e6bc d277 8b3d b81e c93d c5d9 3dbd
-0.035686966 -0.04337798 0.066931196 0.029010825 -0.028100232 0.06809963 0.09820312 -0.04635026
