DigitalRecognition-master/model_params/GDUT_net_all_18.pt (torch, 665623 bytes, 6 tensors)

layer1.0.weight f4 [256, 560]
0.0063929297 -0.037166744 -0.026207434 -0.04197418 -0.018772997 -0.015840702 0.017149016 -0.027672311
-0.026663112 0.00673266 -0.032822944 -0.03528321 0.034454264 0.042215824 0.01678174 -0.035381265
0.040634133 -0.016094603 -0.015025936 -0.0114104785 -0.0100412555 0.028659545 0.020523086 0.012900658
0.019913878 -0.0046828073 -0.023703193 0.04177126 0.02373023 0.034172133 -0.00061727175 0.041037932
0.01827321 0.02619797 -0.0003712817 0.03890815 0.035528354 0.023548633 0.024768718 -0.02980325
0.013099883 -0.02008333 -0.008008022 -0.011154385 -0.012186806 0.018587269 0.026975848 -0.03769472
-0.019164542 -0.019148175 -0.032100905 0.0077093514 -0.024986828 0.0049904627 0.042297438 0.0030610291
0.025797443 0.042056695 -0.021064986 -0.0013683997 0.017432354 0.027933262 -0.0149767045 -0.027543426
-0.0012964007 -0.034238715 0.03833948 0.027130479 -0.03501278 0.010591436 -0.025019638 0.0071383235
0.02628497 0.036159907 0.021412205 -0.009292596 0.014347095 -0.035821736 0.009945679 0.01679803
-0.0327716 -0.026296431 0.037539423 -0.03322333 0.026032982 0.034643188 0.04191485 -0.015805474
0.004856596 -0.02190969 -0.0056178304 0.034410246 -0.0037829655 -0.015076383 0.038609903 0.013563757
-0.004586054 0.009153377 -0.0040036216 -0.036986172 -0.017871395 -0.01377492 0.033836298 0.01868337
-0.02863519 0.036404427 -0.04143444 0.022938723 0.039384466 0.0014534935 -0.0224642 -0.0036030367
0.00924184 -0.013989895 -0.012836835 0.015982265 0.026066972 -0.035387166 0.00383861 0.03033679
-0.019272724 -0.035954494 -0.01424823 -0.02692415 -0.015931798 -0.014346215 -0.02141019 0.03160651
-0.017358555 0.02315883 0.010168646 -0.014258126 0.0021377022 -0.020242296 -0.027866345 0.022230202
0.03873303 -0.034234934 -0.0046377815 -0.017170183 -0.036878187 -0.037982106 0.03109429 0.0112290885
0.0033986259 0.0013948476 0.010265295 0.026964145 0.013149033 -0.040579826 0.017192502 -0.014872549
0.010403472 0.033948414 0.015896117 -0.0052557755 0.018799381 0.02056124 0.013402855 0.0022801757
-0.015712986 0.028794616 0.012176909 -0.009867476 -0.026750633 0.022783538 0.017133756 0.020996818
0.02273936 -0.015375278 -0.021688545 -0.007809772 0.009829891 0.036615055 -0.036154084 0.039684072
0.004187326 0.039935876 0.034720782 0.041796766 -0.041463185 -0.015874727 8.549541e-06 0.024398474
-0.03572041 0.0008130245 0.016452806 -0.033247687 0.030389493 0.034278445 -0.011912907 -0.01130021
-0.014120327 0.042028148 -0.0016051142 -0.0011949078 -0.0071872794 -0.019560335 -0.028116444 -0.03680805
0.014224116 0.021208197 -0.028342914 0.02807532 -0.0068746516 -0.024568861 0.0047518825 0.031063022
-0.012067383 0.009174585 -0.02424269 -0.03145337 0.028107341 -0.007971171 0.0051119816 -0.035409506
-0.040538315 -0.035468224 0.037809413 -0.025286537 -0.04018948 -0.011317303 -0.04185484 -0.029199308
-0.03198106 -0.030980477 0.04171002 0.007497259 -0.011384675 -0.036470503 -0.016634196 -0.00064699707
0.01903894 -0.026338695 0.018837644 -0.013147562 0.00063633296 -0.0068115317 -0.0032372056 0.015442004
-0.011760686 0.02523809 0.005342502 0.036366474 -0.019289866 -0.024108635 0.023140993 0.041350815
-0.039512217 0.016523436 0.03008025 0.036260817 0.014727761 -0.022813102 0.016735157 0.005758707
00000000: c87b d13b 283c 18bd f9b0 d6bc 1eed 2bbd
00000010: d4c9 99bc 5cc4 81bc 187c 8c3c 0bb1 e2bc
00000020: 996c dabc a59d dc3b 5a71 06bd 2185 10bd
00000030: ea1f 0d3d 80ea 2c3d dc79 893c f2eb 10bd
00000040: fa6f 263d d4d8 83bc 582f 76bc 04f3 3abc
00000050: 1484 24bc 6cc7 ea3c 0820 a83c 485d 533c
00000060: 6e22 a33c 3c72 99bb 332d c2bc 5718 2b3d
00000070: e665 c23c 14f8 0b3d 68d0 21ba 6417 283d
00000080: b3b1 953c 209d d63c 96a8 c2b9 275e 1f3d
00000090: 2e86 113d 10e9 c03c c4e7 ca3c f225 f4bc
000000a0: e4a0 563c cc85 a4bc 1434 03bc e2c0 36bc
000000b0: 2bab 47bc 5444 983c 74fc dc3c c765 1abd
000000c0: f5fe 9cbc a2dc 9cbc 3d7c 03bd ba9e fc3b
000000d0: 2db1 ccbc 0987 a33b 1440 2d3d 8c9b 483b
000000e0: 2955 d33c a443 2c3d 7a90 acbc e05b b3ba
000000f0: 4cce 8e3c 4cd4 e43c da60 75bc c0a2 e1bc
00000100: fdeb a9ba e53d 0cbd dc09 1d3d bd40 de3c
00000110: 9069 0fbd b487 2d3c fcf5 ccbc 99e8 e93b
00000120: 9453 d73c 691c 143d a668 af3c f93f 18bc
00000130: 1410 6b3c d0b9 12bd 34f3 223c 069c 893c
00000140: 833b 06bd 9d6b d7bc f0c2 193d 3015 08bd
00000150: 1f43 d53c 04e6 0d3d e8ae 2b3d 7b7a 81bc
00000160: 1424 9f3b f37b b3bc c715 b8bb c2f1 0c3d
00000170: a1eb 77bb ef02 77bc 6b25 1e3d 853a 5e3c
00000180: 9c46 96bb 0cf8 153c d030 83bb d07e 17bd
00000190: 0867 92bc 34b0 61bc ee97 0a3d de0d 993c
000001a0: 5994 eabc cf1c 153d 29b7 29bd fde9 bb3c
000001b0: 9b51 213d 2683 be3a d806 b8bc ed20 6cbb
000001c0: 166b 173c df35 65bc 9751 52bc 3ded 823c
000001d0: 678a d53c 22f2 10bd 3091 7b3b dc84 f83c
000001e0: d5e1 9dbc 0545 13bd 6871 69bc 0990 dcbc
000001f0: 6783 82bc 630c 6bbc 6c64 afbc d475 013d
00000200: 8733 8ebc 96b7 bd3c 659a 263c ea9a 69bc
00000210: b118 0c3b 2cd3 a5bc f647 e4bc 1d1c b63c
00000220: 87a6 1e3d ee39 0cbd 88f8 97bb 7ca8 8cbc
00000230: 950d 17bd 2093 1bbd 74b9 fe3c 36fa 373c
00000240: 7bbb 5e3b 52d3 b63a c52f 283c e9e3 dc3c
00000250: 0b6f 573c 0837 26bd 4ad7 8c3c feab 73bc
00000260: 5373 2a3c 7e0d 0b3d 9338 823c a438 acbb
00000270: 2901 9a3c 0c70 a83c a697 5b3c 006f 153b
00000280: 85b8 80bc b0e2 eb3c a881 473c 32ab 21bc
00000290: 2524 dbbc 8ba4 ba3c 175c 8c3c 8501 ac3c
000002a0: e547 ba3c 97e8 7bbc 2dac b1bc 1ee9 ffbb
000002b0: 8d0d 213c abf9 153d 4e16 14bd c48b 223d
000002c0: d635 893b cd93 233d 6137 0e3d 1633 2b3d
000002d0: 4dd5 29bd b70b 82bc 0070 0f37 4fdf c73c
000002e0: 914f 12bd 2721 553a 09c8 863c ba2e 08bd
000002f0: 63f3 f83c 8e67 0c3d 5a2e 43bc 8424 39bc
00000300: f258 67bc b525 2c3d b262 d2ba 749e 9cba
00000310: 4583 ebbb ff3c a0bc 7554 e6bc 0ac4 16bd
00000320: 440c 693c d0bc ad3c 662f e8bc 37fe e53c
00000330: c244 e1bb a344 c9bc aeb5 9b3b e177 fe3c
00000340: 46b6 45bc 0051 163c 9b98 c6bc 40d5 00bd
00000350: 5e41 e63c 8499 02bc 6982 a73b 8f09 11bd
00000360: 810b 26bd 2147 11bd 0bde 1a3d b625 cfbc
00000370: b99d 24bd 366c 39bc fb6f 2bbd 6333 efbc
00000380: 92fe 02bd c5ca fdbc 20d8 2a3d 91ab f53b
00000390: ca86 3abc 1862 15bd 7044 88bc 3d9b 29ba
000003a0: 8df7 9b3c 3fc4 d7bc 6751 9a3c df68 57bc
000003b0: 95cf 263a 4533 dfbb 4c27 54bb 7600 7d3c
000003c0: e4af 40bc 1cc0 ce3c 2810 af3b 03f5 143d
000003d0: c805 9ebc 797f c5bc 2e92 bd3c 795f 293d
000003e0: 90d7 21bd 285c 873c db6a f63c 3986 143d
000003f0: b54c 713c 8be2 babc 2b18 893c 89b3 bc3b

layer1.0.bias f4 [256]
0.016490282 0.025610512 -0.039809044 0.020231582 -0.04177596 -0.0243124 -0.014224639 0.025538726
0.037499882 -0.03401717 -0.034045618 -0.040850013 -0.03746925 0.027178824 -0.012951136 0.034649484
-0.024008866 0.036029022 -0.010344809 -0.019245552 0.0031618066 -0.03140612 -0.028728055 -0.021876061
0.029484259 -0.03529607 0.03397558 -0.03303036 -0.025147617 0.029986363 0.0005114188 -0.026397988
-0.03383931 -0.017934501 0.020905545 -0.03283835 0.026213367 -0.019999696 -0.023688111 0.035389017
-0.028995555 -0.026261948 0.011990833 0.017600287 0.018267883 -0.00089309894 -0.021990953 0.022984479
-0.029275427 0.032552455 0.012721855 -0.010443858 -0.011291506 0.015936362 0.0028187037 -0.04148204
-0.012064552 -0.01631258 0.02022366 -0.023829004 -0.030580591 0.037643984 0.0051962025 -0.021273373
-0.014774523 -0.020879615 -0.025141269 0.029053394 -0.029836018 -0.024010018 0.041442182 0.017779393
0.026442414 -0.037020076 -0.030583814 0.04100923 0.025419125 0.0063028117 0.027971445 0.004163027
0.03049346 -0.00054012594 0.034610044 -0.029358013 0.012668567 0.018543022 -0.04089215 -0.02726845
0.026989201 -0.021567237 -0.034550197 0.0021178266 0.01655904 0.030754793 0.0032635853 -0.022371588
-0.009970294 -0.012597338 0.009983991 -0.005691768 0.00041995253 -0.030596707 -0.022231573 0.028912878
0.001626483 -0.020908367 -0.010145152 0.04026576 0.023044797 0.010977328 -0.040116627 -0.027195254
-0.0032282427 0.03044507 -0.000986794 -0.0066028126 0.0275332 0.01700253 0.01609701 0.017119436
-0.024571212 0.004054454 -0.02755095 -0.030220924 -0.0020210627 -0.01568582 -0.03543321 0.014803912
-0.02305397 0.02669541 0.002313192 -0.037482806 0.025170468 0.0036750196 0.020117104 -0.025528343
0.035359055 0.0025882802 -0.0370652 0.007755902 -0.0076000486 0.03556978 0.022807864 -0.015498637
0.016074456 -0.03989373 -0.01154369 -0.003480016 -0.004693804 -0.03330136 -0.024434764 -0.002527111
-0.037086975 -0.03400031 -0.04139153 -0.0074925604 0.0035747872 -0.018947208 -0.011508238 -0.034320056
0.01609806 0.027881108 -0.035292007 -0.0059014447 -0.016508296 -0.004568194 0.03387513 0.004985146
-0.033522755 -0.017509246 0.03075583 0.041768048 0.028071715 -0.018157903 -0.016785035 -0.032411616
0.024807805 0.015732534 -0.020549698 -0.027115626 0.036767084 0.018359719 -0.0110568 0.01129195
0.0048485845 -0.033469237 -0.031121075 0.039235864 -0.029819159 -0.022683935 0.007941193 0.02958411
-0.009617144 0.034688503 -0.00984436 -0.025853567 0.020060139 -0.039784946 -0.02904209 0.034439
0.0107558975 -0.009150837 0.041847765 0.022101637 -0.020360313 -0.02306278 0.0020047456 0.014292322
0.041322954 0.0063194353 0.012809859 -0.029715661 -0.03771558 -0.01931689 -0.02327853 0.0034366634
0.03919445 0.027788969 -0.039465874 -0.030711954 0.040212367 -0.0009808709 -0.00010077862 -0.009289307
-0.0133545995 0.013400868 -0.009904819 0.012840823 0.022552758 -0.008638246 0.028291615 0.008675681
-0.023134058 -0.036683686 0.01744808 0.022531997 -0.03970359 -0.013251568 -0.040931083 0.027552847
-0.027126288 0.037567087 -0.017795753 -0.025247062 -0.0066621727 -0.015798397 -0.009224373 0.032475848
-0.04070235 -0.0049557663 0.014921611 -0.031515718 0.040307656 -0.03559829 0.033981856 -0.013461364
00000000: a116 873c 23cd d13c cf0e 23bd b4bc a53c
00000010: 451d 2bbd cc2a c7bc 760e 69bc 9736 d13c
00000020: 7a99 193d 9755 0bbd 6b73 0bbd 5852 27bd
00000030: 5b79 19bd 20a6 de3c 0031 54bc 9eec 0d3d
00000040: 3eae c4bc 2b93 133d 467d 29bc d9a8 9dbc
00000050: 5036 4f3b b4a3 00bd 1957 ebbc 6d35 b3bc
00000060: f988 f13c 9d92 10bd fa29 0b3d d84a 07bd
00000070: 6002 cebc f6a5 f53c bc10 063a 9840 d8bc
00000080: 179b 0abd 60eb 92bc 1b42 ab3c 8181 06bd
00000090: 6abd d63c 67d6 a3bc 920d c2bc 13f4 103d
000000a0: 1688 edbc 4c23 d7bc 3375 443c 7a2e 903c
000000b0: 87a6 953c db1e 6aba 5f26 b4bc f249 bc3c
000000c0: 05d3 efbc b955 053d 546f 503c b71c 2bbc
000000d0: 0200 39bc f98c 823c 00ba 383b 12e9 29bd
000000e0: 66aa 45bc f6a1 85bc 17ac a53c 0b35 c3bc
000000f0: 2684 fabc 9430 1a3d e844 aa3b 7f45 aebc
00000100: d710 72bc ba0b abbc 10f5 cdbc 6201 ee3c
00000110: aa6a f4bc a8b0 c4bc 47bf 293d 17a6 913c
00000120: c39d d83c 5da2 17bd e88a fabc 4bf9 273d
00000130: c53b d03c d187 ce3b 5f24 e53c 006a 883b
00000140: 6ccd f93c 3d97 0dba 43c3 0d3d 3780 f0bc
00000150: d28f 4f3c 89e7 973c 877e 27bd 1662 dfbc
00000160: 7518 dd3c c6ad b0bc 8284 0dbd 3ccb 0a3b
00000170: d3a6 873c 7af1 fb3c e0e1 553b 9f44 b7bc
00000180: 725a 23bc 1165 4ebc e593 233c 0382 babb
00000190: 132d dc39 f2a5 fabc fd1e b6bc b3da ec3c
000001a0: b72f d53a 0648 abbc da37 26bc b6ed 243d
000001b0: 71c8 bc3c 40da 333c 5551 24bd 95c8 debc
000001c0: ed90 53bb f067 f93c 5057 81ba 685c d8bb
000001d0: 4e8d e13c e448 8b3c e0dd 833c 0f3e 8c3c
000001e0: 9149 c9bc 3adb 843b 88b2 e1bc df91 f7bc
000001f0: ce73 04bb 8c7f 80bc 6a22 11bd 1b8c 723c
00000200: aedb bcbc 55b0 da3c ec98 173b 9287 19bd
00000210: 4c32 ce3c 99d8 703b a0cc a43c d120 d1bc
00000220: a8d4 103d 23a0 293b aed1 17bd 3925 fe3b
00000230: d409 f9bb 9eb1 113d 8fd7 ba3c ffed 7dbc
00000240: 94ae 833c 9c67 23bd bf21 3dbc fb10 64bb
00000250: 7bce 99bb 0267 08bd 6a2b c8bc e39d 25bb
00000260: 83e8 17bd e943 0bbd 2a8a 29bd 2784 f5bb
00000270: fa46 6a3b 2d37 9bbc 0c8d 3cbc 3093 0cbd
00000280: 14e0 833c ec66 e43c 5a8e 10bd e860 c1bb
00000290: 683c 87bc cab0 95bb a6c0 0a3d 705a a33b
000002a0: 284f 09bd 8d6f 8fbc a7f3 fb3c f914 2b3d
000002b0: a7f6 e53c e2bf 94bc c580 89bc 0bc2 04bd
000002c0: bd39 cb3c 84e1 803c d757 a8bc 9721 debc
000002d0: 1599 163d 1f67 963c 9527 35bc df01 393c
000002e0: e0e0 9e3b 0a17 09bd a0f1 febc c9b5 203d
000002f0: 4f47 f4bc a9d3 b9bc c71b 023c 605a f23c
00000300: 3a91 1dbc 8815 0e3d 3d4a 21bc dcca d3bc
00000310: 2955 a43c 8af5 22bd ade9 edbc e90f 0d3d
00000320: 8139 303c 64ed 15bc 9068 2b3d 7e0e b53c
00000330: acca a6bc 28ee bcbc 0d62 033b 582a 6a3c
00000340: 4242 293d 4413 cf3b 71e0 513c 426e f3bc
00000350: a77b 1abd 743e 9ebc 9eb2 bebc a539 613b
00000360: 5c8a 203d b1a5 e33c f8a6 21bd a397 fbbc
00000370: b9b5 243d 9190 80ba 1c59 d3b8 2d32 18bc
00000380: 40cd 5abc 508f 5b3c d247 22bc 5162 523c
00000390: 90c0 b83c 6e87 0dbc d1c3 e73c 7224 0e3c
000003a0: a383 bdbc a241 16bd 47ef 8e3c 0695 b83c
000003b0: 3ba0 22bd 1b1d 59bc 5aa7 27bd 82b6 e13c
000003c0: f337 debc f2df 193d 66c8 91bc edd2 cebc
000003d0: 5b4e dabb a46b 81bc d321 17bc 6505 053d
000003e0: 82b7 26bd fb63 a2bb c679 743c a016 01bd
000003f0: a419 253d 83cf 11bd 8f30 0b3d 0e8d 5cbc

layer2.0.weight f4 [84, 256]
0.041677326 0.057501044 0.01754695 0.049811676 -0.053458493 0.056126148 0.01666456 -0.049814552
-0.055367485 -0.036562487 -0.04385407 0.05026597 -0.0046909824 0.052865326 0.001620366 0.037739716
-0.007424229 0.059079003 0.030569412 0.046019275 -0.024816979 -0.053820007 -0.054723885 0.00907043
0.046000227 -0.027291812 0.0592956 0.061920624 -0.017051246 0.006932694 -0.042509392 0.02381959
0.016877018 -0.024499761 -0.00749323 0.010904046 -0.045845155 -0.021667562 -0.027508954 0.029678414
0.019619519 -0.042312764 -0.010549889 0.04786709 -0.046252955 0.011593791 -0.035636906 0.035313535
0.061974615 0.016203148 -0.042771835 -0.02088927 0.038507454 0.04247293 -0.036481276 0.030534036
0.01722126 0.040215544 -0.03229526 -0.0580139 -0.049207803 0.045235805 -0.059388593 -0.0626352
-0.05694138 -0.017289005 0.018272301 -0.0343693 -0.009708181 -0.02071942 -0.016378831 -0.051589966
0.024116071 -0.0399971 -0.0474642 0.0394548 -0.0017691128 -0.062500775 -0.045823187 0.017722374
-0.024675474 -0.05325733 0.028523235 0.03878869 -0.0033556775 0.046263386 0.005071322 -0.018223997
-0.020650014 0.02169742 -0.017044663 0.046497505 -0.049533162 -0.023863096 0.061436284 0.022153612
0.03661576 0.0055890535 -0.006202823 -0.045989867 0.0076304222 0.030389832 0.05101041 -0.048025325
-0.030970335 -0.04410255 0.032864384 0.0014596921 0.04233258 0.02495242 0.054485887 -0.0011848653
-0.04797406 0.025176832 -0.055348154 -0.042454895 -0.01225096 -0.003611377 0.003988591 -0.007279771
-0.03520751 -0.028702304 -0.029464243 0.008701975 0.061614975 -0.031165455 -0.04455423 -0.021919904
-0.05164851 0.054165408 -0.029442186 -0.029319832 -0.05450995 0.026584644 0.0557888 0.03144571
-0.027451476 -0.0094528375 0.029246846 -0.04105882 -0.018280696 0.05998991 0.025910685 -0.028208029
0.03625679 0.018672934 0.0076780873 0.052645303 -0.0029133658 -0.035507068 -0.03141993 -0.02527291
0.026981827 0.018377505 -0.008206546 -0.015223387 -0.04394415 -0.037860055 -0.062688574 -0.03314073
0.038516082 0.013405086 0.05245766 -0.016527286 0.012061617 -0.03884716 -0.0038835257 -0.017586743
0.021673486 -0.00970599 0.0069677206 -0.028149026 -0.003904022 -0.034493137 0.035977058 0.02321898
-0.05631339 -0.010642089 -0.032342628 -0.04870508 -0.036704667 0.059677757 0.0358051 0.03089771
-0.010468034 0.05853745 0.034090806 0.04177821 -0.010775735 0.005872724 0.034850534 0.0064848
0.03292568 -0.05590728 0.012334876 0.011181572 -0.051409874 -0.060840975 0.043971468 0.033193104
-0.014975676 0.057537887 0.031247158 0.025443885 -0.03201875 -0.0011078129 -0.044294257 -0.025329605
-0.025360221 0.017068913 -0.039983653 -0.049173344 0.049432404 -0.04009078 -0.004718442 0.023459349
0.01884608 -0.046789173 -0.0018199242 -0.002496488 0.015009397 0.04287874 0.010213577 0.03419145
-0.040052343 0.055663206 -0.00277457 -0.038395327 0.016684158 -0.017458059 -0.019063741 -0.04970861
-0.029468209 -0.015057434 -0.014731344 -0.03304625 0.04672165 -0.016610824 -0.0151021425 -0.041033193
-0.02937203 0.00498001 -0.03265024 0.03620765 -0.061386183 -0.037261985 0.035263248 0.019370584
-0.0032434464 0.028810406 -0.05526811 0.03757128 0.033374324 0.045880713 -0.00035482738 0.02216111
00000000: d8b5 2a3d 3786 6b3d 9fbe 8f3c 5407 4c3d
00000010: 4bf7 5abd 88e4 653d 1e84 883c 580a 4cbd
00000020: 04c9 62bd 8cc2 15bd 53a0 33bd b1e3 4d3d
00000030: d0b6 99bb 5089 583d 7662 d43a f694 1a3d
00000040: f246 f3bb d3fc 713d b46c fa3c b57e 3c3d
00000050: fa4c cbbc 5e72 5cbd 2726 60bd 249c 143c
00000060: bc6a 3c3d 1493 dfbc f1df 723d 7ba0 7d3d
00000070: 0eaf 8bbc a72b e33b 541e 2ebd 4d21 c33c
00000080: ac41 8a3c b9b3 c8bc c589 f5bb e2a6 323c
00000090: 21c8 3bbd 2c80 b1bc 755a e1bc 2520 f33c
000000a0: 1db9 a03c 2650 2dbd 71d9 2cbc 4810 443d
000000b0: bd73 3dbd e2f3 3d3c 01f8 11bd eda4 103d
000000c0: 18d9 7d3d 77bc 843c 8531 2fbd f91f abbc
000000d0: feb9 1d3d 18f8 2d3d 646d 15bd 8422 fa3c
000000e0: 9a13 8d3c 0eb9 243d 0948 04bd fc9f 6dbd
000000f0: 1f8e 49bd 2e49 393d 7441 73bd e246 80bd
00000100: 5d3b 69bd aca1 8dbc cbaf 953c d3c6 0cbd
00000110: 100f 1fbc c6bb a9bc e62c 86bc 0050 53bd
00000120: 118f c53c 00d4 23bd d269 42bd 5b9b 213d
00000130: 93e1 e7ba 6800 80bd 18b1 3bbd 832e 913c
00000140: 3824 cabc 5c24 5abd 8fa9 e93c e4e0 1e3d
00000150: edea 5bbb ad7e 3d3d 552d a63b 7e4a 95bc
00000160: 382a a9bc cabe b13c 40a1 8bbc 2b74 3e3d
00000170: 49e3 4abd 8a7c c3bc 9da4 7b3d 7e7b b53c
00000180: 68fa 153d 6124 b73b 0d41 cbbb df5f 3cbd
00000190: 9f08 fa3b 19f4 f83c 4bf0 503d 34b6 44bd
000001a0: 80b5 fdbc e0a4 34bd ce9c 063d 2453 bf3a
000001b0: ed64 2d3d 0469 cc3c 982c 5f3d 7b4d 9bba
000001c0: 7380 44bd a53f ce3c bfb4 62bd 2fe5 2dbd
000001d0: 40b8 48bc daac 6cbb bab2 823b 258b eebb
000001e0: c035 10bd 1821 ebbc ff5e f1bc bb92 0e3c
000001f0: fc5f 7c3d b24e ffbc 7f7e 36bd 5f91 b3bc
00000200: 638d 53bd 8cdc 5d3d bd30 f1bc 2530 f0bc
00000210: d345 5fbd 0ac8 d93c cc82 643d 38cd 003d
00000220: ebe1 e0bc 13e0 1abc 1597 ef3c 4b2d 28bd
00000230: 66c1 95bc fbb7 753d a542 d43c 8614 e7bc
00000240: 0082 143d fbf7 983c 7798 fb3b 9aa2 573d
00000250: 2bee 3ebb dc6f 11bd 2fb2 00bd 2209 cfbc
00000260: fe08 dd3c 6c8c 963c c074 06bc 836b 79bc
00000270: c8fe 33bd 2513 1bbd de62 80bd 93be 07bd
00000280: 0ac3 1d3d 01a1 5b3c d8dd 563d 3b64 87bc
00000290: 179e 453c 331e 1fbd c082 7ebb 1312 90bc
000002a0: 988c b13c df05 1fbc 7a51 e43b c998 e6bc
000002b0: 9fda 7fbb ad48 0dbd ae5c 133d bb35 be3c
000002c0: dfa8 66bd 285c 2ebc b479 04bd fa7e 47bd
000002d0: a257 16bd aa70 743d 5ea8 123d 321d fd3c
000002e0: 1e82 2bbc f7c4 6f3d cda2 0b3d a11f 2b3d
000002f0: b58c 30bc fb6f c03b 6fbf 0e3d 727e d43b
00000300: 14dd 063d 08ff 64bd 3818 4a3c ea32 373c
00000310: 2993 52bd 6334 79bd 6d1b 343d 7ef5 073d
00000320: 8a5c 75bc d9ac 6b3d 0afa ff3c b26f d03c
00000330: 1826 03bd 0834 91ba e56d 35bd 0880 cfbc
00000340: 3dc0 cfbc 1bd4 8b3c e6c5 23bd fd69 49bd
00000350: a279 4a3d 3b36 24bd 299d 9abb d22d c03c
00000360: 1863 9a3c 01a6 3fbd 868a eeba 1e9c 23bb
00000370: f9e9 753c 9ea1 2f3d d956 273c 550c 0c3d
00000380: ed0d 24bd 1aff 633d 8fd5 35bb 6b44 1dbd
00000390: 37ad 883c 3404 8fbc 902b 9cbc 419b 4bbd
000003a0: 5067 f1bc 75b3 76bc bc5b 71bc 815b 07bd
000003b0: 335f 3f3d 6c13 88bc fa6e 77bc 6c12 28bd
000003c0: 9d9d f0bc 5a2f a33b 42bc 05bd 794e 143d
000003d0: 1470 7bbd 06a0 18bd 3270 103d 0faf 9e3c
000003e0: 0090 54bb cd03 ec3c d060 62bd 58e4 193d
000003f0: 84b3 083d 6aed 3b3d 2008 bab9 378b b53c

layer2.0.bias f4 [84]
0.021123908 -0.041490175 -0.0599858 -0.058137633 0.059687663 0.005904352 0.00071509375 0.0080776885
-0.056357693 -0.052980006 -0.021220665 0.04621018 -0.014506566 0.04271147 0.058800016 0.023632027
0.014337396 -0.032537717 0.045418113 -0.044944625 -0.039242957 0.024643317 0.040532723 -0.02818557
-0.039939545 -0.055205934 0.05258548 -0.0065218443 0.046558827 0.02374039 -0.048721626 -0.02223204
-0.010546145 -0.045953307 -0.021226773 -0.030943314 -0.0013189907 0.010495783 -0.060264066 -0.023051124
-0.030525235 -0.032463975 -0.036229722 0.02611843 0.020704256 0.0089276 0.0048069754 -0.03802256
0.015137253 -0.05637711 0.007414177 -0.051960487 -0.015742192 -0.054279007 -0.009570478 -0.01338372
-0.031954847 0.041307047 0.0017732402 -0.0035249235 0.057726033 -0.03271628 0.036214408 -0.0156188905
-0.028396672 0.00934394 0.023436828 0.032929204 -0.036855157 0.0062210886 -0.0035155583 0.0034939642
0.021404559 0.005564965 0.06097883 -0.05534528 -0.052747656 -0.0459751 0.028224712 0.016392766
-0.057387095 -0.011902542 -0.014438937 0.021817274
00000000: 0c0c ad3c 9af1 29bd acb3 75bd ba21 6ebd
00000010: 0d7b 743d 4b79 c13b 2175 3b3a 4858 043c
00000020: 53d7 66bd 9001 59bd f6d6 adbc e346 3d3d
00000030: f3ac 6dbc 39f2 2e3d 49d8 703d f497 c13c
00000040: 66e7 6a3c 4546 05bd 5808 3a3d db17 38bd
00000050: 39bd 20bd c8e0 c93c a405 263d 6de5 e6bc
00000060: a697 23bd 9e1f 62bd df63 573d 32b5 d5bb
00000070: 78b4 3e3d 357b c23c 5490 47bd f81f b6bc
00000080: bdc9 2cbc 8939 3cbd c5e3 adbc d57c fdbc
00000090: fce1 acba 81f6 2b3c 74d7 76bd b6d5 bcbc
000000a0: 0f10 fabc f2f8 04bd 9e65 14bd 51f6 d53c
000000b0: f99b a93c 1245 123c d583 9d3b 8bbd 1bbd
000000c0: 3e02 783c afeb 66bd a0f2 f23b 85d4 54bd
000000d0: c5f5 80bc aa53 5ebd 7fcd 1cbc 6447 5bbc
000000e0: 16e3 02bd 9431 293d 116c e83a 6702 67bb
000000f0: 2272 6c3d 8201 06bd 8f55 143d 60e6 7fbc
00000100: 23a0 e8bc 5317 193c 97fe bf3c c6e0 063d
00000110: 6ff5 16bd 46da cb3b 4865 66bb fefa 643b
00000120: 9d58 af3c 4f5a b63b f0c4 793d bbb1 62bd
00000130: ed0d 58bd 6350 3cbd 8337 e73c 1f4a 863c
00000140: bb0e 6bbd e102 43bc 4b91 6cbc 24ba b23c

layer3.0.weight f4 [8, 84]
-0.10062394 0.046827536 -0.022842105 -0.076895446 -0.013573413 0.00493044 0.06736328 -0.09951309
0.03801001 -0.05587072 0.09838071 0.024319125 0.08567713 -0.060919996 -0.07380655 0.073776
0.013230183 -0.089582056 -0.0073137577 0.0002467818 0.104332246 0.10198852 0.03717391 -0.00865601
0.097869776 -0.078297585 -0.024857821 0.037657827 -0.02759274 -0.09758813 -0.06773212 0.027943932
0.09251886 -0.030463686 -0.091547005 -0.07401952 0.085033916 -0.0552082 0.016235543 -0.019805046
-0.0059549264 -0.01849641 0.008535176 -0.039158896 -0.09689568 0.016127234 0.097544305 0.067731306
-0.03435193 0.009831089 0.06762556 0.10529663 -0.0731978 0.09352289 0.011801217 -0.07050461
0.09775411 0.032662358 0.07325272 -0.046484664 0.09627223 -0.0026138667 -0.10392689 -0.024617441
-0.096770056 -0.030814387 -0.04957727 -0.015096923 -0.09385508 -0.038166836 0.10483289 0.06953067
0.03256786 -0.062238615 -0.0004936895 -0.038201977 -0.026648639 0.0265865 0.04509197 -0.04764038
-0.036189124 -0.05798854 -0.05233296 0.08578149 0.04894994 -0.026546124 -0.041786794 0.007969551
-0.03127587 -0.008458058 -0.0766429 0.05998128 0.05907231 -0.056148 0.059313703 -0.08742801
-0.018414464 -0.004794928 -0.012611068 0.030543042 -0.0017899944 -0.089389265 0.043707304 0.057899766
-0.049910747 0.078210525 -0.010137291 -0.0027714605 -0.06677342 0.07108731 -0.101928376 -0.066697106
0.09144443 0.10097237 -0.07498664 0.040298726 -0.079308175 0.10567651 -0.07264041 -0.080975875
-0.013497863 0.005017941 0.030241108 -0.008862198 -0.045599204 0.061685197 0.093338445 -0.09746103
-0.038380265 -0.04114902 -0.017226396 0.089959815 0.06282646 -0.09656866 0.020583201 0.04523135
0.10331738 -0.05627762 0.059435334 0.044971425 0.08845472 -0.009275545 0.097903125 -0.02859534
-0.01905567 0.08393171 -0.09769353 0.086808294 -0.09879413 0.0854512 -0.04258949 0.01923819
0.027278285 0.022313148 0.03687287 0.07505127 -0.09728396 -0.025043482 0.010589699 0.004126587
0.07116582 -0.0013762262 0.03685197 0.04837922 -0.06970296 -0.022771152 -0.087033376 0.0564124
-0.09777727 -0.010570863 -0.043619845 -0.0774097 0.09142594 -0.058816694 0.047716867 0.047224768
0.07102039 0.01184639 -0.058499254 0.08824201 -0.083873965 0.074281074 -0.08313517 -0.07441025
0.10830724 -0.06808452 -0.06931121 0.053753298 0.09353507 -0.017052248 -0.039918866 -0.08699409
-0.100296944 -0.028043557 0.053516395 0.025709338 0.04283387 0.03168516 0.09463245 0.05728834
0.03188812 -0.048412487 0.08934279 -0.033384852 0.08553567 -0.10444057 0.08227761 0.015643492
-0.09128641 -0.03567744 -0.055924628 -0.07519014 0.009288795 -0.025131624 -0.079270795 -0.078553885
-0.04067047 -0.086448796 0.02646781 0.0080978945 -0.034310337 -0.004059135 0.010610662 0.045930855
-0.100520074 0.05688894 -0.08224369 -0.008094307 -0.10807827 0.08812727 0.028544273 -0.036336914
0.046701156 -0.030681524 0.012093004 -0.01061826 0.061886396 -0.013214163 -0.013654626 -0.033897184
0.10455912 0.09095301 0.057177376 0.044819623 -0.104310334 -0.056286525 -0.06730259 -0.06941276
-0.039647926 0.072381206 -0.06393308 0.03356619 0.09529934 0.09917923 -0.033167493 -0.08943292
00000000: ed13 cebd 3bce 3f3d 5e1f bbbc 5c7b 9dbd
00000010: 0563 5ebc 878f a13b c2f5 893d 85cd cbbd
00000020: 62b0 1b3d b2d8 64bd d37b c93d e738 c73c
00000030: 7e77 af3d 3f87 79bd e327 97bd df17 973d
00000040: 69c3 583c cc76 b7bd 3fa8 efbb 7e62 8139
00000050: 25ac d53d 5bdf d03d ab43 183d f0d1 0dbc
00000060: f36f c83d 7c5a a0bd a1a2 cbbc 183f 1a3d
00000070: 2b0a e2bc 49dc c7bd 23b7 8abd acea e43c
00000080: 877a bd3d fb8e f9bc ff7c bbbd 8c97 97bd
00000090: 4326 ae3d fe21 62bd 6700 853c 313e a2bc
000000a0: 8b21 c3bb c985 97bc 1fd7 0b3c 1465 20bd
000000b0: 3e71 c6bd 431d 843c 4fc5 c73d b6b6 8a3d
000000c0: 9cb4 0cbd 9312 213c 457f 8a3d c2a5 d73d
000000d0: bae8 95bd ee88 bf3d e459 413c b964 90bd
000000e0: 4f33 c83d f7c8 053d 8605 963d b466 3ebd
000000f0: 602a c53d 684d 2bbb 9fd7 d4bd 84aa c9bc
00000100: 612f c6bd 746e fcbc 8911 4bbd 1659 77bc
00000110: 1837 c0bd d454 1cbd a0b2 d63d 1966 8e3d
00000120: e065 053d ebed 7ebd f16a 01ba ad79 1cbd
00000130: 3f4e dabc efcb d93c 5cb2 383d 8f22 43bd
00000140: 0c3b 14bd 6485 6dbd 165b 56bd 35ae af3d
00000150: bb7f 483d 4277 d9bc a128 2bbd b892 023c
00000160: 201b 00bd ab93 0abc f4f6 9cbd eeae 753d
00000170: cef5 713d 72fb 65bd edf2 723d 750d b3bd
00000180: eed9 96bc c51e 9dbb a79e 4ebc 6735 fa3c
00000190: 3f9e eaba b811 b7bd 6e06 333d 4e28 6d3d
000001a0: 366f 4cbd d72c a03d e116 26bc 64a1 35bb
000001b0: 81c0 88bd 3996 913d d3bf d0bd 7e98 88bd
000001c0: 3847 bb3d 9aca ce3d 9892 99bd 4710 253d
000001d0: 536c a2bd ed6c d83d 7fc4 94bd aed6 a5bd
000001e0: 2426 5dbc 8a6d a43b 33bc f73c c132 11bc
000001f0: 3bc6 3abd 9ea9 7c3d 3a28 bf3d a699 c7bd
00000200: a034 1dbd e08b 28bd 5f1e 8dbc da3c b83d
00000210: 29ab 803d cac5 c5bd 1a9e a83c 8244 393d
00000220: 1098 d33d 5d83 66bd 7772 733d f533 383d
00000230: c027 b53d 75f8 17bc 6f81 c83d c640 eabc
00000240: a31a 9cbc 63e4 ab3d 8c13 c8bd 8cc8 b13d
00000250: 9454 cabd 0a01 af3d 5172 2ebd 6999 9d3c
00000260: b676 df3c 10ca b63c 0208 173d 7bb4 993d
00000270: d03c c7bd fd27 cdbc 6b80 2d3c 5238 873b
00000280: 63bf 913d 7d62 b4ba 17f2 163d 4a29 463d
00000290: 6dc0 8ebd 918a babc 8e3e b2bd b010 673d
000002a0: 733f c8bd 6a31 2dbc b9aa 32bd fa88 9ebd
000002b0: 863d bb3d c6e9 70bd c372 433d c26e 413d
000002c0: 2373 913d 5c17 423c ea9c 6fbd 3ab8 b43d
000002d0: 1dc6 abbd ad20 983d c642 aabd 6764 98bd
000002e0: 30d0 dd3d e66f 8bbd 09f3 8dbd 6b2c 5c3d
000002f0: 518f bf3d 28b1 8bbc f781 23bd f529 b2bd
00000300: 7c68 cdbd 9abb e5bc 0234 5b3d 649c d23c
00000310: 9172 2f3d 4cc8 013d a8ce c13d 2ea7 6a3d
00000320: 1e9d 023d 2c4c 46bd 5af9 b63d 8ebe 08bd
00000330: 532d af3d f0e4 d5bd 2a81 a83d c826 803c
00000340: 5ff4 babd 8222 12bd 3911 65bd 4afd 99bd
00000350: 0830 183c d6e0 cdbc ba58 a2bd dce0 a0bd
00000360: 1496 26bd 110c b1bd 05d3 d83c 08ad 043c
00000370: ff88 0cbd 7e02 85bb 58d8 2d3c fe21 3c3d
00000380: 78dd cdbd 6104 693d 616f a8bd fc9d 04bc
00000390: 2458 ddbd 127c b43d aed5 e93c 04d6 14bd
000003a0: b649 3f3d d257 fbbc bc21 463c 36f8 2dbc
000003b0: 977c 7d3d 3780 58bc a7b7 5fbc c6d7 0abd
000003c0: 1823 d63d 9245 ba3d d332 6a3d c894 373d
000003d0: a8a0 d5bd b38c 66bd f1d5 89bd 4728 8ebd
000003e0: dd65 22bd 993c 943d 59ef 82bd b47c 093d
000003f0: 4d2c c33d 7b1e cb3d a3da 07bd 9b28 b7bd

layer3.0.bias f4 [8]
0.02181067 -0.0037414602 -0.04873677 -0.022291565 0.099632196 0.000525025 0.070849866 0.071234636
00000000: 4aac b23c 4933 75bb 35a0 47bd cd9c b6bc
00000010: f70b cc3d d5a1 093a bc19 913d 77e3 913d
