DigitalRecognition-master/model_params/GDUT_net_all_2.pt (torch, 665623 bytes, 6 tensors)

layer1.0.weight f4 [256, 560]
0	0x3d2c39d4	0.042047337
1	0x3d04712c	0.03233449
2	0x3b51d480	0.003201753
3	0xbcc88b5e	-0.024480518
4	0xbc9d6ac3	-0.019215947
5	0xbcf46484	-0.029833086
6	0x3d2b7b3a	0.041865565
7	0xbcfdbaa5	-0.030972788
8	0xbcacbf9d	-0.021087462
9	0xbd075c9c	-0.033047304
10	0x3cc41160	0.023934066
11	0xbcf3e116	-0.029770415
12	0xbd1bd330	-0.0380432
13	0xbc96d403	-0.018411642
14	0x3ca44ee4	0.02005715
15	0x3d0d1acc	0.034449384
16	0x3d206b2c	0.039164707
17	0xbc9017fb	-0.01758956
18	0x3d26fc90	0.040768206
19	0xbc869003	-0.016426092
20	0xbc800758	-0.015628502
21	0x3b8a31b8	0.0042173527
22	0xbd24e5ef	-0.040258344
23	0xbc53b48c	-0.012921464
24	0x3b0ac5ad	0.0021174953
25	0x3ccd0d97	0.025030894
26	0xbcf28b00	-0.029607296
27	0xbc5048c8	-0.012712665
28	0xbbe6dd44	-0.00704542
29	0x3b993d9c	0.004676534
30	0x3cf6f219	0.030144738
31	0xbcd24ddc	-0.025671892
32	0x3ba39ea0	0.004993275
33	0x3c1ca2d1	0.009560303
34	0xbd0e247c	-0.034702763
35	0x3cf569db	0.029957702
36	0x3bde52cf	0.006784774
37	0x3bc816e8	0.0061062463
38	0xbc065574	-0.008199085
39	0xbcebedee	-0.028799977
40	0xbd18e228	-0.037325054
41	0xbb1c23d0	-0.0023825057
42	0x3ccb2e94	0.024802484
43	0x3c961c0e	0.018323924
44	0x3c3dfe77	0.011596314
45	0xbcc9c2f3	-0.024629092
46	0x3bb7bb89	0.0056070727
47	0x3c9639e4	0.018338151
48	0x3d203934	0.039117053
49	0xbd1f00a3	-0.038818967
50	0xbcc01cf7	-0.023451312
51	0xbd1fb41c	-0.038990125
52	0x3d0afc69	0.033932123
53	0x3c1e932b	0.009678642
54	0xbd15c1ab	-0.03656165
55	0xbc59662d	-0.0132689895
56	0xbd08fd9d	-0.03344499
57	0x3b5f6900	0.0034089684
58	0x3c9a64c8	0.018846884
59	0xbbc61ae8	-0.006045688
60	0x3cb2ea6c	0.021840297
61	0x3d03210a	0.03201393
62	0x3cb70d20	0.022345126
63	0xbd13cc47	-0.036083486
64	0x3cdc7fc8	0.0269164
65	0xbb26a0ae	-0.0025425362
66	0x3d0916a7	0.03346887
67	0x3d10fba4	0.035396233
68	0x3c899a6a	0.016797263
69	0xbd1d1362	-0.038348563
70	0xbbc23e64	-0.0059278477
71	0x3d1ad2d2	0.03779871
72	0x3d24c8d3	0.040230583
73	0x3c053f52	0.0081327725
74	0x3cd879e0	0.026425302
75	0xbcf04162	-0.029328052
76	0x3c4b09f3	0.012392509
77	0xbc256cfc	-0.010096785
78	0x3c347448	0.011014052
79	0xbd29cc98	-0.04145488
80	0xbd00669f	-0.031347867
81	0xbc8716ee	-0.016490426
82	0x3ca056b0	0.019572586
83	0x3d099bc2	0.033595808
84	0x3d2b00ee	0.041748933
85	0xbcca7b79	-0.02471708
86	0xbc80e545	-0.015734324
87	0xbc0e9217	-0.008701823
88	0xbd2558df	-0.040367957
89	0x3ca1c85e	0.019748863
90	0x3c16384a	0.009168694
91	0x3cd9f376	0.026605349
92	0xbcec6c3a	-0.0288602
93	0xbc6545d4	-0.013993699
94	0x3ca85e26	0.020552706
95	0x3d2702f0	0.040774286
96	0xbc970d55	-0.018438974
97	0xba6f3180	-0.00091245025
98	0xbc84866d	-0.01617738
99	0xbcf76c44	-0.030202992
100	0xbce6bb4a	-0.028165478
101	0x3ccd16bc	0.025035255
102	0x3be55c78	0.0069995485
103	0xbd0274b4	-0.031849578
104	0x3d03a4e1	0.032139663
105	0xbd1b3183	-0.037889015
106	0x3d229971	0.039697114
107	0xbd2329cf	-0.039834794
108	0xbcd6b944	-0.026211388
109	0xbc6c0e73	-0.014407742
110	0x3c872763	0.016498273
111	0x3b3a4c0b	0.0028426673
112	0xbc78ab26	-0.015177524
113	0xbd25e225	-0.04049887
114	0xbcd47cba	-0.02593838
115	0x3cda962b	0.026682934
116	0xbca6711f	-0.020317612
117	0x3d297ad6	0.04137691
118	0xbc26f6f4	-0.010190714
119	0x3d0661fa	0.03280828
120	0x3c156920	0.009119302
121	0x3d05ee9c	0.03269826
122	0x3cb8706c	0.022514544
123	0x3ba93080	0.0051632524
124	0xbd1be193	-0.03805692
125	0xbb088075	-0.002082852
126	0x3baab981	0.005210102
127	0x3c905f40	0.017623544
128	0xbc3cfab5	-0.011534383
129	0x3bdec196	0.0067979796
130	0xbcc3634d	-0.023851061
131	0x3c87e075	0.016586522
132	0x3ceb16c9	0.028697388
133	0xbd117c4d	-0.035518933
134	0x3d213b04	0.039362922
135	0x3c996ddb	0.018729141
136	0x3cbce6eb	0.023059329
137	0xbbbbd338	-0.0057319663
138	0xbd1f2784	-0.038856044
139	0x3cae8074	0.021301486
140	0x3d2891a6	0.041154526
141	0xbcf99b1a	-0.030469466
142	0xbd1f96ce	-0.038962178
143	0xbcaac79b	-0.020847132
144	0x3d3082a9	0.043093357
145	0x3ba8e185	0.005153837
146	0xbcafdace	-0.021466639
147	0xbbb21350	-0.005434431
148	0x3c314043	0.010818544
149	0x3b42452a	0.0029643276
150	0xbcd3bf75	-0.02584813
151	0xbd05ad55	-0.032636005
152	0x3c0ee41e	0.00872138
153	0xbcd3c50e	-0.025850799
154	0xbbd65a9f	-0.0065415646
155	0x3c17f375	0.009274353
156	0xbc049e09	-0.008094319
157	0x3d1bb11a	0.038010694
158	0xbd0ace6d	-0.03388827
159	0x3cf66b90	0.030080587
160	0x3ced0fe4	0.028938241
161	0x3c42ba5c	0.011885252
162	0x3cff27dc	0.031146936
163	0x3be39398	0.006945085
164	0x3d1e23d2	0.03860838
165	0x3d075b20	0.033045888
166	0xbca13869	-0.019680219
167	0x3d0aded4	0.03390391
168	0x3ad2d882	0.0016086253
169	0xbd2ce361	-0.042209033
170	0xbd2ce31f	-0.042208787
171	0x3b19bcd7	0.0023458505
172	0xbc358ab3	-0.011080432
173	0x3d0b15f6	0.03395649
174	0x3cd707a9	0.02624877
175	0xbd26ca70	-0.040720403
176	0x3ccab9d4	0.024746813
177	0xbd10d046	-0.035354875
178	0x3b87cea8	0.0041445084
179	0xbcb26820	-0.021778166
180	0x3d1d1344	0.03834845
181	0xbd2b785d	-0.041862834
182	0xbcdf2bc2	-0.027242545
183	0x3b82ae88	0.003988091
184	0x3a9174d8	0.0011097444
185	0xbc8d0034	-0.01721201
186	0x3c8ae4f6	0.01695488
187	0xbc894a08	-0.016758934
188	0x3cf4cb94	0.02988223
189	0xbcdb53cb	-0.026773354
190	0x3ca21791	0.019786628
191	0xbd1f7419	-0.03892908
192	0xbd1896cd	-0.03725319
193	0x3c7ac96f	0.015306815
194	0x3a829b03	0.000996441
195	0xbd209a06	-0.03920939
196	0x3d21134a	0.039325036
197	0xbd239dd0	-0.039945424
198	0x3bdb0960	0.006684467
199	0x3d0cfef6	0.034422837
200	0xbc13b66c	-0.009015661
201	0xbd0c53e0	-0.034259677
202	0xbc8f917f	-0.017525433
203	0xbb6aa5b0	-0.0035804324
204	0xbd0211c4	-0.031755224
205	0x3d29d74e	0.041465096
206	0x3d206896	0.03916224
207	0x3bda8e28	0.0066697784
208	0x3d26d94a	0.040734567
209	0xbcb21303	-0.021737581
210	0xbd243f9e	-0.040099733
211	0x3cc95817	0.024578137
212	0xbcb617e2	-0.022228185
213	0xbc9343de	-0.017976698
214	0x3ce87c59	0.028379606
215	0xbd0b25ed	-0.033971716
216	0xbc2f5189	-0.010700592
217	0xbac59314	-0.001507374
218	0xbcbb1006	-0.022834789
219	0xbc7ae296	-0.015312811
220	0x3c950986	0.018193018
221	0x3aa67640	0.0012700036
222	0x3cd20794	0.02563838
223	0x3d1b4a66	0.03791275
224	0xbc280a86	-0.010256415
225	0x3d02320c	0.03178601
226	0x3c8c08c5	0.017094025
227	0x3c13606f	0.0089951595
228	0x3c2d28e9	0.010568836
229	0xbc1123b1	-0.008858607
230	0xbc58ddbc	-0.013236459
231	0x3b953e97	0.0045545804
232	0x3d2b7d36	0.041867457
233	0xbc7f0a92	-0.015566485
234	0xbd0ede72	-0.03488011
235	0xbb46c94a	-0.003033238
236	0xbc9ec5ea	-0.019381482
237	0xbc04ce52	-0.008105831
238	0xbc28dc90	-0.010306492
239	0xbb8378c8	-0.004012201
240	0x3d183dc8	0.037168294
241	0xbc82f48e	-0.015985753
242	0x3cf9f240	0.030511022
243	0xbcc30322	-0.023805205
244	0x3aad2146	0.0013208769
245	0x3cf45f57	0.029830618
246	0xbbd21b98	-0.006411981
247	0xbc6c14de	-0.014409272
248	0x3c67544a	0.014119217
249	0x3d155da0	0.03646624
250	0x3d21423e	0.039369814
251	0x3c2f0278	0.010681741
252	0x3d28b564	0.041188613
253	0xbd203b45	-0.039119024
254	0xbd10aa2c	-0.03531854
255	0xbd1e8b27	-0.038706925

layer1.0.bias f4 [256]
0	0xbd220373	-0.03955407
1	0x3d258755	0.040412266
2	0xbb2d949f	-0.002648629
3	0x3ca42eae	0.02004179
4	0xbba1cc23	-0.004937665
5	0x3a6ec108	0.00091077434
6	0xbbe24f8e	-0.0069064563
7	0xbcaf0a8f	-0.02136734
8	0xbd2a0e00	-0.041517258
9	0xbd044e5d	-0.032301296
10	0x398702f2	0.000257514
11	0x3ca489b0	0.020085186
12	0xbaefee09	-0.0018305193
13	0xbc5465ff	-0.012963771
14	0xbcfdebfb	-0.030996313
15	0xbc3feb68	-0.01171384
16	0xbb0a550e	-0.0021107825
17	0xbd1ba106	-0.03799536
18	0x3c2d032d	0.010559839
19	0x3a085d4b	0.000520189
20	0x3c5449c6	0.012957042
21	0x3c11d5ea	0.008901099
22	0xbd16820f	-0.036745127
23	0xbd06e335	-0.032931525
24	0x3ce78368	0.028260902
25	0x3afb80aa	0.0019188125
26	0xbb019914	-0.001977508
27	0x3c9b4b0c	0.018956684
28	0xbc45fe50	-0.012084559
29	0x3baaf456	0.0052171154
30	0x3c389098	0.011264943
31	0x3c5b657b	0.013390894
32	0xbce39c22	-0.02778441
33	0x3d19dca0	0.03756392
34	0xbc380920	-0.011232644
35	0xbce8ebd2	-0.02843276
36	0xbce5a89a	-0.028034497
37	0xbd10f8b0	-0.035393417
38	0x3cc8efd8	0.024528429
39	0x3cf3cd37	0.02976094
40	0xbcb287da	-0.021793295
41	0xbd27531e	-0.04085075
42	0x3cb6a8df	0.02229732
43	0xbd17c259	-0.03705058
44	0xbcc5d044	-0.02414716
45	0x3b8471a0	0.0040418655
46	0x3c522e55	0.012828429
47	0xbd0acc62	-0.03388632
48	0xbb391201	-0.002823949
49	0xba400e41	-0.0007326343
50	0xbbf7ed75	-0.007566149
51	0x3c3c9f00	0.011512518
52	0xbd29c07a	-0.041443326
53	0xbc791f76	-0.015205255
54	0x3d177914	0.036980703
55	0x3cdd2a1c	0.026997618
56	0x3bac56e9	0.005259384
57	0xbd0b46d5	-0.034003098
58	0x3d26bbb6	0.04070636
59	0xbd2e05f0	-0.04248613
60	0xbce4eaff	-0.027944086
61	0xbcf05f98	-0.029342458
62	0xbd254dd3	-0.040357422
63	0x3c81c37e	0.015840288
64	0x3b4594b4	0.0030148448
65	0x3d225347	0.0396302
66	0xbd2524ec	-0.040318415
67	0xbd29b377	-0.041430917
68	0x3c033ee7	0.008010603
69	0xbce7a5a1	-0.02827722
70	0xbccd5eb4	-0.025069572
71	0xbc9ed38e	-0.019387987
72	0xbac71e50	-0.0015191529
73	0xbc907e95	-0.017638484
74	0xbd25e04e	-0.040497117
75	0x3b4c1f30	0.003114652
76	0x3baf6a21	0.0053532277
77	0xbd1c3677	-0.03813788
78	0x3d26e270	0.04074329
79	0xbd112810	-0.035438597
80	0xbcbb6164	-0.022873588
81	0x3cc9d1bf	0.024636148
82	0x3be91697	0.0071132886
83	0x3be771e1	0.007063136
84	0x3c60e147	0.013725585
85	0xbbe6ba03	-0.0070412173
86	0x3ba61233	0.0050680875
87	0x3d199726	0.037497662
88	0xbcd02abc	-0.025411002
89	0xbce8b4b5	-0.02840648
90	0xb8050e70	-3.1723117e-05
91	0xbc97a733	-0.018512344
92	0x3cccf0a3	0.025017088
93	0xbd126e33	-0.035749625
94	0x3d1960e4	0.037445918
95	0x3c22437f	0.009903788
96	0xbd24718d	-0.040147353
97	0xb99586e9	-0.0002852001
98	0xbd23fcd2	-0.04003603
99	0xbd14b986	-0.03630974
100	0xbd06d567	-0.03291836
101	0x3d01062d	0.03150003
102	0x3cdfaf2d	0.02730521
103	0x3ce55e7e	0.027999159
104	0x3b575dc9	0.0032862297
105	0x3cfde473	0.030992722
106	0x3d0cedfc	0.034406647
107	0x3bc8810c	0.006118899
108	0xbd223752	-0.03960354
109	0x3cfb9c4e	0.03071418
110	0x3d043dbc	0.032285437
111	0x3b3b901e	0.0028619836
112	0x3b6a6681	0.0035766663
113	0xbcb5e822	-0.022205416
114	0xbb278441	-0.0025561007
115	0x3c07638c	0.00826348
116	0xbd023eaf	-0.03179806
117	0xb99ac9ce	-0.00029523525
118	0xbc5c0646	-0.01342923
119	0xbcc18209	-0.023621576
120	0xbce934b6	-0.028467517
121	0x3c95d397	0.01828937
122	0x3ced3417	0.028955502
123	0x3d097b36	0.03356477
124	0x3cc751fb	0.024331084
125	0xbd09898f	-0.03357845
126	0xbd0a3b3a	-0.03374789
127	0xbd1bd208	-0.0380421
128	0xbb8b4df0	-0.0042512342
129	0x3d10f95b	0.035394054
130	0x3b1b62d4	0.002371003
131	0xbd247bbb	-0.04015706
132	0xbcb256ce	-0.021769907
133	0xbca05468	-0.019571498
134	0xbbb6a57d	-0.005573927
135	0xbd1d8337	-0.038455214
136	0x39832dad	0.00025020298
137	0xbd237e47	-0.03991535
138	0x3c1c04b0	0.009522602
139	0xbd0c8fcc	-0.034316823
140	0x3c952d7d	0.018210167
141	0xbc7d0b32	-0.015444564
142	0xbb90dd1d	-0.00442089
143	0x3cc03aac	0.023465477
144	0xbd2291ce	-0.03968983
145	0x3c501654	0.012700636
146	0xbcf18ad3	-0.029485142
147	0x3ba79ba3	0.005114989
148	0xbb891439	-0.004183319
149	0xbcc5758e	-0.024103906
150	0x3d1a0821	0.03760541
151	0xbd0500d7	-0.032471504
152	0x3ca5292c	0.020161234
153	0x3c1db70d	0.009626162
154	0xbce855c9	-0.028361218
155	0x3ae992e8	0.0017820271
156	0xbce25a73	-0.02763102
157	0xbce2dc29	-0.027692871
158	0xbca40393	-0.020021236
159	0x3cd5f11a	0.026115943
160	0x3d0eabd8	0.03483185
161	0xbbba4f3e	-0.005685716
162	0x3ce370e7	0.027763797
163	0xbc4a98e4	-0.0123655535
164	0x3b209586	0.0024503185
165	0x3c4c8b53	0.012484389
166	0x3c345464	0.011006448
167	0x3cdc1a7d	0.0268681
168	0x3c29202d	0.010322613
169	0x3d3323ee	0.043735437
170	0x3ccf6a67	0.025319291
171	0xbcea7524	-0.02862031
172	0x3c06d7db	0.008230175
173	0xbc91d430	-0.017801374
174	0xbc9858e0	-0.018597066
175	0xbcd7b1c0	-0.026329875
176	0x3cc53317	0.024072213
177	0xbbf0b5bd	-0.0073458836
178	0x3a19b4ff	0.00058634573
179	0x3c8cdcf9	0.017195212
180	0x3cc64846	0.024204385
181	0xbcf98273	-0.03045771
182	0xbc34809a	-0.011016989
183	0xba6d7637	-0.0009058448
184	0xbcb19b04	-0.021680363
185	0xbbd2e0e5	-0.006435501
186	0x3cc74177	0.024323208
187	0xbbbdf5e3	-0.0057971342
188	0x3cd84f69	0.026405053
189	0x3d0aed96	0.033917986
190	0x3cdf5800	0.027263641
191	0xbc158ddd	-0.009128061
192	0xbcdefa79	-0.027219044
193	0xbcfe6d58	-0.031057999
194	0x3d0d2aa6	0.0344645
195	0xbd259d0b	-0.04043297
196	0x3d175f4e	0.036956124
197	0xbc6411e5	-0.013920282
198	0x3bd4d787	0.0064954194
199	0x3cae8521	0.021303715
200	0xbd166923	-0.03672136
201	0x3d099bab	0.033595722
202	0x3cfbe11e	0.030746993
203	0x3c3db075	0.011577715
204	0x394c06c4	0.00019457476
205	0x3b82c20a	0.0039904164
206	0x3d062f6d	0.032760072
207	0x3d1333a6	0.035937928
208	0xbabd1c9d	-0.0014428083
209	0xbce493f0	-0.027902573
210	0xbd2a623b	-0.041597586
211	0x3cf007a5	0.02930052
212	0x3d239d88	0.039945155
213	0x3d21f882	0.039543636
214	0xbd2a5bef	-0.04159158
215	0x3ccc2860	0.024921596
216	0x3d1168a6	0.03550019
217	0xbd258a50	-0.04041511
218	0xbc8abc5c	-0.01693552
219	0x3c9f9021	0.019477906
220	0xbd1e4824	-0.038643017
221	0x3b7909eb	0.0038000296
222	0x3a9ce8d8	0.0011971248
223	0x3ca9019d	0.020630652
224	0xbd2dad54	-0.042401627
225	0x3c19e5f5	0.009393205
226	0x3d18c4bf	0.037297007
227	0xbb2c6e52	-0.0026310873
228	0xbc960315	-0.018312017
229	0xba2dfe6b	-0.00066373375
230	0x3d0bdc0a	0.034145392
231	0x3ce046cc	0.027377509
232	0x3ca06fdd	0.01958459
233	0x3d29b834	0.041435435
234	0x3d063ea4	0.032774583
235	0xbc824b59	-0.01590507
236	0xbcb8fb9c	-0.022580914
237	0xbb8d7b2e	-0.0043176627
238	0xba987217	-0.0011630681
239	0xbd050d01	-0.032483105
240	0xbc810949	-0.015751498
241	0xbc3fcef7	-0.011707059
242	0xbb06e277	-0.002058176
243	0x3ce29c8d	0.02766254
244	0x3d0b23f6	0.033969842
245	0x3cf3ccc4	0.029760726
246	0xbd07efb6	-0.03318759
247	0x3b226b71	0.0024783278
248	0xbce65b93	-0.028119838
249	0x3cc75754	0.024333633
250	0x3d1065de	0.035253398
251	0x3cc2a92d	0.02376231
252	0x3c9bf4f0	0.019037694
253	0xbc9c7996	-0.019100945
254	0x3c536c44	0.0129042305
255	0x3cc5517b	0.024086704

layer2.0.weight f4 [84, 256]
0	0xbd79b25e	-0.06096112
1	0xbcfc9178	-0.030831084
2	0xbcd8f520	-0.026484072
3	0xbd1ffcae	-0.039059334
4	0x3cc3b598	0.023890302
5	0x3cb64488	0.022249475
6	0xbd388208	-0.045045882
7	0x3d411e64	0.047148123
8	0xbcb83e28	-0.022490576
9	0x3b290580	0.0025790632
10	0x3ccba820	0.024860442
11	0x3cd2e414	0.025743522
12	0x3d6d7994	0.057977274
13	0xbd457a22	-0.048212178
14	0x3d690db6	0.05689784
15	0xb999c400	-0.00029328465
16	0xbc32ed30	-0.010920808
17	0x3d1f6e8e	0.038923793
18	0xbd121e4e	-0.035673432
19	0x3c019ad0	0.007910445
20	0xbcb61af0	-0.022229642
21	0x3b4e5880	0.0031485856
22	0xbd403562	-0.04692591
23	0x3cd228d8	0.025654241
24	0x3d56c582	0.052434452
25	0xb9d95500	-0.00041452795
26	0x3cebccd4	0.028784193
27	0xbc76c4b0	-0.015061542
28	0xbce5bf4c	-0.028045319
29	0xbd6d3852	-0.05791504
30	0x3c259bd0	0.010107949
31	0xbc2cc9d8	-0.01054617
32	0xbc61ae40	-0.013774455
33	0x3c689d80	0.014197707
34	0x3d2e4bc2	0.042552717
35	0x3c0d6968	0.008631088
36	0xbd30a882	-0.04312945
37	0x3cab04a0	0.020876229
38	0xbcf39668	-0.029734805
39	0xbd7a9940	-0.061181307
40	0xbcf06268	-0.029343799
41	0xbd60ca76	-0.05488058
42	0x3cc5b428	0.024133757
43	0xbd0d53d8	-0.034503788
44	0xbd440524	-0.047856465
45	0xbd3e54ca	-0.04646758
46	0x3d5d8c10	0.054088652
47	0xbd637660	-0.055532813
48	0xbcf7420c	-0.03018286
49	0xbc2bc820	-0.010484725
50	0x3d1f026a	0.03882066
51	0xbced4874	-0.028965212
52	0xbd64eb8a	-0.05588869
53	0x3c4b6568	0.012414314
54	0xbd5c0452	-0.053715058
55	0x3c03de28	0.008048572
56	0x3d657562	0.056020148
57	0xbbca87c0	-0.0061807334
58	0xbd428d08	-0.04749778
59	0x3ce45a68	0.02787514
60	0xbc6792d8	-0.014134131
61	0xbcfcebdc	-0.030874185
62	0xbc3edd70	-0.0116494745
63	0x3c6fc320	0.014633924
64	0xbd3cfbf6	-0.046138726
65	0x3bada920	0.0052997023
66	0x3d3f1b48	0.046656877
67	0xbcbcaf78	-0.023032889
68	0xbccd3640	-0.025050282
69	0x3c49b8e8	0.0123121515
70	0xbd03148a	-0.03200201
71	0xbd1ff10e	-0.039048247
72	0xbb34abe0	-0.0027568266
73	0xbd0afd70	-0.033933103
74	0x3c845690	0.016154557
75	0x3d4dc3da	0.050235607
76	0x3d141044	0.036148325
77	0xbd0e08ca	-0.03467635
78	0xbc6ec6e8	-0.01457379
79	0xbd323c32	-0.043514438
80	0xbc316e38	-0.010829501
81	0x3d4c5686	0.049887203
82	0xbc8f5e68	-0.017501071
83	0xbd1bffc0	-0.0380857
84	0xbd6bdb48	-0.05758217
85	0x3c065b80	0.008200526
86	0xbd606cc6	-0.054791234
87	0xbc4fef38	-0.012691312
88	0xbd508306	-0.050906204
89	0xbd283e1e	-0.041074865
90	0xbc245f70	-0.01003252
91	0xbc5c8218	-0.013458751
92	0xbc89da3c	-0.016827695
93	0x3c2edd60	0.010672897
94	0xbd6740a2	-0.056458123
95	0x3be96ed0	0.0071238056
96	0xbd2a3298	-0.041552156
97	0xbd5cab70	-0.053874433
98	0x3d4996a8	0.049215943
99	0xbd4229a0	-0.047402978
100	0xbd2da40a	-0.042392768
101	0xbcaebe5c	-0.021331005
102	0xbcfa3a1c	-0.030545287
103	0xbc8e8510	-0.017397434
104	0xbd692e80	-0.05692911
105	0x3c901990	0.017590314
106	0xbc45d2c8	-0.01207418
107	0xbd7d230c	-0.061801
108	0xbb7cff20	-0.0038604215
109	0xbd67c3b0	-0.056583107
110	0xbd705692	-0.05867631
111	0xbd1f22a8	-0.03885141
112	0xbc0ce1b0	-0.00859873
113	0xbd5aff62	-0.05346621
114	0x3c8fa53c	0.017534845
115	0xbd38a8c0	-0.045082808
116	0xbd2616d8	-0.04054913
117	0x3d5901ec	0.05298035
118	0xbcde0b48	-0.027104989
119	0xba3ada00	-0.00071278214
120	0x3d6ad6a2	0.057333596
121	0x3d57e446	0.052707933
122	0xbd08d854	-0.03340943
123	0xbd6da5a8	-0.05801931
124	0x3c07a250	0.008278444
125	0x3d3cf084	0.04612781
126	0x3cc5b584	0.024134405
127	0xbce113dc	-0.02747529
128	0x3cfe52c8	0.031045333
129	0xbcde135c	-0.02710884
130	0xbd672566	-0.05643215
131	0xbb23f200	-0.002501607
132	0x3c344b38	0.011004262
133	0xbd46451a	-0.048405744
134	0x3c0eb4e8	0.008710124
135	0x3d03f4b8	0.032215804
136	0xbd4328b0	-0.047646224
137	0xbc0ca448	-0.00858409
138	0x3d09c450	0.033634484
139	0xbd313f1c	-0.043273076
140	0x3d648a22	0.055795796
141	0xbcadff74	-0.021239974
142	0x3c134d90	0.00899066
143	0xbc445e48	-0.011985369
144	0x3d0645fe	0.032781594
145	0x3d0bc046	0.034118913
146	0x3ccd7f38	0.025085077
147	0xbd1d2880	-0.038368702
148	0xbd67893c	-0.05652736
149	0x3d73dd88	0.05953744
150	0xbc78b488	-0.015179761
151	0xbd04b86c	-0.03240244
152	0x3c765228	0.015034236
153	0xbd0132d8	-0.03154263
154	0xbd412ada	-0.047160007
155	0x3c6b5788	0.014364131
156	0x3d74abb6	0.05973407
157	0xbcc4c988	-0.024021879
158	0x3c9b20f8	0.01893662
159	0x3d641654	0.055685356
160	0xbd188f3a	-0.037245966
161	0x3c75c1d0	0.014999822
162	0xbd5d5d12	-0.054043837
163	0x3caebcc4	0.021330245
164	0xbd753826	-0.059868
165	0xbcb88584	-0.022524603
166	0xbbc57340	-0.0060257018
167	0x3d600ca4	0.054699555
168	0xbca47794	-0.02007655
169	0x3c9ee550	0.019396454
170	0xbd45828a	-0.048220195
171	0xbd650752	-0.055915184
172	0xbd1cf6d4	-0.03832133
173	0xbc2d82d8	-0.010590278
174	0x3b938020	0.0045013577
175	0x3c0e5d88	0.008689292
176	0x3cc6eafc	0.024281971
177	0x3d1a046a	0.037601866
178	0x3d097ae4	0.033564463
179	0xbcf1c7c4	-0.029514201
180	0xbd266878	-0.040626973
181	0xbaf559c0	-0.0018718764
182	0x3d32f2c6	0.043688558
183	0xbd697b9c	-0.05700265
184	0xbd2e0dd4	-0.042493656
185	0xbd7b5dba	-0.06136868
186	0x3c7c9598	0.015416525
187	0x3d1add4a	0.037808694
188	0xbb8d8990	-0.0043193772
189	0x3c22dea0	0.009940773
190	0xbc54a078	-0.012977712
191	0xbd41baa2	-0.047297128
192	0xb9f0f600	-0.00045959651
193	0xbd1ed7fa	-0.03878019
194	0xbcc18f80	-0.023627996
195	0x3d3c9042	0.046036012
196	0x3d6be9b4	0.057595924
197	0x3d70c834	0.05878468
198	0x3c40b088	0.011760838
199	0x3c6433b0	0.013928339
200	0x3d4fffba	0.05078099
201	0xbd066452	-0.032810517
202	0xbcddf088	-0.027092233
203	0x3a739c00	0.000929296
204	0xbd2c9286	-0.042131923
205	0x3c9f7454	0.01946465
206	0x3c2ec2b8	0.010666542
207	0xbaf2cb00	-0.0018523633
208	0xbd00cb3c	-0.03144382
209	0xbcff8960	-0.031193435
210	0xbc67ea38	-0.014154963
211	0xbd440d5e	-0.04786431
212	0xbb8b0460	-0.004242465
213	0x3d16b17a	0.03679035
214	0xbd4442e8	-0.04791537
215	0xbd4c7664	-0.049917594
216	0xbc544260	-0.012955278
217	0xbcc33134	-0.023827173
218	0x3c9ac080	0.01889062
219	0x3c541788	0.012945063
220	0xbd21f5bc	-0.03954099
221	0xbd6d420a	-0.057924308
222	0x3d6a7b90	0.057246745
223	0x3b6d47a0	0.0036206022
224	0x3b2a81a0	0.0026017204
225	0xbcb8fbf4	-0.022581078
226	0x3d314e3a	0.043287493
227	0x3d7ebc14	0.062191084
228	0xbd66bd8c	-0.05633311
229	0x3d0689b8	0.032846183
230	0x3d3ed38a	0.046588458
231	0xbd634ec8	-0.055495054
232	0xbd293bec	-0.04131691
233	0xbd303d80	-0.0430274
234	0x3cdc4af0	0.026891202
235	0xbcaf5ddc	-0.02140706
236	0xbd6623a8	-0.05618635
237	0xbbbca260	-0.0057566613
238	0xbd16deb2	-0.036833473
239	0x3d69607e	0.056976788
240	0xbd7c4350	-0.06158763
241	0x3c2aa668	0.010415651
242	0x3d270dc0	0.040784597
243	0x3d32bd38	0.043637484
244	0x3d2854ae	0.04109638
245	0x3d2858fe	0.041100495
246	0xbd5e3fc8	-0.054260045
247	0x3d1305fa	0.03589437
248	0xbd3357dc	-0.04378496
249	0x3d390ef4	0.045180276
250	0x3d6b64dc	0.057469234
251	0xbc292238	-0.0103231
252	0x3c333280	0.010937333
253	0xbb864620	-0.004097715
254	0xbc603948	-0.013685532
255	0xbc7c82f0	-0.015412077

layer2.0.bias f4 [84]
0	0xbd6a57f2	-0.057212777
1	0xbcc3e5a6	-0.023913216
2	0x3c87161c	0.016490035
3	0x3caea85d	0.021320516
4	0xbd7201fc	-0.059083924
5	0x3d51146a	0.05104486
6	0xbd1138fc	-0.035454735
7	0x3b895289	0.004190747
8	0xbb9af8c0	-0.0047293603
9	0x3c36909b	0.011142875
10	0xbcedca1e	-0.029027041
11	0xbb438198	-0.0029831883
12	0x3bbc0800	0.0057382584
13	0xbba9a470	-0.005177073
14	0xbcc78b51	-0.024358423
15	0x3d345555	0.04402669
16	0xbcb5a2fc	-0.022172444
17	0x3d6addd2	0.05734045
18	0x3c20ecfb	0.009822126
19	0xbce87c17	-0.028379483
20	0xbd4a90de	-0.049454562
21	0xbcbe5eca	-0.023238558
22	0xbce77904	-0.028255947
23	0xbc829700	-0.015941143
24	0x3c7902dc	0.015198436
25	0x3d2b2132	0.041779704
26	0xbd58c568	-0.052922636
27	0xbd7b0383	-0.061282646
28	0xbd77a208	-0.06045726
29	0x3ca16323	0.019700592
30	0x3d052135	0.03250237
31	0xbc45eda5	-0.012080585
32	0x3d48fd96	0.049069963
33	0x3c9dd621	0.019267144
34	0x3c4c20f3	0.012459028
35	0x3c5f611f	0.013633995
36	0x3cebbcd4	0.028776564
37	0x3bc45246	0.005991253
38	0x3c3464ff	0.0110104075
39	0xbd2645a6	-0.040593766
40	0x3cef780c	0.029232047
41	0x3cf993bb	0.030465951
42	0xbd0b23cc	-0.033969685
43	0x3d59ab2e	0.053141765
44	0xbd48ecb4	-0.049053863
45	0x3d80a0b6	0.06280653
46	0x3d3d5736	0.04622575
47	0xbca3ab1f	-0.019979058
48	0x3c912fbc	0.017722957
49	0x3d5a151d	0.05324279
50	0xbcf70eff	-0.030158518
51	0x3c5fd021	0.013660462
52	0xbd3a54c3	-0.04549099
53	0x3cb48837	0.022037609
54	0xbc0d54d5	-0.008626183
55	0x3d05190f	0.0324946
56	0xbb14e247	-0.002271788
57	0xbacbb9a6	-0.0015542998
58	0x3cc487b3	0.023990488
59	0x3b845c1a	0.0040392997
60	0xbd1a945a	-0.037739135
61	0xbc02249c	-0.007943299
62	0x3d3046ad	0.04303615
63	0x3ceb32d1	0.028710755
64	0x3c89d6eb	0.016826114
65	0xbcf14284	-0.029450662
66	0x3d3cfcec	0.046139643
67	0xbd419e4c	-0.047270104
68	0x3cfdbc51	0.030973585
69	0xbd7bf8e6	-0.061516665
70	0x3d60e892	0.054909296
71	0x3af31259	0.0018544897
72	0xbca8ac26	-0.0205899
73	0x3d4afd68	0.049558073
74	0xbd6d99f4	-0.05800815
75	0xbd4ad916	-0.049523436
76	0x3d31d368	0.043414503
77	0xbd0daa24	-0.034586087
78	0x3b66cc0b	0.0035216834
79	0xbd78b3dd	-0.060718406
80	0x3d5d5c79	0.054043267
81	0xbc885c5f	-0.016645608
82	0xbcbdb3e8	-0.023157075
83	0xbd2470c9	-0.040146623

layer3.0.weight f4 [8, 84]
0	0xbd0049dc	-0.031320438
1	0xbd428bc7	-0.047496583
2	0x3d878d5d	0.0661876
3	0x3dcd8055	0.10034243
4	0xbdbefdc9	-0.093257494
5	0x3ca75886	0.020427953
6	0x3d8b4057	0.06799381
7	0xbd6d8a08	-0.057992965
8	0xbd85a4ef	-0.06525599
9	0x3d84ab67	0.06478005
10	0x3d52d6e8	0.05147448
11	0xbd82c8ae	-0.06385933
12	0x3ddd089d	0.107926585
13	0x3d95a11d	0.073061205
14	0xbd2f932b	-0.04286496
15	0x3ddb4b2e	0.10707699
16	0xbc76c898	-0.015062474
17	0xbd826288	-0.063664496
18	0x3d03ca0b	0.032175105
19	0xbd30acb7	-0.043133464
20	0x3d4db527	0.05022159
21	0x3db41e06	0.08794789
22	0xbd3ac8ce	-0.04560166
23	0x3d21b6c2	0.039480932
24	0x3da8f34a	0.08249529
25	0xbd36c5b1	-0.044622127
26	0x3daf9c86	0.08574776
27	0xbda8cd27	-0.08242255
28	0x3d2880a2	0.0411383
29	0x3d437c5f	0.04772603
30	0x3d3e2c51	0.046428982
31	0x3d7988fb	0.06092165
32	0xbc6d04e6	-0.0144665
33	0x3d6e24fe	0.058140747
34	0x3d19979d	0.037498105
35	0xbd8cfcf7	-0.06884187
36	0x3cd45056	0.025917213
37	0x3dc4c057	0.096069984
38	0xbdb4dce1	-0.08831192
39	0xbbec8ecd	-0.0072191716
40	0x3cf9ce18	0.030493781
41	0x3d5fb911	0.054619852
42	0x3d0f2db2	0.034955688
43	0x3d47750e	0.048695616
44	0x3c73e4dc	0.014886107
45	0x3d849898	0.064744174
46	0x3d3db2f0	0.046313226
47	0xbdd3251a	-0.10309811
48	0x3b75c4ad	0.003750126
49	0x3d08e37e	0.03342008
50	0x3bc11d56	0.0058933897
51	0xbc80ed1d	-0.015738064
52	0xbd8ce65b	-0.06879874
53	0x3d977485	0.07395271
54	0x3cf88a8f	0.030339507
55	0x3db04384	0.086066276
56	0xbdd4ceae	-0.103909835
57	0x39cc7d0a	0.00039003073
58	0x3ceade5a	0.028670479
59	0x3d08a0b7	0.033356395
60	0x3c1f1f01	0.009711982
61	0x3dd8f43d	0.1059346
62	0xbdd686d7	-0.104749374
63	0xbd7a4ac3	-0.061106455
64	0x3db30b26	0.08742361
65	0xbddbe3c5	-0.10736803
66	0x3d0b1d2c	0.033963367
67	0x3ce794b8	0.028269157
68	0x3d9f2650	0.077709794
69	0x3d7b2d54	0.061322525
70	0xbbf2141a	-0.00738765
71	0xbd8c3a8a	-0.06847103
72	0x3c0e031d	0.008667734
73	0x3d6cb92b	0.057793777
74	0x3d151d37	0.036404815
75	0xbdbb0d47	-0.09133392
76	0x3c951748	0.018199578
77	0x3dc9f6b1	0.09861506
78	0x3dadd4a4	0.084878236
79	0x3b6d7821	0.0036234932
80	0xbd4871ae	-0.04893654
81	0x3d92c1ef	0.07165896
82	0x3d784a66	0.060617827
83	0xbd6ea48e	-0.0582624
84	0x3dd1f10b	0.102510534
85	0x3d816657	0.06318348
86	0x3cad486c	0.021152698
87	0x3d32af05	0.043623943
88	0xbd916fac	-0.07101378
89	0xbd2202e9	-0.039553557
90	0x3d96117b	0.07327553
91	0x3d5df11a	0.05418501
92	0x3d797311	0.06090075
93	0xbd6c1d45	-0.0576451
94	0xbd16e61b	-0.03684054
95	0xbda03908	-0.07823378
96	0x3d49380e	0.049125724
97	0x3d47bf5a	0.04876647
98	0x3c0dede7	0.008662677
99	0xbd930802	-0.07179262
100	0xbd4e4654	-0.05036004
101	0x3c99d8ed	0.018780196
102	0xbd85e7ef	-0.065383784
103	0x3dbc10fc	0.09182927
104	0x3d80af4e	0.06283437
105	0x3cf8956b	0.030344686
106	0xbda53422	-0.08066584
107	0xbdc4d921	-0.096117266
108	0xbd83d60d	-0.06437311
109	0x3db81ae4	0.08989504
110	0xbd192567	-0.037389185
111	0xbc450fc8	-0.012027688
112	0xbd934dff	-0.07192611
113	0x3c53bd3f	0.012923538
114	0x3d0d0f05	0.034438152
115	0x3dccabc6	0.09993701
116	0x3c94c557	0.018160505
117	0xbd7b9ab0	-0.06142682
118	0x3d6bcefb	0.05757044
119	0xbd91c67b	-0.07117935
120	0xbccf14cb	-0.02527847
121	0xbd27b370	-0.04094261
122	0x3a188001	0.0005817414
123	0x3dba08f9	0.09083743
124	0x3ccc8acf	0.024968533
125	0xbdd50d4d	-0.104029275
126	0x3d8e674d	0.06953297
127	0x3dd6aa56	0.10481708
128	0xbceb8a00	-0.028752327
129	0x3d3cbea6	0.046080254
130	0xbd92d76f	-0.07169997
131	0x3d4480fc	0.04797457
132	0xbd12e079	-0.035858605
133	0xbd80171f	-0.0625441
134	0xbd6da440	-0.05801797
135	0x3c890607	0.016726507
136	0x3cf598e5	0.029980132
137	0x3d4a95b6	0.04945918
138	0x3c59f896	0.013303896
139	0x3ac6ec83	0.0015176687
140	0xbcf094e0	-0.029367864
141	0x3d8a829f	0.06763195
142	0x3cd401ef	0.025879828
143	0x3a15f0e9	0.00057197973
144	0x3d142214	0.036165312
145	0x3cf30c49	0.029668944
146	0x3d6938be	0.05693888
147	0xbce3d562	-0.02781171
148	0x3dae8bb8	0.08522743
149	0x3d8bcbe5	0.06825999
150	0x3c379a3e	0.011206208
151	0xbd4e5cb4	-0.050381377
152	0xbda75dfb	-0.08172222
153	0x3d7c0705	0.06153013
154	0xbd2491fb	-0.04017828
155	0xbd6389fb	-0.05555151
156	0xbd08c95f	-0.033395167
157	0xbc12fad4	-0.008970935
158	0xbddbf34a	-0.10739763
159	0x3da227f3	0.07917776
160	0x3ca2d833	0.019878482
161	0x3dbe4a56	0.09291522
162	0x3d2fdab3	0.042933177
163	0x3d4f9a71	0.050684396
164	0xbd55d37d	-0.052203644
165	0xbdb8ab5f	-0.090170614
166	0xbbf90c3c	-0.0076003354
167	0x3d37e376	0.044894658
168	0xbcc3f474	-0.023920275
169	0x3d4b2ba9	0.049602184
170	0x3c5900d0	0.013244823
171	0xbd2cc1a5	-0.04217686
172	0xbd2c534d	-0.04207163
173	0x3cd482ac	0.025941215
174	0xbd87eea2	-0.066373125
175	0xbc0a355c	-0.008435573
176	0x3d774ab1	0.060373966
177	0x3dac0232	0.08398856
178	0xbca47db1	-0.020079466
179	0x3b4367c1	0.002981648
180	0x3c4e5108	0.012592562
181	0x3da9f593	0.08298793
182	0x3b846251	0.0040400405
183	0xbdba887f	-0.09108066
184	0x3d61a01a	0.055084325
185	0x3dda045d	0.106453635
186	0xbd1b0886	-0.037849925
187	0x3dd181d3	0.1022984
188	0xbab58fe9	-0.0013852093
189	0xbd9b5422	-0.075844064
190	0xbdb2963d	-0.08720062
191	0x3dba6067	0.091004185
192	0x3cb19202	0.021676067
193	0x3c9bf293	0.019036567
194	0xbd266a69	-0.040628824
195	0x3dc575b7	0.09641593
196	0x3dab294b	0.083574854
197	0x3dda5297	0.10660284
198	0xbd6feaca	-0.05857352
199	0xbd679019	-0.056533907
200	0xbb5af34b	-0.0033409174
201	0xbdb85053	-0.08999696
202	0xbdd5fcd2	-0.10448612
203	0xbc59826b	-0.013275723
204	0xbd9b6b99	-0.07588882
205	0x3d6e3fc5	0.058166284
206	0xbccc8744	-0.024966843
207	0xbd2a9378	-0.041644543
208	0x3b44b59c	0.0030015474
209	0xbdcd1290	-0.10013306
210	0x3dbea202	0.09308244
211	0x3de02093	0.10943713
212	0xbdba47fd	-0.09095762
213	0x3da931dc	0.08261463
214	0x3d45321d	0.048143495
215	0x3cfbd8fa	0.03074311
216	0xbdc841ab	-0.0977815
217	0xbdd6fb0f	-0.104971044
218	0xbdd104ed	-0.10206018
219	0xbd33fd3f	-0.043942686
220	0xbd7c5d43	-0.06161238
221	0x3db3a216	0.0877115
222	0xbaa187ac	-0.0012323759
223	0x3d398a14	0.045297697
224	0x3d849a50	0.06474745
225	0xbdb6fe6e	-0.08935247
226	0xbd276572	-0.04086823
227	0x3d336ff3	0.043807935
228	0x3d431f4c	0.04763727
229	0xbd75b7e5	-0.05998983
230	0x3d869c5f	0.06572794
231	0xbd958e2e	-0.07302509
232	0xbdae18c7	-0.0850082
233	0xbda3551a	-0.07975216
234	0xbd030f27	-0.031996872
235	0x3dbd6337	0.09247439
236	0xbd8db8db	-0.06920024
237	0x3d154e35	0.036451537
238	0xbd885656	-0.06657092
239	0xbd1c71d7	-0.038194504
240	0xbdac443b	-0.084114514
241	0x3d92e53c	0.07172629
242	0xbb3d9253	-0.0028926327
243	0x3cfcfc04	0.03088189
244	0x3dd8c48b	0.105843626
245	0xbdda75f0	-0.10667026
246	0xbbb5341a	-0.0055298926
247	0xbd651a71	-0.05593342
248	0xbd805ebf	-0.062680714
249	0x3db6b1a3	0.089206
250	0x3d3d23b3	0.046176624
251	0xbdbc4d33	-0.09194412
252	0xbdd4519e	-0.1036713
253	0x3c7d1cc6	0.015448755
254	0x3db1fe73	0.086911105
255	0x3bd33651	0.006445684

layer3.0.bias f4 [8]
0	0x3d15ace8	0.03654185
1	0xbc19a0bb	-0.0093767
2	0xbd113d2a	-0.03545872
3	0x3d3536cc	0.04424171
4	0xbcdba2f0	-0.026811093
5	0x399abf76	0.00029515818
6	0x3cf5b010	0.02999118
7	0xbca1c18d	-0.019745613
