DigitalRecognition-master/model_params/GDUT_net_10.pt (torch, 664983 bytes, 6 tensors)

layer1.0.weight f4 [256, 560]
0	0x3be097e0	0.0068540424
1	0xbcac1fb3	-0.02101121
2	0x3c4edf4c	0.01262648
3	0xbd0831a2	-0.03325046
4	0xbc3a782c	-0.01138119
5	0x3b07da40	0.0020729452
6	0x3d1e55d0	0.038656056
7	0xbd185ae8	-0.03719607
8	0x3b42e570	0.0029738806
9	0xbd2af32f	-0.041735824
10	0xbd278261	-0.040895823
11	0xbc80d986	-0.015728723
12	0xbc66990c	-0.014074575
13	0x3d10167a	0.035177685
14	0x3b83b0d0	0.0040188804
15	0xbd181294	-0.037127092
16	0x3d2c7088	0.042099506
17	0x3ac651a0	0.0015130527
18	0xbb1c8340	-0.0023881942
19	0xbc8ef25b	-0.017449548
20	0x3c5bd158	0.013416611
21	0x3c98810e	0.018616226
22	0x3c013c38	0.007887892
23	0x3c2aa578	0.010415427
24	0xbb647670	-0.0034860633
25	0xbc144240	-0.009048998
26	0xbd81019c	-0.06299135
27	0xbc5770bf	-0.013149439
28	0x3bd1c5c4	0.0064017493
29	0x3c2955e6	0.010335421
30	0xbc854d01	-0.01627207
31	0x3c1547e8	0.009111382
32	0xbd7500ef	-0.059815343
33	0xbd1d68d2	-0.038430043
34	0x3bd3d948	0.006465111
35	0xbd226bc3	-0.03965355
36	0xbc97a1d4	-0.018509783
37	0xbc081ce4	-0.008307669
38	0xbc292ea0	-0.010326058
39	0xbbf19e30	-0.0073735937
40	0x3c860138	0.016358003
41	0x3c0e3034	0.008678485
42	0x3bb65378	0.0055641495
43	0x3cb9e618	0.022692725
44	0xba951520	-0.0011374094
45	0x3ab7c9fa	0.0014021986
46	0xbd53b707	-0.05168822
47	0x3a2a95f8	0.00065073324
48	0xbc67115b	-0.014103259
49	0xbd4e7c98	-0.05041179
50	0xbd909b26	-0.07060842
51	0xbd1c9821	-0.03823102
52	0xbd7f4410	-0.06232077
53	0xbd5bcfd6	-0.053665005
54	0xbd81e7ca	-0.063430384
55	0xbd995990	-0.07487786
56	0xbcfbee50	-0.030753285
57	0xbc233e78	-0.009963624
58	0x3d29c0c4	0.0414436
59	0x3c49a930	0.012308404
60	0xbce59ee0	-0.028029859
61	0x3bbc9958	0.0057555847
62	0xbc68c7d8	-0.014207803
63	0xbb87f040	-0.004148513
64	0xbbccf7a8	-0.006255109
65	0xbd399786	-0.04531052
66	0xbc5656c7	-0.013082213
67	0xbc160e21	-0.009158642
68	0xbd84b2c3	-0.064794086
69	0xbd663cdf	-0.056210395
70	0x3c8884ea	0.01666494
71	0xbd47cc7c	-0.048778996
72	0xbd6af200	-0.057359695
73	0xbd816684	-0.063183814
74	0xbd63b5fa	-0.05559347
75	0x3bd66738	0.0065430664
76	0xbcf634fc	-0.030054562
77	0x3bd32bf0	0.0064444467
78	0x3ce0e5f8	0.027453408
79	0xbceabe22	-0.028655116
80	0x3bb35240	0.0054724514
81	0x38fbd400	0.00012008101
82	0x3c826a90	0.015919954
83	0xbc8aa547	-0.016924514
84	0x3cbfd14c	0.02341523
85	0xbd8cc15c	-0.06872818
86	0xbce61def	-0.028090445
87	0xba97a80a	-0.0011570465
88	0xbca89cd6	-0.020582598
89	0xbcb5e233	-0.022202587
90	0xbd4c1615	-0.049825747
91	0xbcf21c5a	-0.029554535
92	0xbb3fc3ae	-0.0029260921
93	0xbc4abd6c	-0.012374263
94	0xbd5f5bb1	-0.054530803
95	0xbb9e6a73	-0.004834467
96	0xba89aba0	-0.0010503419
97	0xbd0f6296	-0.03500613
98	0x3be85668	0.0070903786
99	0x3c407754	0.0117472
100	0xbcc4d47f	-0.024027107
101	0xbbafd598	-0.0053660385
102	0x3bf314e0	0.00741826
103	0xbc82813f	-0.01593077
104	0x3c5d0ac0	0.0134913325
105	0x3beb78bd	0.007186024
106	0x3c635cd8	0.013877116
107	0xbcfe85ac	-0.0310696
108	0xbb8d1703	-0.0043057217
109	0xbd824bbb	-0.06362101
110	0xbc27fde7	-0.010253406
111	0xbd326b39	-0.043559287
112	0xbd8e1442	-0.069374576
113	0xbb394a7c	-0.0028273156
114	0xbbefb684	-0.0073154587
115	0xbcde6dbc	-0.027151935
116	0x3ca315ae	0.019907799
117	0x3cea1b58	0.028577492
118	0xbc0fc8c0	-0.00877589
119	0xbca37bff	-0.019956587
120	0x3cd42264	0.025895305
121	0xbd1772dc	-0.036974773
122	0x3d1ba814	0.03800209
123	0xbc8df251	-0.01732746
124	0x3b9d5a8b	0.0048020533
125	0xbd185183	-0.03718711
126	0xbd61a8c3	-0.055092584
127	0xbd438b45	-0.04774024
128	0xbcd23486	-0.02565981
129	0xbd687664	-0.05675353
130	0xbd8d3434	-0.068947226
131	0xbd2d8964	-0.042367354
132	0xbd33ace2	-0.043866046
133	0xbcb0ecaa	-0.021597225
134	0xbc95cd32	-0.018286321
135	0xbd7bad06	-0.061444305
136	0xbcc7e168	-0.024399474
137	0x3c97f572	0.018549655
138	0x3d112c2d	0.03544252
139	0xbc57ac94	-0.013163704
140	0xbd22d3e8	-0.03975287
141	0x3d0a2ab6	0.03373214
142	0xbc9916e1	-0.018687667
143	0x3d024c54	0.031811073
144	0x3d407119	0.04698286
145	0xbd5078a5	-0.050896306
146	0xbd9619c1	-0.07329131
147	0xbd772404	-0.06033708
148	0xbd03dd25	-0.03219332
149	0xbd9729f7	-0.07381051
150	0xbd63324f	-0.0554679
151	0xbc87b134	-0.01656399
152	0xbccd7949	-0.025082247
153	0xbcb388fa	-0.021915901
154	0xbb651d28	-0.0034960005
155	0x3c54681c	0.012964275
156	0x3d0a8c3b	0.03382514
157	0x3d220538	0.03955576
158	0x3cdf0088	0.027221933
159	0xbceb2604	-0.02870465
160	0xbd91353d	-0.070902325
161	0xbcbde9e1	-0.023182811
162	0x3cb80130	0.022461504
163	0xbbedce50	-0.0072572604
164	0x3d4d1652	0.050070114
165	0xbd99709e	-0.07492183
166	0xbc90929f	-0.01764804
167	0x3a610d71	0.0008585072
168	0xbd6a21c7	-0.05716112
169	0xbb4c2f1a	-0.0031156004
170	0xbc2eceb5	-0.0106694
171	0xbd7ea0d0	-0.06216508
172	0xbc92c677	-0.017916901
173	0xbce954e0	-0.028482854
174	0xbd92c3d0	-0.071662545
175	0xbcd29d20	-0.025709689
176	0x3cb44e70	0.022010058
177	0x3b845340	0.0040382445
178	0x3c10c62c	0.00883631
179	0x3c8e103e	0.01734173
180	0xbcc71d3c	-0.024305932
181	0x3c81a906	0.015827667
182	0x3ac508a0	0.0015032478
183	0xbbe7c740	-0.007073313
184	0x3c7bdec3	0.015372935
185	0xbd1eae12	-0.038740225
186	0xbd434b6f	-0.04767936
187	0xbd16c64b	-0.0368102
188	0xbd19b4b2	-0.03752584
189	0xbd43b743	-0.047782194
190	0xbda5d973	-0.08098116
191	0x3bbb84b8	0.0057226084
192	0xbbadca15	-0.005303631
193	0xbd8d1569	-0.06888849
194	0xbd22fb9e	-0.039790742
195	0xbd273fe2	-0.040832408
196	0xbd0b4c84	-0.034008518
197	0x3d21a57c	0.03946446
198	0xbc221e20	-0.009894878
199	0x3d1f6b13	0.038920473
200	0x3b3ebcd0	0.002910424
201	0xbac20100	-0.0014801323
202	0x3be335d8	0.006933909
203	0x3cdf0628	0.027224615
204	0xbcd91ec0	-0.02650392
205	0xbc75f237	-0.015011362
206	0x3bf3908f	0.007433004
207	0x3bad3932	0.005286359
208	0xbd8d51c4	-0.06900361
209	0xbd0c06a3	-0.034186017
210	0xbd4a8258	-0.04944071
211	0xbb4fb9f6	-0.0031696535
212	0xbd81309d	-0.063081004
213	0xbd82c486	-0.0638514
214	0x3c30bca4	0.010787163
215	0xbcfea68e	-0.031085279
216	0xbd0fd8ff	-0.035119053
217	0x3cf69e85	0.030104885
218	0xbc18157e	-0.009282468
219	0x3c8045a6	0.015658211
220	0x3bd44c90	0.0064788535
221	0xbd103636	-0.03520795
222	0xbb054910	-0.0020337738
223	0xbd16c199	-0.036805723
224	0xba67d175	-0.0008843162
225	0x3c615bee	0.013754828
226	0xbd4d72e0	-0.05015838
227	0xbcb258d6	-0.021770876
228	0xbd51701c	-0.051132306
229	0xbd90be17	-0.07067507
230	0xbca30880	-0.019901514
231	0x3ba2dfdf	0.004970535
232	0xbd6c1fc4	-0.05764748
233	0xbd86347f	-0.065529816
234	0x3bb1c4cf	0.0054250727
235	0xbd931e25	-0.07183484
236	0xbcddd4cc	-0.027079009
237	0x3a9fad60	0.0012182407
238	0xbc6a8eb0	-0.014316246
239	0x3ccc45ec	0.024935685
240	0x3c0d492c	0.008623403
241	0x3c6d9f28	0.014503278
242	0x3d0661a8	0.032807976
243	0x3d23d2e8	0.039996058
244	0xbd584a22	-0.052805074
245	0xbc2228f3	-0.009897458
246	0xbcbc17b7	-0.022960527
247	0xbb5d514e	-0.0033770385
248	0xbc405f80	-0.011741519
249	0xbd221564	-0.03957118
250	0xbcd1bc1c	-0.025602393
251	0xbd941783	-0.07231047
252	0xba9048a1	-0.0011007973
253	0xbcf02402	-0.029314045
254	0xbd429085	-0.047501106
255	0xbce8b315	-0.028405705

layer1.0.bias f4 [256]
0	0xbcefe125	-0.029282162
1	0xbd67ccae	-0.056591682
2	0x3bcef586	0.00631589
3	0xbd23ece5	-0.040020842
4	0xbbe92b2f	-0.0071157436
5	0xbd0d84c0	-0.03455043
6	0x3dc1312b	0.09433206
7	0xbd892d24	-0.06698063
8	0xbc5425a7	-0.01294843
9	0x3c002735	0.007821848
10	0xbca16e37	-0.019705875
11	0xbd317cf1	-0.043332044
12	0xbd8825fe	-0.066478714
13	0xbd62858e	-0.05530315
14	0x3d700c9f	0.058605786
15	0xbd2d0cb9	-0.04224846
16	0xbb975e72	-0.004619413
17	0xbd065a06	-0.032800697
18	0xbd44c4be	-0.04803919
19	0x3cb9215d	0.022598917
20	0xb93a37ec	-0.00017759175
21	0xbc3898e0	-0.011266917
22	0xbca2f256	-0.019890945
23	0xbd53e69d	-0.0517336
24	0x3d0d8123	0.034546982
25	0xbd88dd5b	-0.06682845
26	0xbd10f892	-0.035393305
27	0xbd0f1aec	-0.034937784
28	0x3c862948	0.016377106
29	0xbd20a724	-0.039221898
30	0xbd99a167	-0.07501488
31	0xbd53b380	-0.051684856
32	0xbd7dca93	-0.061960768
33	0x3ce0a244	0.027421124
34	0xbbf70027	-0.00753786
35	0xbc46e55e	-0.012139646
36	0xbba55b5b	-0.005046291
37	0xbc206ec1	-0.009792031
38	0xbc3988db	-0.011324133
39	0xbd638b28	-0.05555263
40	0xbc16c19d	-0.009201434
41	0xbcda5a88	-0.026654497
42	0xbcf4c462	-0.029878799
43	0xbc46d775	-0.01213633
44	0xbd47ec10	-0.04880911
45	0xbce461fe	-0.027878758
46	0xbccadcd2	-0.024763498
47	0x3d251c5b	0.040310245
48	0xbd145a28	-0.036218792
49	0x3b022283	0.0019856996
50	0xbd8c8f37	-0.068632536
51	0xbc945a53	-0.018109476
52	0xbda46e6d	-0.080288745
53	0xbcd24267	-0.025666429
54	0xbd572125	-0.052521843
55	0xb8a67a00	-7.938221e-05
56	0x3d748497	0.05969676
57	0x3cd9c5f0	0.026583642
58	0xbd7655a2	-0.06014026
59	0xbd1d950c	-0.03847222
60	0xbdaea919	-0.085283466
61	0xbd5d4606	-0.054021858
62	0xbcca8f0f	-0.024726419
63	0xbd4a1572	-0.049336858
64	0xbc22e2b9	-0.00994175
65	0xbccfa680	-0.025347948
66	0xbd0e3284	-0.034716144
67	0x3bd4f1b4	0.00649854
68	0xbc80c5eb	-0.015719375
69	0x3aa0665f	0.001223754
70	0x3cfe5ee8	0.031051114
71	0xbd9eedda	-0.0776021
72	0xbd0aa34b	-0.033847135
73	0xbda26dc0	-0.079310894
74	0xbce76cb6	-0.02825008
75	0xbda6fdb9	-0.081538625
76	0x3c301d87	0.010749227
77	0x3dbebe7e	0.09313677
78	0xbcd0c644	-0.025485165
79	0xbcfb677f	-0.030689
80	0xbd368a29	-0.044565354
81	0xbc79ec54	-0.015254099
82	0x3cfe4019	0.031036424
83	0xbbd97ced	-0.0066372068
84	0xbbe53578	-0.0069948994
85	0xbc1a978f	-0.009435548
86	0xbdd19900	-0.102342606
87	0xbd060ff4	-0.032730058
88	0xbcec3fc8	-0.028839007
89	0xbc95d912	-0.018291984
90	0xbb57c591	-0.0032924155
91	0x3d4b3df4	0.04961963
92	0x3c932230	0.017960638
93	0xbd2caebc	-0.042158827
94	0xbd394b2c	-0.045237705
95	0xbd26a45e	-0.040684097
96	0xbd944490	-0.0723964
97	0xb9bcd980	-0.00036020204
98	0xbd5b99a5	-0.053613324
99	0x3c26af94	0.010173697
100	0x3d25d35e	0.04048478
101	0x3c848eda	0.016181398
102	0xbb5023eb	-0.003175969
103	0x3d13007e	0.03588914
104	0xbd6e1eaf	-0.05813473
105	0xbd41afa9	-0.047286663
106	0xbda2a8ec	-0.079423755
107	0xbc5b2ea3	-0.013377818
108	0xbd5224e4	-0.051304713
109	0xbd4cf19e	-0.05003511
110	0xbbd6d508	-0.006556157
111	0xbcd63bb8	-0.026151523
112	0xbdb5a069	-0.088684864
113	0xbb7ff993	-0.003905867
114	0x3d1f97fc	0.038963303
115	0x3ca50ed3	0.02014867
116	0xbc9c9454	-0.019113697
117	0x3c6093d5	0.013707121
118	0xbd830b86	-0.06398682
119	0xbdb5d21d	-0.088779666
120	0xbd9ff26c	-0.0780991
121	0xbd174b04	-0.036936775
122	0x3ca002f2	0.019532654
123	0x3cf6c9a0	0.03012544
124	0xbd630278	-0.055422276
125	0xbd2c11de	-0.042009227
126	0xbd169ae5	-0.036768813
127	0x3c1e2513	0.009652394
128	0xbd19fcee	-0.03759473
129	0xbdb03423	-0.08603694
130	0x3d1cf609	0.038320575
131	0xbd74bca5	-0.059750218
132	0x3c8d91e1	0.017281475
133	0x3d0c3cdb	0.034237724
134	0xbc71a939	-0.0147498185
135	0x3cd6d89f	0.02622634
136	0xbd68bc6e	-0.056820326
137	0x3dc1dc19	0.094658084
138	0xbbcc7006	-0.00623894
139	0xbd59123e	-0.052995913
140	0x3c4362f7	0.0119254505
141	0xbcd0ab25	-0.025472233
142	0xbdb3fd90	-0.087885976
143	0xbc13f2e2	-0.009030076
144	0xbd1ec739	-0.038764212
145	0xbd689f5a	-0.056792594
146	0xbc1e6692	-0.009668009
147	0xbccd3a14	-0.025052108
148	0xbbc3958c	-0.005968755
149	0xbd8d2cff	-0.06893348
150	0xbdb5e009	-0.08880622
151	0xbd05bc68	-0.03265038
152	0xbd5fb84f	-0.05461913
153	0xbd4a21b5	-0.04934855
154	0xbd981e17	-0.07427614
155	0x3cd0871c	0.02545505
156	0xbcce70a5	-0.025200197
157	0xbd906c33	-0.07051887
158	0xbc617826	-0.013761556
159	0x3a295451	0.00064594025
160	0x3cf0d2bc	0.029397361
161	0xbc1c98eb	-0.009557943
162	0xbd91df33	-0.0712265
163	0xbd75b708	-0.059989005
164	0x3d11fcea	0.03564159
165	0xbda98319	-0.08276958
166	0xbda5878b	-0.080824934
167	0xbd24e219	-0.040254686
168	0xbdad6a2c	-0.08467516
169	0xbced9293	-0.029000556
170	0xbd618019	-0.055053804
171	0xbc73ad8e	-0.014872922
172	0x3cc8b145	0.024498591
173	0xbd97f335	-0.07419435
174	0xbd6a8920	-0.05725968
175	0x3d9097ef	0.07060229
176	0xbc43a73d	-0.011941728
177	0xbd4f08fb	-0.050545674
178	0x3c3d6176	0.011558881
179	0x3d0c5fc0	0.034271
180	0x3bc70dcf	0.006074644
181	0xbd78c506	-0.06073477
182	0x3d0fcce1	0.035107497
183	0x3d0f82ca	0.03503684
184	0xbd527804	-0.051383987
185	0xbd6f3f6a	-0.058410086
186	0xbd98e946	-0.074663684
187	0xbd51f36d	-0.05125754
188	0xbc4b36ec	-0.012403231
189	0xbd353c86	-0.044247173
190	0x3d66f2a2	0.056383736
191	0xbdcab02c	-0.09896883
192	0xbcb85cce	-0.02250519
193	0xbd8bf80d	-0.06834421
194	0xbaadb2c1	-0.0013252125
195	0xbcbafc03	-0.022825247
196	0x3d2e70fb	0.042588215
197	0xbd56ac6b	-0.052410524
198	0xbbfbd24b	-0.007684981
199	0xbceee3f1	-0.029161425
200	0xbc8d6a68	-0.017262653
201	0xbc94be58	-0.01815717
202	0x3d14f696	0.036367975
203	0xbc6d28f9	-0.014475101
204	0xbcc03740	-0.023463845
205	0x3c9ce1ed	0.019150699
206	0xbda81871	-0.08207787
207	0xbcde558b	-0.0271404
208	0x3ca6f0fd	0.020378584
209	0xbd853f23	-0.06506183
210	0xbd9d0368	-0.07666665
211	0xbd5b6856	-0.0535663
212	0xbd82ae9c	-0.0638096
213	0x3d74301d	0.059616197
214	0xbcbf4621	-0.02334887
215	0xbc254b16	-0.010088703
216	0x3cf0df89	0.029403465
217	0xbd83c36e	-0.0643376
218	0x3cd66f34	0.026176073
219	0x3bb6892a	0.0055705504
220	0x3c6e9530	0.014561936
221	0xbc919904	-0.017773159
222	0x3c82e517	0.01597838
223	0xbd01be14	-0.031675413
224	0xbcd477b1	-0.02593598
225	0xbcb90398	-0.022584721
226	0xbd22734d	-0.03966074
227	0xba095e81	-0.00052402174
228	0xbd193ca9	-0.037411366
229	0x3cca396e	0.024685588
230	0xbd1b0ab0	-0.03785199
231	0xbbbf173d	-0.0058316276
232	0xbd53145b	-0.051533084
233	0x3b121e38	0.0022295844
234	0xbdaca792	-0.08430399
235	0xbb1285b6	-0.002235753
236	0xbcaeb347	-0.02132572
237	0xbd0a2739	-0.033728812
238	0xbd6ee5e2	-0.058324702
239	0xbd10b403	-0.035327923
240	0xbc6cd5ac	-0.01445524
241	0xbbcce953	-0.0062534004
242	0xbcee5216	-0.029091876
243	0x3c5cf5dc	0.013486352
244	0xbdb2ea7c	-0.087361306
245	0x3b12bd9b	0.0022390846
246	0x3b680b76	0.0035407222
247	0xbd84ef9f	-0.064910166
248	0x3ca54782	0.0201757
249	0xbd1fb7c1	-0.0389936
250	0xbd5f67b2	-0.05454225
251	0xbd855d1b	-0.06511899
252	0xbc334ef3	-0.010944116
253	0x3cf147ee	0.029453244
254	0xbcc9103e	-0.024543878
255	0xbd24f2d8	-0.040270656

layer2.0.weight f4 [84, 256]
0	0x3d247f64	0.04016055
1	0x3c416f5e	0.011806337
2	0xbd0817de	-0.033225887
3	0xbc7af277	-0.015316597
4	0x3bd71bbf	0.006564587
5	0xbdb0a86e	-0.086258754
6	0xbd9b5143	-0.07583859
7	0x3da66c5c	0.08126137
8	0xbda5bee5	-0.08093051
9	0x3c8eac57	0.017416162
10	0xbbfd0f76	-0.0077227904
11	0x3dcf2296	0.101140186
12	0xbd0e508f	-0.034744795
13	0x3d0f7835	0.035026748
14	0xbdb79011	-0.08963025
15	0xba3a965a	-0.0007117741
16	0x3d91a5d5	0.07111708
17	0x3d6f15de	0.058370464
18	0x3d24675e	0.04013764
19	0xbcd50293	-0.026002204
20	0xbd05e633	-0.03269024
21	0xbd4a26d8	-0.04935345
22	0x3dce822a	0.100834206
23	0x3d414384	0.04718353
24	0x3dd45f8e	0.10369788
25	0xbdcc46a1	-0.09974409
26	0xbd354ab4	-0.044260696
27	0x3d9d126d	0.0766953
28	0xbdc9567f	-0.09830951
29	0x3c195ab4	0.009360004
30	0x3db41220	0.087925196
31	0x3cb33d33	0.021879768
32	0x3b8fef83	0.0043925657
33	0x3c9cb104	0.019127376
34	0xbd3e839a	-0.046512224
35	0x3d7c88f2	0.06165404
36	0x3d0ba733	0.034095
37	0x3d44d5fa	0.048055626
38	0xbb405e66	-0.002935314
39	0xbd4df9be	-0.050287
40	0xbc8a5249	-0.01688494
41	0x3d4c73b3	0.049915027
42	0xbb968cb5	-0.0045944103
43	0xbc061885	-0.008184557
44	0x3daa7f54	0.08325067
45	0xbc719f00	-0.014747381
46	0x3c1eb8c0	0.0096876025
47	0x3dc3cd1b	0.09560605
48	0xbdb2db93	-0.08733287
49	0x3c7374d4	0.014859397
50	0x3d8efca9	0.06981785
51	0xbc5f0319	-0.013611578
52	0x3d6d1ec5	0.057890672
53	0x3ceb3504	0.028711803
54	0xbd9e53d1	-0.077308305
55	0x3ae1fa80	0.0017240793
56	0x3c768088	0.015045293
57	0xbcb69b45	-0.022290835
58	0x3d5c4ce0	0.05378425
59	0xbd216947	-0.03940704
60	0x3d068524	0.032841817
61	0x3da84e7f	0.08218097
62	0x3d3437d0	0.04399854
63	0x3d22e95e	0.039773338
64	0x3c08050a	0.008301983
65	0xbc471c91	-0.012152807
66	0xbb75b27d	-0.003749042
67	0x3ceb250d	0.02870419
68	0xbc45d8f6	-0.012075653
69	0xbd3e7401	-0.04649735
70	0xbdf5bcae	-0.119988784
71	0xbda68144	-0.08130124
72	0xbdbbd84f	-0.09172117
73	0x3abbddfe	0.0014333127
74	0xbb453bc5	-0.003009544
75	0xbd76c730	-0.060248554
76	0x3db906cc	0.090344995
77	0xbc1d78ef	-0.009611352
78	0x3cc5b1ac	0.024132572
79	0xbcba6e99	-0.022757815
80	0xbcc0d663	-0.023539728
81	0xbd7f2029	-0.06228653
82	0x3cb8e257	0.022568865
83	0xbd28e1dd	-0.041231025
84	0xbd8cab48	-0.06868607
85	0x3c8d1820	0.017223418
86	0x3ceca96c	0.02888938
87	0x3ca3b80a	0.019985218
88	0x3c0c4c3c	0.008563098
89	0x3d055964	0.032555953
90	0x3c83f922	0.016110007
91	0x3bf2fdc9	0.0074155075
92	0xbd104220	-0.03521931
93	0xbc04201e	-0.008064298
94	0xbd806b68	-0.06270486
95	0x3cb650a0	0.022255242
96	0x3c917b66	0.017759036
97	0xbd5783a4	-0.052615777
98	0xbbe17639	-0.0068805483
99	0xbca7036c	-0.020387374
100	0xbdb1ceac	-0.08681998
101	0x3d62765d	0.05528866
102	0xba799972	-0.00095214613
103	0xbc0b4d08	-0.008502252
104	0x3dd17a45	0.10228399
105	0x3db6f73b	0.08933874
106	0xbdd6bd50	-0.10485327
107	0x3bc958d9	0.0061446247
108	0x3d23e9a0	0.040017724
109	0x3d8a274f	0.06745779
110	0xbd533d70	-0.051572263
111	0x3c9af258	0.018914387
112	0x3c9da63e	0.01924431
113	0xbbda5e5d	-0.006664081
114	0xbd2c3b64	-0.042048827
115	0xbd63e0f8	-0.05563447
116	0xbd0c87cd	-0.034309197
117	0x3cd21457	0.025644464
118	0x3da63053	0.08114686
119	0x3bd17ad6	0.006392817
120	0xbda62c3e	-0.08113907
121	0x3d4ecf23	0.05049051
122	0x3d0a163e	0.033712618
123	0x3db7d3a0	0.08975911
124	0x3d009aaa	0.0313975
125	0x3d00aef7	0.03141686
126	0x3d0f5ef4	0.035002664
127	0xbd695317	-0.056964006
128	0xbc91b8b8	-0.017788276
129	0xbdca22a9	-0.09869892
130	0x3d5b859a	0.05359421
131	0x3d81fcc9	0.06347043
132	0xbc7f6a69	-0.015589335
133	0x3cd5a109	0.026077764
134	0x3ddf256d	0.1089581
135	0x3d8f6e1e	0.07003425
136	0x3dbe8b40	0.093039036
137	0x3c29ae5c	0.010356512
138	0xbdb8110f	-0.08987629
139	0xbd935e33	-0.071957015
140	0xbdbca822	-0.09211756
141	0x3d493f84	0.04913284
142	0x3ddd9930	0.10820234
143	0x3b711411	0.0036785642
144	0xbd5e55da	-0.054281093
145	0xbce3592f	-0.027752487
146	0x3d499d00	0.049221992
147	0x3d257277	0.040392365
148	0x3d088080	0.033325672
149	0xbd366b13	-0.044535708
150	0xb8837646	-6.268597e-05
151	0x3a62a677	0.0008646021
152	0xbd2d6b8f	-0.042338904
153	0x3cdb7fcb	0.026794335
154	0x3dda7869	0.10667498
155	0xbca5ec28	-0.02025421
156	0xbd89eeb6	-0.067349836
157	0xbcc8a303	-0.024491793
158	0xbd1adc0c	-0.03780751
159	0x3cab6bc5	0.020925412
160	0x3b62eccf	0.0034626012
161	0xbced400d	-0.028961206
162	0x3da9e362	0.08295323
163	0x3dd279d7	0.10277145
164	0xbc2d9271	-0.010593996
165	0x3c385d3a	0.011252696
166	0x3d3ab44c	0.0455821
167	0xbd5b877c	-0.053596005
168	0xbd1a8420	-0.03772366
169	0x3d14f690	0.036367953
170	0xbd30e9f8	-0.04319188
171	0xbc9ba044	-0.018997319
172	0x3da14cf6	0.07876007
173	0x3ca24918	0.019810244
174	0x3d5fc403	0.05463029
175	0x3d49e044	0.049286142
176	0x3dc176fd	0.09446523
177	0xbc016ee5	-0.0078999745
178	0xbd5fcc88	-0.054638416
179	0x3bf87a70	0.007582955
180	0x3c66c7cb	0.01408572
181	0xbd0c4aea	-0.03425113
182	0xbde57604	-0.1120415
183	0xbc5e1460	-0.0135546625
184	0x3b6f78d1	0.0036540518
185	0xbd6c3ceb	-0.057675283
186	0xbd6cb33d	-0.057788122
187	0x3c8e10af	0.01734194
188	0x3d27b7f0	0.0409469
189	0x3c312609	0.010812291
190	0xbd50d4ba	-0.05098412
191	0x3c2dc418	0.010605834
192	0x3c09aa3f	0.008402406
193	0xbc3e6686	-0.011621123
194	0xbd133894	-0.03594263
195	0xbd472b0a	-0.04862503
196	0x3c8ab06c	0.016929828
197	0x3d87db38	0.066336095
198	0xbc8f8154	-0.017517723
199	0x3cf05eba	0.029342044
200	0x3db395cc	0.08768806
201	0xbdd67b7b	-0.10472771
202	0xbaf967c0	-0.0019028112
203	0xbd355f89	-0.044280563
204	0xbad06184	-0.0015898203
205	0x3d9b95a8	0.07596904
206	0xbbd47687	-0.006483856
207	0x3d89724c	0.067112535
208	0x3cd40ea2	0.025885884
209	0x3caff622	0.02147967
210	0x3dc7a692	0.09748568
211	0x3d1aab35	0.037760932
212	0xbdb90541	-0.09034205
213	0xbd8649e4	-0.06557062
214	0x3b9f6a95	0.0048650005
215	0x3a92973a	0.0011183985
216	0x3df06b7f	0.11739253
217	0x3dc1a26c	0.09454808
218	0xbd196d68	-0.037457854
219	0xbd926017	-0.07147234
220	0xbd90622c	-0.07049975
221	0xbd5fce5a	-0.05464015
222	0xbb0f9d49	-0.0021913818
223	0x3d4dbf12	0.050231047
224	0xbd4f78e9	-0.05065242
225	0xbb3604dd	-0.0027773895
226	0x3c95ad92	0.018271241
227	0xbd144ba5	-0.036204953
228	0xbc960a24	-0.018315382
229	0xbc353c68	-0.011061765
230	0x3bf3e3ef	0.0074429433
231	0x3b1aafcd	0.002360332
232	0x3dcae749	0.099073954
233	0xbcb36709	-0.021899717
234	0xbddb89e0	-0.10719657
235	0x3d5e97e3	0.05434407
236	0x3cb027f7	0.021503432
237	0x3d339036	0.043838702
238	0x3b6167e5	0.0034394201
239	0xbc90d2fb	-0.017678728
240	0x3d12998f	0.035790976
241	0x3d896449	0.06708581
242	0x3d83fdd7	0.064449005
243	0xbcb08d6f	-0.021551816
244	0x3ddd6baa	0.10811551
245	0x3c1fc623	0.009751829
246	0xbcbc467e	-0.022982832
247	0x3c8c5b8f	0.017133502
248	0xbdb3f04d	-0.08786068
249	0x3d6974aa	0.056996025
250	0x3ddc5263	0.107579015
251	0xbc6ef7ad	-0.014585418
252	0xbd923d09	-0.07140548
253	0x3d4f7859	0.05065188
254	0x3d095bea	0.03353492
255	0x3d943f4b	0.07238635

layer2.0.bias f4 [84]
0	0x3d30c077	0.0431523
1	0xbc87720b	-0.016533872
2	0x3d0cb8b9	0.034355853
3	0xbcad853c	-0.021181695
4	0xbd331bca	-0.043727674
5	0x3c8f7db9	0.017516004
6	0x3d07c423	0.033146035
7	0xbdc11497	-0.09427755
8	0x3d828fb3	0.06375065
9	0xbc000412	-0.00781347
10	0xbd13f22b	-0.03611962
11	0xbc3bac0a	-0.0114545915
12	0xbdb30008	-0.0874024
13	0x3c848c76	0.016180258
14	0x3c51836a	0.012787679
15	0xbc2f1476	-0.010686031
16	0xbda7414e	-0.08166753
17	0xbc9d53c0	-0.019204974
18	0xbd1c8c9a	-0.038220026
19	0xbd072133	-0.032990646
20	0xbc527a58	-0.012846552
21	0xbb7b6ad8	-0.0038363244
22	0xbd83a43a	-0.06427808
23	0xbd58a96d	-0.052895952
24	0xbdaa3dad	-0.08312545
25	0xbc4ad63f	-0.012380182
26	0x3d9a4243	0.0753217
27	0xbb0f7990	-0.0021892525
28	0xbd84bd48	-0.06481415
29	0x3cd32cec	0.025778256
30	0xbd40e082	-0.047089107
31	0xbdbd8fdf	-0.09255957
32	0xbcb1f466	-0.021722984
33	0x3ba78cb5	0.005113209
34	0x3cac4618	0.021029517
35	0xbdd0323c	-0.101658314
36	0xbd786ff2	-0.060653634
37	0xbcecf093	-0.028923308
38	0xbd0e7eea	-0.034789003
39	0xbd5133af	-0.05107468
40	0xbdca2fae	-0.098723754
41	0xbd31a421	-0.043369416
42	0x3c97fee0	0.018554151
43	0xbc1a01e7	-0.009399868
44	0xbce6bb2f	-0.028165428
45	0xbd5a8380	-0.053348064
46	0xbc570cb8	-0.013125591
47	0xbdbf40b7	-0.09338515
48	0x3cde3fa5	0.027129957
49	0xbd11a666	-0.03555908
50	0x3dd15fb4	0.10223332
51	0x3c052893	0.008127349
52	0x3cf6e862	0.030140106
53	0xbd095fd1	-0.033538643
54	0xbd7172f7	-0.05894753
55	0xbc9a2f5b	-0.018821409
56	0xbbfe6b65	-0.0077642673
57	0x3c2b2844	0.010446612
58	0xb9961db1	-0.0002863235
59	0xbdc2cb70	-0.09511459
60	0x3caf43bb	0.021394601
61	0xbdaeaecf	-0.08529436
62	0xbd0056a5	-0.03133263
63	0xbd675933	-0.05648155
64	0xbc02bbde	-0.007979361
65	0x3cdccb07	0.02695228
66	0x3d9a1e8b	0.07525357
67	0xbde42ccb	-0.11141356
68	0xbbf59302	-0.0074943313
69	0x3d435678	0.047689885
70	0xbd03f717	-0.032218065
71	0x3c2e77f4	0.010648716
72	0xbbf427a1	-0.007451013
73	0x3c4b2995	0.012400051
74	0xbcef9956	-0.029247921
75	0xbc635272	-0.013874637
76	0xbdb1e09e	-0.086854205
77	0xbd0c7977	-0.034295525
78	0x3b8bead7	0.0042699385
79	0xbc9c51c0	-0.01908195
80	0xbb519fcc	-0.0031986116
81	0xbcf36c33	-0.02971468
82	0xbc66830a	-0.014069328
83	0x392bbd20	0.00016378285

layer3.0.weight f4 [6, 84]
0	0x3d2e8a3e	0.042612307
1	0xbe0adf80	-0.13561821
2	0xbce0d718	-0.027446315
3	0xbaa9e732	-0.0012962578
4	0x3d1fade3	0.03898419
5	0x3da70c8c	0.0815669
6	0x3cfca5ca	0.030840773
7	0xbce092fa	-0.027413834
8	0x3dd7bc4b	0.10533961
9	0x3dbb0a81	0.09132863
10	0xbcd2ab6b	-0.025716504
11	0x3c9f3f82	0.019439463
12	0x3d641989	0.055688415
13	0x3dc55eab	0.09637197
14	0x3c9d90e4	0.019234128
15	0xbdb649af	-0.08900773
16	0x3cfecfb1	0.031104894
17	0x3b4e2b19	0.0031458794
18	0x3e381307	0.17976008
19	0x3d3fe044	0.046844736
20	0x3df6371a	0.120222285
21	0xbc8ab5a4	-0.016932316
22	0xbd461cca	-0.0483673
23	0x3d1ae07d	0.037811745
24	0x3db24764	0.08705023
25	0xbe1308ad	-0.14358778
26	0xbc5d8e42	-0.013522686
27	0x3cf932df	0.030419765
28	0x39a26b74	0.00030979107
29	0x3d7e75de	0.062124126
30	0xbd4adc4f	-0.04952651
31	0xbcfae726	-0.030627798
32	0x3e104a1a	0.14090768
33	0x3d7ddf9e	0.061980836
34	0x3d56863a	0.052374102
35	0xbe0214d5	-0.1270326
36	0xbd990ac4	-0.074727565
37	0x3d517875	0.051140267
38	0x3cf700d9	0.030151771
39	0x3db9b232	0.09067191
40	0xbd0ea7b6	-0.03482791
41	0x3cd52ef8	0.026023373
42	0xbd8642ad	-0.06555686
43	0x3d8c6739	0.06855626
44	0xbdce7818	-0.100815
45	0xbba8b1c0	-0.0051481426
46	0x3d9aa065	0.07550124
47	0xbdab165f	-0.08353876
48	0x3cfdea5a	0.030995537
49	0xbd67917b	-0.056535225
50	0x3b8a1154	0.0042134915
51	0x3df94015	0.12170426
52	0xbd24354f	-0.0400899
53	0x3aca5a97	0.0015438375
54	0xba96db46	-0.001150944
55	0xbdd84df1	-0.10561741
56	0x3dabd18d	0.08389578
57	0xbbccadf4	-0.0062463228
58	0xbe03d2cd	-0.12873383
59	0x3ce66074	0.028122164
60	0xbb11ee26	-0.0022267192
61	0x3e024e51	0.12725188
62	0x3d4b9465	0.049702067
63	0xbd07814f	-0.033082303
64	0xbdbd5083	-0.09243872
65	0xbd540477	-0.05176207
66	0x3daea18a	0.08526905
67	0xbdf9c794	-0.1219627
68	0x3d8578bc	0.06517169
69	0xbe022dd9	-0.12712802
70	0x3d9ee505	0.07758526
71	0x3d9cec46	0.07662253
72	0x3c301f52	0.010749655
73	0xbdb6ed70	-0.08932006
74	0x3da12a2d	0.078693725
75	0x3d26add6	0.040693127
76	0xbdb55527	-0.08854132
77	0x3d56a980	0.05240774
78	0xbdd14fe4	-0.10220316
79	0xbdf922b1	-0.1216482
80	0xbdeedb34	-0.116629034
81	0x3e001b33	0.12510376
82	0xbd7a78e2	-0.06115044
83	0x3d6620e1	0.0561837
84	0x3d7ddd22	0.061978467
85	0xbd6db822	-0.05803693
86	0x3ba83eff	0.005134463
87	0x3d38359f	0.044973012
88	0xbd941c0e	-0.072319135
89	0x3cbb3cd6	0.022856157
90	0x3d899a96	0.06718938
91	0xbcf26ccb	-0.029592892
92	0xbc8b3a6d	-0.016995633
93	0xbdd4747e	-0.103737816
94	0xbca24da9	-0.019812422
95	0xbc3ee998	-0.011652373
96	0x3cbf158d	0.023325706
97	0xbcc427b1	-0.023944708
98	0x3d621eb3	0.05520506
99	0xbe0c68dd	-0.13711877
100	0xbd5f0fc3	-0.05445839
101	0x3de087f2	0.109634295
102	0xbdfbba0a	-0.122913435
103	0x3d9667bb	0.07344004
104	0xbddfc941	-0.10927058
105	0x3d089590	0.03334576
106	0xbd11910b	-0.035538714
107	0x3d3d88b4	0.04627295
108	0xbd753bad	-0.059871364
109	0x3c998777	0.018741352
110	0xbcd3c51d	-0.025850827
111	0x3d522c8c	0.051312014
112	0xbe104058	-0.14087045
113	0xbd28a618	-0.041174024
114	0xb85d669e	-5.2786076e-05
115	0xbd88341e	-0.066505656
116	0x3bbb2c53	0.005712071
117	0xbe11b2a4	-0.14228302
118	0xbdc23358	-0.09482449
119	0x3ce4b42e	0.027917948
120	0x3c117829	0.008878746
121	0x3da2e4c5	0.079537906
122	0x3c2f4405	0.010697369
123	0xbda8bd5d	-0.08239243
124	0x3cceb134	0.025230981
125	0xbde361ae	-0.11102615
126	0xbd85dd7f	-0.06536388
127	0xbd81ed0d	-0.06344042
128	0x3e15d38c	0.1463148
129	0xbbb8ceef	-0.005639903
130	0xbc590fe7	-0.01324842
131	0x3d7da799	0.06192741
132	0x3d568f13	0.05238254
133	0x3d3ea85e	0.046547286
134	0xbda7ba2a	-0.08189805
135	0xbdfa7d60	-0.12230945
136	0x3dad205c	0.08453438
137	0xbd3ea501	-0.04654408
138	0x3aac9942	0.0013168233
139	0x3c86f8ec	0.016476117
140	0x3cc7ca57	0.024388475
141	0xbe010a09	-0.12601484
142	0xbe0ae457	-0.13563667
143	0x3d4d5253	0.05012734
144	0x3de5f9b9	0.112292714
145	0x3bf68634	0.0075233225
146	0xbca92178	-0.020645842
147	0xbd94104c	-0.07229671
148	0xbd29a686	-0.041418575
149	0x3c3d400e	0.011550916
150	0x3d9ab5d6	0.07554214
151	0xbdde737e	-0.10861872
152	0xbba30958	-0.004975479
153	0xbd4205ee	-0.047368936
154	0x3cb252fd	0.021768088
155	0xbab9067a	-0.001411631
156	0x3d08c3f7	0.03339001
157	0x3d81bf81	0.063353546
158	0x3cc34dfe	0.0238409
159	0x3d643a56	0.055719696
160	0x3c1a66d8	0.009423934
161	0xbd3ed8dd	-0.046593536
162	0x3da3a3a7	0.079901986
163	0x3d82b8b9	0.06382889
164	0xbde00524	-0.109384805
165	0xbcb0c503	-0.021578318
166	0xbd198d4c	-0.037488267
167	0xbc0f28b1	-0.008737729
168	0x3c883309	0.016625898
169	0xbd886224	-0.06659344
170	0xbd5fcba7	-0.054637577
171	0x3db082d0	0.086187005
172	0x3d876864	0.06611708
173	0xbd1110ad	-0.035416294
174	0xbc275c17	-0.010214827
175	0x3db49d49	0.08819062
176	0x3dd46f3f	0.10372781
177	0xbd8a2de9	-0.06747038
178	0x3d52e5fd	0.051488865
179	0x3d9da960	0.07698321
180	0xbd4637c2	-0.04839302
181	0x3d8db9f0	0.069202304
182	0x3da769a5	0.08174447
183	0x3dbf1a52	0.09331192
184	0xbd9361c1	-0.071963795
185	0xbd1f4974	-0.03888841
186	0x3c56ed58	0.013118111
187	0xbd4d59df	-0.050134536
188	0x3d91abe2	0.07112862
189	0x3dcb4229	0.099247284
190	0x3db04a78	0.08607954
191	0x3dd1c24f	0.102421395
192	0x3d445d03	0.047940265
193	0xbd7c9c50	-0.06167251
194	0xbda567e3	-0.080764554
195	0xbd9f87af	-0.077895515
196	0x3c8b98ac	0.017040573
197	0xbddc5cab	-0.107598625
198	0xbc869b1c	-0.016431384
199	0x3b6930b4	0.0035582008
200	0xbd0ddd10	-0.03463465
201	0x3cdd152a	0.02698763
202	0x3df5284a	0.11970575
203	0x3d18c4f6	0.03729721
204	0xbd123e6f	-0.035704073
205	0x3e046c05	0.12931831
206	0xbd8a7d2e	-0.067621574
207	0xbc5a13a9	-0.013310351
208	0x3d74d0cd	0.05976944
209	0xbc817f3e	-0.015807744
210	0x3dbea0a8	0.093079865
211	0x3d64df05	0.05587675
212	0xbd094f13	-0.033522677
213	0xbc65b346	-0.014019793
214	0x3ce2f469	0.027704434
215	0x3d84343b	0.06455275
216	0x3c2811f7	0.010258189
217	0x3dd0ea0f	0.10200893
218	0x3df6fe94	0.12060276
219	0xbd208bd1	-0.03919584
220	0xbd89723b	-0.06711241
221	0xbd80d463	-0.062905096
222	0x3d0c1542	0.03419996
223	0x3925c63f	0.00015809479
224	0xbcd838c3	-0.026394254
225	0x3da98a9f	0.08278393
226	0xbc69a539	-0.014260584
227	0x3e23164a	0.15926471
228	0xbd3228a5	-0.043495793
229	0x3bafd7bb	0.0053662932
230	0x3ca10e7a	0.019660223
231	0xbcfcaec8	-0.030845061
232	0x3d219bfa	0.03945539
233	0x3e18dbae	0.14927551
234	0x3dd382b1	0.10327662
235	0x3dbf69a7	0.093463235
236	0xbd8146c6	-0.06312327
237	0xbcdec644	-0.02719415
238	0x3dab4660	0.08363032
239	0xbd30753e	-0.04308056
240	0x3c044df0	0.008075222
241	0x3bc3b950	0.0059730187
242	0x3da15788	0.078780234
243	0x3d16c095	0.036804754
244	0xbd4784a2	-0.048710473
245	0x3de54dff	0.11196517
246	0x3d4c1c9c	0.04983197
247	0x3da4da12	0.08049406
248	0xbdc00956	-0.09376781
249	0xbcb23483	-0.021753555
250	0xbd128a1b	-0.03577624
251	0x3d19c9ca	0.037545957
252	0x3d9d47c2	0.07679702
253	0x3db9b20f	0.09067165
254	0x3e141ed8	0.14464891
255	0x3dc9ee12	0.098598614

layer3.0.bias f4 [6]
0	0xbd896bb1	-0.06709994
1	0xbddf5152	-0.109041825
2	0x3d5778bc	0.052605376
3	0x3c31f45d	0.010861483
4	0xbd4508e8	-0.048104197
5	0x3ce9725f	0.02849692
