DigitalRecognition-master/model_params/GDUT_net_11.pt (torch, 664983 bytes, 6 tensors)

layer1.0.weight f4 [256, 560]
00000000: 6e5c 9bbc a0c8 5abc 339c 14bd ac09 c03c
00000010: 3186 88bc e0bb 123d e583 c3bc 4060 4d3a
00000020: 82a6 203d ca6f 013d 6cbf 603c def9 cebc
00000030: 0a68 83bd 25a8 14bd 743c 32bd 9d23 40bd
00000040: c0d5 39bb 9c5c 103c 883b a03b e840 fabc
00000050: 2efe 113d 58c6 623c 24e0 dd3c 28d7 913c
00000060: 9810 f73b 5a44 90bc 5a2e 6cbd 895a 1bbd
00000070: db77 93bd 3cc0 3cbd 9bd7 51bd adf3 a1bd
00000080: e90b a6bd f7a7 febc fc5d 553c 0484 923c
00000090: 8070 ed3b da7f bdbc 4528 89bc 007b 153a
000000a0: e0f8 e4ba c401 ac3c ba38 f0bc 4039 fdbc
000000b0: 78c7 13bd 2cbc 32bd 01d2 54bd bfad 80bc
000000c0: 3cac 94bc 4883 92bc 0654 b3bc 019f 12bd
000000d0: 461c 40bd f7ce 11bd b634 8bbc 4e7e 01bd
000000e0: 965c 863c de21 123d 166a 20bd 730f 11bd
000000f0: fdb8 e9bc d04c 26bc 00cc 5038 c914 9ebc
00000100: 3c75 13bc eba7 1cbd 0329 2cbd 92f7 1abb
00000110: 40b3 de3c c69d d8bc 46ce b6bc 3932 c6bc
00000120: ca06 babd 0609 debb 7a30 1cbd 0b44 79bd
00000130: 0089 e8bb 7862 bd3c ca63 213d 9cb2 8a3c
00000140: 7486 5f3c 1113 89bc 925d dbbc 48fc ef3c
00000150: 22a7 f9bc 0ce8 f9bc 0a47 aebc 8354 c9bd
00000160: bde5 98bd b6de 2fbd 3e66 b7bc 5757 0ebd
00000170: 6c3d b6bd b344 1abd c73a 84bd f515 b5bd
00000180: a8b2 a8bb dfe0 0abd 0edb e0bc f832 143c
00000190: afba efbc 2049 75bb a051 8c3a 9410 473c
000001a0: 0d32 203d e9cb 99bd 55fa cabd 9379 2fbd
000001b0: e949 33bd 1ab4 c7bc c0c7 59bd 7e28 73bd
000001c0: b982 59bb b354 91bd 8ba9 fb3c fee4 c1bd
000001d0: 3edc d2bc 1c0f 693c 50ed d93c 08b7 cf3c
000001e0: 509f 49bb 5850 9bbc b02b 543b e40b 503c
000001f0: 81f8 0bbb 9155 57bd d127 51bd d9d8 d7bc
00000200: e690 d0bb e320 5dbd 1897 fabc 25f8 9abd
00000210: 1ef7 b6bb 8dd5 13bd 962d 4d3c 6770 c0bb
00000220: bac2 dbbc 54f5 5fbc 8bc0 22bb f327 3a3c
00000230: fc78 053d 9853 91bb e8b5 edbb f08c 163d
00000240: e8db 8c3b c07d c3bc 9628 88bd 4b56 80bd
00000250: 86e8 d1bb f917 e1bb e4c4 8ebd 20e2 98bd
00000260: e53b 8fbd ecaa 39bb 46aa 65bd de78 f43c
00000270: c1e4 3e3c 9887 e03c e3b3 cbbc 3922 d53b
00000280: b7f7 bebb a02d b13b 10e1 47bc 02e7 3bbc
00000290: 17c3 0bbc 9709 37bb 8002 94bd bae5 8fbd
000002a0: 58a9 9ebb 4471 23bc a11e 78bd a6a0 7bbd
000002b0: df15 e5bc d513 98bc cdd4 edbc 7f9e 7dbc
000002c0: 84d0 b7b7 f435 2abd b62f 2c3d 73a1 43bc
000002d0: 3c68 083d b01e 383c 6a9e 61bc b88c 033d
000002e0: 0a2b d33c 1351 29bd 856c 80bd 7df8 94bd
000002f0: cf1a 00bd 2f32 bdbc 6493 1fbd dbb7 9cbc
00000300: 5c11 8cbc bfbe 16bc 6d5b a0bd 892f a8bd
00000310: 0514 01bc 1429 473c 4bf2 bc3c cf86 1a3d
00000320: f1ab fcbc 2844 bdbb dc6b e9bc 3e79 7fbc
00000330: 1f15 843b d317 efbc 37c0 efbc 289b 53bd
00000340: 4029 37bc f73d 54bb 5966 88bd f36b 8abd
00000350: 716b 38bd cd6b b9bd 067b a0bc 7996 5b3c
00000360: d68b 893a a76b 3b3d ab72 513d 0c83 123c
00000370: 2885 bb3c dba3 8cbc 7411 4e3c ec83 403c
00000380: b6bc 363d c7f1 383d 7909 8e3c 0219 8abd
00000390: 422f 84bd c805 21bd 5368 b4bc f94c b2bc
000003a0: bd73 a4bd f0dc 1fbd 314b 6dbd c8ee 8a3d
000003b0: 0be3 93bc 895e 9ebc 68d9 80bb 1ee9 35bc
000003c0: fdea 22bd e857 a03c 3cc8 30bc 28bc eebc
000003d0: 5117 1cbd 6a13 a43c f406 d7bc 3116 50bd
000003e0: 00cc 99bd 9775 5abd b99f 8ebd 390b 7abb
000003f0: b593 bfbd ef6a 473c 37ad 6f3d 88e9 f93c
-0.018964972 -0.013353497 -0.036281776 0.023442112 -0.01666555 0.035823703 -0.023866603 0.0007834472
0.039221294 0.03160075 0.0137175135 -0.02526563 -0.06416328 -0.036293168 -0.043514684 -0.046908963
-0.0028356165 0.008811142 0.004889909 -0.030548528 0.035642795 0.013841234 0.027084418 0.01780279
0.00753982 -0.017610718 -0.05766139 -0.037928138 -0.07200595 -0.046081766 -0.051231008 -0.079078056
-0.081077404 -0.031085951 0.013022896 0.017885216 0.007246077 -0.023132253 -0.016742835 0.00057022274
-0.001746919 0.020996936 -0.029323924 -0.030911088 -0.0360789 -0.043636486 -0.051958088 -0.015707849
-0.018148534 -0.017884865 -0.021890651 -0.03579617 -0.046901964 -0.035597768 -0.016992908 -0.031614594
0.01640157 0.03567683 -0.03916367 -0.035415124 -0.028530592 -0.010150149 4.9781054e-05 -0.01929702
-0.009000119 -0.038246077 -0.0420313 -0.0023646099 0.027185082 -0.02644242 -0.022315156 -0.02419387
-0.09083326 -0.006775978 -0.03813217 -0.060855906 -0.00709641 0.023118243 0.039401807 0.01693087
0.013642896 -0.016732724 -0.026778016 0.029295102 -0.030475203 -0.030506156 -0.021274108 -0.098305725
-0.07465694 -0.042937003 -0.02238762 -0.034751263 -0.08898434 -0.037663173 -0.064565234 -0.088420786
-0.0051482506 -0.03390586 -0.027448203 0.009045355 -0.029263822 -0.003742762 0.0010705478 0.012149949
0.039110232 -0.07509596 -0.09911028 -0.04284055 -0.043771658 -0.024377871 -0.053169012 -0.05936479
-0.003318949 -0.07096233 0.030720493 -0.09467505 -0.025739785 0.014224794 0.026602417 0.02535583
-0.0030765124 -0.01895921 0.0032374673 0.012698147 -0.0021357837 -0.052571837 -0.051063363 -0.026348518
-0.0063649295 -0.05398644 -0.030589625 -0.07566861 -0.005583658 -0.03609233 0.012523076 -0.0058727744
-0.026826251 -0.013669331 -0.0024834003 0.011362064 0.032586083 -0.004435014 -0.007254351 0.036755502
0.004298676 -0.023863673 -0.06648366 -0.06266459 -0.006405893 -0.006869313 -0.06971148 -0.07465005
-0.06993846 -0.0028330637 -0.05607059 0.02984279 0.011651219 0.027408406 -0.02486605 0.006504324
-0.0058278698 0.0054070503 -0.012199655 -0.011468651 -0.0085304 -0.00279293 -0.07227039 -0.07026239
-0.0048419647 -0.009975735 -0.060576085 -0.061432503 -0.02796453 -0.018564144 -0.029032135 -0.015479683
-2.1912398e-05 -0.04155536 0.04203769 -0.011940348 0.03330253 0.011237785 -0.013770679 0.03211662
0.025777359 -0.041337084 -0.062706985 -0.07273958 -0.031275567 -0.023095218 -0.038958922 -0.019130638
-0.017098121 -0.009200751 -0.07829938 -0.082121916 -0.007878308 0.01215579 0.023064753 0.03772622
-0.030843707 -0.005775947 -0.028493814 -0.015592871 0.004030838 -0.029186165 -0.02926646 -0.05166164
-0.011179268 -0.0032385567 -0.06660146 -0.06758871 -0.04502434 -0.090537645 -0.019589912 0.013402575
0.0010493945 0.045756962 0.051134747 0.008942377 0.022890642 -0.017167976 0.012577403 0.011750203
0.044613563 0.04515245 0.017338501 -0.06743051 -0.06454326 -0.039312154 -0.022022402 -0.021765219
-0.08029888 -0.03902906 -0.057933036 0.06783825 -0.018052598 -0.019332187 -0.003932167 -0.011102943
-0.039774884 0.019573167 -0.010789927 -0.029142454 -0.038108174 0.020028789 -0.026248433 -0.050802413
-0.07509613 -0.0533348 -0.069640584 -0.0038153662 -0.09354345 0.012171491 0.0585148 0.030506864

layer1.0.bias f4 [256]
00000000: ae49 90bd f13a 4bbd 4870 a23c 05d8 22bd
00000010: 081e 8cbc 7483 54bc 2e3a 58bd ae9c 34bd
00000020: a567 b23c f811 f63c 50f4 84bc 5cae e3b9
00000030: b302 233d 3b90 233d 1148 993c fa9b 763b
00000040: 007b 27bc cbb5 45bd 0e13 70bd 8c9b 4bbd
00000050: 6731 10bd 2e4f 9dbd 0733 1cbd 70f2 9b3d
00000060: a5d4 56bd 1107 6ebd 2e36 2abd 894d 40bd
00000070: 4e72 1ebd 99f9 e6bc 6159 8fbd b2f8 5cbd
00000080: 9b02 31bd 96cd 6c3d 1a07 9b3c 1431 b4bc
00000090: b94d 0ebd ed93 8cbd 2ede 903c 8b23 b4bc
000000a0: 88c4 a93b 83bc c2ba 50f1 373c 5f71 0abd
000000b0: 76dd 653d 5716 bdbd 4499 9abd 93e4 333c
000000c0: 51ae f5bc cf1b debc d0fb 293b 0955 9cbc
000000d0: 9bf9 98bb 56c7 f7b9 55bb ef3c a14a b9bb
000000e0: 1df7 0bbd 7fc0 8dbd 07a3 b23c f9e3 a2bc
000000f0: 19d5 f0bc 1201 bbbc f23d 3ebd 9f0e 613b
00000100: 7a59 4cbd 7cec dcbb 7524 02bd 6715 083d
00000110: b0c5 81bd 9ca9 bbbd ba90 d8bb 1425 3a39
00000120: 1713 2cbd 2a24 9fbd d740 a9bd 899d 33bd
00000130: bcd8 92bd cd38 46bb 90fe babc a9e1 343b
00000140: d395 17bd a0e7 073d 29a5 133d 22f2 22bc
00000150: b80d 65bb b89e 26bc e356 75bd c05f 4fbb
00000160: 3422 13bd 860c 46bd a7ab 3cbd 1601 42bd
00000170: 141e f6bb 7eec d5bb 7c27 1e3d c4aa 7bbd
00000180: 2a5c cabc 48d5 8bbd 94e3 d33c 7afe ad3c
00000190: f3d1 a3bd 38dc dc3c c618 c33c eb0b 44bd
000001a0: f2a6 553c e4ba fb3b 7865 f83c 0142 77bd
000001b0: b1b9 bdbb fe73 8abd a57c 61bc 8a3f 74bd
000001c0: b4d7 af3c 4396 ddbc 4a10 a8bc 39a2 92bc
000001d0: 3b99 86bd 425b 77bc 92ef dabc 1952 41bc
000001e0: 61b2 153c f6d8 23bd 20cc 4f3d c57d 9ebd
000001f0: 8159 11bd d5f6 1abd 24e8 60bb 3ff4 3b3d
00000200: 4110 1fbd 91e0 d5bc a445 08bc 295d 07bc
00000210: cc44 62bd 3f3f 06bd ee49 a3bc f188 adbc
00000220: f5cc f1bc 0b14 093d f66e 1cbd bc76 f73c
00000230: 05ea 26bd 0016 87bc 332d d1bc c5d5 143c
00000240: 3594 9ebc b552 08bd 542b 7fbc 20a0 883c
00000250: 1730 aabd d932 bdbb 5534 80bd 70c5 bd3c
00000260: 1422 033d 9979 2dbc 3e4b 9fbb ff07 63bd
00000270: d054 453c 32f6 a5bd 4b1f d3ba 8a15 9cbc
00000280: 4eaa 4ebc 6ce5 783d c9a4 01bd 9e0c 9abc
00000290: a082 b8bc c822 0bbd e54e 31bd 1e06 adbc
000002a0: b9a2 00bd bbe9 88bc 36c1 8abc 7077 c4bb
000002b0: 836f 1cbc 1540 203d 373d d93c 3f64 6ebb
000002c0: 6f5b 5dbd 2ec1 2fbd bff5 9cbd 535f 23bc
000002d0: ed30 4d3b 4bb7 723d 580d 5cbb 79f5 243c
000002e0: 1016 923d 43a6 ccbc bcaf 24bd f3f6 f9bc
000002f0: 045f a1bc a856 b6bb 7ad6 08bd 8f59 f63c
00000300: 3893 04bc 7ebd 3ebd 9c78 993d 4124 bf3c
00000310: 93a9 13bc 3531 15bd 91a3 20bb bad4 363d
00000320: 5304 c0bc d985 82bd 61b5 8bbc b117 28bd
00000330: a1b1 9b3a c345 d9bb aab5 123d 8baf 6ebc
00000340: fa6e 13bd cc41 243d 991a 7abc 4979 21ba
00000350: 9fbe 4dbc c7f9 4d3a e7a0 8bba 9618 183d
00000360: f7ac 20bd a927 823a d768 3cbd cfdb 7fbd
00000370: 7670 9ebc fc20 8a3b ae1e ecba e93f b9bb
00000380: 3039 42bd b398 a8bc cd96 97bd e4d2 afbd
00000390: 0ea5 a5bd 76bd adbd bfa3 0ebd 2779 98bc
000003a0: 88d1 55bd 7960 0dbd f157 91bd 226a b33c
000003b0: ca63 28bd 1b64 71bd ec7d 99bc 06d1 7abc
000003c0: 5f1e 9ebc ba2a 1e3d d6f0 ea3b 79ba 47bb
000003d0: 046d eebb c9ca 49bd a6bf ccbc ee18 a2bc
000003e0: c10c a5bd ec84 2ebd babd 02bd 4b82 183d
000003f0: 75c7 483b e943 51bd 0e99 553d 1596 7ebd
-0.07045303 -0.049616758 0.01982893 -0.039756794 -0.017104164 -0.012970794 -0.05278986 -0.044094734
0.021777937 0.030037865 -0.016229779 -0.00043426722 0.039797496 0.03993247 0.018711122 0.003762959
-0.010222197 -0.048269074 -0.058611922 -0.049708888 -0.035203364 -0.07681118 -0.0381346 0.07614601
-0.052448887 -0.058112208 -0.041555576 -0.046948943 -0.03868323 -0.02819519 -0.069994695 -0.05394811
-0.043215375 0.05781325 0.018924285 -0.021996059 -0.03474209 -0.06864152 0.017684069 -0.021989604
0.005180899 -0.0014857206 0.011226967 -0.033799525 0.056119405 -0.092327766 -0.07548764 0.010979789
-0.029990347 -0.02711287 0.0025937445 -0.019083517 -0.004668427 -0.00047260028 0.029264132 -0.0056546484
-0.034171212 -0.06921481 0.021806253 -0.019884096 -0.029398488 -0.022827659 -0.046445794 0.003434099
-0.04989002 -0.0067420583 -0.03177305 0.033223536 -0.06336534 -0.0916321 -0.0066090496 0.00017752155
-0.042010393 -0.077705696 -0.0826432 -0.04385141 -0.07170245 -0.0030246258 -0.022826463 0.0027600324
-0.037008118 0.03317988 0.03604618 -0.009945424 -0.0034950804 -0.010169677 -0.059897315 -0.0031642765
-0.03592129 -0.048351787 -0.046062138 -0.047364317 -0.00751091 -0.006528436 0.038611874 -0.06144215
-0.02470215 -0.068277895 0.025865354 0.021239508 -0.07999029 0.026960477 0.023815524 -0.04786293
0.013040291 0.007682191 0.030321822 -0.06036568 -0.0057899584 -0.06760405 -0.013762628 -0.059630908
0.02146516 -0.02704919 -0.02051558 -0.01789962 -0.06572195 -0.015097441 -0.026725564 -0.011799359
0.009136767 -0.040001832 0.05073178 -0.077388324 -0.03548575 -0.037833054 -0.0034318054 0.045887228
-0.03883386 -0.026108058 -0.008317385 -0.008261957 -0.05524139 -0.03277516 -0.019932713 -0.021183463
-0.029516676 0.03346638 -0.038191758 0.030207984 -0.040750522 -0.016489983 -0.025534248 0.00908417
-0.01935778 -0.033282 -0.015574295 0.016677916 -0.08309954 -0.005773884 -0.062599815 0.023165435
0.03201492 -0.010588073 -0.0048612645 -0.055427548 0.012044147 -0.08103599 -0.0016107348 -0.01905324
-0.012613846 0.06076567 -0.031651292 -0.018804844 -0.022523224 -0.033968717 -0.04328813 -0.021121081
-0.031405184 -0.016713014 -0.016937833 -0.0059956834 -0.009548071 0.039123613 0.026518447 -0.003637567
-0.054042276 -0.04290884 -0.0766406 -0.0099714575 0.003130968 0.059256833 -0.003357729 0.010068291
0.07133114 -0.024981624 -0.040206656 -0.030513262 -0.019698627 -0.0055645294 -0.033407666 0.030072002
-0.00809174 -0.046567433 0.074937075 0.023332717 -0.009012598 -0.03642388 -0.0024511556 0.044636466
-0.023439562 -0.06373186 -0.017054262 -0.04103822 0.0011878499 -0.0066306307 0.03581778 -0.01456822
-0.035994507 0.04010181 -0.01526513 -0.00061597355 -0.012557655 0.0007857349 -0.0010652811 0.037132822
-0.039227452 0.0009930033 -0.04599842 -0.062465485 -0.019340735 0.004215358 -0.0018014514 -0.0056533706
-0.04741782 -0.020580625 -0.0740181 -0.08585146 -0.08088122 -0.084834024 -0.03482413 -0.018612457
-0.052201778 -0.03451583 -0.070968516 0.021901194 -0.04111079 -0.05893336 -0.018736802 -0.015308624
-0.019301591 0.038614966 0.007169823 -0.0030476137 -0.0072761793 -0.049265657 -0.024993729 -0.019787278
-0.08059073 -0.042607233 -0.03191922 0.037233632 0.0030636464 -0.051090155 0.052147917 -0.062154848

layer2.0.weight f4 [84, 256]
00000000: ecec 73bd 36b1 193d 841a a73c 8457 7abd
00000010: ac9e 60bd 39fb 443d 5c07 fc3c 60dd dc3c
00000020: 68d3 6dbc 82f7 69bd 226d 61bd f031 113d
00000030: 8076 a6bc 7aa6 693d 3e37 02bd fe35 56bd
00000040: fc47 87bc 7827 17bc b6dd 66bd b292 0dbd
00000050: 2056 df3c 1c8c e8bc 0ca4 3c3d 2a67 423c
00000060: b6aa 2e3d e051 f93c 6022 51bb 10f2 d93c
00000070: 3a3d 103d 02fb 6a3d e06c b83c 30eb 44bd
00000080: eade 373c a18b a23c 80b4 25bb b416 293d
00000090: 88bb 063d e872 703d 104c bc3c 53b6 1f3d
000000a0: a27d 2cbd bf33 443d bcbd a03c 1c0f b33c
000000b0: a80e 2e3d e03e cabb fa77 2b3d 8bc8 cbbb
000000c0: e4ff e03c 60ec 3abc 225e 5c3d 995e 073d
000000d0: b2f6 32bd ac44 60bd c615 493d 46d5 0b3d
000000e0: 6c21 7c3d 8ab6 2bbd 59c7 9b3d 20c2 673d
000000f0: 8084 3cbd 78d4 e9bc d0fc d23b a616 e13b
00000100: 00bb 7fbc a8f9 80bc 90e0 89bc 85df dabb
00000110: fc56 743d 543e bfbc d8d0 433d 707b 44bc
00000120: 00b8 71b9 6c2c 303d 3096 e8bc 0093 a23b
00000130: 3cb9 b6bc 2850 723d 7067 cdbb 2ca3 f0bc
00000140: bc81 653d 0061 2ebc ca90 863c 0846 923c
00000150: 467d 9e3d d44b ea3c e89a 97bc 42de 733d
00000160: 063e 0abd e0b4 d43b e8fd e3bc 30d6 2d3d
00000170: cdfb 763d 0804 303c cfee eb3c b8c4 95bc
00000180: 8206 1bbd ba2f 3b3d 10e7 92bc be1b 6d3d
00000190: f671 60bd ac3a b3bc 193f 9dbb 807c a33c
000001a0: 3b57 863d f00b 833d 50c0 993c 0849 a0bc
000001b0: 7cc4 6d3d 38ed 41bd 728c f73b 5861 233c
000001c0: 0028 583b c482 1ebd e7be 0dbd 2e55 7bbd
000001d0: b063 f7bc f4ea 013d 2405 abbc b1e4 e1ba
000001e0: c9ec fbb9 1453 31bd 871b 0fbd ba01 14bd
000001f0: a467 3dbd 40e0 b1bc b809 57bd 106c e13c
00000200: 5045 2abc 7870 31bc e078 bb3c a6db 50bc
00000210: e0da ddbb a67c 613d 2c5e 78bd 8375 f73b
00000220: 504a b8bc 3e5c 133c 3c17 e13c 0028 bc3c
00000230: 0ed8 22bd 91fb a43d 2081 91bb f0c6 c83b
00000240: 8073 d4bb 6e47 7bbd a85d 463d c8f0 87bb
00000250: 00b3 fdbc d88c 7ebc 8073 b2bc 201b a13c
00000260: d5b5 2b3d 5007 00bd 20bc aabb 1674 4dbd
00000270: 00ef f2ba 9874 29bd 543b aa3c 9c99 a6bc
00000280: 8423 613d e082 fbbc 60fe afbc c8d2 143d
00000290: 2073 80bc 48f7 9b3d 8ec2 77bd a0ca 1b3d
000002a0: 2cf0 4d3c 875c 963d a784 eebc 9918 d1bb
000002b0: 4811 8d3c bedc 883d 1dcf c23c 63be 3c3c
000002c0: d063 463d 70a9 cebb a05e 6f3b ff04 1e3d
000002d0: 00b2 0d3a 32d9 8e3d 74ff 67bd 7769 823d
000002e0: 1948 b8bb 1ec1 123d 0014 2d3d 9a63 9a3d
000002f0: 4436 8a3c 4012 b9bc bc35 203d f59d 843d
00000300: 47a9 aa3a 82c8 9f3d 6403 babc 8cb7 d03c
00000310: c6f1 473b b8d2 d83c 78b0 9e3c b253 673c
00000320: 001e e939 38c2 a2bc 4ba6 773d 6e76 49bd
00000330: d49f a53d c2c8 6ebb a0d1 f33b b404 073d
00000340: 08e0 56bc 60b8 833d b08a a13b 681f 343d
00000350: e0ff debc 391d 17bd 9a7c 093d a045 8fbb
00000360: 749a fa3c 1d7c b13c fc6a c53c 6c5c 29bd
00000370: 58fe 293c ce94 9e3d b446 9bbc c6d8 aebc
00000380: a043 d2bb 6947 66bb ac6a 45bd eed0 47bd
00000390: 3261 513d 5a64 693d 641e 16bd aafe 6b3d
000003a0: f29a 69bd 5c54 f0bc 7236 703d 727e 39ba
000003b0: 611b 633d 2657 3d3d f03c 873b 50e2 653d
000003c0: 5890 40bc c02e 763d a86c 5ebd fe5d 0d3d
000003d0: c8fa aa3c 3edc 47bd 648a 843c f0c7 d53b
000003e0: 5a67 7f3d 6f97 133d e9ac ccbb 0a76 f3bc
000003f0: 7795 0b3d 9a0d 57bd fd3e 00bc d0b3 d83b
-0.05955212 0.037522517 0.020398386 -0.061118618 -0.05483882 0.048091147 0.030765228 0.026961029
-0.014515735 -0.057120807 -0.055035718 0.035448015 -0.020320177 0.05704353 -0.031790964 -0.052297585
-0.016513817 -0.009225719 -0.056363784 -0.034563728 0.027262747 -0.028387122 0.046054885 0.011865417
0.04264327 0.030434549 -0.0031911358 0.026604682 0.03521464 0.057368286 0.022512853 -0.048075855
0.01122258 0.01984197 -0.0025284588 0.041281417 0.032893687 0.058703333 0.022985488 0.038992237
-0.042112 0.04790091 0.019621722 0.02185779 0.042494446 -0.006172046 0.041862465 -0.006218975
0.027465768 -0.011408895 0.05380071 0.0330492 -0.0436923 -0.05475299 0.04909303 0.03413894
0.06155531 -0.04192213 0.07606382 0.056581616 -0.0460248 -0.028543696 0.006438829 0.006869155
-0.015608549 -0.015744045 -0.016830713 -0.0066794776 0.059653267 -0.02334515 0.04780659 -0.01199232
-0.00023052096 0.043011114 -0.028391927 0.0049613714 -0.022305124 0.059158474 -0.006268434 -0.029374681
0.056031927 -0.010643244 0.016426463 0.01785566 0.07738738 0.02860061 -0.018506482 0.059538133
-0.033750556 0.0064912885 -0.027831033 0.042440593 0.06029873 0.010743149 0.028800396 -0.01828228
-0.037848003 0.045699812 -0.017932445 0.057887785 -0.05479618 -0.021878563 -0.0047987816 0.019956827
0.06559607 0.06398761 0.01876846 -0.019566074 0.05804871 -0.04734537 0.007554584 0.009971939
0.0032982826 -0.038698927 -0.034605887 -0.06136053 -0.030198902 0.03171821 -0.020876475 -0.0017234293
-0.0004805087 -0.04329212 -0.03493836 -0.03613446 -0.046241418 -0.021713376 -0.052499503 0.027517349
-0.010392502 -0.010830037 0.022884786 -0.012747681 -0.0067704767 0.055050515 -0.060636684 0.0075518503
-0.022496372 0.00899416 0.0274769 0.022968292 -0.039756827 0.08055795 -0.0044404417 0.006127231
-0.0064834952 -0.061347418 0.04842916 -0.0041485764 -0.030969143 -0.015536509 -0.02178359 0.019666255
0.041921455 -0.031256974 -0.0052104145 -0.050159536 -0.0018534362 -0.041370958 0.020780243 -0.020336919
0.05496551 -0.030702055 -0.0214836 0.03633383 -0.015679896 0.076155245 -0.060488276 0.038035035
0.0125694685 0.07341867 -0.029115988 -0.006381106 0.017220154 0.06682728 0.0237804 0.011520001
0.048435032 -0.0063068196 0.0036524907 0.038578983 0.0005405247 0.069750205 -0.056640103 0.06367772
-0.005623829 0.035828702 0.0422554 0.07538529 0.016871579 -0.02259171 0.039113745 0.064754404
0.0013020419 0.07801916 -0.022706695 0.025478147 0.0030509098 0.026467666 0.019371256 0.014119076
0.00044463575 -0.019868001 0.060461324 -0.04918521 0.080871254 -0.003643558 0.0074407607 0.03296347
-0.013114937 0.06431651 0.004929863 0.043975264 -0.02722162 -0.036893103 0.033566095 -0.0043723136
0.030591227 0.021665627 0.024098866 -0.041347906 0.010375582 0.07743226 -0.018954612 -0.0213436
-0.006416753 -0.0035137779 -0.048197433 -0.048783235 0.051118083 0.05698047 -0.036650077 0.057615913
-0.057032533 -0.0293371 0.058645673 -0.0007076032 0.055446032 0.04622569 0.0041271374 0.05612403
-0.011753164 0.060103178 -0.05430284 0.034513466 0.020871535 -0.048794024 0.016179271 0.0065240785
0.062354423 0.03603309 -0.0062461984 -0.029719371 0.034078088 -0.052503206 -0.007827518 0.006613232

layer2.0.bias f4 [84]
00000000: 89b7 9cbc ab47 493a b571 8b3c 4e05 31bd
00000010: e416 e0bc 7f08 953d ed2e a7bd e9fe 0e3c
00000020: c1bf 31bd f9ea 44bc bc48 2abd 8d35 f3bb
00000030: ece3 c93b 816b 18bc 25d9 80bd 4214 f2bc
00000040: 2d4a 95bc d22a 92bd f5b8 afbd b6f6 bfbd
00000050: acda bcbd 7a56 a5bd b023 56bd c416 3fbd
00000060: be53 3dbd a53d 983c c487 90bc 0ef3 8abd
00000070: 9234 863d c503 2abd f367 a4bc e974 15bd
00000080: 3b0c b5bc 9545 b2bd d83b 403d 5d19 b7bd
00000090: 6093 7a3c b0ad 65bd 3e03 bd3c ee2a 503b
000000a0: 1d4f 4cbd ce39 b9bd 64ee 9bba ec1f eebb
000000b0: 795d c7bd b66d 303c 0d08 62bc f885 dc3c
000000c0: da04 11bd 4829 a9bc bd74 0fbb eada d5bc
000000d0: b091 293d d23c d1bc 88d1 cfbd 36c6 65bd
000000e0: 95ff 8cb9 51cd 9f3a f3e8 abbd 1920 52bd
000000f0: 4b8b 1bbb e627 e3bc 54a3 433d 392f fe3c
00000100: 9e3d 883c fdd2 96bc 773c fa3c 23e0 88bb
00000110: e79e d0bb f550 6fbd e483 1a3b ac63 57bd
00000120: d3b6 ebbc a5d0 70bd 04a2 593d aeb1 dcbc
00000130: 1594 9a3c 705b b3bd b2fe 98bd 8948 5abb
00000140: 0e4b cfbd bbfd 2b3c 67b6 c2bd c251 b9bd
-0.019130485 0.0007678221 0.017021993 -0.04321795 -0.027354665 0.07277011 -0.08163247 0.0087277675
-0.04339576 -0.0120189125 -0.04157327 -0.0074221552 0.0061612036 -0.009302975 -0.06291417 -0.029550675
-0.018223846 -0.071370736 -0.085802 -0.09373228 -0.09221396 -0.08073135 -0.052280128 -0.04665257
-0.04622244 0.018584082 -0.017642863 -0.0678464 0.06552996 -0.0415075 -0.020069098 -0.036488447
-0.022100559 -0.08704678 0.04693207 -0.089403845 0.015293926 -0.056073844 0.023072835 0.003176387
-0.049880136 -0.090442285 -0.0011896607 -0.007266989 -0.09734625 0.010768345 -0.013795865 0.02691935
-0.035405017 -0.020649567 -0.002188965 -0.026105363 0.041398704 -0.025541697 -0.10147387 -0.05609723
-0.00026893304 0.0012191926 -0.08394041 -0.051300142 -0.0023734148 -0.027728986 0.047763184 0.031028377
0.016630944 -0.018411154 0.03054641 -0.00417711 -0.006366599 -0.058426816 0.0023577148 -0.05258529
-0.0287737 -0.05879273 0.053133026 -0.026940193 0.01886944 -0.08757675 -0.07470454 -0.0033307394
-0.101217374 0.010497506 -0.09507447 -0.09048797

layer3.0.weight f4 [6, 84]
00000000: 320c 6bbd 9d92 b4bd 335f 873d 2e86 233d
00000010: 6a5a af3c ff71 31bd ea00 49bd b6e6 f53d
00000020: 8cf4 4a3d aaa9 a2bd 002d 62bc 10de e53d
00000030: 0da6 f9bc 4ef8 3ebd 2ef9 c6bb fb40 11bd
00000040: 4654 06bd c431 8c3c abd9 003d 6c8f 253d
00000050: 4771 40bd f50e 8d3b 0ca3 073d b73a 25bc
00000060: d908 3dbb 8257 8d3c 0d44 5a3d edea 0cbd
00000070: 7ca7 e33c a2a6 6d3d 79d8 2fbd db0c 443d
00000080: 033b 4dbc e029 143d 515c ce3d 917e 613c
00000090: f06c 393c 8023 faba d697 763d 0930 9bbd
000000a0: 70a2 3e3d 85e8 28bd d900 0c3d 1ba1 7c3d
000000b0: 4772 e0bc a0d3 1cbb 7d98 a03c 2dd7 6cbd
000000c0: 8fdb d4bd aeee dd3d e4e6 d93c 7e61 d63c
000000d0: ccd1 97bc 71a1 963b 4999 d93c e9a1 c6bb
000000e0: ce2e 0e3e e365 863d 7f14 70bb fdd7 c73c
000000f0: a295 2c3d af91 95bd f6f0 97bd d70b a5bc
00000100: 0c0a 69bc 285b 63bd 1cbc 9bbc 2a58 fa3c
00000110: f6ad d13d f172 833c 891b 103a 1af5 363c
00000120: f5c9 81bd 621c 8abc 3953 82bd 788b a9bd
00000130: 58cd 87bc a6ed 033b 0471 a03c aace 2d3d
00000140: 9772 a5bd 5daa 7ebd 133e 69bc 8d37 ef3d
00000150: a4b4 873d 6cd5 8abd c2eb cfbd c3df 793d
00000160: bda0 193d 546c 063e 9e1d 7e3d 7a97 cdbc
00000170: 9b6b b6bd 6284 d13d 5ac4 303d 9946 be3d
00000180: 3679 843c f56a dd3d 6b70 2bbc 5320 0f3b
00000190: 4120 7fbd cfae d73c 546f 5c3d cbd1 cd3d
000001a0: bc74 dcbc 862f 20bd 9fba 293d 2924 2ebd
000001b0: 4cea 193d f61a e03d 8c12 76bd 0b04 dc3d
000001c0: 3a9b 9b3d c974 0a3e 0de7 c3bc 6930 093b
000001d0: acf6 1f3d 0eca e53d a6cc adbb 4d23 ffbc
000001e0: cfc5 d43d e0cc 8dbc 96b0 023d 42c2 ef3c
000001f0: 6c8d 88bd 7b80 8ebd 0911 2b3d 3d26 7ebd
00000200: 6d61 2ebd cb7e 1dbd 7884 bebd 3737 bb3b
00000210: e34a 923d 0244 e03d 090d 6fbc ec62 f2bd
00000220: 77d6 a63c 5304 57bd bc3b c6bd 3b46 923d
00000230: d583 aa3d 32cc 24bd 7229 803c 9a4d 1abd
00000240: c0c3 713d 09c1 613c 8fa7 0ebd 25ed af3d
00000250: e231 7ebc d3a9 28bc a633 a03d 5d48 1bbc
00000260: de89 9d3c f583 02be 1cba 73bd 2945 d93d
00000270: a60e 693d bdac 633d 47cb f73c b568 873c
00000280: d4f1 c93c 2660 623d 56bb 8a3c b27a 4dbd
00000290: 17a2 5bbd b3bc a23d 7c4f 083d 8cd8 bcbd
000002a0: c295 2e3d 5d94 ecbb e893 23bd 708d 333d
000002b0: 2339 5abc f151 d2bd 59d4 32bd 21ec b3bc
000002c0: 584f 943c 3290 603d 7b57 a83d d089 a53c
000002d0: 39db c03d e45e 8d3d 8f9c 41bd 55a8 893a
000002e0: b101 25bd f445 17bd 20e5 ffbb 1615 9e3c
000002f0: ab14 213d 86c1 b33d 0e63 88bd 40bf fa3d
00000300: 10db 823d abfd b33d 5bdb 2f3c aac4 09bd
00000310: 3e25 b9bc 2d02 66bb 9513 223d 717d 3c3d
00000320: 3e87 36bc 6ad4 e03d 42cd 36bd 8c9b adbb
00000330: 7a5b 28bd 8617 063d 8b1e 8c3d ad50 c4bc
00000340: 9a40 853d 470b a33d 7d82 313c a92b f43d
00000350: 0c95 df3c 268b 01bd 63d6 30ba 885f 21bd
00000360: 40dd 853d cd66 9abd 999c de3d 3354 793d
00000370: 2df0 f3bc 7e1c 023e cece 70bd 8e82 ce3d
00000380: 90e6 89bd bab8 6abd 8982 f03c 1226 6fbd
00000390: f708 b93c 8c22 cbbd cc36 4c3c 9940 b3bd
000003a0: 66a9 1abd af26 4cbc 1ba2 9f3d 57db 2cbd
000003b0: 9b5a 04be f3de 60bd 7397 06bc 8fae 063e
000003c0: 7e5f 38bc 9b39 babd 7fd4 133d 3eb2 bfbd
000003d0: ecf1 e43d 58f7 8a3d b3d2 943d b317 ccbd
000003e0: c40e a73d dc91 9ebd e92d 8a3b c015 7bbd
000003f0: 1c20 58bd efcc 243c 1b72 943d d41f 6e3d
-0.057384677 -0.08817027 0.06609955 0.039922886 0.021405417 -0.043321606 -0.049073137 0.12006895
0.049549624 -0.07942517 -0.013804674 0.11223996 -0.030474687 -0.04662352 -0.006072185 -0.03546236
-0.032795213 0.017113574 0.031457584 0.04041998 -0.04698303 0.0043047615 0.033114478 -0.0100847995
-0.0028844385 0.017253641 0.053287555 -0.03440373 0.027789824 0.05802024 -0.042931054 0.047863822
-0.0125262765 0.036172748 0.10076202 0.013763086 0.011317477 -0.0019084066 0.060203396 -0.07577521
0.04654163 -0.041237373 0.034180496 0.06167708 -0.027398242 -0.002392985 0.019603962 -0.057822395
-0.1039344 0.1083654 0.026599355 0.026169535 -0.018532656 0.004596882 0.02656235 -0.0060617817
0.13885042 0.06562402 -0.003663331 0.024394983 0.04213489 -0.073031776 -0.074190065 -0.020147247
-0.014223587 -0.055506855 -0.019010596 0.030559618 0.102382585 0.01604602 0.0005497267 0.011166835
-0.06337348 -0.016859237 -0.0636353 -0.08278555 -0.016577408 0.0020130663 0.01958514 0.04243342
-0.08078497 -0.06217419 -0.014235991 0.11680517 0.06626251 -0.06778988 -0.10152389 0.06100441
0.037506808 0.13127261 0.062039964 -0.025096644 -0.08907243 0.10230328 0.043156005 0.09290809
0.01617108 0.10811416 -0.010463814 0.0021839335 -0.06228662 0.026328472 0.05381711 0.100497805
-0.026911132 -0.039107822 0.04143774 -0.042514954 0.03757696 0.109426424 -0.06007628 0.10742959
0.075979665 0.13521113 -0.023913885 0.0020933396 0.039053604 0.112201795 -0.005303937 -0.031144762
0.103892915 -0.017309606 0.031906687 0.029267434 -0.06667599 -0.069580995 0.041764293 -0.062048186
-0.04257338 -0.038450997 -0.0930261 0.005713369 0.0714319 0.109504715 -0.01459051 -0.11835274
0.020365937 -0.05249436 -0.09679362 0.07142302 0.08325926 -0.0402338 0.015644763 -0.037671663
0.059024572 0.013778933 -0.034827765 0.085901536 -0.015514823 -0.0102943955 0.07822351 -0.009477702
0.01923078 -0.1274565 -0.05950366 0.106088944 0.056898735 0.055584658 0.030248297 0.01652942
0.024651445 0.055267476 0.016935032 -0.05016584 -0.053621378 0.07946148 0.033278927 -0.092209905
0.04262329 -0.0072198347 -0.039935976 0.043836057 -0.0133192865 -0.10269535 -0.04365954 -0.021963181
0.01810424 0.054825015 0.082198106 0.020207316 0.094168134 0.069028646 -0.047268447 0.0010502437
-0.040284816 -0.036931947 -0.0078092963 0.019297164 0.03932635 0.08777146 -0.06659518 0.12243509
0.06389439 0.08788618 0.010733451 -0.03363482 -0.022600766 -0.0035096512 0.039569456 0.046018068
-0.011140643 0.10978015 -0.044629343 -0.0052980836 -0.041102864 0.032737277 0.06841763 -0.02396425
0.065064624 0.07961135 0.0108343335 0.1192239 0.02729275 -0.031626843 -0.00067458133 -0.039397746
0.06536341 -0.07539139 0.108697124 0.060871314 -0.02977761 0.12706181 -0.058790974 0.10083495
-0.067334294 -0.057305075 0.029359119 -0.058385916 0.022587283 -0.09918699 0.0124642365 -0.087525554
-0.037759207 -0.012460395 0.07794591 -0.042201366 -0.12925188 -0.05490012 -0.008214819 0.13152526
-0.011253236 -0.090930186 0.036091324 -0.09360169 0.111789554 0.06785458 0.0726675 -0.09965458
0.08157113 -0.07742664 0.0042168987 -0.06130004 -0.052764997 0.010058626 0.072483264 0.058135822

layer3.0.bias f4 [6]
00000000: 03cf cdbd eb11 023e befd 863d 2f0c 603d
00000010: 1ea0 ba3d 32bc 2f3d
-0.1004925 0.12702148 0.06591366 0.05469912 0.09112571 0.042904086
