DigitalRecognition-master/model_params/GDUT_net_9.pt (torch, 664983 bytes, 6 tensors)

layer1.0.weight f4 [256, 560]
0	0x3cae631c	0.021287493
1	0x3c88f592	0.01671866
2	0xbc97aaba	-0.018514026
3	0xbd294032	-0.041320987
4	0x3d0c7310	0.03428942
5	0x3d0ac9ca	0.033883847
6	0xbce783d3	-0.0282611
7	0x3cdbf390	0.026849538
8	0x3cb528c0	0.022114158
9	0x3ca0eb2a	0.019643385
10	0xbca0e4b0	-0.019640297
11	0x3d0ab9e8	0.0338687
12	0x3d832e29	0.06405289
13	0x3d378546	0.044804834
14	0x3d569706	0.05239012
15	0xbbb73cc0	-0.0055919588
16	0xbc590a72	-0.013247119
17	0xba7c53c0	-0.0009625517
18	0xbb4ea980	-0.0031534135
19	0xbcccf9e5	-0.025021503
20	0x3d06028e	0.03271728
21	0x3cce8c30	0.025213331
22	0x3d1d2adc	0.038370952
23	0x3d28ccb6	0.041210853
24	0x3c5d5288	0.0135084465
25	0xbcc59673	-0.024119591
26	0xbd3dcfc6	-0.046340726
27	0xbd1c705e	-0.0381931
28	0xbd012dab	-0.031537693
29	0xbcdd5cfa	-0.027021874
30	0xbc3bd70c	-0.011464845
31	0xbce7de2e	-0.028304186
32	0xbd02a118	-0.031891912
33	0xbcbaba18	-0.022793815
34	0x3c8588f8	0.016300663
35	0x3cf96dd0	0.03044787
36	0x3d0c3178	0.034226865
37	0x3d20199a	0.039086916
38	0xbb9ebbc8	-0.0048441626
39	0xbcd1763f	-0.02556908
40	0x3d0958a6	0.033531807
41	0x3bf95218	0.0076086633
42	0x3bebfb48	0.007201586
43	0xbc21ce74	-0.009875882
44	0xbcdcb644	-0.02694238
45	0xbcde0738	-0.027103052
46	0xbdbcd7f5	-0.09220878
47	0xbdbdb746	-0.09263472
48	0xbdc5edb3	-0.09664478
49	0xbdbbe8d0	-0.09175265
50	0x3bf54408	0.0074849166
51	0x3cb85c7f	0.022505043
52	0xbc5c533e	-0.013447581
53	0x3b27e798	0.0025620218
54	0xbd53ebf0	-0.05173868
55	0xbd3a0675	-0.045416314
56	0xbbcea938	-0.0063067935
57	0x3c41f174	0.011837352
58	0x3d1ee226	0.03878989
59	0xbc37a756	-0.01120933
60	0x3c9f08e8	0.019413427
61	0xbbc76098	-0.006084513
62	0xbc0f12c0	-0.008732498
63	0x3c23b6a8	0.009992279
64	0xbd2a248e	-0.041538768
65	0xbcc4ca8d	-0.024022365
66	0xbcb67307	-0.022271646
67	0xbdce1613	-0.10062804
68	0xbdc4f3e4	-0.09616831
69	0xbc0acca5	-0.008471643
70	0x3c96f0e8	0.01842542
71	0xbd47b7c6	-0.048759244
72	0xbd634e00	-0.05549431
73	0xbd15b53e	-0.0365498
74	0xbd3ac067	-0.045593645
75	0xbda5e0b5	-0.080995
76	0xba808ae0	-0.0009807013
77	0xbd1bd174	-0.038041547
78	0xbbc1e878	-0.005917605
79	0x3ce587f8	0.028018937
80	0x3d0bf5f2	0.0341701
81	0xba36a280	-0.00069669634
82	0xb9849b00	-0.00025292486
83	0xbd150f5d	-0.036391605
84	0x3d27dd86	0.040982746
85	0xbd1b29b8	-0.037881583
86	0xbd2304a6	-0.039799355
87	0x3c9c68d0	0.019092947
88	0x3cccf91b	0.025021126
89	0x3c8c3fa1	0.017120184
90	0xbd0ecac6	-0.03486135
91	0xbcae7db9	-0.021300184
92	0xbce56df6	-0.028006535
93	0xbb5ae240	-0.0033399016
94	0xbd94eb15	-0.07271401
95	0xbd9aa5a5	-0.075511254
96	0x3c5baff0	0.013408646
97	0x3d237e4a	0.03991536
98	0x3cb6324c	0.02224078
99	0x3ca7c408	0.020479217
100	0xbd1f7d5e	-0.03893792
101	0x3afc6e20	0.0019258894
102	0xbc6a5842	-0.014303269
103	0xbd2a7853	-0.041618656
104	0xbc025dba	-0.0079569165
105	0xbd116bfc	-0.035503373
106	0x3d3874e4	0.04503335
107	0x3cb0f032	0.021598909
108	0x3cc5c67e	0.0241425
109	0x3d149e7c	0.036283955
110	0x3d15fbf7	0.036617246
111	0xbd5158b8	-0.05111
112	0x3c01d0f3	0.0079233525
113	0xbc452098	-0.012031697
114	0xbdd3664e	-0.103222474
115	0xbd45c6b0	-0.048285186
116	0x3c88d430	0.016702741
117	0xbcdb8bd2	-0.02680007
118	0x3cdfef88	0.027335897
119	0xbcd59526	-0.026072096
120	0x3ce80150	0.028320938
121	0x3cf27144	0.029595025
122	0xbd24f46a	-0.040272154
123	0x3d170fbe	0.036880247
124	0xbd92cfc8	-0.071685374
125	0x3c9fb003	0.019493109
126	0x3d00fca7	0.031490948
127	0x3d55ace5	0.05216684
128	0x3d89607e	0.067078575
129	0x3cec8a3d	0.02887451
130	0x3cfb650c	0.030687831
131	0x3d983522	0.07432009
132	0x3d901547	0.07035308
133	0x3dbd885f	0.09254526
134	0xbd8355fe	-0.06412886
135	0xbcc61a9b	-0.024182608
136	0xbdbea8ec	-0.09309563
137	0xbc473fd1	-0.012161211
138	0xbc417bb1	-0.0118092755
139	0xbd827187	-0.0636931
140	0xbced9c8b	-0.02900531
141	0xbba1c4a8	-0.0049367733
142	0xbbceae38	-0.0063073896
143	0xbc70bcb0	-0.014693424
144	0xbc0d8010	-0.0086364895
145	0x3d8ce002	0.068786636
146	0x3d1154e4	0.03548135
147	0x3cbb11d9	0.022835659
148	0x3c75e18a	0.015007386
149	0x3d15a4c9	0.036534104
150	0x3d56c0d9	0.052430008
151	0x3ca9d3f0	0.020730942
152	0x3dcfc876	0.10145657
153	0x3d2dd0b0	0.042435348
154	0xbcb9f9fb	-0.022702208
155	0xbce27d67	-0.027647687
156	0xbda2047c	-0.079110116
157	0xbbb30f38	-0.0054644607
158	0x3c2da6a4	0.010598812
159	0xbd776011	-0.06039435
160	0xbd9afc3d	-0.07567642
161	0xbd066bf2	-0.03281779
162	0xbcaf37fb	-0.021388998
163	0x3ca9b520	0.02071625
164	0xbd1630b5	-0.036667544
165	0x3d967479	0.07346434
166	0x3d26de89	0.04073957
167	0x3c02bf18	0.007980131
168	0xbc00f46c	-0.007870775
169	0x3ca12e3a	0.019675363
170	0x3d420b76	0.04737421
171	0x3d9e8f17	0.07742136
172	0x3db92ad4	0.09041372
173	0x3d289f00	0.04116726
174	0xbd277d84	-0.040891185
175	0xbc9f0857	-0.019413156
176	0xbd8e8889	-0.06959636
177	0x3cd11830	0.025524229
178	0x3c47e70c	0.012201082
179	0xbd63c7d9	-0.05561051
180	0xbd8564be	-0.06513356
181	0xbcd61119	-0.0261312
182	0x3d25e24e	0.040499024
183	0xbcd42e51	-0.025900992
184	0xbc982bb9	-0.018575536
185	0xbc1315a7	-0.00897733
186	0xbd5880f0	-0.05285734
187	0xbda08abf	-0.07838964
188	0xbcb0276a	-0.02150317
189	0x3d1d1095	0.038345892
190	0x3da07f20	0.07836747
191	0x3d307da2	0.043088563
192	0x3d48006d	0.04882853
193	0xbb887eac	-0.004165491
194	0xbd77bf14	-0.06048496
195	0xbd8c2f3c	-0.06844947
196	0xbcf724ce	-0.030168917
197	0xbc3c48d5	-0.011491974
198	0xbd702683	-0.058630478
199	0xbc80f300	-0.015740871
200	0xbd27c87c	-0.04096268
201	0xbcbfa7b2	-0.023395393
202	0xbb4d52c0	-0.003132984
203	0xbd212e8b	-0.039351027
204	0xbd947464	-0.07248762
205	0xbd8fe9b3	-0.070269965
206	0xbda3bed8	-0.07995385
207	0xbd19baee	-0.037531786
208	0xbd93ad5f	-0.07210802
209	0x3d04609f	0.032318708
210	0x3cfafaaa	0.030637104
211	0xbba0dd3d	-0.004909186
212	0x3d415d10	0.047207892
213	0xbdc93923	-0.09825351
214	0xbcea27cb	-0.028583428
215	0xbd2fcd4a	-0.04292039
216	0xbc035371	-0.008015499
217	0x3b8ca210	0.0042917803
218	0xbd816403	-0.06317904
219	0xbd878841	-0.06617785
220	0xbd20957d	-0.039205063
221	0x39f96900	0.00047571212
222	0x3cf87c6c	0.030332766
223	0xbd1676e4	-0.036734477
224	0xbd7f9414	-0.062397078
225	0xbd962601	-0.073314674
226	0xbd7c22f6	-0.06155678
227	0xbd2ebb38	-0.042659014
228	0xbd74aaac	-0.059733078
229	0x3d7b3878	0.06133315
230	0xb93848e9	-0.00017574769
231	0x3c9f7d8c	0.019469045
232	0xbc60160c	-0.013677131
233	0xbd2d34ee	-0.042286806
234	0xbcf095a1	-0.029368224
235	0xbc8346de	-0.016025003
236	0x3c8e7b30	0.017392725
237	0x3caf1d34	0.02137623
238	0xbd1e3d2d	-0.03863256
239	0xbc0a2844	-0.008432452
240	0xb9d33d00	-0.00040290505
241	0x3c3ef4c8	0.01165504
242	0xbc72f1a8	-0.014828123
243	0x3c478db0	0.012179777
244	0xbccd03f5	-0.0250263
245	0xbc6cd71f	-0.014455586
246	0xbd4f01f4	-0.050538972
247	0xbdb6f568	-0.08933526
248	0xbdab49a7	-0.083636574
249	0xbc5a36a0	-0.013318688
250	0x3d879bdb	0.06621524
251	0x3b6ad781	0.0035834017
252	0xbd4bbb97	-0.049739446
253	0xbcd3cba0	-0.025853932
254	0xbdcec742	-0.10096599
255	0xbc259e17	-0.010108492

layer1.0.bias f4 [256]
0	0x3c454f75	0.01204287
1	0xbdaf0a9f	-0.08546948
2	0x3c58c857	0.0132313585
3	0xbd47004a	-0.04858426
4	0xbd06162d	-0.032735992
5	0xba30aa92	-0.0006739284
6	0xbdab028d	-0.08350096
7	0xbd2d2f85	-0.042281646
8	0xbd10a5c0	-0.03531432
9	0xbd8ed7f6	-0.06974785
10	0xbaa4ec20	-0.0012582578
11	0xbd28bc2d	-0.041195083
12	0xbc448147	-0.011993713
13	0xbd4b1414	-0.049579695
14	0xbb68f67b	-0.0035547304
15	0x3cbfd464	0.023416705
16	0xbd070a9e	-0.03296911
17	0x3aca0e20	0.0015415587
18	0xbd466813	-0.048439097
19	0xbd87c343	-0.0662904
20	0xbce44b85	-0.027868042
21	0xbd62e487	-0.055393722
22	0xbba9992d	-0.0051757307
23	0xbd9372e0	-0.07199645
24	0xbc13ac22	-0.009013208
25	0xbd68d793	-0.056846213
26	0x3d1b6618	0.03793916
27	0x3c7e67b9	0.015527659
28	0xbca93b3d	-0.02065813
29	0xbd82766c	-0.063702434
30	0x3cdd5fcb	0.027023217
31	0x3c69b748	0.014264889
32	0x3d1476d4	0.036246136
33	0xbdb0520d	-0.086094
34	0xb9123500	-0.00013943389
35	0xbdb2b3fc	-0.087257355
36	0xbcd551b5	-0.026039938
37	0xbd5382fd	-0.051638592
38	0xbcdf5d82	-0.027266268
39	0xbd079e77	-0.03311011
40	0xbd9216ed	-0.07133279
41	0xbd211ba5	-0.039333005
42	0x3ba14e3f	0.0049226577
43	0xbcf2123a	-0.029549707
44	0xbb467dce	-0.0030287388
45	0x3c702f3b	0.014659698
46	0xbc3947bc	-0.011308607
47	0xbd0e6cb7	-0.034771647
48	0xbbf34d91	-0.007425018
49	0xba5a10a7	-0.00083185214
50	0xbc512e58	-0.012767397
51	0xbcf82e7f	-0.030295609
52	0xbc10ba6d	-0.00883351
53	0xbc9826f0	-0.018573254
54	0x3c44e210	0.012016788
55	0x3cde8d7c	0.027167074
56	0xbc0c93d6	-0.008580169
57	0xbccb970d	-0.0248523
58	0xbbaabfe4	-0.0052108634
59	0xbc6cbef4	-0.014449824
60	0xbd059722	-0.032614835
61	0xbd9610a9	-0.073273964
62	0x3b7da075	0.0038700376
63	0xbd8122f6	-0.063054964
64	0xbd909838	-0.070602834
65	0xbd054ec9	-0.03254584
66	0xbd20dcd2	-0.03927309
67	0xbc2716d5	-0.010198315
68	0xbdb1b42c	-0.08676943
69	0x3d55500d	0.052078295
70	0x3d10155c	0.03517662
71	0x3c861ff9	0.016372668
72	0xbc9fa606	-0.019488346
73	0x3cff918d	0.031197334
74	0x3c95b8a4	0.01827652
75	0xbd1751b1	-0.03694314
76	0xbd157caa	-0.036495842
77	0x3c1dad25	0.0096238
78	0x3c950f75	0.018195847
79	0xbcab69cc	-0.020924471
80	0x3d3e75fa	0.04649923
81	0xbbe37b8b	-0.0069422177
82	0xbc5657ca	-0.013082454
83	0xbd934436	-0.071907446
84	0xbd12f5bf	-0.035878893
85	0x3c39dd83	0.011344316
86	0xbcc91b1a	-0.024549056
87	0xbc40a3ec	-0.011757832
88	0xbda26e7d	-0.0793123
89	0x3d21219e	0.0393387
90	0x3c353c58	0.01106175
91	0x3c4d4574	0.012528766
92	0xbd80018e	-0.062502965
93	0xbd84d56c	-0.064860195
94	0xbd8da4cd	-0.06916199
95	0xbd8866c3	-0.06660225
96	0xbd39941e	-0.04530727
97	0xbc5d0b9d	-0.013491538
98	0x3c096160	0.008385032
99	0xbd865afe	-0.06560324
100	0xbc6e6a2d	-0.0145516815
101	0xbc967b73	-0.018369412
102	0xbd7e4cdf	-0.06208503
103	0xbd5a3762	-0.053275473
104	0x3c656580	0.01400125
105	0x3d894285	0.06702141
106	0xbd26eaa5	-0.04075112
107	0x3cc1eca8	0.023672417
108	0x3c69497e	0.014238713
109	0xbd1a7c44	-0.037716165
110	0xbda24c2a	-0.079246834
111	0xbc66e2d0	-0.014092162
112	0xbd339aa5	-0.043848652
113	0xbcbb85de	-0.022890981
114	0xbc82526b	-0.01590844
115	0x3c52a3a2	0.012856396
116	0xbcca454d	-0.024691248
117	0xbc8de59f	-0.017321406
118	0x3d395c0a	0.04525379
119	0xbd3f49e1	-0.046701316
120	0x3d1eb8e2	0.038750537
121	0xbd2302d1	-0.039797608
122	0xbd079fc0	-0.033111334
123	0xbd9a3c26	-0.07531004
124	0xbd30a946	-0.04313018
125	0xbd0396b3	-0.03212614
126	0xbd880c70	-0.06642997
127	0xbc46298f	-0.012094869
128	0xbc11124d	-0.008854461
129	0x3d602e63	0.054731738
130	0xbd3ea570	-0.046544492
131	0xbc48ac62	-0.0122481305
132	0xbd4dac19	-0.050212953
133	0xbd88b66f	-0.066754214
134	0xbc851578	-0.016245589
135	0x3c16f09a	0.009212637
136	0xbcc98543	-0.024599677
137	0xbd82aaa7	-0.063802056
138	0xbc87b7a3	-0.016567057
139	0xbcc276df	-0.023738323
140	0x3c19ff2f	0.009399219
141	0xbd007815	-0.03136452
142	0xbd7985e3	-0.0609187
143	0xbcc92b96	-0.024556916
144	0xbcec87b4	-0.028873302
145	0x3b9151f6	0.0044348193
146	0x3b8c8d89	0.0042893332
147	0xbcd4c907	-0.025974764
148	0xbd81eabc	-0.063436
149	0xbbc293f1	-0.005938046
150	0x3d17d9ed	0.037073065
151	0x3d31cbb9	0.043407176
152	0xbd1a015d	-0.037598956
153	0xba8d266e	-0.0010768899
154	0xbc8cf126	-0.017204832
155	0x3c5db1f4	0.013531197
156	0x3d1eb730	0.03874892
157	0xbd7a2f29	-0.06108013
158	0xbd2aeafb	-0.041728
159	0xbcfad0d7	-0.03061716
160	0xbbfe6c70	-0.0077643916
161	0xbce867ec	-0.028369866
162	0xbcc83d2f	-0.024443237
163	0x3d034c48	0.03205517
164	0xbcbf0b00	-0.023320675
165	0xbd5cfc63	-0.053951632
166	0xbd88c717	-0.066785984
167	0x3d5f8146	0.054566644
168	0x3b26d82c	0.0025458438
169	0xbd9c952a	-0.07645638
170	0xbc8cc0c1	-0.017181756
171	0x3a471f46	0.00075959077
172	0xbb47cf34	-0.0030488493
173	0xbd5c0815	-0.053718645
174	0xbd2a3bb4	-0.041560844
175	0x3d1fd247	0.039018895
176	0xbd9ecfc4	-0.07754472
177	0x3d891f65	0.06695441
178	0xbd1ea203	-0.038728725
179	0xbcb72525	-0.02235658
180	0x3d5ad807	0.053428676
181	0xbc3c0520	-0.011475831
182	0x3d2be096	0.04196223
183	0x3c36536c	0.011128288
184	0xbdaa88dd	-0.08326886
185	0xbca719cd	-0.020398045
186	0xbd2d4368	-0.04230061
187	0xbd895347	-0.06705337
188	0x3cd5f614	0.026118316
189	0xbbfb1a08	-0.0076630153
190	0xbc1836f4	-0.009290446
191	0xbcd69ba0	-0.026197255
192	0xbc827c9b	-0.015928557
193	0xbd851a59	-0.06499166
194	0x3b62dd92	0.003461693
195	0x3c64a59b	0.013955499
196	0xbdb250b9	-0.08706803
197	0xbce7ccac	-0.028295837
198	0x3bfca8db	0.007710559
199	0x3d5a4708	0.053290397
200	0xbce7cfa2	-0.02829725
201	0xbdb27701	-0.087141044
202	0xbd281159	-0.04103217
203	0xbd045ae0	-0.032313228
204	0xba9a8540	-0.0011788979
205	0x39c819ee	0.00038166292
206	0x3b80d648	0.0039317943
207	0xbd6b1832	-0.05739612
208	0xbd561bc2	-0.052272566
209	0xbd315f2b	-0.04330365
210	0x3c99307a	0.018699873
211	0x3c8d4754	0.017245926
212	0xbd3b9dbc	-0.045804724
213	0xbc218679	-0.009858721
214	0xbd41ea91	-0.04734284
215	0xbd1652b2	-0.03669996
216	0xbcbe7ef1	-0.02325389
217	0xbd834d3a	-0.06411214
218	0x3d5f483f	0.05451226
219	0xbcd92343	-0.026506072
220	0xbcd84927	-0.02640207
221	0x3c1b6b54	0.009486038
222	0xbcfefeea	-0.031127412
223	0xbd71d910	-0.059044898
224	0xbce62714	-0.028094806
225	0xbd1a8af4	-0.037730172
226	0xbdae29ad	-0.08504043
227	0xbd2e38c0	-0.04253459
228	0xbd57a332	-0.05264587
229	0xbd387fef	-0.045043882
230	0xbda42f1f	-0.080168
231	0xbd970b51	-0.07375205
232	0xbc01bc2d	-0.0079184
233	0x3ccce9bf	0.025013803
234	0xbd93dd41	-0.07219935
235	0xbda60096	-0.081055805
236	0xbc428dbe	-0.011874614
237	0xbc71cfe5	-0.014759039
238	0xbd14308f	-0.03617912
239	0xbba68933	-0.0050822734
240	0x3ca93b3c	0.020658128
241	0xbd3231e8	-0.043504626
242	0x3a3239c0	0.00067987666
243	0xbdcd8853	-0.100357674
244	0x3dcd1728	0.10014182
245	0x3c9eadc4	0.019369967
246	0xbc91b7eb	-0.017787894
247	0xbcf7c923	-0.030247277
248	0x3cbdcf23	0.02317006
249	0xbc7cd6e7	-0.015432096
250	0xbd36bcba	-0.044613577
251	0xbbee22b7	-0.007267322
252	0xbcc96b31	-0.024587246
253	0xbb961c33	-0.0045809983
254	0xbdb42084	-0.08795264
255	0xbd23da3a	-0.04000304

layer2.0.weight f4 [84, 256]
0	0x3b07e540	0.002073601
1	0xbd196d0c	-0.03745751
2	0x3d089026	0.033340596
3	0xbc541154	-0.0129435845
4	0xbc716a27	-0.014734781
5	0xbdccaa66	-0.099934384
6	0xbd4c4906	-0.049874328
7	0x3bc4dab0	0.006007515
8	0xbd696a8a	-0.05698637
9	0xbd60bb3a	-0.054866053
10	0xbd47cb9e	-0.04877817
11	0x3cdceab8	0.026967391
12	0x3d3ccadc	0.0460919
13	0xbd83c90a	-0.064348295
14	0xbc72f08b	-0.014827858
15	0x3c456640	0.012048304
16	0xbda0a541	-0.0784402
17	0xbdb94368	-0.0904606
18	0xbd7e95f6	-0.062154733
19	0x3c660c9b	0.014041091
20	0xbc27a841	-0.010232986
21	0xbcdcb9c0	-0.026944041
22	0xbc9a86f4	-0.018863179
23	0xbd00f370	-0.03148216
24	0xbcdcd7fb	-0.026958456
25	0xbcb4d4e8	-0.022074178
26	0xbdbf154c	-0.09330234
27	0x3c93b32d	0.018029774
28	0xbd9db751	-0.077009805
29	0x3c296598	0.010339163
30	0xbc430a6d	-0.011904341
31	0xbd2b8198	-0.041871637
32	0x3d0398a8	0.032128006
33	0x3c084ac8	0.0083186105
34	0x3d6f570c	0.058432624
35	0x3af913c0	0.0019003078
36	0xbd11be2c	-0.035581753
37	0x3c86d1f4	0.016457535
38	0xbd6cb2f2	-0.057787843
39	0xbd3b359d	-0.045705426
40	0x3d790298	0.06079349
41	0xbd23fd7d	-0.040036667
42	0xbda136ab	-0.07871755
43	0xbd951ad3	-0.07280507
44	0xbcc85683	-0.024455315
45	0xbd604978	-0.054757565
46	0x3d3e5ae4	0.0464734
47	0xbd216e83	-0.039412033
48	0x3d4e37ac	0.05034606
49	0xbba43f5c	-0.005012436
50	0xbd032704	-0.03201963
51	0xbbdac6c0	-0.006676525
52	0x3d2041d4	0.03912528
53	0x3d3d9346	0.04628303
54	0xbd244b04	-0.040110603
55	0xbdc3c6d9	-0.095594116
56	0xbdc0f5bd	-0.09421871
57	0xbdc07aa6	-0.09398393
58	0xbba935d4	-0.0051638875
59	0xbd7b91f8	-0.061418504
60	0x3c371e88	0.011176713
61	0x3cb23a24	0.02175624
62	0xbd9409ca	-0.072284296
63	0x3c3c5d49	0.01149685
64	0x3d27ccc4	0.040966764
65	0x3d45bd56	0.048276268
66	0x3c288d78	0.010287635
67	0xbdb008b4	-0.0859541
68	0xbd1353ba	-0.03596852
69	0xbd9b5dd4	-0.07586256
70	0xbce2aaa4	-0.027669258
71	0xbdb0a6ed	-0.086255886
72	0xbdaf6a8e	-0.085652456
73	0x3c366f58	0.011134945
74	0x3c753aa8	0.014967598
75	0x3d146e32	0.036237903
76	0x3d363fb2	0.04449434
77	0x3d3c6aa6	0.046000145
78	0xbba4a620	-0.0050246865
79	0xbd469f02	-0.048491485
80	0xbc925080	-0.017860651
81	0xbc535f70	-0.012901172
82	0x3d3d0f4c	0.046157166
83	0x3d2b9e96	0.041899286
84	0xbb5d2253	-0.0033742383
85	0xbd4cde94	-0.050016955
86	0xbdccf978	-0.1000852
87	0x3cc7fd34	0.024412729
88	0xbd70a804	-0.058753982
89	0xbca989bd	-0.020695562
90	0xbccc62c0	-0.024949431
91	0x3cfc7888	0.030819193
92	0x3c634ae0	0.013872832
93	0xbd07d35e	-0.03316056
94	0xbd797fd8	-0.060912937
95	0xbd72271c	-0.05911933
96	0xbd401c23	-0.046901833
97	0xbce42898	-0.027851388
98	0xbd2cdaf6	-0.042201005
99	0xbc9457b4	-0.018108226
100	0xbcc87cd0	-0.024473578
101	0xbcb9f784	-0.022701032
102	0xbc89ad3c	-0.016806237
103	0x3c9e8bc0	0.019353747
104	0x3b0cf160	0.0021506175
105	0xbce2ee60	-0.027701557
106	0xbc0da9b1	-0.008646415
107	0xbc0ca828	-0.008585013
108	0xbdaabebe	-0.083371624
109	0xbcccf9a5	-0.025021384
110	0xbd536ace	-0.05161553
111	0x3c062cc7	0.008189387
112	0xbdb08229	-0.08618576
113	0xbd15cebd	-0.036574114
114	0xbd089472	-0.033344693
115	0x3c72dfa6	0.01482383
116	0x3d3378c4	0.043816343
117	0xbd46e378	-0.048556775
118	0xbcd5a1e7	-0.026078178
119	0x3d0fab78	0.035075635
120	0x3d11bb84	0.03557922
121	0xbd92e134	-0.0717186
122	0x3ce43df0	0.027861565
123	0xbd30a8be	-0.043129675
124	0xbdb9f3ab	-0.09079679
125	0xbcd85253	-0.026406443
126	0xbdc2efd8	-0.09518403
127	0x3d4c65d4	0.0499018
128	0x3cc3d03c	0.023903005
129	0xbd95f907	-0.07322889
130	0xbc836580	-0.01603961
131	0xbd32ed4a	-0.043683328
132	0xbca68b9c	-0.020330243
133	0xbcae48ec	-0.021275006
134	0x3c9cf43b	0.019159427
135	0x3caabb4c	0.020841263
136	0xbd3971dc	-0.0452746
137	0x3c159c28	0.009131469
138	0xbd1fbaa8	-0.03899637
139	0xbc806210	-0.01567176
140	0xbd04107c	-0.032242283
141	0xbd43a326	-0.047763012
142	0x3c597f50	0.013274983
143	0x3b8069d0	0.003918864
144	0xbcaef226	-0.0213557
145	0xbd058de0	-0.032606006
146	0x3d53a7c6	0.051673673
147	0x3c5e8338	0.01358109
148	0xbcc0e898	-0.02354841
149	0xbdbe1d86	-0.09282975
150	0x3b742f50	0.0037259646
151	0xbd83ea22	-0.06441142
152	0xbcff0dc8	-0.031134501
153	0xbd8f7e81	-0.070065506
154	0xbc57f6e8	-0.013181426
155	0xbd7d3053	-0.061813664
156	0xbdc1d965	-0.09465293
157	0xbd7789e4	-0.060434237
158	0xbc94151b	-0.01807647
159	0xbd6e7fbc	-0.058227286
160	0x3c3580c0	0.01107806
161	0xbb6d3e00	-0.0036200285
162	0xbd05d560	-0.032674193
163	0xbcecafc4	-0.028892405
164	0xbcd9a6e8	-0.026568845
165	0x3d10067e	0.03516244
166	0xbd2a97d2	-0.041648693
167	0xbd9ec3e2	-0.077522054
168	0xbdb16124	-0.08661106
169	0xbc5016a0	-0.012700707
170	0xbd407032	-0.046981998
171	0xbd2b1ce6	-0.041775607
172	0xbc849db4	-0.01618848
173	0xbd11267e	-0.0354371
174	0xbcf07c1c	-0.029356055
175	0xbb4c6d3a	-0.0031193034
176	0x3d291b18	0.041285604
177	0xbc3ac330	-0.011399075
178	0xbc939a00	-0.018017769
179	0x3d6e6d4c	0.058209702
180	0xbdb39e1c	-0.08770391
181	0xbd3e3b70	-0.046443403
182	0x3c93bf98	0.018035695
183	0x3c671b70	0.014105663
184	0xbd070fc0	-0.032974005
185	0xbb9e8b60	-0.004838392
186	0xbcc98f70	-0.02460453
187	0xbd062e46	-0.032758974
188	0x3c1d6870	0.009607419
189	0x3c6830c8	0.014171787
190	0x3b4c5ea0	0.003118433
191	0xba19eb00	-0.00058715045
192	0xbc1e1dc7	-0.009650654
193	0xbb01fa00	-0.001983285
194	0xbdba3263	-0.09091642
195	0xbc90bfee	-0.017669644
196	0x3d660de0	0.056165576
197	0xbcda40d9	-0.02664225
198	0xbdbe8ead	-0.09304557
199	0x3ca36784	0.019946821
200	0xb9bf43e5	-0.00036480944
201	0xbc3c2190	-0.011482611
202	0xbdc7c227	-0.097538285
203	0x3d592fe2	0.05302418
204	0x3d04d802	0.032432564
205	0xbdcf75b2	-0.101298705
206	0xbd05b884	-0.03264667
207	0x3ab2fa01	0.0013654829
208	0xbb4c60c0	-0.0031185597
209	0xbd662eae	-0.05619686
210	0xbd8e75b8	-0.06956047
211	0xbc8c33f0	-0.01711461
212	0x3cf3f69c	0.029780678
213	0xb97b4000	-0.00023961067
214	0x3d2d4dbe	0.04231047
215	0x3d775e08	0.06039241
216	0xbc9d4d10	-0.019201785
217	0x3d0e1836	0.034691058
218	0xbc03f9cc	-0.008055162
219	0xbd1244fe	-0.035710327
220	0xbdc66d16	-0.09688775
221	0xbd1e5934	-0.03865929
222	0xbc257160	-0.0100978315
223	0xbd0f6a59	-0.03501353
224	0x3d762c0c	0.0601006
225	0x3c420f90	0.011844531
226	0xbc4965a0	-0.012292296
227	0xbb4f5b44	-0.0031640092
228	0x3d629d4e	0.0553258
229	0xbb215de0	-0.0024622604
230	0xbcc422fc	-0.023942463
231	0x3d2d16b2	0.042257972
232	0xbcdfc624	-0.02731616
233	0x3ce8fd14	0.02844099
234	0xbce023b0	-0.027360767
235	0xbbfe15e7	-0.007754076
236	0xbbdf7505	-0.0068193697
237	0xbd4aab37	-0.04947969
238	0xbd71fe18	-0.059080213
239	0x3bafef60	0.005369112
240	0xbbc3332a	-0.005957027
241	0x3c7a4f60	0.015277714
242	0xbd6c3e14	-0.05767639
243	0x3d3701aa	0.04467932
244	0x3c4c019d	0.0124515565
245	0xbc16c58a	-0.00920237
246	0x3c523f4d	0.012832475
247	0x3d7ec2b0	0.062197387
248	0xbd5c0e5c	-0.05372463
249	0xbd45c328	-0.04828182
250	0x3cd589d8	0.026066706
251	0x3ce388d4	0.027775206
252	0xbcb314b8	-0.021860465
253	0x3d234bca	0.0398672
254	0x3d2d41a8	0.042298943
255	0x3d183a04	0.037164703

layer2.0.bias f4 [84]
0	0x3c9afeb6	0.018920284
1	0xbcd0c635	-0.025485137
2	0x3b1abb69	0.002361024
3	0xbd524f58	-0.0513452
4	0xbdab25f5	-0.08356849
5	0xbc3c7c7a	-0.011504287
6	0xbd325f16	-0.043547712
7	0x3c83512c	0.016029917
8	0x3c48a8cc	0.012247276
9	0xbd564c67	-0.052318957
10	0x3d42b2ef	0.047533926
11	0xbc925d8c	-0.017866872
12	0xbd014f80	-0.031569958
13	0xbd5d7bfe	-0.054073326
14	0x3d893849	0.06700189
15	0xbd7d3bc8	-0.06182459
16	0xbca6e521	-0.020372929
17	0x3b98911a	0.0046559693
18	0x3d218eac	0.039442703
19	0xbd64fdba	-0.055906035
20	0x3b2d771e	0.0026468704
21	0x3d3f490b	0.04670052
22	0xbd021e15	-0.03176697
23	0xbd14d677	-0.036337342
24	0x3d0f6594	0.03500898
25	0xbcf72b58	-0.030172035
26	0xbdceef13	-0.101041935
27	0xbdd3c307	-0.10339933
28	0xbd56cfba	-0.052444197
29	0xbc8c15aa	-0.017100174
30	0xbd5e0482	-0.054203518
31	0xbd031bbe	-0.03200888
32	0x3dbca13b	0.0921044
33	0xbda1615c	-0.07879898
34	0xbd9f83ff	-0.07788848
35	0x3d5dbb40	0.054133654
36	0x3d612bcb	0.054973405
37	0xbdaf3467	-0.08554917
38	0x3d6dcd1b	0.058056932
39	0xbcf6ba04	-0.030117996
40	0x3c835d41	0.016035678
41	0x3d13b41b	0.036060434
42	0xbd7003c8	-0.058597356
43	0xbdac087f	-0.08400058
44	0xbd1b68b5	-0.037941653
45	0xbdcfa7cf	-0.10139429
46	0x3bc81399	0.006105852
47	0x39e11800	0.00042933226
48	0x3d5dfec3	0.054198038
49	0xbb9bb58f	-0.004751868
50	0x3c7faac0	0.015604675
51	0xbd8705bf	-0.06592893
52	0xbdbe8f41	-0.09304667
53	0xbdbeb594	-0.09311977
54	0xbca7f16e	-0.020500865
55	0xbd0444b4	-0.032292083
56	0xbd913087	-0.07089334
57	0xbd3f3d94	-0.046689585
58	0xba768ea0	-0.0009405408
59	0xbd594493	-0.053043913
60	0xbd77a657	-0.06046137
61	0xbd053ad9	-0.032526825
62	0xbd7b2f9b	-0.061324697
63	0xbd11172a	-0.03542248
64	0xbc834980	-0.016026258
65	0x3d2a1f08	0.0415335
66	0xbdbc9cc8	-0.09209591
67	0xbc47dc20	-0.012198478
68	0xbca51cef	-0.020155398
69	0x3c9fc665	0.019503782
70	0x3d8d013c	0.06885001
71	0x3c9e20e4	0.019302793
72	0xbc750e69	-0.014957049
73	0x3c9730e5	0.018455932
74	0x3d97007b	0.073731385
75	0x3b92896e	0.0044719493
76	0xbd2c23dc	-0.042026386
77	0xbcfe0571	-0.031008454
78	0x3ce9281d	0.02846151
79	0xbd206df3	-0.039167356
80	0xbdc96cc1	-0.09835196
81	0xbcbfb241	-0.023400428
82	0xbccd2826	-0.025043558
83	0xbc543bb8	-0.012953691

layer3.0.weight f4 [6, 84]
0	0xbd69b942	-0.05706144
1	0x3d01bfd6	0.03167709
2	0xbe0d2b42	-0.13786033
3	0xbd338322	-0.04382623
4	0x3db6b7e4	0.08921793
5	0x3d6afc8b	0.05736975
6	0xbdc7b1fb	-0.09750744
7	0x3d74b721	0.059744958
8	0xbd2deac8	-0.042460233
9	0x3ce32c77	0.027731163
10	0xbd5ccc68	-0.053905874
11	0x3cfbd8a4	0.03074295
12	0x3d655fc3	0.05599953
13	0x3d5ab419	0.05339441
14	0x3d0b2221	0.033968095
15	0x3d5e6e3e	0.054304354
16	0xbcf8dd6b	-0.030379018
17	0x3db4ac23	0.08821895
18	0x38c8c1ac	9.572817e-05
19	0xbe1812c0	-0.14850903
20	0xbd528aa8	-0.051401764
21	0x3d7f34e8	0.062306315
22	0xbd49eb1c	-0.049296483
23	0x3d6a1afa	0.057154633
24	0xbd5e8a67	-0.05433121
25	0x3d93dbe3	0.072196744
26	0x3daa65b5	0.0832018
27	0x3c042373	0.008065092
28	0xbc2ce65a	-0.010552967
29	0x3d54a7aa	0.05191771
30	0xbbfcf327	-0.0077194157
31	0xbc7d5e0d	-0.015464318
32	0x3bcd0894	0.006257126
33	0xbbc5a622	-0.0060317675
34	0x3db1878f	0.08668434
35	0x3d23aadc	0.039957866
36	0xbdba4777	-0.09095662
37	0x3ca9032a	0.020631392
38	0x3b6472ff	0.0034858582
39	0x3d0ab0aa	0.033859886
40	0xbd30b3dd	-0.04314028
41	0x3d130cdb	0.03590093
42	0xbdd51aef	-0.10405528
43	0x3dafddd1	0.0858723
44	0x3b9d6b24	0.004804032
45	0x3cbff677	0.023432953
46	0xbd3a3cf0	-0.04546827
47	0xbd1fa15a	-0.038972236
48	0xbe030ff8	-0.1279906
49	0xbd6d85bd	-0.05798887
50	0x3dd5df6d	0.10443006
51	0x3ce5b33a	0.028039563
52	0x3cac91cf	0.02106562
53	0x3dfe0156	0.124025986
54	0xbd990b8b	-0.07472905
55	0x3db2f7a8	0.08738643
56	0x3cfc8989	0.0308273
57	0x3c1c67ed	0.009546262
58	0xbe033d84	-0.12816435
59	0x3ccfb605	0.025355348
60	0x3dbbf282	0.09177114
61	0xbc195329	-0.009358206
62	0x3d67a529	0.056553993
63	0x3e13e052	0.1444104
64	0xbd987d12	-0.0744573
65	0x3dc2c1d1	0.09509624
66	0x3c697fc1	0.01425165
67	0x3d1824c3	0.037144434
68	0x3d8074ae	0.06272255
69	0xbc91b5f0	-0.01778695
70	0x3e0903b7	0.13380323
71	0xbd10009e	-0.03515684
72	0x3e0af7a4	0.1357103
73	0xbd836772	-0.06416215
74	0x3d403bf4	0.046932176
75	0xbbf6c394	-0.007530639
76	0xbd09a4ec	-0.033604547
77	0x3d1b5f25	0.037932534
78	0xbbb2072a	-0.005432983
79	0x3c8097d8	0.015697405
80	0xbcfa3d9d	-0.030546958
81	0xbd3d0c8a	-0.046154536
82	0xbd54c906	-0.051949523
83	0xbd35a6c9	-0.04434851
84	0x3d76f3a6	0.060290955
85	0xbd1ada1e	-0.03780567
86	0xbddb5dc4	-0.10711244
87	0xbd56081d	-0.05225383
88	0x3cd03196	0.02541427
89	0x3d537c8a	0.05163244
90	0xbab22e80	-0.001359418
91	0x3de4c3c8	0.11170155
92	0x3d18cc72	0.03730435
93	0xbdc5b2de	-0.09653257
94	0xbe08d7ee	-0.1336362
95	0xbd1302c1	-0.0358913
96	0x3bd0dce8	0.0063739903
97	0x3c084e5e	0.008319465
98	0xbbc16cbe	-0.0059028557
99	0x3d0be2de	0.034151904
100	0x3d0e9cc5	0.034817476
101	0x3d501b3a	0.050807215
102	0xbd1dfdf3	-0.038572263
103	0x3d89355b	0.0669963
104	0xbc9d6f8f	-0.019218234
105	0x3d3abcc4	0.045590177
106	0x3dc22437	0.09479564
107	0x3d4c5c12	0.049892493
108	0xbd36864a	-0.04456166
109	0xbd0b4fa6	-0.034011506
110	0x3bccac19	0.0062461016
111	0xbc977db8	-0.018492565
112	0x3db49b2a	0.08818658
113	0xbd535d6f	-0.051602777
114	0xbb994cca	-0.0046783434
115	0x3d2512b9	0.04030106
116	0xbd7a0363	-0.061038386
117	0xbd715df0	-0.058927476
118	0x3df0ca43	0.11757328
119	0xbd8c73cf	-0.06858026
120	0x3d94dd1f	0.07268738
121	0x3db11fb2	0.086486235
122	0xbd939f21	-0.07208086
123	0x3dfc1684	0.12308982
124	0x3c808b20	0.01569134
125	0x3d90dc65	0.07073287
126	0x3e0e09a2	0.13870862
127	0x3d5f8869	0.05457345
128	0x3d77eba7	0.06052747
129	0xbc88bc90	-0.016691476
130	0x3c2f5f47	0.010703868
131	0x3d596866	0.053078078
132	0xbdb4995e	-0.08818315
133	0x3d4f3df2	0.050596185
134	0x3b721580	0.0036939085
135	0xba023b79	-0.00049679686
136	0x3e02ba45	0.12766369
137	0xbc5950e3	-0.013263914
138	0x3d9ca17d	0.07647989
139	0x3bf6612d	0.0075189085
140	0x3cac82ce	0.021058466
141	0xbd253e27	-0.040342476
142	0x3d37ab89	0.044841323
143	0x3dc69fa2	0.09698416
144	0xbbbd09e2	-0.0057690004
145	0x3c74e6a5	0.014947568
146	0x3c855c5e	0.016279396
147	0x3daf2151	0.085512765
148	0xbdd0224b	-0.10162791
149	0xbd1c037b	-0.038089257
150	0xbdd944bf	-0.106088154
151	0x3d916f30	0.071012855
152	0x3d9ce48e	0.07660781
153	0x3d06e49a	0.032932855
154	0x3c583e33	0.013198423
155	0x3cc9b3ac	0.024621807
156	0x3be6ffbe	0.00704953
157	0x3db3537d	0.087561585
158	0x3df5d772	0.120039836
159	0xbd09a557	-0.033604946
160	0x3c0b1473	0.008488762
161	0xbd28af5a	-0.041182853
162	0x3d8abc48	0.06774193
163	0xbd1cb124	-0.038254872
164	0xbdb32598	-0.08747405
165	0xbc024e89	-0.007953295
166	0xbcad2a79	-0.021138417
167	0x3ba4a28c	0.00502426
168	0x3ca357c2	0.019939307
169	0xbdd0c14f	-0.10193121
170	0xbd6b21a1	-0.057405118
171	0xbceddd50	-0.029036194
172	0x3ca65074	0.020302035
173	0xbdc717ce	-0.09721337
174	0xbdb5beea	-0.088743046
175	0xba8aecc7	-0.001059913
176	0x3c1b689e	0.009485392
177	0xbd30828e	-0.043093257
178	0xbd1b290c	-0.037880942
179	0xbe110465	-0.14161833
180	0xbd8c6aaa	-0.06856282
181	0x3d49f241	0.049303297
182	0xbdc6c526	-0.09705572
183	0x3c02e3a5	0.007988845
184	0x3d9b09a1	0.07570196
185	0x3daaa876	0.083329126
186	0xbb807b57	-0.0039209533
187	0xbd1b1288	-0.03785947
188	0xbdcf0ba6	-0.10109644
189	0xbcaed70a	-0.021342773
190	0x3d64ae2d	0.05583017
191	0x3d85b4bb	0.06528612
192	0x3d66ce5f	0.056349155
193	0x3dc00a79	0.093769975
194	0xbd0c19b5	-0.034204204
195	0xbcb8bb3d	-0.02255022
196	0x3dcbfecb	0.09960707
197	0x3d6d2026	0.057891987
198	0xbc98a4ef	-0.018633334
199	0xbd3a96d8	-0.045554012
200	0x3d1abd45	0.037778158
201	0x3cd21b33	0.025647735
202	0xbc9c9f5e	-0.019118961
203	0x3d0b4d7c	0.03400944
204	0x3dcd5fdf	0.100280516
205	0xbcae17b1	-0.021251531
206	0x3c67970a	0.014135132
207	0x3d73cdd6	0.059522472
208	0x3dc057a3	0.093917154
209	0xbd923297	-0.071385555
210	0x3d54cf8e	0.051955752
211	0x3cacef78	0.021110281
212	0xbb14acc4	-0.0022685984
213	0xbdb783c8	-0.08960682
214	0xbd99a2f9	-0.07501788
215	0xbc0d4680	-0.008622766
216	0x3dccbf62	0.09997441
217	0xbdc0be94	-0.0941135
218	0x3da31597	0.07963102
219	0x3d31fba4	0.043452874
220	0xbd2dfb02	-0.042475708
221	0x3d3d966d	0.046286035
222	0xbc2235c3	-0.009900513
223	0xbd06d21f	-0.03291523
224	0xbd4754f2	-0.048664995
225	0x3dc7ec30	0.09761846
226	0x3e0639fd	0.13108058
227	0x3d07b33a	0.03312991
228	0x3d3a3626	0.045461796
229	0x3d0c5de2	0.03426922
230	0x3c833147	0.016014708
231	0x3d97e19f	0.07416081
232	0xbd2fc3f2	-0.042911477
233	0x3d632282	0.05545283
234	0xbc003239	-0.007824474
235	0xbdb6aca6	-0.08919649
236	0x3d57f8d8	0.05272755
237	0xbce5ef58	-0.02806823
238	0xbd144cef	-0.036206182
239	0x3ca775e1	0.020441951
240	0x3d17d485	0.03706791
241	0x3b217017	0.002463346
242	0xbcce16ed	-0.025157416
243	0x3d35d726	0.044394635
244	0xbd329765	-0.043601412
245	0xbc8994c0	-0.016794562
246	0xbd63d83f	-0.05562615
247	0xbd5aca89	-0.05341581
248	0xbda81cc1	-0.08208609
249	0x3b95ec18	0.0045752637
250	0x3df39133	0.11892929
251	0xbdef0342	-0.11670543
252	0xbdbe7e03	-0.093013786
253	0x3d01c364	0.03168048
254	0x3dca102f	0.09866368
255	0x3cacf1b6	0.02111135

layer3.0.bias f4 [6]
0	0xbd954070	-0.07287681
1	0x3d9ce1ba	0.076602414
2	0x3de33bda	0.110954
3	0xbc6325cc	-0.013863992
4	0x3d5f1814	0.054466322
5	0x3d2d79d4	0.042352512
