DigitalRecognition-master/model_params/GDUT_net_all_17.pt (torch, 665623 bytes, 6 tensors)

layer1.0.weight f4 [256, 560]
000000 a4 ab 52 3c 0d 6b 19 bd 0a e4 e2 bc a4 e2 0d 3c
       0.012858305 -0.037455607 -0.027696628 0.008659992
000010 96 05 1f bd 67 b5 10 bd 76 8d a2 bc 84 c3 0e 3c
       -0.038823687 -0.03532925 -0.019842844 0.008713607
000020 18 ff e0 3c e5 f9 8b bc 56 ac 19 3d 60 bc 74 bb
       0.027465388 -0.017086932 0.037517868 -0.0037343726
000030 de ab 1a bd bc d1 98 bc ac c9 b2 3c 64 ac c7 3c
       -0.03776156 -0.018654697 0.02182468 0.024374194
000040 80 82 f6 3a dc 9d db bc d8 97 ff bb 9a 27 0c bd
       0.0018807203 -0.026808672 -0.0078000836 -0.034217454
000050 28 86 8e 3b f8 38 91 bb c0 57 50 bb 90 19 aa 3c
       0.0043494888 -0.00443184 -0.0031790584 0.020764142
000060 f8 ac 00 3d 8a 84 a3 3c 86 00 55 bc f0 a5 07 bb
       0.031414956 0.01996066 -0.013000613 -0.0020698272
000070 f7 1a e2 bc 44 3d fe bc b8 24 22 bc 2a ec 92 3c
       -0.027600748 -0.031035073 -0.00989645 0.017934877
000080 fa 49 22 3d b5 d6 28 bd da e2 15 bd 80 ad b3 b9
       0.03962133 -0.041220386 -0.036593296 -0.00034270808
000090 4a 3c fc bc 75 68 14 bd 50 ab 16 bb 64 a8 26 3d
       -0.030790467 -0.03623243 -0.0022990294 0.040687934
0000a0 54 1d 08 3c 14 e7 13 bc c0 25 15 3d 38 4f fa bb
       0.008307774 -0.009027261 0.036412954 -0.007638838
0000b0 48 81 e5 bc 88 43 ab 3c e8 81 c4 3b d3 22 08 bd
       -0.028015748 0.020906225 0.0059969313 -0.033236336
0000c0 ef a1 69 3c 80 2f c7 bb ef 18 3f bc 7b 60 c0 3c
       0.014259799 -0.0060786605 -0.0116636595 0.023483505
0000d0 30 9d 10 3d 03 38 84 bc bc 4f 0d bd 72 8d 08 3d
       0.035306156 -0.01613999 -0.03449987 0.033338018
0000e0 e0 3c e1 3c 66 92 e0 bc fa 95 19 3d 8a 18 ff bc
       0.027494848 -0.027413558 0.037496544 -0.03113963
0000f0 cc 8e f9 3c 30 4f ea bb da 47 41 bc 9e ae 81 3c
       0.030463599 -0.007150553 -0.011796916 0.015830334
000100 12 09 bb bc 60 48 e9 bc 6a b7 98 3c 54 06 23 3d
       -0.022831473 -0.028476894 0.018642146 0.039800957
000110 e1 9f 8e 3c fa a8 0d bc 2f f8 c3 bb cf ca 04 3d
       0.01741022 -0.008646244 -0.0059805135 0.032419976
000120 cd 8a 65 3a d0 81 da bb 9c 57 60 bc e0 7e f1 3c
       0.00087563397 -0.006668307 -0.013692763 0.029479444
000130 88 7e 15 3d d2 3d 85 3c 40 ca 2e 3c 54 5e 06 3d
       0.036497623 0.01626483 0.010668337 0.032804802
000140 27 fa 04 bd 38 b7 fa bb 6c a6 aa bc 72 0a 05 3d
       -0.032465126 -0.007651236 -0.02083131 0.032480665
000150 d9 f1 21 3d 3a 6c 43 3c 7d 8b 27 bd c3 d0 b2 3c
       0.039537285 0.011927659 -0.04090451 0.021828061
000160 44 96 19 bd 15 34 a1 3a 0b dc 1f bd d5 a0 11 3d
       -0.03749682 0.0012298847 -0.03902821 0.035553772
000170 f1 eb d1 3b 91 d7 33 bc 0b 5a 05 3d 55 b4 a7 3a
       0.0064063002 -0.010976688 0.032556575 0.0012794832
000180 a2 a3 fe bc b8 21 45 3c b4 5e 23 3d 38 e8 39 bc
       -0.031083886 0.012031965 0.039885238 -0.011346869
000190 c1 03 0f bd f1 4a ab bc 5b 1a be bc 5a 83 16 3d
       -0.03491569 -0.020909758 -0.023205927 0.03674636
0001a0 f5 9a c0 3a 14 7a e5 3c ab 1d 01 bd 0b e3 ac 3c
       0.0014694618 0.028012313 -0.031522434 0.021104356
0001b0 3a de ce bc 0f c3 33 bb e3 ef 4a 3b cc ec bf bc
       -0.02525245 -0.0027429496 0.0030965738 -0.023428343
0001c0 d1 9a a0 3b 6b c1 b0 bc f0 f0 0e bd 15 41 96 3a
       0.004901268 -0.021576604 -0.034897745 0.0011463488
0001d0 f4 d8 70 3c fe 30 2a 3d 78 7a c7 3b 30 91 3d bb
       0.014700163 0.04155063 0.0060875975 -0.002892565
0001e0 d4 e4 00 3d 08 f9 44 3c ca 14 22 3d e8 23 25 3d
       0.031468228 0.012022264 0.039570607 0.040317446
0001f0 36 a3 40 bb 75 ae 18 3d be 9c e9 3c 78 3d 07 bd
       -0.0029394156 0.03727575 0.028517123 -0.033017606
000200 ac b6 90 bc fc c1 d3 3c 14 8a 1d bb 4c 8f f3 3c
       -0.01766523 0.025849335 -0.00240386 0.029731415
000210 78 fb 70 bc 25 74 6e bc a8 c5 8d bc 17 46 10 bd
       -0.014708392 -0.014554058 -0.017306164 -0.035223093
000220 bb d0 15 3d f4 20 07 3d 34 ea 0b bc 60 f4 bc 3c
       0.036576014 0.03299041 -0.008539725 0.023065746
000230 4e db a4 3c 1c 66 18 bd 46 99 34 bc 7f 43 ad 3c
       0.020124104 -0.037206754 -0.011022871 0.021150349
000240 bc 62 1f bd eb 50 fd bc 79 ec a3 bc 39 16 8d bc
       -0.03891252 -0.030922374 -0.02001022 -0.01722251
000250 f6 34 0e bc 7a e9 b9 bc 5a 10 c6 3c 95 9b 9b bc
       -0.008679619 -0.022694338 0.024177719 -0.018995086
000260 cc ae 11 bd 61 07 15 3d fe d0 6d bc 00 9b b2 3c
       -0.03556709 0.03638399 -0.01451516 0.021802425
000270 69 05 23 bd f6 36 fe 3c 35 1d b7 bc e0 38 c8 bb
       -0.03980008 0.031032067 -0.022352794 -0.0061102957
000280 84 60 73 3c 18 22 ab 3b f4 41 57 3c aa 39 18 bd
       0.014854554 0.00522257 0.013138283 -0.037164368
000290 d8 53 a7 3b ac 01 78 bc b0 04 ea 3c 97 e9 25 3c
       0.0051064305 -0.015137117 0.028566688 0.010126493
0002a0 5f 0e 1c bd f8 a7 f1 3c 45 4b ae bc f6 e0 d6 3c
       -0.038099643 0.029499039 -0.021276126 0.026230317
0002b0 aa 62 c0 3c 85 08 8b bc 61 0e b5 3c 83 fe 13 3d
       0.023484547 -0.016971836 0.022101583 0.036131393
0002c0 1a d9 d4 3c a0 8f 90 bc 11 d8 30 3c 34 ce 83 bc
       0.025982428 -0.01764661 0.010793702 -0.016089536
0002d0 7e e6 2a 3d 84 18 e0 3c 30 f0 9f bb 43 c9 29 bc
       0.04172372 0.02735544 -0.0048809275 -0.010362926
0002e0 e8 4f 0a 3c ac f4 06 3c ae 56 90 bc 3e 1e 97 3c
       0.008441903 0.008237045 -0.017619457 0.018447038
0002f0 9a d8 f2 bc 6a c6 fb 3c 6e 9e 27 bd 03 e8 2a 3c
       -0.0296443 0.03073426 -0.040922575 0.0104312925
000300 14 0a 29 3d 29 d1 f5 bc 60 32 d9 bc 82 60 d2 bc
       0.041269377 -0.030006962 -0.026513278 -0.025680784
000310 ba 9e 67 3c 68 78 21 3d 99 d7 99 3c f0 6c a3 3b
       0.014136964 0.03942147 0.018779563 0.0049873516
000320 28 71 d5 3c 40 67 c7 bc 00 43 43 bb 9f 31 0c 3d
       0.026054934 -0.024341226 -0.0029794574 0.03422701
000330 5a 08 2a bd e2 00 92 bc 64 dc 17 3d 0c 69 0b bd
       -0.04151187 -0.017822687 0.037075415 -0.034035727
000340 2e e6 81 3c b5 d8 23 bd ec d1 01 3d 40 91 68 bc
       0.015856829 -0.04000159 0.031694338 -0.014194787
000350 25 0b 0e 3d b1 33 a9 3c 4e dc 99 bc 0d 5b 06 3d
       0.034678597 0.020654531 -0.018781807 0.032801677
000360 3a 13 25 3c 79 a9 24 bd 22 20 a9 bc 66 6a 07 3b
       0.010075385 -0.040200684 -0.020645205 0.0020662784
000370 0a 49 09 bd 26 43 1d 3d ce 70 e4 bc 7f f2 ca 3c
       -0.03351692 0.038394116 -0.02788582 0.024773834
000380 85 ab 04 bd 20 51 e8 bc d8 f1 85 bb 2c 32 97 bc
       -0.032390136 -0.028358996 -0.004087668 -0.018456541
000390 10 2c 1b bc 34 8e 1f bd 44 94 fb bc 88 48 d1 bb
       -0.009470955 -0.038953975 -0.030710347 -0.00638682
0003a0 11 04 d0 bc a5 8a 8f b9 1e ac d9 bb 77 2f be bc
       -0.025392564 -0.00027378384 -0.0066428324 -0.023215992
0003b0 69 07 0c 3d c0 72 c8 bb 3b e1 1f 3d 77 6e 77 3b
       0.034186754 -0.006117195 0.039033156 0.003775505
0003c0 02 44 66 bc 58 f7 11 bd ec 24 0c 3c 3e b5 44 bb
       -0.0140543 -0.035636276 0.008553725 -0.0030015255
0003d0 0b 21 be bc bc 3f 30 3c e0 20 03 3d 81 ee bd bc
       -0.023209115 0.010757383 0.032013774 -0.023185017
0003e0 d0 5f 3b 3c 80 4d 5d 3c 2c f4 12 3d 5a 71 1d 3b
       0.011436418 0.013507247 0.03587739 0.0024023862
0003f0 da f0 f3 3c c3 7f 85 bc 07 49 b3 3c e8 0e ea bc
       0.029777933 -0.016296273 0.021885408 -0.028571561

layer1.0.bias f4 [256]
000000 9d 52 c2 bc 79 bf 5f bc e7 b8 3d bc 54 4a 0e 3d
       -0.023721034 -0.0136564905 -0.011579729 0.034738854
000010 69 97 11 3d 2c 81 50 3c f6 da ab 3c fb 97 4b 3c
       0.035544787 0.0127261095 0.020978432 0.012426372
000020 54 69 08 bd 56 d5 18 3d 77 a7 11 bd 8c dd 10 3d
       -0.033303574 0.037312828 -0.035560098 0.035367534
000030 40 1c 06 bd 8a 8e 08 3b 3e 6d 26 bd fc 61 f5 bc
       -0.032741785 0.0020836913 -0.040631525 -0.02995395
000040 d3 f3 08 bd a3 0d 1c bd 40 90 1f 3d cf 30 46 bc
       -0.033435654 -0.038098942 0.038955927 -0.012096598
000050 d0 17 4a bc 71 59 1b bb 82 d0 be 3c 54 38 dc 3c
       -0.012334779 -0.0023704434 0.023292784 0.026882328
000060 b1 64 80 3c 8b 62 a6 bc 5e 88 94 bc 25 23 20 3d
       0.015673013 -0.02031066 -0.018131431 0.039096016
000070 e5 24 86 bc 7f bc cc 3c 2a 20 39 3c 53 7b f7 bc
       -0.016375015 0.024992226 0.011299172 -0.030210173
000080 a1 17 0d bd 85 33 34 bc 17 1b 3b bb ea 19 18 bd
       -0.034446362 -0.010998611 -0.0028550082 -0.03713409
000090 91 e3 04 bd f7 9f 0c 3d fa 40 f6 bc f0 db 52 3c
       -0.032443587 0.034332242 -0.03006028 0.01286982
0000a0 1b 6a cd 3c 47 c6 30 bc 42 7c e1 3b 19 72 b5 3c
       0.02507501 -0.0107894605 0.0068812678 0.022149133
0000b0 f8 7d 2c 3b 9f f1 ab bb d9 d6 ab bc e2 b2 15 bd
       0.00263202 -0.0052473093 -0.02097647 -0.03654755
0000c0 cc 65 22 3d 2a 9c 00 bd 52 97 9e 3c 3b c7 8d 3c
       0.039647862 -0.03139893 0.019359265 0.017306915
0000d0 ac 6e bd bc 96 3e c9 bb f0 d9 9b 3c 3a 88 c6 3a
       -0.023124062 -0.006141494 0.01902482 0.00151468
0000e0 c3 d7 0c bd 9e d3 92 bc 9c 91 0b 3c 17 61 2a 3c
       -0.034385454 -0.017923173 0.008518603 0.010399125
0000f0 a7 d0 0f 3d ce 11 1f 3d 5d fb 15 3c 55 5e e8 3c
       0.035111096 0.03883534 0.009154168 0.028365294
000100 00 85 22 bd bd 3b d7 bc f1 78 d2 bc b0 27 1e bd
       -0.03967762 -0.026273603 -0.025692435 -0.038612068
000110 4b a4 50 bc 98 c3 b7 bb a5 b1 9a bc 14 78 b2 3c
       -0.012734483 -0.0056080334 -0.018883536 0.021785773
000120 cf 88 62 bc 29 ee 11 bd 18 ce 92 bc ff a9 24 bd
       -0.013826563 -0.035627518 -0.017920539 -0.040201183
000130 a2 fd ae 3c a2 c1 8b bc 35 22 1c 3d df b6 2b 3d
       0.021361176 -0.017060105 0.03811856 0.041922446
000140 bd cf 2c 3d 6b eb 54 3c c7 6b c6 bc 06 e9 48 3c
       0.042190302 0.012995581 -0.024221314 0.012262588
000150 8d 51 9e 3b 86 cc 86 3c 3e c0 22 bd 13 aa 28 3d
       0.004831499 0.016454946 -0.039734118 0.04117782
000160 17 a8 0b bd 00 b0 b3 3c 77 24 66 bb a9 f3 64 3c
       -0.03409585 0.02193451 -0.003511695 0.013974109
000170 01 7f 00 ba 30 b5 0c bd d1 1e ba 3a e5 18 35 bb
       -0.00049017376 -0.03435248 0.0014199858 -0.0027633247
000180 f8 ad 0e bd ec 2d cb b9 28 71 ca 3c 49 6f 43 3c
       -0.03483388 -0.00038753392 0.02471216 0.011928388
000190 b9 bb 8c 3c e5 a7 9d bc 54 af 49 3c 8d 80 3c bc
       0.017179357 -0.019245097 0.012309868 -0.011505258
0001a0 28 51 7d ba a5 7f fe bc d1 9e 01 3d 5a 3f bf 3b
       -0.00096632773 -0.031066725 0.0316456 0.0058364095
0001b0 29 a9 ab bc a1 e5 a6 bc 36 74 2d bd 9c 2e 07 bd
       -0.020954685 -0.020373167 -0.042347156 -0.033003435
0001c0 09 ff 11 bd 54 41 0d bb 8e dd c3 bc 47 61 d8 bc
       -0.03564361 -0.0021553831 -0.023909356 -0.026413573
0001d0 21 b7 1e 3d 36 ca e4 3c 44 21 a1 bb 9c 1f bc bc
       0.038748864 0.027928453 -0.0049172956 -0.022964291
0001e0 83 be 84 bb 59 4c 16 bd 44 60 a5 3c f6 22 ab bc
       -0.004051031 -0.036693905 0.020187505 -0.020890694
0001f0 cc 6b ac bc 31 66 04 3c a6 b5 d4 3a d0 5d 1b 3d
       -0.021047495 0.008081005 0.0016228452 0.037931263
000200 14 e6 2b 3d 66 3d d8 3c a3 6c 25 bb b1 29 7d 3c
       0.041967466 0.026396465 -0.0025241754 0.015451835
000210 9c e1 27 bd 5e f8 54 b9 4b e2 bc 3c 44 5b 1c bc
       -0.040986642 -0.0002031042 0.023057124 -0.009543244
000220 08 f5 9b bb 56 f3 fe bc 9a cb 84 3c 44 c2 ec 3c
       -0.0047594346 -0.031121891 0.016210366 0.028901227
000230 3b ad e9 bb 62 51 00 bd 7b c0 a3 bb a4 c6 a0 3c
       -0.0071312464 -0.031327613 -0.0049973107 0.01962597
000240 e2 ce f4 bc 64 88 8b bb be c1 70 bb 68 f6 b1 bc
       -0.029883806 -0.0042582024 -0.0036736573 -0.021723941
000250 44 af ee ba 96 d9 23 bd 78 2d f6 bc 05 84 fe bb
       -0.0018210192 -0.040002428 -0.030050978 -0.007767203
000260 58 ad 5b 3c fe e8 0c 3b 58 f6 18 bc 18 29 3b 3c
       0.013408028 0.002150118 -0.009336077 0.011423372
000270 19 94 32 bc 21 50 9a 3c b7 57 88 3c fe 33 25 bd
       -0.010899567 0.018837037 0.016643388 -0.040332787
000280 ec ea 0e bd e4 6b 25 bc 97 85 5f 3c 6c 5c 6d bb
       -0.034892008 -0.010096524 0.01364269 -0.0036218418
000290 71 db 92 bc b1 8b 10 bd 37 37 7b bc 2c f4 bb bc
       -0.017926903 -0.03528947 -0.015332988 -0.022943579
0002a0 6a b2 32 bc 4d 68 0f bd c2 6f fd bc a1 75 d4 3b
       -0.010906795 -0.03501158 -0.03093708 0.006483749
0002b0 ae 42 4f bc b4 aa b8 bb 38 07 88 3c fe a5 92 bb
       -0.012650175 -0.005635584 0.016605005 -0.004475354
0002c0 7d 3b 83 bc 6b 7e c6 bc 4e 42 bf 3c bf 37 24 3c
       -0.016019577 -0.024230203 0.023347046 0.0100230565
0002d0 89 29 a9 bb 78 e2 74 3c 37 9a 3a bc 85 d4 bd bc
       -0.005162422 0.0149465725 -0.011389307 -0.023172626
0002e0 70 f6 ad 3c d8 77 22 3a f1 66 c8 bc 8e 8b 49 bc
       0.021235675 0.00061976677 -0.024463149 -0.012301339
0002f0 7d 25 1d bd 5b 66 0f 3c a9 fe 89 bc 14 71 ec bc
       -0.03836583 0.008752431 -0.016845064 -0.028862514
000300 c2 d4 e4 bc 03 5d aa 3c 00 03 21 3d 48 ee 6d ba
       -0.027933482 0.020796305 0.0393095 -0.0009076339
000310 f2 72 2c 3d 1a f8 4b bc 20 6f bc 3c e0 32 8c 3b
       0.042101808 -0.012449289 0.023002207 0.0042785257
000320 be 85 48 3c 2f 15 25 bd b9 18 8e bb fb 58 74 bc
       0.012238918 -0.040303405 -0.0043364433 -0.014913793
000330 93 ca 22 3c 31 49 0c bd e5 cd 3f bb 5f 52 85 bc
       0.009935993 -0.03424949 -0.002926701 -0.01627463
000340 e6 0f a9 bc 2f 85 82 3b d2 e0 a7 3c 47 a2 ab bc
       -0.020637464 0.003983162 0.020492945 -0.020951403
000350 17 2f e9 bc 3e c6 21 bd c8 00 e9 bb 9b 91 3f 3c
       -0.028464837 -0.0394957 -0.007110689 0.01169243
000360 f9 12 28 3b 45 d4 d6 3c e3 f4 4c b8 98 fe c4 bc
       0.0025646074 0.026224265 -4.886546e-05 -0.024047181
000370 c1 85 bb b9 a3 c6 2b 3c 32 6f 8b 3c b5 87 5e bc
       -0.00035767074 0.01048437 0.017020795 -0.01358216
000380 89 e3 74 bb 5e 9a cc 3c 8d d1 03 bd 78 e2 3e 3c
       -0.0037367067 0.024975952 -0.032182265 0.011650674
000390 da 05 1f bd 14 7e cb 3c cf 7f 6e bc b3 43 89 bc
       -0.03882394 0.024840392 -0.014556839 -0.016755914
0003a0 48 5d ad bc f8 54 0f 3d 66 ae 16 bd 92 93 1d 3d
       -0.021162644 0.034993142 -0.036787413 0.038470812
0003b0 b2 d1 08 3d 02 88 28 bc 8e b5 21 3d c7 7a 27 3d
       0.033403106 -0.010286333 0.039479785 0.040888574
0003c0 c8 ef 73 3b c7 7f 13 bc 76 9c 22 bd fc 94 0f bd
       0.0037221778 -0.009002632 -0.039699994 -0.035054192
0003d0 b7 49 84 3c 40 3d fa bc ea 4f b8 bc 03 df ea 3c
       0.016148431 -0.030546784 -0.022499043 0.028670793
0003e0 b2 09 ec 3c a6 b4 13 3d 94 88 8d bb 42 8d a1 bc
       0.028813217 0.03606095 -0.00431926 -0.019720677
0003f0 ee e0 25 bd d5 81 02 bd 07 8b 08 bb c5 3d 00 3c
       -0.040497713 -0.0318621 -0.002083482 0.007827227

layer2.0.weight f4 [84, 256]
000000 68 60 48 bd 20 bb 0a bc e7 ee 52 3d 96 5a 59 bd
       -0.048920065 -0.008467466 0.051497366 -0.053064905
000010 09 83 83 bc ff d1 e1 3c 31 2d da bb 20 0b c8 bc
       -0.016053693 0.027565954 -0.0066582193 -0.024419367
000020 62 e5 ce bc fe 2d 11 bd d8 c8 04 bd 4b 24 b2 bc
       -0.025255863 -0.035444252 -0.032418102 -0.021745821
000030 ca 7b 20 bc 37 37 45 3d ec b6 3c 3d e1 ef 0f 3d
       -0.009795139 0.04814836 0.046072885 0.035140876
000040 4c 72 0b 3d 7b e6 6b 3d 90 40 63 3d 1e 91 4d bd
       0.03404455 0.05759285 0.055481493 -0.050187223
000050 cb 45 0b bd 24 09 af 3b da 3d 69 3d f8 b8 27 bd
       -0.034002107 0.005341666 0.056943752 -0.040947884
000060 e1 2f 34 3d b7 f6 50 3c ff 57 1e 3d 18 06 4b bd
       0.043990973 0.012754134 0.03865814 -0.04956636
000070 c2 9a 86 3c c5 23 62 bc 7e 62 a3 3c 0d 7c 36 bd
       0.016431216 -0.013802473 0.019944426 -0.044551898
000080 1f 86 cc 3b 62 5f c6 3c 62 6d 2f bd a8 4b 34 bd
       0.0062415744 0.024215404 -0.042828925 -0.044017464
000090 5c 44 30 bd 91 1b 38 bd 14 4c 08 bd 00 96 b9 b9
       -0.043033943 -0.044948164 -0.03327568 -0.00035397708
0000a0 e9 8a 30 bd 4e 4d 2b bc 46 17 47 3d 42 1e af ba
       -0.043101225 -0.010455443 0.04860618 -0.0013360458
0000b0 4a 83 01 3d c0 64 ee bc 22 dc 83 bc d3 27 99 bc
       0.031619348 -0.029100776 -0.016096178 -0.018695747
0000c0 a6 ce bf bc 5e aa 77 3d 2a 65 7c bd 41 1f c9 3b
       -0.023413967 0.06046521 -0.061619915 0.006137759
0000d0 68 66 a9 3b c4 a2 7a 3d 65 6c 54 bd e1 b2 45 3d
       0.0051696785 0.06119038 -0.051861186 0.048266295
0000e0 b7 62 55 bd f5 7c 24 3d 73 97 2c 3c 1e 5f 6d 3d
       -0.052096095 0.04015823 0.010534155 0.05795204
0000f0 70 9e 0a 3b d9 b6 fd 3c 26 14 a0 bc e2 89 74 bd
       0.0021151565 0.030970978 -0.019540858 -0.059701808
000100 aa 7c 11 bd 04 43 c1 bc 1b 01 b5 bc 82 a7 56 3d
       -0.03551928 -0.023591526 -0.022095254 0.05240584
000110 79 b3 16 bb d3 9e de bb 2b 41 26 bc 89 73 dc 3c
       -0.0022995158 -0.0067938357 -0.010147373 0.02691056
000120 d7 b1 fe 3c 55 8e a7 bc 77 82 90 3c df 1c 9d bc
       0.03109066 -0.020453611 0.017640335 -0.019178806
000130 be cd 48 3d 24 48 9d 3c 7e 61 18 3d 21 16 00 bd
       0.049024336 0.019199438 0.03720235 -0.031271104
000140 10 c3 75 3d 29 1d 83 3c dc 8f d1 bc 8c 5f 74 3c
       0.06000048 0.016005116 -0.025581293 0.014915358
000150 ea 11 05 bd b9 ff ad bc 18 ce 73 3d f7 de e5 3c
       -0.032487787 -0.021240102 0.05952272 0.02806042
000160 f8 3d a8 3c 6b d6 f4 bc bc a9 00 b8 be 0c 5b bc
       0.020537362 -0.029887399 -3.0675656e-05 -0.013369737
000170 01 ac 0f bd d4 28 4a bd af d3 23 bc 56 35 4c 3c
       -0.035076145 -0.049355343 -0.0099992 0.012463888
000180 db 83 d6 bc 34 7b d6 bc 9b f1 f0 3c ed 4a 45 3c
       -0.02618592 -0.026181795 0.029412081 0.0120417895
000190 d0 d7 dc 3b 75 9d 6d 3d d7 ff c4 3c 11 06 db 3c
       0.006739594 0.05801149 0.024047775 0.026736291
0001a0 3c 5f 1b 3d b3 fd da bc 80 23 c9 bb e8 57 44 3d
       0.03793262 -0.026732301 -0.006138265 0.047935396
0001b0 a1 ef 05 3d 36 24 11 3d a3 25 8a 3c c0 2b 5a bd
       0.03269923 0.035434924 0.01686365 -0.05326438
0001c0 6c 2d 84 3b 1d 05 a4 ba 20 b7 3e bd 80 1d 43 3b
       0.004033735 -0.0012513731 -0.04656136 0.0029772222
0001d0 e4 90 8c bc 79 77 64 3d c0 6f 4d 3d 1b c2 8b 3c
       -0.017158933 0.055778 0.0501554 0.01706033
0001e0 fb 40 cd bb f2 fb be bb 6c fe 91 3c 7b 08 ab bc
       -0.00626385 -0.005828374 0.017821513 -0.020878067
0001f0 6c 43 ac 3c b3 09 71 bd 8f 75 5c bd 7b de 1b 3d
       0.021028243 -0.05884714 -0.05382305 0.03805397
000200 80 bd 33 3d d6 b9 2e bd bc 79 d5 bc 94 b4 d7 bc
       0.043881893 -0.042657696 -0.026059024 -0.026331224
000210 40 18 d0 bc 8a cf 7c 3d 4c 1f 96 3c 67 85 11 3d
       -0.025402188 0.061721362 0.01832547 0.035527613
000220 98 79 6a 3d 07 c7 15 bc 7f 62 0a bd 2b 3d 92 bc
       0.057244867 -0.00914169 -0.03378534 -0.017851433
000230 53 a1 61 3d 8d 9a c4 bc 1c 8c 54 bd fb fd 69 3d
       0.05508549 -0.023999477 -0.05189143 0.05712698
000240 df 27 0a bd d9 45 83 bc ba e9 65 bb f7 98 c2 bc
       -0.03372943 -0.016024517 -0.003508194 -0.02375458
000250 0c e2 4c bc 10 ba 5f 3d b7 f0 9a 3c 89 aa 83 bb
       -0.012505066 0.054620802 0.01891361 -0.004018132
000260 71 4e 57 3d da 6f 61 ba 04 e0 c4 bc 6a 99 2b 3d
       0.052565042 -0.0008599736 -0.0240326 0.041894354
000270 1d 89 82 bc 4a 0c 64 bc 94 81 7d 3d f0 7a ad bc
       -0.015934521 -0.013918946 0.061891153 -0.021176785
000280 1b 09 5f bd 12 67 55 3d 8a 63 0c bd 37 ee ba 3c
       -0.054452043 0.05210025 -0.034274615 0.022818668
000290 c3 15 54 bd 69 36 e3 3c 40 72 9a bc 17 2b 63 bd
       -0.051778566 0.027735906 -0.018853307 -0.055461016
0002a0 f3 21 26 bd c1 f0 53 3d 11 ad d5 bc 9c 9e 11 bd
       -0.04055972 0.051743273 -0.026083501 -0.035551652
0002b0 33 8a 4d 3d 4b c5 82 3b 05 d2 9e 3c dc de 30 3d
       0.050180625 0.0039908043 0.019387254 0.043181285
0002c0 40 3f 4b bc 19 3f 4b bb 88 16 a8 bb 99 82 c1 3c
       -0.012405217 -0.003101295 -0.005129639 0.023621844
0002d0 63 00 41 bc c9 2a 5e bb 09 4a 70 bc d4 b6 0d bd
       -0.011779877 -0.0033900014 -0.014666089 -0.034598187
0002e0 1b 60 2d bc ab c2 dd 3c e3 4e ef bc 96 26 18 3d
       -0.010581995 0.027070364 -0.02921242 0.037146173
0002f0 98 e5 03 3d 74 c6 20 3d b5 55 7c bb 34 26 14 bd
       0.03220138 0.03925176 -0.0038503234 -0.036169246
000300 18 fe bb bc d2 0a 2a bc 9f 1a 8e 3c 1d aa 9b 3c
       -0.02294831 -0.010378556 0.017346678 0.019002015
000310 24 67 13 bd 1c 9b 0b 3d 3d fb 3a bb 8d 33 78 bd
       -0.035987034 0.03408347 -0.0028531097 -0.060596038
000320 e9 0a 02 bd ea 10 9e bc fb 31 52 bc e1 f9 53 bd
       -0.031748686 -0.019295175 -0.012829299 -0.051751975
000330 42 6d 17 3b f4 08 f0 3b 9c 1e 97 3b 99 92 10 bd
       0.0023105894 0.007325286 0.004611803 -0.035296056
000340 5a 06 60 3d 60 ac 3a 3d 6b 3a 26 3d e3 80 1b 3c
       0.054693557 0.045574546 0.040583055 0.009491178
000350 83 a8 1a bc 15 08 3e 3d d4 c7 f3 bc 13 78 a5 bb
       -0.00943959 0.046394426 -0.029758371 -0.0050497144
000360 c9 dd 48 bc 92 0b ab bc 10 15 ec bc 54 c4 91 bc
       -0.012259909 -0.02087954 -0.028818637 -0.017793812
000370 6a 87 23 3a 70 81 5e 3d 75 c0 bc 3b b3 f6 fb 3c
       0.0006238135 0.05432266 0.0057602474 0.030757284
000380 45 52 35 3d 53 8c a7 3c f3 cc 72 3d 17 11 69 3d
       0.04426791 0.020452654 0.059277486 0.056901064
000390 5b aa 55 bd dc 5f 29 3c 9f 66 7a 3d e4 3b 50 3d
       -0.052164417 0.010337796 0.061133023 0.050838366
0003a0 92 28 09 3d 79 66 bc 3c e7 c5 8b bb 61 14 cf bc
       0.033485956 0.022998082 -0.004265535 -0.025278272
0003b0 a4 72 51 3d e2 ea cb bc 05 b3 62 3d 53 fe 66 3c
       0.05113472 -0.024892274 0.055346508 0.014098722
0003c0 93 34 de 3c 26 e6 d4 bc 53 10 d1 3c cb b8 ed bc
       0.027124679 -0.02598865 0.02552048 -0.02901878
0003d0 c9 65 6c bd be e8 62 3d 61 2a 7b bd 7d 07 f9 3c
       -0.057714257 0.05539774 -0.061319713 0.030399079
0003e0 54 4e 70 bd 41 25 6d bd f2 82 69 3c bb 95 1e bd
       -0.05866845 -0.057896856 0.014252411 -0.038717013
0003f0 a8 39 c5 3c 26 6b b2 bc 46 34 3e bd 06 80 ff bc
       0.024075344 -0.021779608 -0.04643657 -0.031188976

layer2.0.bias f4 [84]
000000 86 29 38 3d 5a 03 39 bd 08 21 43 3c 7e bf 6f 3d
       0.044961475 -0.045169212 0.011909731 0.05853223
000010 6c 4b 40 3c 2d 67 47 3b 4e 82 40 bb 27 07 3c 3d
       0.011736732 0.0030426488 -0.0029374543 0.04590526
000020 1a 10 2d 3d 45 bb 2f 3a 81 95 26 bd 1a c7 29 3d
       0.042251684 0.00067036255 -0.04066992 0.041449644
000030 8c 37 9d bc f9 22 1a bc 0a 7d a9 bc 3f e4 64 3d
       -0.019191526 -0.009407752 -0.020689506 0.055881735
000040 0a ca eb 3a 66 eb 0e 3b c9 c7 2c bc 54 c9 81 3c
       0.001798929 0.002180779 -0.010545679 0.015843071
000050 b6 b4 a0 bb ae 69 16 3d f2 c5 f1 ba 6c 4b 2b bd
       -0.004904355 0.036721878 -0.0018445833 -0.041819975
000060 80 24 25 3c c7 c3 04 bd f7 58 f8 bb ed e4 0f 3b
       0.010079503 -0.03241327 -0.007578965 0.0021956519
000070 21 0d 06 bd 9e 73 3c 3d 82 4d 12 bd 5e 80 ba bc
       -0.032727364 0.0460087 -0.03571845 -0.022766288
000080 87 67 63 3d 1f 1a bd bc 4c 30 f8 3a 1f 7b 42 3d
       0.055518653 -0.023083745 0.0018935292 0.0474807
000090 a9 59 2b bd 4f 7e 9b 3b b9 ea 2a 3c d8 6d 48 bd
       -0.041833553 0.0047452818 0.010431939 -0.04893288
0000a0 e9 78 4d bc 5f cc 9c 3c 6b 6b cf 3b 9a 8a d3 bc
       -0.012541034 0.01914042 0.006329944 -0.025822926
0000b0 02 9f 6d bd 3e 1f 61 bd e4 1f 1f bd f6 d7 32 bd
       -0.05801297 -0.054961435 -0.038848773 -0.043662988
0000c0 c7 00 1b bc a0 a8 68 3d 33 01 97 3c df 6f 26 bd
       -0.009460635 0.05680144 0.018433189 -0.040634032
0000d0 ba f4 a6 bc 58 09 53 3d 4a 8a f7 3c a4 e3 2d bd
       -0.020380367 0.051522583 0.030217309 -0.042453423
0000e0 79 f0 4a bd ac 37 53 bd 3c 5d ab bc 2d e6 b0 3c
       -0.04954574 -0.051566765 -0.020918481 0.021594131
0000f0 71 5e 30 3b 68 1c 77 3d 12 cf dc bc f2 8c 24 3d
       0.002691176 0.060329825 -0.026954208 0.04017348
000100 d6 2c fc 3b d9 ad 11 bd 5d 0f 70 bc a7 fb 5e 3d
       0.0076957745 -0.035566185 -0.0146521 0.054439213
000110 7b b9 14 bd f1 94 ea bc c8 b8 56 3d 3d b0 f1 bc
       -0.0363097 -0.028635474 0.052422315 -0.029502982
000120 a3 5c 86 3b 4e fb 86 bc fb 3c 56 bc c6 d2 89 bc
       0.0041003986 -0.016477253 -0.013076062 -0.016824137
000130 c3 3d 90 bc ea 80 26 3d 45 f4 95 3c 27 ea 35 bd
       -0.017607575 0.040650286 0.018304953 -0.04441276
000140 c8 05 61 bd b1 6f 5a bd 62 56 22 bd c2 b4 80 bd
       -0.054937154 -0.053329173 -0.039633162 -0.06284477

layer3.0.weight f4 [8, 84]
000000 fd bf 99 bd bc 56 ca 3c 95 05 cd 3c 60 7e 8f bd
       -0.07507322 0.024699561 0.025027076 -0.07006526
000010 03 8c 99 3c cc e8 b0 bd fa 8e aa 3c 17 a4 c0 bd
       0.01874352 -0.086381525 0.02082013 -0.09406298
000020 46 c9 73 bd b3 50 9e bd aa cb 8d 3d b8 03 3b 3d
       -0.05951812 -0.07730236 0.069236115 0.045657843
000030 de 49 90 3a 5b a1 d0 3c e1 66 42 bd dd 15 3e 3d
       0.0011008342 0.025467565 -0.047461394 0.04640757
000040 09 04 a7 3d 40 c2 49 3c 6c b8 ba bd 6b 36 1b bd
       0.081550665 0.012314379 -0.09117207 -0.037893694
000050 96 5a 17 3d 20 c6 d5 3d ef 32 81 3b 4f 04 74 bc
       0.036951624 0.1043818 0.0039428393 -0.014893605
000060 81 5e a1 bd 3b 2d ce bd 07 3a 57 bc 99 4c a8 bd
       -0.07879353 -0.10067221 -0.013136393 -0.08217735
000070 ef 65 18 3b 89 1f 77 bc 6f 86 5b bd 2f fb c5 3d
       0.0023254117 -0.015083202 -0.053595003 0.0966705
000080 c6 f1 95 3d 79 b7 8b bd 6d 38 07 bd ea 6d 29 3d
       0.07321505 -0.06822104 -0.033012796 0.041364588
000090 49 31 8b 3d 67 48 c2 bd 64 63 36 3d 9e 38 49 3d
       0.0679651 -0.09486466 0.04452838 0.04912626
0000a0 42 3b a7 bd 6c 85 e9 3c cc 82 80 bd 63 84 dd 3c
       -0.081655994 0.028506003 -0.062749475 0.027040666
0000b0 40 06 85 bc e8 ae cc 3d 27 44 b9 3c 2c a2 f1 bc
       -0.016238332 0.09994298 0.022615505 -0.029496275
0000c0 e2 b3 00 bd 5e 86 8f bd 16 26 46 bc 32 3d 96 bc
       -0.03142155 -0.070080504 -0.012094041 -0.018339727
0000d0 c9 f0 8f 3c ba 5f d5 bd 33 65 c6 3c 5f 81 25 3d
       0.01757087 -0.10418649 0.024218177 0.04040658
0000e0 5d 01 d4 3d b0 91 04 bd 07 2c af 3d af 13 96 bc
       0.103518225 -0.0323655 0.085533194 -0.018319933
0000f0 ff 9b 95 3d a8 ff ab 3d f5 00 04 3d b9 ba 4f bd
       0.073051445 0.08398372 0.032227475 -0.050715182
000100 e9 de 6e bd 79 87 63 3d 0c 82 08 bd ee ab 2b 3d
       -0.058318052 0.05554912 -0.033327147 0.04191201
000110 f9 22 35 bd 09 5e ed bc 97 f5 91 3d dc ed ce 3d
       -0.044222806 -0.028975504 0.07126921 0.10103962
000120 48 47 c8 bd 1e 0a b7 3d 39 3c 4d 3d b2 b4 9f bc
       -0.09779221 0.089374766 0.05010626 -0.019495342
000130 64 9a 66 3d 64 10 67 bd 6a d3 c7 bd b8 43 aa bd
       0.056299582 -0.056412116 -0.09757121 -0.083136976
000140 79 08 12 ba 69 b7 4d bd 95 22 c4 3d 26 af c0 bc
       -0.00055707205 -0.05022374 0.095769085 -0.023521017
000150 8c 67 ea bc d6 94 85 bd 0e 52 a6 3d 3c 66 cb 3d
       -0.028613828 -0.06522529 0.081211194 0.09931609
000160 30 17 95 bd 41 2c 87 3d 26 35 45 bd b4 fe a3 bd
       -0.07279813 0.06600238 -0.04814639 -0.08007565
000170 d4 bb 34 bd 46 a4 23 bb 8a f3 6b 3d 5e b0 51 bd
       -0.04412444 -0.002496974 0.057605304 -0.051193587
000180 80 ea 9c bd da 6d a4 3d ac 3f ad 3d b6 bf 8a bd
       -0.07661915 0.08028765 0.0845941 -0.06774847
000190 78 d2 84 bd 5c fa 09 bb 15 34 09 bd 3d c0 cd 3d
       -0.06485456 -0.0021053767 -0.033496935 0.10046432
0001a0 20 67 75 bd 65 b1 89 bc b8 18 ae 3d 0e a8 0c 3d
       -0.0599128 -0.016808221 0.085008085 0.034339957
0001b0 42 b5 bf 3d cc ec 3d bc b3 6d 57 bd aa 0c b7 3d
       0.09360744 -0.011592101 -0.05259485 0.08937962
0001c0 2c ee a1 bd 1e 8c c1 bc 8a 0c 07 3c 17 8a 66 3d
       -0.07906756 -0.023626383 0.008242736 0.056284036
0001d0 a8 25 ad bc ea d1 a0 bd a7 54 8f 3a 94 f4 d9 3d
       -0.02113612 -0.07852538 0.0010935263 0.10642353
0001e0 3e 9a 8c 3c d1 54 92 3c cd 2f a7 bc 58 87 ba 3d
       0.017163392 0.01786271 -0.020408535 0.09107846
0001f0 92 bb 78 bd 6a b9 b5 bd 3d 10 86 3d 4e 90 37 bb
       -0.060725756 -0.088732556 0.06546066 -0.0028009596
000200 98 0b dc 3a e4 1d 49 bc 4c 31 a1 3d a3 ba 91 3d
       0.0016788123 -0.012275193 0.07870731 0.07115676
000210 90 e6 66 3c ed 80 0e bb 0f 3a 71 bd 74 71 87 bc
       0.014093056 -0.0021744326 -0.05889326 -0.01653359
000220 e8 23 8a 3d e2 5f 37 3d d0 b8 ab bd 78 0e 86 3d
       0.0674513 0.044769175 -0.083848596 0.065457284
000230 e9 c0 0e bd c3 29 ac bd 13 f1 c5 3d 02 2e d7 3d
       -0.034851942 -0.08406403 0.09665122 0.10506822
000240 71 64 02 3d ae c0 80 bb a5 af 8c 39 66 21 ae 3d
       0.03183407 -0.003929219 0.00026833746 0.08502464
000250 ff 3a d5 3d 5f 0f 10 bd 0b 80 9f 3b 4d 0e 4e bd
       0.10411643 -0.03517091 0.004867559 -0.050306607
000260 21 da b3 bd c8 20 ff bc 4f 52 0c 3d 0b dc 15 3d
       -0.08781839 -0.031143561 0.034258183 0.036586802
000270 ca e9 dc 3d 21 95 80 3d 13 1b c9 bc 69 40 7c bd
       0.10786779 0.06278444 -0.024549043 -0.061584864
000280 f4 c1 b3 3d 01 e5 19 3d 4f e5 00 3c ad 40 dd bd
       0.08777228 0.03757191 0.007867171 -0.108033516
000290 1a 80 25 3c 44 8a af 3d a6 11 c0 3d 7d 76 92 3b
       0.010101343 0.08571294 0.09378366 0.0044696913
0002a0 b3 3f ce bd 40 33 88 3a 99 9f 8d bb 45 e9 db 3d
       -0.100707434 0.001039125 -0.004322004 0.10737852
0002b0 14 a7 92 3d 75 5e 9a bd 92 0d d9 bd 1d 03 90 bd
       0.07160774 -0.075375475 -0.105982915 -0.07031844
0002c0 7f a4 35 bd b0 06 ce 3d 70 fe 05 3d 97 e6 85 bd
       -0.04434633 0.10059869 0.032713354 -0.06538122
0002d0 39 d7 95 3d e0 8c 28 3c 57 19 34 bd 47 e9 a1 ba
       0.07316441 0.0102874935 -0.04396948 -0.0012352847
0002e0 07 68 da bd 20 6d d0 3d 00 31 8a 3d 79 45 d7 bd
       -0.10664373 0.10177064 0.06747627 -0.10511298
0002f0 ed 2f 9c bd 7d 68 77 3d aa 2e ea bc db 92 ca 38
       -0.076263286 0.060402382 -0.028586704 9.6594646e-05
000300 66 3d 81 3c 16 10 00 bc e2 64 a9 3d 79 b2 6b 3d
       0.015776347 -0.007816335 0.08271195 0.05754325
000310 6c 9c d0 3c 09 fa 83 3c 54 50 83 3d bf 37 1c 3b
       0.025465213 0.016110437 0.06411806 0.0023836938
000320 42 f7 dc 3d f2 cf ba 3d 2a ee c3 bd 12 5f 99 3c
       0.10789348 0.09121694 -0.095669106 0.01872209
000330 cc 1e 37 3d c6 81 ef bc cb 2f 99 3d 9f 26 0c bd
       0.044707105 -0.029236685 0.07479819 -0.03421652
000340 2f bf 66 bd 90 f4 82 bd 9b 7c d2 bd dd 5f 4a 3d
       -0.05633467 -0.06394303 -0.10277673 0.04940783
000350 b0 ba 05 3c 07 44 a7 bd 8f f6 6a bc 92 ca a4 bd
       0.008162186 -0.08167272 -0.014341011 -0.0804645
000360 ab 08 bd bd 91 d0 e0 3c ad aa 84 3c 5e 98 c2 bd
       -0.09230169 0.027443202 0.016194666 -0.09501718
000370 de 5b b6 3c 34 ed 37 3d fc e8 57 bd 11 3f ce 3c
       0.022260603 0.04490395 -0.052712426 0.025176557
000380 f3 77 da 3c cd a0 92 bb d8 4c 2d 3c 29 12 a1 bb
       0.026668524 -0.0044747354 0.010577403 -0.004915495
000390 f1 22 81 bd 03 f2 43 3c 7c 5e 38 3d be 86 5f 3d
       -0.06305493 0.011959556 0.045011982 0.05457186
0003a0 8e f6 49 bd 98 9e ca 3d 03 61 fa 3c 13 b0 82 bd
       -0.0493074 0.098935306 0.030563837 -0.0638124
0003b0 5d aa c9 bd ae af 6d 3d bf f8 89 3d 24 fc af bb
       -0.09846947 0.05802887 0.06736898 -0.0053706337
0003c0 ca f3 b1 3d 49 ea cb 3d 38 8f d4 3d 1c 62 97 3c
       0.08689077 0.09956796 0.10378879 0.0184794
0003d0 8e a2 3a 3c d2 1a 86 bd 4e 00 d1 bb 05 00 c8 bd
       0.011391295 -0.06548084 -0.00637821 -0.09765629
0003e0 dd 96 b9 3d 71 b5 69 bd bc 30 b3 bc 16 e2 f3 bb
       0.09061978 -0.0570578 -0.021873824 -0.007442723
0003f0 2c 2f 85 3d 53 b9 b3 3d ee a2 98 3d 17 ef 96 3d
       0.06503138 0.08775582 0.07452951 0.073698215

layer3.0.bias f4 [8]
000000 c3 47 4c bc 32 74 d0 bd c9 1d 84 bd 68 f1 9d 3d
       -0.012468281 -0.101784125 -0.064509936 0.0771206
000010 d3 7d d8 3d 4a dc 91 3d 33 0d 70 3d 6b 5c 36 3d
       0.10570874 0.07122095 0.058606338 0.04452173
