DigitalRecognition-master/model_params/GDUT＿net_8.pt (torch, 664983 bytes, 6 tensors)

layer1.0.weight f4 [256, 560]
0	0x3d1bcb2a	0.03803555
1	0xbc47b626	-0.012189424
2	0x3d9c882d	0.07643161
3	0x3d2655ac	0.040609047
4	0xbcf490a8	-0.029854134
5	0xbbd47e90	-0.006484814
6	0x3c92e538	0.017931566
7	0xbc34cac8	-0.011034675
8	0xbd274b6b	-0.04084341
9	0x3c84ee7a	0.016226996
10	0xbd1aa4d3	-0.037754845
11	0x3b83e550	0.004025139
12	0xbce244d1	-0.027620705
13	0xbc8361c4	-0.01603783
14	0xbc6aab2f	-0.01432304
15	0x3c4ef960	0.012632698
16	0xbc448392	-0.011994259
17	0x3d1be2e2	0.03805817
18	0x3c2abca0	0.010420948
19	0xbc9af2a6	-0.018914532
20	0x3d2bf310	0.04197985
21	0x3b5748e0	0.0032849833
22	0x3b6fbb90	0.0036580302
23	0xbcfde8ee	-0.030994859
24	0xbd25eeca	-0.04051093
25	0xbd1f3f8a	-0.038878955
26	0x3d9064d8	0.070504844
27	0x3dc94a73	0.09828653
28	0x3dd972dc	0.10617611
29	0x3d98b5ec	0.07456574
30	0x3cea9908	0.028637424
31	0x3d91c3c6	0.07117419
32	0x3d84a4ae	0.06476723
33	0xbbb00fc8	-0.005372975
34	0xbd1b6096	-0.03793391
35	0x3c256034	0.010093737
36	0x3ba0bd58	0.004905384
37	0xbce2a909	-0.027668493
38	0xbc7fb536	-0.015607169
39	0xbc22b4bc	-0.009930786
40	0xbcd6ba42	-0.026211862
41	0x3cf2f238	0.029656515
42	0xbc560360	-0.013062328
43	0xbd1ddbc3	-0.03853966
44	0xbbdb3480	-0.006689608
45	0x3cf724e8	0.030168965
46	0xba84a42e	-0.001011973
47	0x3d01b6ca	0.03166846
48	0x3c8a6140	0.016892076
49	0x3d6891aa	0.05677954
50	0x3c38d7e8	0.011281945
51	0x3ccb12ab	0.024789175
52	0xbcd447e2	-0.025913183
53	0xbcb00d16	-0.021490615
54	0x3c4cd0ed	0.012500984
55	0x3bc36f79	0.0059642163
56	0xbaef4f40	-0.0018257871
57	0xbc4a246a	-0.012337783
58	0xbcdf49be	-0.027256843
59	0xbd185655	-0.037191708
60	0x3d1f6338	0.03891298
61	0xbcd04e7f	-0.025428055
62	0x3cd22284	0.025651224
63	0x3b180570	0.00231966
64	0x3d01b316	0.03166493
65	0x3d27c3d2	0.040958233
66	0x3d6db598	0.05803451
67	0x3c8aa0ed	0.016922439
68	0x3c3a6309	0.011376151
69	0x3c724fdc	0.014789548
70	0xbcfb9a1f	-0.03071314
71	0xbcc4bda0	-0.024016201
72	0xbc60b02d	-0.013713879
73	0xbc6f8c8f	-0.014620914
74	0x3d8612b8	0.06546539
75	0x3db674de	0.089090094
76	0xbcbecfb8	-0.023292407
77	0xbbc42048	-0.0059852935
78	0x3d12cabe	0.03583788
79	0xbcc02458	-0.02345483
80	0x3c79ed68	0.015254356
81	0xbd074b8a	-0.033031024
82	0xbd2b1ee8	-0.04177752
83	0xbbbf9c80	-0.0058475137
84	0x3c1521e0	0.009102315
85	0x3d124d98	0.03571853
86	0x3c846e5b	0.016165903
87	0xbcba796e	-0.02276298
88	0xbc66f4ab	-0.014096419
89	0xbce57f38	-0.028014764
90	0x3cbed865	0.023296544
91	0x3d4620ee	0.048371248
92	0xbc97d687	-0.018534912
93	0xbc98faf3	-0.01867435
94	0xbc211c7c	-0.009833451
95	0x3d8a0836	0.06739847
96	0xbc61ee72	-0.01378976
97	0x3c8aa694	0.016925134
98	0x3ca759b0	0.020428509
99	0x3cce7aa0	0.025204957
100	0x3c645620	0.013936549
101	0xbcb94a94	-0.02261857
102	0x3c464a24	0.012102637
103	0xbd59e19e	-0.05319368
104	0xbd78ea54	-0.060770348
105	0xbc7ddf0c	-0.015495073
106	0xbcfb089e	-0.030643757
107	0x3cedff29	0.029052334
108	0xbd1834fe	-0.037159912
109	0x3cfbec4c	0.030752324
110	0xbca0d470	-0.019632548
111	0xbbe5e73b	-0.00701609
112	0x3d45d4f0	0.048298776
113	0xbd03ff03	-0.03222562
114	0x3d3ad9c3	0.04561783
115	0x3d34c7b8	0.04413578
116	0xbd0102e1	-0.031496886
117	0xb94f0c00	-0.00019745529
118	0x3d042e9c	0.032271013
119	0x3bca2788	0.0061692633
120	0xbc909221	-0.017647805
121	0xbb4b4570	-0.003101673
122	0xbc32bc34	-0.010909129
123	0x3cfdbe88	0.030974641
124	0xbd16293b	-0.036660414
125	0xbd2fa75a	-0.04288421
126	0x3d0c50d6	0.03425678
127	0x3d33a4df	0.043858405
128	0xbd45e02f	-0.0483095
129	0xbd2f1852	-0.042747803
130	0xbcc0e44d	-0.023546362
131	0xbd407c79	-0.046993706
132	0xbcbfbab3	-0.023404455
133	0xbd095092	-0.033524103
134	0xbd567a25	-0.05236258
135	0xbd3f7b9a	-0.046748735
136	0xbd2e7923	-0.042595994
137	0xbdc968c9	-0.09834439
138	0xbd3c83d6	-0.046024166
139	0xbcd54b45	-0.026036868
140	0xbd82dc78	-0.06389707
141	0x3d1bd8fc	0.03804873
142	0xbd28f083	-0.041244995
143	0xba736580	-0.0009284839
144	0xbd50c9bf	-0.05097365
145	0x3d309d57	0.0431188
146	0xbc6f22e8	-0.014595725
147	0xbc8a01d2	-0.016846571
148	0xbcc00389	-0.023439186
149	0xbca0bc44	-0.019621022
150	0xbcde45f3	-0.027132964
151	0xbd1cb391	-0.038257185
152	0xbd897033	-0.067108534
153	0xbd643c2d	-0.05572145
154	0x3c36b256	0.011150917
155	0xbc0e856a	-0.008698801
156	0xbde5501d	-0.11196921
157	0xbb614310	-0.0034372248
158	0xbc546990	-0.012964621
159	0xbd263152	-0.04057438
160	0xbc93500f	-0.01798251
161	0x3bdb7a90	0.00669796
162	0x3d06a064	0.032867804
163	0xbc936dd2	-0.017996702
164	0xbcd34d29	-0.025793629
165	0x3bfca04d	0.007709539
166	0xbb5c707b	-0.003363638
167	0xbcdf6dda	-0.027274061
168	0x3d39cd69	0.04536191
169	0x3cc374d7	0.023859425
170	0x3cb3348f	0.021875648
171	0x3cc8dda3	0.024519747
172	0xbc6879b8	-0.014189176
173	0xbcafe535	-0.0214716
174	0xbbe24472	-0.006905132
175	0xbc1f7d90	-0.009734526
176	0xbd2a4fa1	-0.041579846
177	0xbc923974	-0.017849661
178	0x3caa2244	0.020768292
179	0xbd4bcebf	-0.049757715
180	0xbc9ed6ac	-0.019389473
181	0x3c72b580	0.014813781
182	0xbc0e69ac	-0.008692186
183	0x3d229412	0.039691992
184	0xbd60e086	-0.054901622
185	0x3d451917	0.04811963
186	0x3d2e5d1d	0.04256927
187	0x3d99e351	0.0751406
188	0x3a0d6df2	0.0005395106
189	0xbd495729	-0.049155388
190	0xbc073256	-0.008251747
191	0xbc8dc658	-0.017306492
192	0xbd8baff8	-0.06820673
193	0x3c4d0068	0.012512304
194	0xbd1a65f4	-0.037694886
195	0x3b4ec598	0.003155088
196	0xbdc9c33f	-0.09851693
197	0xbd64ae32	-0.055830188
198	0xbd68558d	-0.056722213
199	0xbd9d59c0	-0.07683134
200	0xbba44cc8	-0.005014036
201	0x3c8b4372	0.016999934
202	0xba315700	-0.0006764978
203	0xbcfa152f	-0.03052768
204	0xbd1d3b6f	-0.03838676
205	0x3d97aabb	0.07405611
206	0x3d981bf8	0.074272096
207	0x3ce1bf01	0.027556898
208	0x3d40c8bb	0.04706643
209	0x3d886621	0.066601045
210	0x3d145f40	0.03622365
211	0x3b626161	0.0034542906
212	0xbd65e6b2	-0.05612821
213	0xbd873a16	-0.06602876
214	0xbd3cf405	-0.046131153
215	0xbd3216c0	-0.043478727
216	0xbd539e5e	-0.051664703
217	0xbda1119f	-0.07864689
218	0xbd2a96f7	-0.041647878
219	0xbd87a5ff	-0.06623458
220	0x3bac5a98	0.005259823
221	0x3b20ae90	0.002451811
222	0xbce4a457	-0.027910395
223	0xbd0fab9f	-0.03507578
224	0xbdbde02f	-0.09271275
225	0x3c91de81	0.017806293
226	0x3cfb1bd0	0.03065291
227	0x3d368652	0.04456169
228	0x3d09d157	0.033646908
229	0x3d85c080	0.06530857
230	0x3d714b2e	0.058909588
231	0xbbe95fed	-0.007122031
232	0xbd255cdb	-0.040371757
233	0xbc615657	-0.013753495
234	0x3c9db0e0	0.01924938
235	0x3acbccce	0.0015548707
236	0xbcd67957	-0.026180906
237	0x3aace4e0	0.0013190769
238	0x3c2ac2ac	0.01042239
239	0xbbde97b0	-0.006792985
240	0xbc83f50f	-0.016108064
241	0x3ceef690	0.029170305
242	0x3cdbbd00	0.02682352
243	0x3cb64fe8	0.0222549
244	0x3d52da42	0.051477678
245	0x3d4185d2	0.04724676
246	0x3d369789	0.04457811
247	0x3d89d05b	0.06729194
248	0x3c790394	0.015198607
249	0x3d591350	0.052996933
250	0x3c08fd22	0.008361133
251	0xbc270345	-0.010193651
252	0xba80728b	-0.0009799761
253	0x3d3f2545	0.046666402
254	0x38f4b96a	0.00011669363
255	0xbd69284d	-0.0569232

layer1.0.bias f4 [256]
0	0x3cfc4bd5	0.030797878
1	0x3b67d8c0	0.0035376996
2	0xbd634f53	-0.05549557
3	0x3ca0d123	0.019630974
4	0xbc1080fc	-0.008819815
5	0x39838c70	0.000250909
6	0xbcf35c73	-0.02970717
7	0xbc4f4728	-0.012651242
8	0xbc4abbe9	-0.012373903
9	0xbd10dd60	-0.03536737
10	0xbc760728	-0.015016355
11	0xba5161c0	-0.0007987283
12	0xbc067fe0	-0.008209199
13	0xbd8ae888	-0.06782633
14	0xbd065365	-0.032794375
15	0xbc81a32d	-0.015824879
16	0xbd4c093e	-0.0498135
17	0xbcc9966b	-0.024607858
18	0xbdb28117	-0.08716028
19	0xbd825c82	-0.06365301
20	0xbc4c4438	-0.0124674365
21	0x3bd20f82	0.00641054
22	0xbcbd093c	-0.023075692
23	0xbc4579c2	-0.012052955
24	0x3d465b21	0.04842675
25	0xbe0bdb71	-0.13657929
26	0x3c5b13b8	0.013371401
27	0x3d1ff5b6	0.039052688
28	0xbc8f2e87	-0.01747824
29	0xbd69a79d	-0.057044614
30	0x3c82856e	0.015932765
31	0xbca1703e	-0.019706842
32	0xbd2b881b	-0.041877847
33	0xbc17a161	-0.009254784
34	0x3cff7fe2	0.031188909
35	0xbd94ab15	-0.07259194
36	0xbd0a7ab5	-0.03380843
37	0xbcd89662	-0.026438896
38	0xbc960a4b	-0.018315455
39	0xbdaf71c9	-0.08566625
40	0xbd3a8d39	-0.045544837
41	0xbda28abf	-0.0793662
42	0x3d21ec1d	0.039531816
43	0xbd4e1c0d	-0.05031972
44	0xbd8c5501	-0.06852151
45	0xbdd773e8	-0.10520154
46	0xbb2ad132	-0.0026064632
47	0x3d1cc192	0.03827054
48	0xbd5ed79a	-0.054404832
49	0xbc4e4304	-0.01258922
50	0x3b912a22	0.0044300715
51	0x3be3ea00	0.006955385
52	0xbcde2741	-0.027118327
53	0xbcc39052	-0.023872528
54	0xbb2f0d66	-0.0026710867
55	0xbc655daf	-0.013999387
56	0xbd0e14ea	-0.034687914
57	0x3ce70555	0.028200785
58	0xbd69841d	-0.05701076
59	0xbc94260c	-0.018084548
60	0x3cb25530	0.021769136
61	0xbcf69daf	-0.030104486
62	0x3d03fd80	0.03222418
63	0xbba1650f	-0.004925377
64	0xbda56c16	-0.080772564
65	0xbc263f8a	-0.010146985
66	0xbd204305	-0.039126415
67	0x3ca840dc	0.02053874
68	0xbb71c127	-0.003688881
69	0xbdb7ecb9	-0.08980698
70	0xbd4a0365	-0.049319644
71	0xbd815acc	-0.06316146
72	0xbd4a320a	-0.049364127
73	0xbd41d5be	-0.04732298
74	0x3c1a0159	0.009399735
75	0xbd063629	-0.032766495
76	0x3a7c0a77	0.00096145965
77	0xbcd4d0e4	-0.025978513
78	0x3ba7c332	0.0051197046
79	0xbcc83bb8	-0.024442539
80	0xbb938e98	-0.0045030825
81	0xbd9356d1	-0.07194293
82	0xbd49ae02	-0.049238212
83	0xbd215b18	-0.039393514
84	0xbd98a661	-0.07453609
85	0xbd930cd5	-0.07180182
86	0xbcfb8abc	-0.030705802
87	0x3b9d1542	0.004793794
88	0xbbae4208	-0.00531793
89	0xbd768288	-0.060183078
90	0xbbde8b26	-0.00679149
91	0x3b32635b	0.0027219865
92	0x3d2d49bb	0.042306643
93	0xbd3e73e3	-0.046497237
94	0xbc0f4cd6	-0.008746346
95	0xbdb13497	-0.08652609
96	0x3c260800	0.010133743
97	0xbd9b2f03	-0.07577326
98	0xbcd59b39	-0.026074992
99	0xbca5f9ae	-0.020260658
100	0xbbda781e	-0.006667151
101	0xbd36d07e	-0.044632427
102	0xbc25619f	-0.010094075
103	0xbd69d160	-0.05708444
104	0xbd9d54d9	-0.07682199
105	0xbd01d96e	-0.031701498
106	0x3c582c85	0.013194208
107	0x3d19cf3a	0.037551142
108	0xbd1f7a37	-0.038934913
109	0xbd944e9f	-0.07241558
110	0xbd1b9a8b	-0.03798918
111	0xbc815400	-0.015787125
112	0xbcf24276	-0.029572707
113	0xbd68a5ed	-0.056798864
114	0xbd9355fb	-0.07194134
115	0xbbeb228f	-0.0071757506
116	0xbcd79359	-0.026315378
117	0xbd58b9c4	-0.052911535
118	0x3d99de46	0.075130984
119	0xbd661bf3	-0.056179
120	0xbd949906	-0.072557494
121	0xbc306348	-0.010765858
122	0xbda61d2f	-0.08111035
123	0xbd7c4459	-0.06158862
124	0x3cc32127	0.02381952
125	0xbc1661b5	-0.009178569
126	0xbd851206	-0.06497578
127	0xbc318859	-0.0108357305
128	0xbd2cb805	-0.042167682
129	0xbd11459e	-0.035466783
130	0xbd7b6831	-0.06137866
131	0xbd608324	-0.054812565
132	0xbd26459a	-0.04059372
133	0xbd5e51e2	-0.05427731
134	0xbd45c9ef	-0.048288282
135	0x3a7f2dff	0.0009734332
136	0xbd876304	-0.066106826
137	0xbcfdb671	-0.030970784
138	0xbc971450	-0.018442303
139	0xbd2ee90d	-0.042702723
140	0x3cf25cfe	0.029585358
141	0xbd38e264	-0.045137778
142	0x3c946a8d	0.018117214
143	0xbb645dfb	-0.0034846056
144	0xbd664cb1	-0.056225482
145	0xbc90d1ed	-0.017678225
146	0x3cc1e9f8	0.023671135
147	0xbd64b0a0	-0.055832505
148	0xbd5057b3	-0.050864886
149	0x3d1ca9ec	0.038247988
150	0xbda55b08	-0.080740035
151	0xbdb2f8ee	-0.08738886
152	0x3c426af9	0.011866325
153	0xbc151384	-0.009098891
154	0xbdb4aaf9	-0.08821673
155	0xbd041a51	-0.03225166
156	0xbc0d214f	-0.008613898
157	0x3c002650	0.007821634
158	0x3bea6223	0.007152812
159	0xbda44e53	-0.08022752
160	0x3c6f7e26	0.0146174785
161	0x3c5c9f6c	0.0134657435
162	0xbd2fa0e1	-0.042878035
163	0x3b89bad8	0.0042031817
164	0x3b51561c	0.0031942194
165	0x3c3dda67	0.011587716
166	0xbcc967c5	-0.024585614
167	0x39cb88cb	0.00038821096
168	0xbda38fd5	-0.07986418
169	0xbd929193	-0.07156672
170	0xbd2867fe	-0.0411148
171	0x3d09b6fe	0.03362178
172	0xbdaa3ee7	-0.08312779
173	0xbd3296c8	-0.043600827
174	0x3c5d38c5	0.013502304
175	0xbd0d6629	-0.034521256
176	0xbda7812b	-0.08178934
177	0xbca0ce9d	-0.01962977
178	0xbd96a00c	-0.07354745
179	0x3c5f870d	0.013643038
180	0xbc9e60c9	-0.01933326
181	0xbadb1856	-0.0016715627
182	0xbd729978	-0.05922839
183	0xbd081da3	-0.03323139
184	0xbcd69d7b	-0.02619814
185	0x3d46a380	0.04849577
186	0x3ca30b52	0.019902859
187	0xbc12b2f0	-0.008953795
188	0xbca383a2	-0.019960228
189	0xbd5cb84b	-0.053886693
190	0xbc454d60	-0.012042373
191	0xbd06f84d	-0.03295164
192	0x3b3b1758	0.002854785
193	0xbbc88cf0	-0.0061203167
194	0xbd639bba	-0.055568434
195	0xbcbfd55a	-0.023417164
196	0xbd0da663	-0.034582507
197	0xbc63e76b	-0.013910155
198	0x3d8b8f88	0.06814486
199	0x3c71ef89	0.014766582
200	0xbcb52cea	-0.022116143
201	0xbdc276e5	-0.094953336
202	0xbcc9ed34	-0.02464924
203	0xbd39de85	-0.045378227
204	0xbd92cc35	-0.07167856
205	0xbce34cac	-0.027746521
206	0xbce4ace5	-0.027914474
207	0xbdaa1319	-0.08304424
208	0x3d54866a	0.051886
209	0xbd994670	-0.07484138
210	0xbd87b67a	-0.066266015
211	0xba76c436	-0.0009413393
212	0xbd0b16ab	-0.033957165
213	0xbd474c34	-0.048656657
214	0x3d1fb04c	0.03898649
215	0x3b2fe5cb	0.0026839848
216	0xbcd2cfaa	-0.025733788
217	0xbda67d8b	-0.08129414
218	0xbceb8192	-0.028748307
219	0xbc71359f	-0.014722257
220	0x3c6cc0e0	0.014450282
221	0xbcda0e2b	-0.026618084
222	0x3cd38465	0.025819967
223	0xbd147116	-0.03624066
224	0xbc245fa9	-0.010032573
225	0xbcd4a2bd	-0.025956506
226	0x3cf1f188	0.029534116
227	0x3d127875	0.035759408
228	0xbd936fe8	-0.07199079
229	0xbc3035b1	-0.0107549885
230	0xbc214574	-0.009843219
231	0xbc6c7b3d	-0.014433679
232	0xbc6ec389	-0.014572986
233	0xbbbecfb2	-0.005823099
234	0xbb45fd79	-0.0030210896
235	0xbc7b69b9	-0.01534503
236	0xbd5a0027	-0.0532228
237	0xbd0bf71e	-0.034171216
238	0xbdb3159e	-0.087443575
239	0xbcead8fe	-0.028667923
240	0xbc858406	-0.016298305
241	0x3d12f1d8	0.03587517
242	0xbcafaad0	-0.021443754
243	0x3c32b7df	0.010908096
244	0xbd4fc8a1	-0.050728444
245	0xbd4bdc73	-0.049770784
246	0xbcf25d52	-0.029585514
247	0xbc84480b	-0.016147634
248	0xbd4eef57	-0.05052122
249	0x3cfc36b4	0.030787803
250	0x3c604e88	0.013690598
251	0xbb92d430	-0.004480861
252	0x3d5fde30	0.054655254
253	0xbd6b1822	-0.05739606
254	0xbd4bb1a6	-0.049729966
255	0xbd993424	-0.07480648

layer2.0.weight f4 [84, 256]
0	0x3dd895e4	0.10575464
1	0xbcae668c	-0.021289133
2	0x3d5c5a93	0.053797316
3	0xbd9e59b0	-0.0773195
4	0x3c8751c1	0.016518475
5	0xbd9d0b2c	-0.076681465
6	0xbbc0d950	-0.0058852807
7	0x3d646f56	0.05577024
8	0xbd5c17c8	-0.053733617
9	0x3bbde0c9	0.0057946187
10	0xbc780502	-0.015137913
11	0xbcbff420	-0.023431838
12	0xbb1067a0	-0.0022034422
13	0xbcf3c239	-0.029755699
14	0x3d2f82a4	0.042849198
15	0xbd1e35d1	-0.038625542
16	0x3d77a710	0.060462058
17	0xbb3a01ba	-0.0028382377
18	0x3c1e3fc1	0.009658755
19	0x3bf49715	0.0074642994
20	0x3d00006e	0.03125041
21	0xbc01778d	-0.007902038
22	0x3d2f5bfa	0.042812325
23	0x3d051cc5	0.03249814
24	0xbca262f6	-0.019822579
25	0xbd2a4a4a	-0.041574754
26	0x3ca757fc	0.020427696
27	0x3d156f12	0.036482878
28	0x3d73916b	0.059464853
29	0x3dc215f5	0.09476844
30	0x3de3fe9f	0.111325495
31	0x3d18f7ab	0.03734557
32	0x3d903b23	0.070425294
33	0x3d5b8bb4	0.05360003
34	0x3d8f62e6	0.07001285
35	0x3c944e26	0.01810367
36	0x3d6e86cd	0.058234025
37	0x3d906174	0.07049838
38	0x3c4e0ce8	0.012576319
39	0xbdb1fe03	-0.08691027
40	0xbbc197e5	-0.005908
41	0xbc7b0b5e	-0.015322534
42	0x3d620207	0.055177715
43	0x3b841880	0.004031241
44	0xbd48e167	-0.049043085
45	0x3df74134	0.120729834
46	0xbc2fcd6f	-0.0107301315
47	0x3c89afa8	0.016807392
48	0x3c857a4c	0.016293667
49	0xbd563398	-0.052295297
50	0xbd81d208	-0.063388884
51	0x3d323fa6	0.04351773
52	0x3e0758bb	0.13217442
53	0xbd4be2b0	-0.049776733
54	0x3c999ad3	0.018750584
55	0x3d28ea4a	0.04123906
56	0x3c2c01c0	0.010498464
57	0x3d5f8619	0.054571245
58	0xbc60eba2	-0.013728054
59	0xbbda04a4	-0.0066533852
60	0x3c37bbe8	0.011214234
61	0x3d713c52	0.058895417
62	0x3e0c9910	0.13730264
63	0x3d32d1b3	0.043657016
64	0x3b7f11bf	0.003892049
65	0x3dd02c53	0.10164704
66	0x3ca5219a	0.020157624
67	0xbd374c70	-0.04475063
68	0x3b6b3c96	0.0035894266
69	0x3d778999	0.060433958
70	0x3cee98a4	0.02912552
71	0xbd877c3e	-0.06615494
72	0x3abfb146	0.0014624975
73	0x3c79e700	0.015252829
74	0x3d01297e	0.03153371
75	0xbcfa68e9	-0.030567603
76	0x3c57860d	0.013154519
77	0xbd09f6b1	-0.03368253
78	0xbd8bf62b	-0.06834062
79	0x3dca5e48	0.09881264
80	0x3dbaaadf	0.09114622
81	0xbb32b8ba	-0.002727075
82	0xbc6f8892	-0.014619963
83	0x3bc213a0	0.0059227496
84	0x3c57556b	0.013142924
85	0xb81dd3a5	-3.7628826e-05
86	0x3d0b7ddd	0.03405558
87	0x3d1902ab	0.03735606
88	0x3db321c7	0.08746677
89	0x3a332d0c	0.00068350206
90	0xbcded0e5	-0.027199218
91	0x3c436932	0.011926936
92	0xbd10782e	-0.035270862
93	0x3d3d54fb	0.04622362
94	0x3dbb687f	0.091507904
95	0x3c96906d	0.018379414
96	0xbd066b6d	-0.032817293
97	0x3bb53117	0.0055295336
98	0x3d97f5e1	0.074199446
99	0x3ce03e8f	0.02737358
100	0x3ce4c048	0.027923718
101	0x3dc6cb1e	0.0970671
102	0x3d3a8a6b	0.045542162
103	0x3d987cee	0.074457034
104	0xbd4c3ad9	-0.04986081
105	0x3b9962e9	0.0046809805
106	0xbdc2983b	-0.09501692
107	0x3d40a7e4	0.047035113
108	0x3cf9162c	0.03040608
109	0xbc69f156	-0.01427873
110	0x3b98885d	0.0046549276
111	0x3dc54492	0.096322194
112	0x3d6a7332	0.057238765
113	0x3cf6223b	0.03004562
114	0x3d78ed8e	0.060773425
115	0x3c760604	0.015016083
116	0x3d5c98d8	0.0538567
117	0x3cf00258	0.029297993
118	0x3d5ef880	0.054436207
119	0xbc233b58	-0.009962879
120	0x3d3799c8	0.04482439
121	0xbd6dc6a6	-0.058050774
122	0x3d6947df	0.056953307
123	0x3c5bb5f0	0.0134100765
124	0x3a9b28b2	0.001183769
125	0x3d29333e	0.041308634
126	0xbc6ed8ea	-0.0145780835
127	0xbbf197a5	-0.0073728138
128	0x3db907b7	0.090346746
129	0xbd35cd88	-0.044385463
130	0x3db1b9c1	0.08678008
131	0x3d0b33c7	0.033984926
132	0x3d7c8de0	0.06165874
133	0x3b0722d3	0.0020620122
134	0xbd1f3ad4	-0.038874462
135	0x3cec775f	0.028865514
136	0x3d2cd433	0.042194556
137	0x3ce7bcb0	0.028288215
138	0xbc86358e	-0.016382959
139	0x3d3c3e10	0.045957625
140	0x3d90130f	0.07034885
141	0x3d2841d0	0.04107839
142	0xbd0f5e44	-0.035002008
143	0xbd8c6b0a	-0.068563536
144	0x3d8cfbf4	0.06883994
145	0xbc627024	-0.013820682
146	0xbd9f34c8	-0.07773739
147	0x3d8b7ca3	0.06810882
148	0x3d51f64c	0.051260278
149	0x3d8a273f	0.06745767
150	0xbd4008e3	-0.046883475
151	0x3dbb1f8b	0.09136876
152	0x3d75102e	0.059829883
153	0x3bd971c0	0.0066358745
154	0xbd475aca	-0.048670568
155	0x3dae850e	0.08521472
156	0x3dba89b3	0.09108295
157	0x3cabf6e4	0.02099175
158	0xbcabcaae	-0.020970669
159	0x3d8d2a6b	0.06892856
160	0x3da0ffe4	0.07861307
161	0x3d6fa53f	0.0585072
162	0x3c2b5834	0.010458041
163	0xbd263f54	-0.04058774
164	0x3d1924d4	0.037388638
165	0xba9aa4a7	-0.0011798338
166	0x3d7e4bc6	0.062083982
167	0xbcadb666	-0.021205138
168	0x3c83229b	0.016007712
169	0x3db28087	0.08715921
170	0x3daa5a94	0.08318058
171	0x3d8310cb	0.063996874
172	0x3dc2ccb8	0.09511703
173	0x3c19de3e	0.009391366
174	0x3d041708	0.032248527
175	0x3daec55f	0.08533739
176	0x3cf181ef	0.029480902
177	0xbdbadd57	-0.091242485
178	0x3d2c1e90	0.042021334
179	0xbcb4b8bd	-0.022060746
180	0x3bca2cc0	0.0061698854
181	0x3d566e33	0.052351188
182	0x3d650be6	0.05591955
183	0x3c5b8f5e	0.013400881
184	0xbbedca48	-0.00725678
185	0xbdb85f78	-0.09002584
186	0xbcdf1db4	-0.027235843
187	0x3cb1f904	0.021725185
188	0x3d40c764	0.047065154
189	0x3d8e3bf6	0.069450304
190	0xbccc6112	-0.02494863
191	0x3d04364f	0.032278355
192	0xbbbe6bd7	-0.0058111954
193	0xbd9ac210	-0.07556546
194	0xbdc2318a	-0.09482105
195	0xbc2dc245	-0.0106053995
196	0x3d631820	0.05544293
197	0x39d6ac23	0.00040945513
198	0x3d5b94a3	0.053608548
199	0xbd3b7715	-0.045767862
200	0x3d288c98	0.041149706
201	0x3da42ba0	0.08016133
202	0x3d60d225	0.05488791
203	0x3d23076c	0.039802
204	0xbb814ae0	-0.0039456934
205	0x3d8f1f0a	0.06988342
206	0xbc8a629c	-0.016892724
207	0x3d055ccc	0.0325592
208	0xba86db81	-0.0010288806
209	0x3d4a3c8d	0.049374152
210	0x3caff302	0.02147818
211	0x3dbda604	0.092601806
212	0x3bc3da74	0.0059769694
213	0x3da078f5	0.07835571
214	0x3d3735af	0.04472893
215	0x3d47daa9	0.048792515
216	0xbca839d5	-0.020535389
217	0x3d8179ae	0.06322037
218	0xbd76b42c	-0.06023042
219	0x3d62b6a8	0.055349976
220	0x3d7cd419	0.06172571
221	0x3d8fea4f	0.07027113
222	0xbd933aab	-0.071889244
223	0x3d48b1cb	0.04899768
224	0x3d000d78	0.031262845
225	0x3dbd6329	0.09247429
226	0x3d82d86d	0.06388936
227	0x3b2a4f81	0.002598733
228	0x3da471d4	0.080295235
229	0x3d5b6db4	0.053571418
230	0x3cfc2221	0.030777993
231	0x3d00a245	0.031404752
232	0x3bb97abe	0.005660384
233	0x3c6351e6	0.013874507
234	0xbd9933cd	-0.07480583
235	0xbb92bf80	-0.004478395
236	0x3d980706	0.074232146
237	0x3caf6c8c	0.021414064
238	0xbc238d8b	-0.009982477
239	0x3d0d2593	0.03445966
240	0x3c7a7368	0.015286304
241	0x3c2086d8	0.009797774
242	0x3d92c730	0.07166898
243	0x3b6228b7	0.0034509131
244	0x3b8dfe12	0.004333266
245	0x3be7c610	0.0070731714
246	0xba4cd261	-0.00078133313
247	0x3d08636b	0.033297937
248	0xbce68b18	-0.028142497
249	0x3d513602	0.051076896
250	0xbd754da2	-0.05988849
251	0x3d5e45cf	0.054265793
252	0x3c046635	0.008081009
253	0x3b58119d	0.0032969483
254	0x3d1f998b	0.03896479
255	0x3d02d9dd	0.031946052

layer2.0.bias f4 [84]
0	0xbd144d43	-0.036206495
1	0xbcf7331e	-0.030175742
2	0xbced0de7	-0.028937293
3	0xbd2a6e8d	-0.041609336
4	0x3ce33855	0.027736822
5	0xbdaf7bed	-0.08568559
6	0x3d2df1fb	0.0424671
7	0xbcb8348e	-0.022485998
8	0x3c35ff1d	0.011108187
9	0x3cf8e6ce	0.030383494
10	0x3c0c883c	0.008577403
11	0xbd5897c1	-0.0528791
12	0xbdab3931	-0.08360518
13	0xbd7511bc	-0.059831366
14	0xbd9ab151	-0.07553352
15	0x3c4e09f8	0.012575619
16	0xbc5c0626	-0.0134292
17	0xbc338bac	-0.010958593
18	0xbd926daf	-0.07149827
19	0x3c762378	0.015023105
20	0xbcd83d3e	-0.02639639
21	0xbdc676f0	-0.09690654
22	0xbc06d661	-0.008229823
23	0xbca0c198	-0.019623563
24	0x3d363d9c	0.04449235
25	0x3c667231	0.014065311
26	0xbccabde8	-0.024748757
27	0xbcf9a892	-0.030475888
28	0x3c6cab2e	0.014445109
29	0x3c32877e	0.010896562
30	0x3d447bd9	0.047969673
31	0xbb0d535a	-0.0021564574
32	0xbd715ec2	-0.05892826
33	0x3dce101b	0.100616656
34	0xbd2cd865	-0.042198557
35	0x3daada30	0.08342397
36	0xbba71eb1	-0.0051000942
37	0x3bed0d70	0.007234268
38	0xbc63c073	-0.013900864
39	0xbb8b1f8c	-0.004245704
40	0x3c0bbe70	0.008529291
41	0x3bbda015	0.0057869055
42	0x3d89bd41	0.067255504
43	0xbc90a45c	-0.017656498
44	0xbd90c607	-0.07069021
45	0xbdbbde4d	-0.0917326
46	0xbd0ed40c	-0.034870192
47	0x3d4f8c2a	0.05067078
48	0xbda1eaaa	-0.07906087
49	0xbd09b7fc	-0.033622727
50	0x3c9123cf	0.01771727
51	0xbc11e959	-0.008905732
52	0xbd9b5958	-0.075854
53	0xbd5ec636	-0.054388247
54	0x3c29c20b	0.010361205
55	0x3d3031ca	0.043016233
56	0xbd975945	-0.07390074
57	0xbdc60026	-0.09667997
58	0xbd667ed9	-0.056273315
59	0xbd9170c4	-0.071015865
60	0xbdd21b0b	-0.10259064
61	0x3caa97a0	0.020824254
62	0xbc9a26c2	-0.01881731
63	0x3bb3c15f	0.005485698
64	0xbbe7cdee	-0.0070741093
65	0xbd63fc4a	-0.055660523
66	0xbd418a92	-0.04725129
67	0xbd8ce18a	-0.06878956
68	0x3b25b6af	0.002528589
69	0xbc4aa3b3	-0.0123681305
70	0x3d64fd63	0.05590571
71	0x3d546525	0.05185427
72	0xbd994f6f	-0.07485854
73	0xbdb72056	-0.089417145
74	0xbbc04646	-0.0058677522
75	0xbca4eda2	-0.020132843
76	0xbcd29c61	-0.025709333
77	0xbd05d988	-0.032678157
78	0x3b3c9462	0.0028774966
79	0x3b4184d8	0.0029528644
80	0x3d2e5242	0.042558916
81	0xbd10d1e7	-0.03535643
82	0xbd01356c	-0.031545088
83	0xbd619691	-0.055075232

layer3.0.weight f4 [6, 84]
0	0xbd8c65cc	-0.06855354
1	0x3da65ef9	0.08123583
2	0x3cb857c0	0.02250278
3	0x3d212bda	0.03934846
4	0xbd3fa667	-0.046789553
5	0xbd1c6b45	-0.038188238
6	0xbbcee56a	-0.0063139694
7	0x3d99dab7	0.0751242
8	0x3c30ca3c	0.010790404
9	0x3c253016	0.010082265
10	0x3da8328e	0.082127675
11	0xb95fce74	-0.00021343847
12	0xba74e92b	-0.0009342606
13	0x3c88f972	0.016720507
14	0xbcb52081	-0.022110226
15	0x3cd4c572	0.025973056
16	0xbd05b61a	-0.03264437
17	0xbd29bfca	-0.04144267
18	0x3b29bcf5	0.002589998
19	0xbce8ed30	-0.028433412
20	0x3dd1a0cf	0.1023575
21	0x3d8a4d9c	0.06753084
22	0xbda3ff81	-0.08007718
23	0xbc9090fe	-0.017647263
24	0xbdd08436	-0.10181467
25	0xbd151dc6	-0.036405347
26	0x3d06a899	0.03287563
27	0xbdfeb0ec	-0.12436089
28	0x3c17b596	0.009259602
29	0x3dd65da1	0.10467077
30	0xbd95c02a	-0.07312043
31	0x3cb25dc1	0.021773221
32	0xbd6012a2	-0.05470527
33	0xbdf573f1	-0.11985005
34	0x3d3b80f7	0.045777287
35	0x3d73cb36	0.05951997
36	0xbdb0118e	-0.08597098
37	0xbd44c732	-0.04804153
38	0xbd01007e	-0.03149461
39	0x3d83fdb8	0.064448774
40	0x3d502cdb	0.050824028
41	0xbcd74bfa	-0.026281346
42	0xbdaf5b49	-0.08562333
43	0x3d97f19d	0.07419131
44	0x3c775abb	0.015097315
45	0x3e081cb2	0.13292196
46	0x3cc6bf88	0.024261251
47	0x3dc42b93	0.095786236
48	0x3d3a47b2	0.04547853
49	0x3d5005e5	0.05078687
50	0xbcfcea47	-0.03087343
51	0x39502a00	0.00019852072
52	0xbd00f253	-0.0314811
53	0xbda5e1bd	-0.08099697
54	0xbd0ab2f3	-0.033862066
55	0x3c946775	0.018115738
56	0xbd826c02	-0.06368257
57	0x3dd72585	0.10505203
58	0xbd32289c	-0.04349576
59	0x3d713244	0.058885828
60	0xbc7fd519	-0.015614771
61	0xbbfbb476	-0.0076814247
62	0xbca4781f	-0.02007681
63	0xbc55afad	-0.013042373
64	0xbceadd2d	-0.028669918
65	0xbd67d1dc	-0.056596622
66	0x3bf514fa	0.0074793072
67	0x3e18bded	0.14916201
68	0x3c9e315f	0.019310651
69	0xbd7777c2	-0.060416944
70	0x3dd5fcb5	0.10448591
71	0x3d7daf33	0.06193466
72	0x3d0537a2	0.03252376
73	0x3d148d79	0.03626773
74	0x3c054f5f	0.008136599
75	0xbd2d5a8b	-0.042322677
76	0x3d24cf07	0.0402365
77	0xbc793834	-0.015211154
78	0x3cf1e014	0.029525794
79	0x3cf6162b	0.030039867
80	0x3d906092	0.07049669
81	0x3d0ae133	0.033906173
82	0xbc0fba82	-0.008772494
83	0x3d22bdbd	0.03973173
84	0xbd2efd25	-0.042721886
85	0x3c5d8685	0.0135208415
86	0xbd24bca9	-0.040218983
87	0xbd85045a	-0.064949706
88	0xbdcb0e26	-0.09914808
89	0x3b31e17a	0.002714245
90	0x3d8eca3f	0.06972169
91	0x3d5dc907	0.054146793
92	0x3c2532d5	0.01008292
93	0xbd82ba0c	-0.06383142
94	0xbcab5e55	-0.020919004
95	0x3d74f839	0.059807036
96	0x3cb49949	0.022045748
97	0xbc9bb44d	-0.019006873
98	0xbcb0a569	-0.021563249
99	0xbad876cf	-0.00165149
100	0xbbed3ee4	-0.007240163
101	0xbbd4f923	-0.006499426
102	0xbd6b247d	-0.057407845
103	0x3de11355	0.109900154
104	0xbd1797ee	-0.037010126
105	0x3cf2eb8d	0.029653335
106	0xbd51b1e2	-0.051195033
107	0x3d8412eb	0.06448921
108	0xbd17d078	-0.037064046
109	0xbd8cbb6a	-0.06871684
110	0xbbdf4145	-0.0068132007
111	0xbd142fac	-0.036178276
112	0xbd378b52	-0.0448106
113	0x3dae8137	0.085207395
114	0xbcce980e	-0.02521899
115	0x3d2ae039	0.04171774
116	0xba3bacba	-0.0007159222
117	0x3d515d20	0.0511142
118	0x3dd61aa4	0.104543
119	0xbd647610	-0.055776656
120	0xbd9b0b06	-0.07570462
121	0x3c884e17	0.016638799
122	0x3d15a31c	0.036532506
123	0x3d87020d	0.06592188
124	0xba97cf73	-0.001158221
125	0x3caae934	0.020863153
126	0xbd0cc56d	-0.034367967
127	0x3d134971	0.03595871
128	0x3ba36912	0.0049868906
129	0x3d589d26	0.052884243
130	0x3bb8ebc0	0.005643338
131	0xbd9140a3	-0.070924066
132	0xbd93027f	-0.071782105
133	0xbd75ded3	-0.060026955
134	0x3c92f2d3	0.017938053
135	0xbd90bf46	-0.070677325
136	0x3d3ca959	0.04605994
137	0xbc9bfd4a	-0.019041676
138	0x3a97ec12	0.001159074
139	0x3e169f23	0.14709143
140	0x3d7ddd20	0.06197846
141	0x3cd17e57	0.025572939
142	0xbb50c339	-0.0031854643
143	0xbb299a69	-0.002587939
144	0xbd41e219	-0.047334764
145	0x3dc173de	0.09445928
146	0x3ce431d5	0.027855793
147	0x3ac2075f	0.0014803222
148	0x3c162e00	0.009166241
149	0xbc1a08f9	-0.009401553
150	0x3cfa1f7a	0.030532587
151	0x3bd0818f	0.006363101
152	0xbd0ab6e4	-0.033865824
153	0x3d7e4c97	0.06208476
154	0x3d757972	0.059930272
155	0x3a796c43	0.00095147284
156	0x3cff49bb	0.031163087
157	0x3e13b525	0.1442457
158	0x3d6d50bc	0.057938322
159	0x3a3b8fab	0.0007154892
160	0xbc62e64f	-0.013848855
161	0xbdb78e5d	-0.089627005
162	0xbc98a62d	-0.018633926
163	0xbd715609	-0.05891994
164	0x3ca5c619	0.020236062
165	0x3d3cc95c	0.04609047
166	0x3afd3364	0.0019317684
167	0xbcdace26	-0.026709627
168	0x3d115f67	0.035491373
169	0x3e124fa6	0.14288196
170	0xbb9ac7e6	-0.004723537
171	0x3d864c72	0.065575495
172	0xbce19d8c	-0.027540945
173	0xbc849734	-0.01618538
174	0xbd9e82f4	-0.07739821
175	0x39cfc7aa	0.00039630878
176	0x3dab2f25	0.083586015
177	0x3d865ae0	0.06560302
178	0x3cc35000	0.023841858
179	0x3bd15e13	0.0063893883
180	0xbd8b4f22	-0.06802203
181	0xbd7d5fc4	-0.061858907
182	0x3ca9ad7d	0.020712608
183	0xbdbb8b8e	-0.09157477
184	0xbc5a2c0e	-0.0133161675
185	0xbd04e7c3	-0.032447588
186	0xbc820f04	-0.0158763
187	0x3d3279cc	0.043573186
188	0x3d678097	0.056519117
189	0xbd12f617	-0.03587922
190	0xbd171d3c	-0.036893114
191	0x3da107c3	0.078628086
192	0x3d97b378	0.07407278
193	0x3dc2acd8	0.095056236
194	0x3d3db8d3	0.04631884
195	0xbd582d63	-0.05277766
196	0x3d01d262	0.031694777
197	0xbc94a68f	-0.018145828
198	0x3db0d218	0.08633822
199	0xbcb62715	-0.022235433
200	0x3d304ebe	0.043043844
201	0xbd81f3bc	-0.06345317
202	0xbde6aa05	-0.112628974
203	0xbd8ecd54	-0.06972757
204	0x3cfccd98	0.030859753
205	0x3d3cae2e	0.04606455
206	0x3c94453f	0.018099425
207	0xbd58b426	-0.052906178
208	0x3d4c84a7	0.049931195
209	0x3b154f1d	0.002278275
210	0xbda19294	-0.07889286
211	0x3cf10e81	0.029425861
212	0x3d1b50ee	0.037918977
213	0x3ce7b004	0.028282173
214	0xbd24bbc6	-0.040218137
215	0xbc971f9c	-0.01844769
216	0xbcac18c9	-0.021007912
217	0x3d6e6272	0.058199354
218	0x3d39c908	0.045357734
219	0x3dc9c4ad	0.09851966
220	0x3d91f5d3	0.071269654
221	0xba9abbc0	-0.0011805221
222	0xbd630a3b	-0.05542968
223	0xbdb4f30f	-0.08835422
224	0xbd1adf56	-0.037810646
225	0xbdd95df5	-0.10613624
226	0xbd30ce68	-0.043165594
227	0xbc0daa92	-0.008646624
228	0x3c83091b	0.015995553
229	0xbcad95db	-0.02118962
230	0x3d72d6eb	0.059286993
231	0xbd9214c4	-0.07132867
232	0xbca7cf2a	-0.020484526
233	0xbd6bd3e2	-0.057575114
234	0x3d535763	0.05159701
235	0x3c850371	0.016236993
236	0xbd464944	-0.048409715
237	0x3d92aa70	0.071614146
238	0xbd15c836	-0.03656789
239	0x3d266190	0.040620387
240	0x3d956ec2	0.07296516
241	0x3dcaa48a	0.098946646
242	0x3cf9df34	0.03050194
243	0xbd19e520	-0.037572026
244	0x3dd3d820	0.10343957
245	0xbd761163	-0.060075175
246	0x3dd4bc60	0.10387492
247	0xbc837963	-0.016049093
248	0xbd00d111	-0.03144938
249	0x3cfd6f65	0.030936906
250	0xbd0872b6	-0.033312522
251	0x3d550856	0.052009903
252	0xbd227747	-0.039664533
253	0x3c453794	0.012037177
254	0x3d5e1413	0.054218363
255	0x3df47f4b	0.11938342

layer3.0.bias f4 [6]
0	0xbbecd6de	-0.0072277626
1	0xbd1f6e62	-0.03892363
2	0xbda2f533	-0.07956924
3	0x3cfd376b	0.030910214
4	0x3d9a6f0d	0.075407125
5	0x3dc34f6f	0.09536635
