DigitalRecognition-master/model_params/GDUT_net_all_5.pt (torch, 665623 bytes, 6 tensors)

layer1.0.weight f4 [256, 560]
000000 f0 09 43 bc fc e8 23 3d ab 55 ae bc 54 fb a9 3c
       -0.011904225 0.040017113 -0.021281084 0.020749725
000010 04 c6 99 3c b0 ff 73 3b 7c c9 11 bc 00 e4 56 bc
       0.018771179 0.003723126 -0.008898135 -0.013115883
000020 d5 91 98 bc 90 b7 30 3c de b0 14 3d cc 34 b2 3c
       -0.018624226 0.010785952 0.036301486 0.021753691
000030 60 ac 79 3b 40 6a ba 3c 8e 81 19 3d 8c 64 c1 3c
       0.0038097128 0.022755742 0.03747707 0.023607515
000040 e6 59 27 bd 58 e2 40 bc 04 23 f8 bc 1e 78 05 bd
       -0.04085722 -0.011772715 -0.030290134 -0.032585256
000050 48 13 ea bc 60 04 8f ba fd 6f 29 bd 40 af a6 3c
       -0.028573647 -0.0010911338 -0.041366566 0.020347238
000060 3e ed 1d bd 69 3d dc bc 88 d7 9c bb 4c b5 29 bd
       -0.03855633 -0.026884751 -0.0047864355 -0.041432664
000070 38 61 78 bc 90 79 2d bb ec 54 72 3c 38 59 b7 3c
       -0.0151598975 -0.0026470162 0.014790755 0.02238141
000080 e8 37 d9 bc 20 b1 c2 3c d8 b7 df 3c e1 f2 87 bc
       -0.026515916 0.0237661 0.027309343 -0.016595306
000090 00 13 83 3c f6 11 2c 3d 56 0b e0 bc c0 97 05 bd
       0.01600027 0.042009316 -0.027349155 -0.032615423
0000a0 98 e4 16 bd e6 64 1e bd 84 7b a0 3c 40 1a 05 3d
       -0.036839098 -0.038670443 0.019590147 0.032495737
0000b0 68 96 23 3d 00 f0 c1 3c aa e2 88 3c 29 72 23 ba
       0.03993836 0.023674011 0.016709644 -0.0006234968
0000c0 95 dc 29 bd fc 39 12 3d da 44 5d 3c a8 e1 40 bc
       -0.04147013 0.03569983 0.013505185 -0.011772551
0000d0 5a 61 8c bc fa 7c 6b bb fa 21 29 bd a9 95 d3 bc
       -0.017136265 -0.0035932646 -0.04129217 -0.0258282
0000e0 c0 ad 95 3a 51 fe 27 bd e9 8c 8b bc a1 76 9b bc
       0.0011419579 -0.04101402 -0.017034965 -0.018977465
0000f0 50 1f b4 3c 5c 26 05 3d 00 df 4c b9 8e 0d db bc
       0.021987587 0.032507285 -0.0001953803 -0.026739862
000100 f0 d5 13 3d 31 b9 03 bc 20 b0 1e 3d e9 fa 4f ba
       0.0360927 -0.008039759 0.038742185 -0.0007933812
000110 7e e3 06 3c 50 da a0 3c 26 96 20 3c 6a ec 60 3c
       0.008232949 0.01963535 0.009801423 0.0137282405
000120 32 38 1a 3d 10 88 0e bd a6 f7 f7 3c b5 6f 91 bc
       0.03765125 -0.034797728 0.030269455 -0.017753461
000130 27 12 17 bd 90 06 7f 3b 54 4c b1 3c a8 76 d8 bb
       -0.036882546 0.0038913824 0.021642841 -0.006605942
000140 44 5f d8 3c cc 9e e3 3c 0e 6d 08 3d 84 d0 a4 3c
       0.026412614 0.027785681 0.033307128 0.02011896
000150 d8 fc 14 bd fa 83 21 bc 51 c2 d7 bc f2 b7 fc bc
       -0.036373943 -0.009858126 -0.026337774 -0.03084943
000160 5e cb 01 3d 1c 5f ba 3a c4 45 6e bc 5e 1e 30 bc
       0.031688087 0.0014219019 -0.014543001 -0.010749428
000170 2c 47 7d 3c 2e 29 c3 3c 7a ad f6 3c cc 19 1c bd
       0.015458863 0.023823347 0.030112017 -0.03811054
000180 94 62 15 bd be a8 8a 3c 18 c0 74 3c ae 68 9e 3c
       -0.036470965 0.016926166 0.014938377 0.019337025
000190 c8 65 3c bc 0c 9c 4b 3c b0 ae 56 3b 80 c6 d3 39
       -0.011498876 0.012427341 0.003275793 0.0004039295
0001a0 7f 53 db bc 64 16 83 bb 4a 9a 8e bc 1c 2a 81 bc
       -0.026773212 -0.004000472 -0.017407555 -0.01576715
0001b0 b6 d9 07 3d f2 e8 03 bd 38 f9 bb bb 7e da 3e 3c
       0.03316661 -0.032204576 -0.0057364963 0.011648772
0001c0 18 d1 06 3d 3a 4c fa 3c 6d 2a e3 3b 02 f3 c5 3c
       0.03291425 0.030553926 0.006932548 0.024163727
0001d0 b5 b4 08 bd 90 b1 40 bb 78 22 4b bc 40 c1 f2 3a
       -0.03337546 -0.002940271 -0.012398355 0.0018520728
0001e0 9c 51 85 3c 20 7d a7 3b f5 a2 b6 bc 3c 66 e9 3c
       0.016274266 0.0051113516 -0.0222945 0.028491132
0001f0 76 9a 57 3c 86 92 4a 3c 2b 39 be 3a aa f5 4a bb
       0.013159385 0.0123640355 0.0014512887 -0.003096918
000200 06 40 d7 bc 55 67 b1 3c fd 0e 53 bc 45 66 0f bd
       -0.026275646 0.021655718 -0.012881991 -0.03500964
000210 b9 68 99 bb ab 86 a0 bb 79 2f 0c bd ea 58 82 3c
       -0.0046816734 -0.004898866 -0.03422496 0.015911538
000220 17 2f 20 bd 78 78 e6 bc 9e d8 80 3c ae 5a 2c bd
       -0.03910741 -0.028133616 0.015728291 -0.042078666
000230 d8 5d b3 3c d1 cd c9 bc ed 36 04 bd 38 52 9c 3b
       0.021895334 -0.024634274 -0.032278944 0.0047705434
000240 06 83 ba 3c 58 b5 92 bc 0a 71 0f bd 86 0b 1a 3d
       0.022767555 -0.017908737 -0.03501991 0.037608646
000250 76 8c 28 3b a6 f2 00 bd 61 99 86 3c 53 24 0b 3c
       0.0025718487 -0.031481408 0.016430559 0.008492547
000260 ed f3 f9 3b db 1e e8 bb b6 79 e1 bc 4a ae be 3c
       0.007627955 -0.0070837564 -0.027523857 0.023276467
000270 a6 5e eb bc 68 fa 9f bb 80 76 00 3b e4 8b a5 bc
       -0.028731655 -0.0048821457 0.0019601882 -0.020208307
000280 4a a1 96 3c 53 23 13 bd 34 92 d0 bc dc 31 c3 bc
       0.018387455 -0.03592236 -0.02546034 -0.023827486
000290 a0 2c ef bb 9c 9e e7 3c 00 2d b8 39 51 30 9a 3c
       -0.007299021 0.028273873 0.00035128742 0.018821867
0002a0 f5 b8 ed bc 3c a8 1e 3d 11 0f 81 bc da 48 cd bc
       -0.029018858 0.03873466 -0.015754255 -0.025059152
0002b0 55 85 b4 3c 1c d7 96 3c 14 53 26 bd 58 3c 7d bc
       0.022036234 0.018413119 -0.040606573 -0.015456282
0002c0 56 7a 01 3d 34 a7 29 bc 04 d7 1a bc e0 92 a3 3c
       0.03161081 -0.010354806 -0.009450678 0.019967496
0002d0 6a 4d 83 3c 4b 42 b9 bc 54 fc f5 3c d7 45 a0 bc
       0.016028125 -0.022614619 0.030027546 -0.019564552
0002e0 a2 cb b8 bc c8 9c 77 3c ec aa 0e bd 74 a1 2c 3c
       -0.022558037 0.015113063 -0.034830973 0.01053654
0002f0 f0 ec b7 3b b0 aa 86 3b 9f 9c 9c bb e5 ca 78 bc
       0.005612962 0.004109703 -0.004779413 -0.015185093
000300 78 ae 14 bd 50 e5 6d bc 55 d7 bb bc f2 ba 2d 3c
       -0.0362992 -0.014520004 -0.022929827 0.010603653
000310 b8 c7 0b 3d a8 1f 98 3b 77 eb 9d bc 44 2e 09 3d
       0.034126014 0.0046424456 -0.019277317 0.033491388
000320 42 37 16 3d 00 cd 13 3a 0d 96 03 bd d0 de 0c bc
       0.03667379 0.00056381524 -0.03212552 -0.0085980445
000330 30 2c f6 3c 9e b2 9d 3c d6 49 16 3d ca ff 4d bc
       0.030050367 0.01925021 0.03669151 -0.012573192
000340 60 3b c7 3a ba 09 c3 bc 8a a3 0b 3d 8b 85 2e bb
       0.001520019 -0.023808349 0.03409151 -0.002662989
000350 0e 56 f2 3c 97 63 19 3a 3a b7 04 bd 62 ea 2b 3c
       0.02958205 0.0005851327 -0.0324013 0.010492893
000360 46 64 e3 3c 46 df 26 3d d2 bc 04 bd 83 39 e8 bc
       0.027757775 0.040740274 -0.032406636 -0.028347736
000370 66 12 6c bc 12 15 0f 3d c4 86 ba 3c eb 12 a0 bc
       -0.014408683 0.034932204 0.02276934 -0.01954027
000380 12 bf c1 bc c2 b2 0c bd c6 b6 17 3d cc 7c 21 bd
       -0.02365068 -0.034350164 0.03703954 -0.039425656
000390 39 ff 2c bd 74 f7 26 bd 71 3c d5 3b 3d c8 a7 bc
       -0.042235587 -0.040763333 0.0065074493 -0.020481223
0003a0 d2 99 b8 3c be 67 d5 bc 12 fc a2 3c 13 ee b9 bb
       0.022534285 -0.026050445 0.019895587 -0.0056741326
0003b0 cc 10 17 3d 20 74 e6 3b 50 08 0c bc 08 79 6a 3c
       0.036881253 0.007032886 -0.008546904 0.014311083
0003c0 60 36 81 3c 3c 41 2d bc 28 6b e5 3c 24 be 7b 3c
       0.015772998 -0.010574635 0.028005198 0.015365157
0003d0 b0 b8 35 bc 05 1d 26 bd 98 f0 d7 3c 10 fc d1 bb
       -0.011091396 -0.04055502 0.026359841 -0.006408222
0003e0 91 d2 9d bc 08 63 1c 3d ac 62 1f 3d ae 66 dd 3c
       -0.019265445 0.03818038 0.03891246 0.0270265
0003f0 0e 9e 02 3d 83 18 b2 bc 72 dc 10 3d 52 96 fc bc
       0.031889014 -0.021740204 0.035366483 -0.030833397

layer1.0.bias f4 [256]
000000 25 65 d4 bc 97 e2 22 bd 88 50 fa 3c 81 2c 88 3c
       -0.025927136 -0.039766874 0.030555978 0.016622784
000010 84 18 a7 3c 96 34 42 3c 3a bb 96 bb f6 11 0b 3d
       0.020397432 0.011853358 -0.004599956 0.033952676
000020 0f 28 3d bb 19 be f4 3c 6c 3d 02 bd 79 6d bb bb
       -0.0028862988 0.029875802 -0.031796858 -0.0057198373
000030 73 60 b6 bc f8 bf d3 3c b1 29 53 bb f5 fe 91 3c
       -0.022262787 0.025848374 -0.0032220895 0.017821768
000040 61 a6 95 3c 81 d0 10 3d de ab 03 bd cd 16 b3 bc
       0.018267812 0.035355095 -0.032146327 -0.021861458
000050 69 90 00 bc 5b 2a 01 3d c0 ae 4e bc 7a 2f 57 3c
       -0.00784693 0.031534534 -0.012614906 0.013133878
000060 c3 72 b6 3c 9d fe aa bc e0 1e 96 bc 10 75 1e 3d
       0.02227152 -0.020873362 -0.01832527 0.03868586
000070 6c 64 0c 3d 68 f6 1f 3d f1 bb 2d bd 14 89 cb 3c
       0.034275457 0.03905335 -0.042415563 0.024845637
000080 16 68 be bc ef b6 64 bc c2 a7 9c bc 96 99 b9 bc
       -0.023242991 -0.01395963 -0.019122962 -0.022656243
000090 45 dc d8 bc fb ff 03 bc a8 a2 b6 3c e3 31 fd bb
       -0.02647222 -0.008056636 0.022294357 -0.007726894
0000a0 12 af 8e bc c7 1c 86 3c ac eb 99 bc bf 15 8c 3c
       -0.017417464 0.016371144 -0.018789135 0.017100213
0000b0 8b 25 68 bc 55 ba 13 bd fd 76 94 3c 61 9e e3 bc
       -0.014169107 -0.036066372 0.018123144 -0.027785482
0000c0 af 84 05 bc 7b 73 d2 bc 32 b9 38 3c e4 67 08 3c
       -0.00814931 -0.025689831 0.011274623 0.008325551
0000d0 80 78 94 3c 82 d1 f9 3b 80 1d 02 3a e4 ba c0 bb
       0.018123865 0.007623852 0.0004963502 -0.005881654
0000e0 0a 4e b3 bc 83 4a 23 bd f3 e6 15 bc 20 d6 21 bd
       -0.021887798 -0.03986598 -0.009149301 -0.039510846
0000f0 ed e7 c5 bc 2f d7 c3 bc e4 dd aa bc d7 01 6b bc
       -0.024158442 -0.023906318 -0.020857759 -0.0143437
000100 b0 a1 b3 bc 41 7f ca 3c 3c 0a 3c 3c 14 c2 c1 bc
       -0.021927685 0.024718883 0.011477049 -0.023652114
000110 90 aa 02 bd 44 ab f0 3b b1 93 30 bd 0d eb 30 bd
       -0.031900942 0.007344635 -0.0431096 -0.043192912
000120 78 b8 2a bc 81 d6 17 3d 26 bb 00 bd e1 2a 23 3d
       -0.010419957 0.0370698 -0.03142848 0.039835814
000130 cb 4a 29 3c 83 76 2f 3d 99 a3 8c bc 0a 42 7e bc
       0.010332773 0.04283763 -0.017167853 -0.015518675
000140 ce cf a2 bc bb fc 05 ba 64 59 ff bb 90 b0 b4 3c
       -0.01987448 -0.0005111207 -0.0077926386 0.022056848
000150 e3 41 bd 3a 5c 25 12 3d 29 30 1e bd 43 d9 82 bc
       0.0014439191 0.03568016 -0.038620148 -0.01597274
000160 9e 41 20 bd 73 3e 87 bc 1a af 25 bd 35 6e 9b 3c
       -0.039125077 -0.01650927 -0.040450193 0.01897345
000170 ba ab 16 bc ff d7 19 3d 84 c1 2b 3d 35 96 6e bc
       -0.009196216 0.037559506 0.041932598 -0.014562179
000180 5e d6 0f bd 1d e5 1c bd a2 2a 0d 3a 0f bf 7a bc
       -0.035116546 -0.038304437 0.0005385076 -0.015304341
000190 69 bf 7e 3c e0 2c c0 bc 8a c3 26 bd 0d 5c ae bc
       0.015548565 -0.023458898 -0.040713824 -0.021284128
0001a0 ef 1d 11 3d f2 27 3d bc e5 82 89 bc 04 ee 40 3b
       0.035428938 -0.011545168 -0.016786048 0.0029438743
0001b0 78 36 db 3c b6 01 0e bd 09 8e 07 bc 91 b5 f8 3c
       0.026759371 -0.0346696 -0.00827361 0.030360015
0001c0 aa a1 6f 3c c5 9f 20 3d 8d d1 65 3c 51 d2 ba 3c
       0.014625946 0.039214868 0.014027012 0.022805365
0001d0 e1 86 01 bd 43 5c 08 bd 1b 90 01 3d 2f 21 71 3b
       -0.03162277 -0.033291113 0.03163157 0.003679346
0001e0 33 89 8b bc 1f 33 c3 3c 64 a0 04 bd 78 19 0b 3c
       -0.017033195 0.023828087 -0.032379523 0.008489959
0001f0 77 11 07 bd 63 46 10 3d 72 6d 55 3c 93 d7 24 bd
       -0.03297564 0.035223376 0.013026582 -0.04024465
000200 d2 27 51 3c da 2f f9 3a ab 4d 0d 3c 14 78 c3 bc
       0.012765842 0.0019011453 0.0086244745 -0.023860969
000210 f3 f0 0a 3d 29 ac d4 bc 7e 44 64 bb 21 89 12 bd
       0.033921193 -0.025960999 -0.0034830864 -0.035775308
000220 a6 e8 29 3d ca 94 ce bb 4e eb d8 bc 47 ac 63 3c
       0.041481636 -0.006304358 -0.02647939 0.013896055
000230 e0 c2 d1 3c d7 bc 4d 3b 9f 4f ba 3c f5 81 27 3d
       0.025605619 0.0031393075 0.022743044 0.04089542
000240 b0 3e 71 bc fb 18 ef 3c ae 8b 42 bc ba 05 35 bc
       -0.0147244185 0.029186716 -0.011874123 -0.011048729
000250 77 0b a9 bc 33 c1 13 bc 3a 30 28 bb 5e a7 69 bc
       -0.02063535 -0.00901823 -0.002566351 -0.014261095
000260 94 06 6a 3c 9c 1a f1 3c d5 a0 12 3c bd 49 c4 3c
       0.014283795 0.029431634 0.008949478 0.023960942
000270 b8 00 2d bc 14 46 82 3c 77 ec 2b 3c f7 9b 9d b9
       -0.010559253 0.015902556 0.010493389 -0.00030061576
000280 8c a2 d0 bb a8 9a 10 bc d7 9c bb bc 81 60 e4 3c
       -0.0063670333 -0.008825935 -0.022901936 0.027878048
000290 15 e3 36 bc b8 b5 e2 3c 8c 52 bd bc 86 b2 f3 ba
       -0.011162539 0.02767454 -0.02311065 -0.0018592633
0002a0 13 f9 a0 3c 82 17 96 3c 7c 17 10 3d e9 13 ce bb
       0.019650018 0.018321756 0.035178646 -0.0062889946
0002b0 20 c8 da 3b 75 ec cb 3c 72 1c 0c bb 59 5e 78 3c
       0.006676689 0.024893025 -0.002137926 0.015159213
0002c0 65 fb b6 3c ba 5f 85 bc 70 d6 b9 3b e8 41 19 3d
       0.022336671 -0.016280998 0.005671315 0.03741637
0002d0 9b d5 33 3c 78 c8 12 3d be e2 ae bc 38 24 fe 3c
       0.0109762205 0.035835713 -0.021348353 0.03102313
0002e0 45 92 92 bc bc 0f 46 3c 23 1e f7 bc 5f b1 02 bd
       -0.017892012 0.012088712 -0.030165737 -0.031907436
0002f0 0f cd b1 bb c2 62 7c bb 76 df 03 bd 48 5f 87 bc
       -0.005426056 -0.0038511013 -0.03219553 -0.016524926
000300 cd 1e f4 bc 19 ea db bc 11 d4 f1 bc ea cc e7 bb
       -0.029799843 -0.026845025 -0.029520066 -0.007073988
000310 a9 ad c2 3c 06 29 26 bb 80 f3 e1 3c b7 85 9c bc
       0.023764448 -0.0025354042 0.02758193 -0.019106729
000320 c8 ec de 3c 78 c9 a3 bb 55 2a 0d 3c 35 f7 7a bb
       0.027212515 -0.004998382 0.00861605 -0.003829432
000330 22 11 26 bd ce d5 07 bd 19 7b 00 bd 52 a1 0d 3d
       -0.040543683 -0.033162884 -0.031367395 0.034577675
000340 f7 9f 7a bc b3 06 92 bc ec c9 12 3d 07 70 0d bc
       -0.015296928 -0.01782546 0.0358371 -0.008632666
000350 25 3c 0d 3c 90 7e cb 3c 19 b4 a7 bc ff 25 f5 3c
       0.008620297 0.024840623 -0.02047162 0.029925345
000360 fc 8e 25 bd e4 17 21 3d cf 7b 0b 3c 40 4c e7 bc
       -0.040419564 0.039329425 0.008513405 -0.028234601
000370 70 20 da bc 52 f3 fb bc 1d 42 ae bc 81 bb c8 3c
       -0.026626796 -0.030755673 -0.02127176 0.024503471
000380 7b 37 a4 39 ae cf ad 3c cc 44 39 3b 65 23 d9 bc
       0.00031321854 0.021217193 0.0028269766 -0.026506135
000390 20 7f 8c bc db 68 00 3d c1 fc e4 3a 40 36 82 bb
       -0.017150462 0.031349998 0.0017470346 -0.0039737523
0003a0 43 22 0d bd 20 c3 be bc a4 22 d1 3c 4a 5f ff 3c
       -0.034456503 -0.023286402 0.025529213 0.031173367
0003b0 9e 10 ba bc ea 57 9c 3c 77 fc 6c 3c 92 84 2a bb
       -0.022713002 0.01908489 0.014464489 -0.002601896
0003c0 df 6d d7 bb 54 d8 83 bc 58 23 03 3d 5e 45 12 3d
       -0.006574377 -0.016094364 0.03201613 0.035710685
0003d0 7c f9 22 3d 70 78 23 3c 8c 7d 82 bb 66 26 f7 3c
       0.039788708 0.009977445 -0.0039822515 0.030169677
0003e0 20 8d f3 bc 58 e3 7c 3c 0a 80 bb 3c f2 62 b8 3c
       -0.02973038 0.015435062 0.022888202 0.022508118
0003f0 1c 1e 3e 3b fc 4f f1 bc c4 57 ca bc d6 b9 21 bd
       0.0029009646 -0.029457085 -0.024700053 -0.039483868

layer2.0.weight f4 [84, 256]
000000 2a 8c 0e 3d b7 73 71 bd 26 bf 23 bc ec 5d 32 bd
       0.03480164 -0.058948245 -0.009994304 -0.043546602
000010 61 3a 5b 3d 7a 5e ca bc 0b ae 0e 3d 52 33 78 3d
       0.05352247 -0.024703253 0.03483395 0.060595818
000020 ba 77 fe bb 5a 57 f4 bc 39 9c 65 3d 87 93 f2 bc
       -0.0077657374 -0.029826809 0.05605719 -0.029611362
000030 65 0e 62 bc ea ed 08 3d e4 3f a0 3c d7 53 ee bc
       -0.013797377 0.033430018 0.019561715 -0.029092712
000040 cb 39 42 3d f9 74 fd 3c 00 2a 2d bd 8d 18 4e bd
       0.047418397 0.030939566 -0.042276382 -0.050316382
000050 c4 5b 2a bd 20 e2 8f bc 2d 15 81 3c a2 96 01 3b
       -0.04159142 -0.01756388 0.015757168 0.0019773622
000060 88 06 0d 3a 74 1d 3e 3d 26 04 62 3c df 9d c6 bc
       0.00053796964 0.046414807 0.013794934 -0.0242452
000070 bf 7f 05 bd 17 b3 fa bc ea 0a 27 3d 93 1a f8 3a
       -0.03259253 -0.030602975 0.040781893 0.0018928818
000080 53 28 7c 3d 1f 2c 6c 3d 0c 04 67 3d 32 1e 6e 3c
       0.061561894 0.057659265 0.056400344 0.014533566
000090 41 15 08 bc 68 9b 1d bc 7d 95 6f 3d 22 c7 0c 3d
       -0.008305849 -0.009619571 0.058492173 0.034369595
0000a0 a9 86 61 3d 2a 3c 52 3d 30 29 15 bd 23 29 ca 3c
       0.055060063 0.05132691 -0.036416233 0.024677819
0000b0 69 bf ed ba 15 f9 5e 3d 3b 7e e8 bc 56 2e 17 3d
       -0.001813871 0.054436762 -0.028380504 0.036909424
0000c0 d8 f9 d2 3b 09 2d 42 bd d7 f4 37 bd e6 55 75 3d
       0.006438475 -0.04740623 -0.04491123 0.059896372
0000d0 7a 3e 1b bd 16 33 ac 3b 03 b7 67 3d dc 68 00 3d
       -0.03790138 0.0052551134 0.056571018 0.03135
0000e0 81 ad 57 3d 9a 1c 73 bd de 99 27 3d a3 7a 1e 3c
       0.0526557 -0.05935345 0.040918224 0.009672794
0000f0 b2 11 49 bd bb a9 4e 3c a9 57 5d bb d8 db ab 3c
       -0.04908914 0.012613709 -0.0033774173 0.020978853
000100 25 5e 2b 3d 64 b9 63 3d f7 0f 6b 3d a4 1d 46 3d
       0.04183783 0.055596724 0.057388272 0.04836811
000110 5b 7d 28 bd 34 ba 01 ba fc e1 2c 3d 58 f4 51 3d
       -0.041135173 -0.0004948706 0.042207703 0.051258415
000120 d1 24 77 3b 16 90 6c bc 8a 90 27 3c 93 1d 8d bc
       0.0037711153 -0.01443865 0.010227332 -0.017226016
000130 61 ce 27 bc ea 34 07 3d 88 85 1b bd 9b 03 63 b9
       -0.010242076 0.033009447 -0.037969142 -0.0002164975
000140 0d 4b 26 3d 36 db 92 bc 77 4a 3f bd e6 7d 3d ba
       0.040598918 -0.017926794 -0.046701875 -0.0007228538
000150 f4 06 2d 3d 54 db 37 bb 3d a3 56 bc 24 c8 67 bd
       0.04224296 -0.0028054314 -0.0131004425 -0.056587353
000160 ea 89 85 bc c8 91 0e 3d 64 1d 68 3d e1 87 00 bb
       -0.016301114 0.034806997 0.056668654 -0.001961224
000170 01 6d 45 bd 73 6c 1c bc 83 14 1a 3c 55 b6 09 bd
       -0.048199657 -0.009547341 0.009404304 -0.03362115
000180 50 54 4b bd 70 ad 9a bc aa 5e ae bc 4c 55 59 3d
       -0.049640954 -0.01888153 -0.021285374 0.05305986
000190 d4 cb 5b bd d6 21 d1 3c 58 8a 5d 3d 2a 43 1b bd
       -0.053661183 0.02552883 0.054087013 -0.03790585
0001a0 66 2e 2c 3d 23 32 78 bd 3c c0 6c bd 10 07 18 bd
       0.042036436 -0.06059469 -0.057800516 -0.03711611
0001b0 31 96 3d bd 6d a4 3d 3d 8b 50 23 3c 52 d6 43 3b
       -0.04628581 0.046299387 0.009967933 0.0029882384
0001c0 38 d1 c0 3c 21 68 18 3d 91 27 0a 3d e2 83 ba bc
       0.023537263 0.03720868 0.03372914 -0.022767965
0001d0 1e c8 01 3d ac 7a 2b 3d 5c dc 4a bb 3c b4 2a bd
       0.031684987 0.041865036 -0.0030954098 -0.04167579
0001e0 35 88 7e bd b5 45 d5 bc 6c f3 cb 3a 55 e9 5e 3d
       -0.062141616 -0.026034215 0.0015560216 0.05442174
0001f0 9c 10 52 3d de a7 45 bb 25 52 7a 3c 35 aa b3 bc
       0.05128537 -0.003015987 0.015278374 -0.021931747
000200 ab 9a bf 3c 14 d8 3c bd 8f b9 29 3c 4c 29 71 bd
       0.023389181 -0.046104506 0.010359182 -0.058877274
000210 9b ba 1a 3d 76 31 7e 3b ab 21 35 bc fa f0 35 bd
       0.037775617 0.0038786805 -0.01105539 -0.044419266
000220 e1 09 93 bc 93 2d f7 bc 8b 7b 20 3d 1a f7 7d 3d
       -0.017949047 -0.030173099 0.03918032 0.062003233
000230 d8 f3 6b bd 3f f8 7d 3b a8 7f bc bc 50 09 d9 bb
       -0.057605594 0.0038752703 -0.02301009 -0.0066234246
000240 b0 29 d1 bc 1e 6d b1 bc 1b 60 a4 bc 10 a0 1a 3d
       -0.025532573 -0.021658476 -0.020065358 0.037750304
000250 41 20 de 3c 3f a5 1b bb 20 a1 17 bd b2 7c b7 3c
       0.02711499 -0.0023749617 -0.037018895 0.022398327
000260 37 e7 c3 bc f8 2a 27 bc da 40 8b 3c df c4 51 bd
       -0.023913963 -0.010203116 0.016998697 -0.05121314
000270 6e 7d 52 bd 3c 0a ae 3c 59 20 f5 3c 96 f5 39 3d
       -0.05138915 0.021245115 0.029922651 0.045400225
000280 e8 72 a9 bc 22 a1 eb 3c 9f 9e 5d 3a cc 3c 21 3c
       -0.020684674 0.028763358 0.00084541173 0.009841155
000290 f6 12 4f bc 20 32 9d 3c 09 a5 2b bd 14 98 a8 bc
       -0.012638798 0.01918894 -0.041905437 -0.020580329
0002a0 41 5e 67 3d a0 48 3b bd 33 46 28 3d c3 8e ce bb
       0.056486372 -0.045723557 0.041082572 -0.0063036396
0002b0 0b 4b fa bc 67 d4 05 3d 9c da a5 3a 9f d0 3a bd
       -0.030553361 0.032673266 0.0012653652 -0.045609113
0002c0 ac fd 01 3a d1 26 f1 3c d8 c3 55 3d 63 ba dc 3b
       0.00049587595 0.029437454 0.052188724 0.006736086
0002d0 12 dc 0e bd e2 3c b4 bc 7f 4f 59 3d 50 93 0a bc
       -0.034877844 -0.022001687 0.05305433 -0.008457974
0002e0 45 eb 7b bc 91 2f 8b 3b 49 c2 83 bd f0 a4 2a 3d
       -0.015375917 0.0042476137 -0.06433541 0.041661203
0002f0 ae c3 b2 3b 7d 4d 25 3d e4 39 94 3b 77 34 e2 bc
       0.0054554557 0.0403571 0.0045235027 -0.027612908
000300 83 22 23 3d 94 23 4e 37 b5 e6 63 bd 39 f1 69 bd
       0.039827835 1.22868405e-05 -0.05563994 -0.057114813
000310 79 bc 1c 3d 5f 58 54 bc 3f 46 4a 3d fc e9 6a bd
       0.03826568 -0.012960522 0.0493834 -0.05735205
000320 2f cb a3 bc b8 3e 88 39 52 37 56 3d 46 2d 4a ba
       -0.019994346 0.0002598667 0.05229885 -0.0007712435
000330 35 78 53 3d f2 32 c0 bb 85 23 19 bd aa 0d 19 bb
       0.05162831 -0.005865448 -0.03738739 -0.0023354092
000340 cb e1 04 bd 4a af 39 3d 53 1d 29 bb 6c dd b9 bc
       -0.032441895 0.045333184 -0.0025804832 -0.02268859
000350 b0 a7 e2 3c 90 d3 21 3d ed 3b 77 bd 7d 0a 1a 3d
       0.02766785 0.039508402 -0.060359884 0.03760766
000360 89 5f 96 bb f5 27 0c bd e0 80 4b bd 26 a4 c4 bc
       -0.0045890254 -0.034217793 -0.04968345 -0.024004053
000370 4c 2d 9c 3c fd 0e 65 37 77 2a 32 3c 62 18 07 3d
       0.019064568 1.3652953e-05 0.010874382 0.032982238
000380 ec 84 b7 3c a9 7f 09 3d 45 a5 5d bd 53 b0 f6 3c
       0.02240225 0.03356901 -0.05411269 0.030113375
000390 6a 1e d1 3c 66 c0 6e bd 66 f7 af bc 43 5d 53 3c
       0.025527198 -0.058288954 -0.021480273 0.012900653
0003a0 48 40 d4 bc 4b 30 40 3d 2e be a7 3b fa 4a 4c 3a
       -0.025909558 0.046921056 0.0051191067 0.0007793155
0003b0 bb c3 c8 3c 26 bf d3 bb 8d 94 a5 bc c7 fb 79 bd
       0.024507394 -0.0064619957 -0.020212436 -0.06103113
0003c0 21 4e a4 ba 6d 4d 86 bc da 3f cd 3c 80 fa 43 bd
       -0.0012535491 -0.016394341 0.02505486 -0.047846317
0003d0 5f 95 37 bd 00 40 e2 bb 0b 80 67 bc 6f f8 aa 3c
       -0.044820186 -0.006904602 -0.014129649 0.020870415
0003e0 c2 25 b1 3c 67 6f b8 bc b1 c0 05 bd 72 68 85 bc
       0.02162445 -0.022514058 -0.032654468 -0.016285155
0003f0 fc b2 f9 bc b4 5b 22 bd 82 8c d5 bc dd d4 16 bd
       -0.030480854 -0.039638236 -0.026067976 -0.036824096

layer2.0.bias f4 [84]
000000 fd cd 58 3b 85 3d a5 3b ed ee 6e 3c a6 2e 42 bd
       0.0033081763 0.005042734 0.0145833315 -0.04740777
000010 56 9c 5b bd a0 ba d6 bb 5b 56 4c 3c 61 0f 64 3c
       -0.05361589 -0.006553009 0.012471761 0.013919682
000020 8f ec 42 3d a4 06 51 bd df 2c a4 bc 54 e6 84 3c
       0.04758888 -0.051031724 -0.020040927 0.01622311
000030 be f0 4f bd 3c e0 ce bc 74 45 e7 3c f3 09 09 3c
       -0.0507667 -0.025253408 0.02823136 0.0083641885
000040 e3 ba b3 bc 89 c4 3e 3d e5 b5 e2 3c 68 99 b8 bb
       -0.0219397 0.04657415 0.027674625 -0.005633522
000050 c8 7c 7f bd 5e b3 1d 3b 26 f4 4a bd a2 a2 bb 3c
       -0.06237486 0.002406321 -0.049549244 0.022904698
000060 8f eb e1 3b 26 ed 99 3c 6b 69 e1 bc dd 3b c7 bc
       0.006894536 0.018789839 -0.027516088 -0.024320537
000070 c8 d0 be bc 92 04 a2 3c cd 32 1a bc 3c ea de 3c
       -0.023292914 0.01977757 -0.009411526 0.027211301
000080 14 76 ba bc 02 93 50 3d d1 df 6f bd af 21 29 3d
       -0.022761382 0.050921448 -0.058563057 0.04129189
000090 73 a0 24 bd 35 7e 83 bd da 02 16 bc 01 f3 60 3d
       -0.04019208 -0.064205565 -0.009155953 0.054919247
0000a0 93 d5 64 3b ec 65 f0 bc 58 bc 5d 3d 46 d9 5a 3d
       0.003491734 -0.029345475 0.054134697 0.053429864
0000b0 fa 0c 13 bd 88 50 06 bd f8 8f c9 bb 80 77 6b bc
       -0.035901047 -0.032791644 -0.0061511956 -0.014371753
0000c0 03 b1 26 bd d7 4a b4 3b 4b c3 6d bc b9 9a c9 3b
       -0.040696155 0.0055020857 -0.0145118935 0.0061524776
0000d0 be 86 2e 3d 90 47 a5 3c 42 ca 31 3d 0a 5a 2f bd
       0.04260897 0.020175725 0.04340578 -0.042810477
0000e0 c0 19 2b 3d 08 fc 75 3c 98 88 47 bc d3 cb 0c bc
       0.041772604 0.015013702 -0.012178563 -0.008593517
0000f0 68 34 b1 bc e8 4f 64 bb 2e 09 62 3d 9b 91 0a bd
       -0.021631435 -0.0034837667 0.055184536 -0.033830266
000100 d1 18 55 3d 6d fd 0e bd 27 f4 7d 3d 09 15 2a 3d
       0.05202562 -0.034909654 0.06200042 0.041523967
000110 57 38 3d 3c ba a3 7d bd 69 e4 44 3d 6c 0e 03 bd
       0.011549077 -0.06192372 0.04806939 -0.031996176
000120 e1 1f 6d bd c7 37 48 bd 23 7e 6f bd 9f 0e fd bc
       -0.05789173 -0.04888132 -0.058469903 -0.030890761
000130 6b aa 65 3d f0 22 0a 3d 23 c6 63 bd 1a e7 6a bd
       0.056070726 0.033724725 -0.05560888 -0.057349302
000140 34 e2 3f bd f9 81 16 bd bd 04 ca bc 63 34 af 3b
       -0.046846583 -0.036745045 -0.024660463 0.005346821

layer3.0.weight f4 [8, 84]
000000 ce 3c 92 bd 2b ed 04 bc cb b1 83 bd 95 9f a0 bd
       -0.07140504 -0.008113186 -0.06430396 -0.07842938
000010 95 4f c3 bd aa 34 95 3c e1 a6 64 bd 1c d2 7a bd
       -0.095366634 0.018213589 -0.05582321 -0.061235532
000020 93 33 06 bd c0 1c cc 3c 45 6a 89 bd 57 2a fb 3c
       -0.03276403 0.024916053 -0.067097224 0.030659838
000030 64 17 fa bc d7 d8 c9 bc cd 05 c0 3c d3 68 a8 bc
       -0.030528732 -0.02463953 0.023440266 -0.020557797
000040 6f 27 d9 bd e8 98 5b bd 09 e8 ce 3d 22 8e d2 bd
       -0.106032245 -0.05361262 0.10102851 -0.10281016
000050 c3 03 c3 bd 0e b3 df bc a5 4e 3d bd 83 c7 c4 bd
       -0.09522202 -0.02730706 -0.04621758 -0.09608366
000060 95 a2 96 bd 9e 83 b8 bc 45 9d 20 bd 97 7f 1c 3d
       -0.07355229 -0.022523697 -0.039212484 0.038207617
000070 fb bc 89 bd f2 01 87 bc 5e 6b c3 bd 74 b4 dd 3c
       -0.06725498 -0.01648042 -0.09541963 0.027063586
000080 11 f6 83 3d b4 9e c3 3d be 81 ab 3d cf 14 d3 bc
       0.06443418 0.095517546 0.08374356 -0.025766758
000090 70 41 66 3d 8e 93 94 bd 6c d5 f1 3a 49 71 2b bd
       0.05621475 -0.07254706 0.0018450445 -0.041856084
0000a0 1f 79 dd 3d 20 26 38 bd 08 6c 38 3c a2 1b c6 bb
       0.10814118 -0.044958234 0.011256225 -0.0060457746
0000b0 a0 cb a2 3d 1c 6b 9c bc 50 bb 93 bc fc 9c a5 bc
       0.07948995 -0.019094042 -0.018033653 -0.020216458
0000c0 02 b5 94 bd 25 d4 9d bc d7 8e 29 bd 34 ea a7 3d
       -0.07261087 -0.019266197 -0.04139599 0.081989676
0000d0 da f4 dc 3c e0 40 bd bd 41 f2 af bd 45 b4 53 bd
       0.026972223 -0.092408895 -0.08591128 -0.05168559
0000e0 8c 3d a9 bd 1a e3 87 bd b7 5b 11 3d b1 43 ac 3c
       -0.08263692 -0.06635113 0.035487857 0.021028372
0000f0 5f 58 a3 3c a3 f0 15 bd f1 dd 4a 3c 6c 6e be bd
       0.0199396 -0.036606442 0.0123820165 -0.09298405
000100 4c 2e 97 3d 07 e4 40 3d 9a e9 a8 bd 0b 22 f1 bc
       0.07381877 0.047092464 -0.08247681 -0.029435178
000110 7c d4 94 bd e9 48 bc ba 00 84 a7 3d 33 0d 7b 3d
       -0.07267091 -0.0014364991 0.08179474 0.061291885
000120 e5 c8 a3 3d 5d ff 56 3c 9d c1 31 3d 3d 8a 72 bd
       0.07997302 0.013122407 0.043397535 -0.059213866
000130 f4 d0 85 bd bd a0 60 3d 9f 4a 9c bd 87 b0 25 b9
       -0.06533995 0.054840792 -0.0763142 -0.00015801388
000140 9c c1 d9 bc ce 8c 99 3c 60 0c a4 bd 78 a1 e1 3c
       -0.026581578 0.018743899 -0.08010173 0.027542815
000150 07 9f ce 3d cd 92 8f 3d cc a3 5e 3d 72 aa de bd
       0.10088926 0.07010422 0.054355428 -0.108723536
000160 7a 24 c5 3d f6 3a 60 bb 78 84 ff 3b 85 bb a2 3c
       0.09626098 -0.003421483 0.007797774 0.019864807
000170 91 86 b8 bb 85 69 b0 bd 65 af d0 3d 99 a5 c8 3d
       -0.005631276 -0.08613876 0.10189704 0.0979721
000180 cc b6 34 bd 02 87 96 bd 70 a3 20 bd 4e 0a a6 bc
       -0.04411964 -0.073499694 -0.039218366 -0.020268586
000190 46 00 77 bd 1a b9 eb bc 86 91 06 bd a7 1a 56 bd
       -0.060302995 -0.028774787 -0.032853626 -0.05227151
0001a0 be bd 29 bd 61 6a 3b 3d 5a 72 bb bd 54 dc c5 3d
       -0.041440718 0.045755748 -0.0915267 0.09661165
0001b0 60 6a 68 bd 57 dd 1b 3d ee e1 bf bd cc d8 ae 3d
       -0.056742072 0.038052883 -0.093692645 0.085374445
0001c0 f7 b0 95 3d 34 96 8d bd bb 88 a2 bc 32 4f 8b 3d
       0.07309144 -0.069134146 -0.019840589 0.06802215
0001d0 1b e4 00 3d 39 d6 21 3c f6 24 d5 bd 88 7f b1 ba
       0.03146754 0.009877735 -0.1040744 -0.0013542036
0001e0 14 5a b0 3d 2a b1 14 bd e9 70 6f bc 0f 5a ef 3c
       0.08610931 -0.03630177 -0.014614322 0.029217748
0001f0 60 62 ce bc b2 89 91 3c 3c 81 88 3d a3 16 89 3d
       -0.025193393 0.017765854 0.066652745 0.06693771
000200 d1 7d 4e 3c a5 60 98 bd 3b e7 88 3d e2 4b 37 bd
       0.012603239 -0.074403085 0.06684729 -0.044750102
000210 ee 44 82 bd 75 e4 13 bd 52 7b 35 bd 26 69 a7 3d
       -0.063608035 -0.036106545 -0.04430706 0.08174352
000220 56 dc 5e 3d b1 83 01 bc fe 5c d5 3d 5f 3f c3 bd
       0.054409347 -0.007904933 0.104181275 -0.095335715
000230 1a 13 02 bd 4b a3 9c 3d 51 b6 d7 bc 6c 4f 4c 3d
       -0.031756498 0.07648333 -0.026332052 0.04988043
000240 52 40 4c 3d f2 5d 6f bd 3f 3e 3a 3d 2a eb 61 3d
       0.049866028 -0.058439203 0.04546952 0.05515591
000250 e4 97 60 bc c1 95 9e bd 3b ed f8 3c 51 c9 e8 bc
       -0.013708089 -0.07743407 0.030386558 -0.028416308
000260 5e b5 56 3c 4e 1e ce bd 71 bf c2 bd e6 ee c8 3d
       0.013104765 -0.10064374 -0.09509171 0.09811191
000270 cf 18 0d 3d 93 8e bd 3d 54 1e 5a bd 6a 7b 83 3d
       0.034447487 0.092557095 -0.05325158 0.06420024
000280 e1 08 b7 bd 23 29 21 3d 09 ef 6b 3d ce bf d8 3c
       -0.089372404 0.03934587 0.05760101 0.026458647
000290 47 fc c8 bd 87 e7 d8 bd 6f 63 85 3d d3 03 30 3d
       -0.09813743 -0.10591035 0.06513106 0.042972397
0002a0 86 09 4f 3d 26 57 d1 3d 79 68 cc bd 35 f0 54 bd
       0.05054619 0.102217 -0.09980864 -0.05198689
0002b0 c9 c0 d1 bc ed e1 da 3c b1 86 37 bc 85 c2 8e 3d
       -0.025604622 0.026719058 -0.0112015465 0.069706954
0002c0 b8 6c ca bd c8 91 43 bd 59 c5 6f bd 3b 0b 94 3d
       -0.09884018 -0.04774645 -0.058537815 0.072287045
0002d0 23 db b4 3d c5 44 ac 3d 6c 3f 4c 3c 73 e4 f1 bb
       0.088308595 0.08411554 0.012466293 -0.0073819696
0002e0 f8 3d 26 bd 20 7d d9 3d 9f d0 73 bd 9f b1 87 3d
       -0.04058644 0.10619569 -0.05952513 0.066256754
0002f0 3c d4 da 3c 07 5e 3e bd 42 ad 79 3d f5 fb c2 3d
       0.02671253 -0.04647639 0.060956247 0.09520713
000300 5f ad 15 bd 76 1b e3 3c c2 b9 14 3d 21 0d af 3d
       -0.036542293 0.027723055 0.036309965 0.08547426
000310 21 41 95 bd 26 eb 7e bd dd b0 8f bd 27 f5 17 bd
       -0.07287813 -0.062235974 -0.07016156 -0.03709903
000320 e1 17 a3 bd 1a ae a7 bd 42 f6 23 bc 45 9b d0 bd
       -0.07963539 -0.08187504 -0.010007443 -0.10185865
000330 35 19 5c 3d 9f b6 c7 3c 9a 5a 53 3c d4 14 6c 3d
       0.053734977 0.024379073 0.012900019 0.05763705
000340 f4 57 33 bd 0a 8a ad 3d 5c ef a9 3c 52 75 a0 3d
       -0.04378505 0.084735945 0.020744018 0.07834877
000350 ad ec 8b 3d 99 3a 76 3d a8 31 41 bd c5 84 c5 bd
       0.06832252 0.060114477 -0.047166497 -0.096444644
000360 4e 31 f3 3c eb 48 cf 3d 97 21 02 bd de 63 33 3c
       0.029686596 0.1012133 -0.031770315 0.010949103
000370 b0 a5 2a 3d bb 1e 7d bd 1d 21 75 3d d1 e4 7e bd
       0.04166192 -0.061796885 0.059846032 -0.062229935
000380 d5 d5 8a bd b8 09 ac bd 58 5a 86 bd a2 15 a0 bd
       -0.067790665 -0.08400291 -0.065602005 -0.07816626
000390 e5 df bc 3c be 94 d7 3d d7 f3 d8 3d fa 18 03 3d
       0.02305598 0.10526417 0.10593384 0.03200624
0003a0 56 ca d4 3c 43 63 43 bd 36 e1 c6 bd ea d8 5f 3b
       0.025975388 -0.047702085 -0.09710924 0.003415639
0003b0 f4 95 31 3d 6e 97 a4 3d 54 a5 86 bd df 51 ca bd
       0.043355897 0.080366954 -0.065745026 -0.09878897
0003c0 cc db 08 ba 10 0b 59 3d c1 51 e9 bc d5 d4 c4 3d
       -0.00052207406 0.052989066 -0.028481366 0.09610907
0003d0 fe 94 79 bd 3d 61 b0 3c 18 73 75 3d 21 55 cc 3d
       -0.060933106 0.021530742 0.059924215 0.099771746
0003e0 a2 9c 01 bd 13 77 f2 3c 6b 2d 43 bd 94 5d d4 3d
       -0.031643517 0.029597795 -0.047650736 0.10369411
0003f0 d9 f7 71 3d 7f 9c be 3b 39 21 9c bd 93 ca 33 bd
       0.059074257 0.0058169956 -0.07623524 -0.04389436

layer3.0.bias f4 [8]
000000 f3 72 44 3d af 3b 8f 3c e1 3a 9a 3d 90 bc 82 bd
       0.047961187 0.017484514 0.075307615 -0.06383622
000010 e3 6a b1 3d 34 b8 a0 bc 7d 89 8e 3d f8 e3 3e 3d
       0.08662965 -0.019619085 0.069598176 0.046604127
