DigitalRecognition-master/model_params/GDUT_net_all_7.pt (torch, 665623 bytes, 6 tensors)

layer1.0.weight f4 [256, 560]
0	0x3d2bebea	0.041973032
1	0xba737700	-0.0009287447
2	0x3bfe8128	0.0077668615
3	0xbcd1b758	-0.02560012
4	0x3ca1db30	0.019757837
5	0xbd28f9e3	-0.041253936
6	0x3c27094c	0.010195088
7	0x3c0e7520	0.008694917
8	0xba6988a1	-0.0008908604
9	0xbb961d68	-0.004581142
10	0xbc0594d3	-0.008153158
11	0xbc9782b5	-0.018494943
12	0xbc9284d8	-0.01788561
13	0xbbf4a9c0	-0.007466525
14	0x3cd3a558	0.025835678
15	0xbccd6c51	-0.025076063
16	0x3d2c31a0	0.042039514
17	0x3ca8a34c	0.020585679
18	0xbcf78da8	-0.030218914
19	0xbd0511b6	-0.032487594
20	0x3d27debc	0.0409839
21	0xbc639f30	-0.013892934
22	0xbcd4b26f	-0.02596399
23	0x3d274d5c	0.04084526
24	0x3d0ef78c	0.034904048
25	0x3be66f7c	0.007032333
26	0xbcec6719	-0.028857755
27	0xbcd86785	-0.02641655
28	0xbcd031f4	-0.025414445
29	0x3ca91515	0.020639936
30	0x3c40e4fb	0.011773343
31	0xbc0f7241	-0.008755268
32	0x3d127b7e	0.035762303
33	0xbd1f8993	-0.03894956
34	0xbcc80ba4	-0.024419613
35	0x3cd727bc	0.026264064
36	0x3d027aae	0.031855278
37	0xbd05440c	-0.032535598
38	0x3c3da2fc	0.011574503
39	0x3c4851cc	0.012226533
40	0x3c264c94	0.010150094
41	0x3c09ff1c	0.008422639
42	0xbc002c40	-0.00782305
43	0x3c0fa824	0.008768115
44	0x3ca29729	0.01984747
45	0xbcd24c6f	-0.025671212
46	0x3bf34b0f	0.007424719
47	0x3cdeb95e	0.027188
48	0xbc44c93a	-0.012010867
49	0xbc001742	-0.007818045
50	0x3d11dee9	0.035612974
51	0xbc2497be	-0.010045944
52	0x3d114a95	0.035471518
53	0xbcf14f92	-0.029456887
54	0xbd261305	-0.040545482
55	0x3c960ca9	0.018316584
56	0x3ccbeb64	0.024892516
57	0x3b6e0230	0.0036317222
58	0xbae8d7c0	-0.0017764494
59	0x3b368660	0.002785109
60	0x3b8897f8	0.0041685067
61	0xbc962f76	-0.018333178
62	0x3d22945a	0.03969226
63	0xbb0012b0	-0.0019542389
64	0x3d18ff65	0.03735294
65	0x3d05409a	0.032532312
66	0xbcdf7ff6	-0.027282696
67	0xbbece522	-0.007229463
68	0xb9ca358a	-0.00038568332
69	0xbd0994df	-0.03358924
70	0xbd027eef	-0.031859335
71	0xbc81f21c	-0.015862517
72	0xbcd44a45	-0.02591432
73	0xbb066268	-0.0020505432
74	0x3cbccc6d	0.023046697
75	0x3cf0528c	0.029336236
76	0xbb647900	-0.003486216
77	0x3d229472	0.03969235
78	0x3beed000	0.007287979
79	0xbcc067fd	-0.023487085
80	0xbcd83f6b	-0.026397428
81	0x3c257458	0.010098539
82	0x3cfadacc	0.030621909
83	0x3bc4efa8	0.0060100146
84	0xbc18aad3	-0.009318071
85	0x3ccf0df2	0.025275204
86	0x3ce22d62	0.02760953
87	0xbaa187cc	-0.0012323796
88	0x3d112a9d	0.03544103
89	0x3cabeed5	0.020987907
90	0xbced58a8	-0.028972939
91	0x3cb43331	0.021997066
92	0x3d2c117a	0.042008854
93	0x3b8d10d2	0.0043049837
94	0x3ab6ec54	0.0013955929
95	0xbc469cc2	-0.012122335
96	0x3d29d768	0.041465193
97	0x3cc25448	0.023721829
98	0x3cb5724c	0.022149228
99	0x3d085098	0.033279985
100	0xbd0b191b	-0.03395949
101	0xbcf4c3b6	-0.029878478
102	0xbc0c8888	-0.008577473
103	0xbcad5c15	-0.021162072
104	0xbcabd24b	-0.020974299
105	0xbb24e027	-0.002515802
106	0xbcc0d968	-0.023541167
107	0x3d1daf9d	0.038497556
108	0xbc86a8d7	-0.016437931
109	0x3bbbd0f4	0.0057316963
110	0xbd0e1955	-0.034692127
111	0x3c6c0001	0.014404298
112	0x3d20b284	0.039232746
113	0xbd1c5d7c	-0.03817509
114	0x3cb4f255	0.02208821
115	0x3cbf1495	0.023325244
116	0x3c9d1e60	0.019179523
117	0x3b801958	0.003909271
118	0xbd20c626	-0.03925147
119	0xbd23c135	-0.03997918
120	0x3b9d6230	0.0048029646
121	0x3ba11640	0.0049159825
122	0x3d149b88	0.03628114
123	0x3af7af60	0.001889687
124	0xbce5ce3b	-0.02805244
125	0x3d0894a4	0.03334488
126	0xbc30df30	-0.0107954
127	0x3cc84772	0.02444813
128	0x3c792931	0.015207575
129	0xbca4eae2	-0.020131532
130	0xbc5dc5b4	-0.013535906
131	0xbc91c4ff	-0.01779413
132	0xbd03e09d	-0.03219663
133	0xbbe4d99b	-0.0069839484
134	0xbcfe5da8	-0.031050518
135	0x3cd6cfe5	0.026222179
136	0xbcb41d61	-0.021986665
137	0x3d1be7e0	0.03806293
138	0xbd1c3298	-0.038134187
139	0xbd08f5d2	-0.033437558
140	0x3c240da8	0.0100130215
141	0xbc02901c	-0.007968929
142	0x3d26f608	0.040761977
143	0xbcda00db	-0.026611736
144	0x3ceb5322	0.028726164
145	0x3d008bc8	0.031383306
146	0xbc39431e	-0.011307506
147	0xbcaf61fc	-0.021409027
148	0xbd05923a	-0.032610156
149	0x3b68c85a	0.003551981
150	0x3c746c74	0.014918435
151	0xbbf31628	-0.0074184127
152	0x3b97f46d	0.004637292
153	0x3c81b882	0.01583505
154	0x3d19a2e8	0.037508875
155	0x3d2f5020	0.042801023
156	0x3c392f29	0.011302748
157	0x3d2f4e38	0.042799205
158	0x3d0abfd8	0.033874363
159	0x3ace4840	0.0015738085
160	0x3cd706e8	0.02624841
161	0x3d281fbc	0.04104589
162	0xbd0b5fe4	-0.034026995
163	0xbb43f218	-0.0029898938
164	0xbb44127f	-0.002991825
165	0x3c002fb6	0.007823875
166	0xbce4c91d	-0.02792793
167	0x3cae100b	0.021247884
168	0xbd1d5d9b	-0.038419347
169	0xbd2314f7	-0.039814916
170	0x3c5e0cc8	0.013552852
171	0xbd2706da	-0.04077802
172	0xbccdc964	-0.025120445
173	0xbbe1af65	-0.0068873637
174	0x3d2fa961	0.04288614
175	0x3d28f22d	0.04124658
176	0x3cca7e1b	0.024718335
177	0x3d1c82a2	0.03821052
178	0xbd0e4489	-0.03473333
179	0x3b469420	0.0030300692
180	0x3d0cfb08	0.03441909
181	0xbd15805e	-0.036499374
182	0x3bf08ea8	0.0073412247
183	0x3d115bbe	0.035487883
184	0xbce03a26	-0.027371477
185	0x3d045f2e	0.032317333
186	0xbd283d8a	-0.041074313
187	0x395b6ebd	0.00020926721
188	0x3bfc8357	0.0077060866
189	0xbb4190a6	-0.002953568
190	0x3d1165c2	0.035497434
191	0xbd0aecfb	-0.03391741
192	0xbc967f5c	-0.018371277
193	0xbd174ad7	-0.036936607
194	0xbd05ff4d	-0.032714177
195	0x3a57cfa7	0.0008232542
196	0xbb97fc4d	-0.004638231
197	0xbd215db0	-0.039395988
198	0xbcc2d4c8	-0.023783103
199	0x3cadd25c	0.021218471
200	0xbc902258	-0.017594501
201	0xbce6c18e	-0.028168466
202	0xbce5474c	-0.027988099
203	0x3d3276d4	0.043570355
204	0xbd196b3b	-0.03745578
205	0x3cd09849	0.02546324
206	0x3b1d02f1	0.0023958052
207	0x3cb74dbf	0.02237594
208	0x3cd52033	0.02601633
209	0xba9ee54e	-0.0012122781
210	0xbc935e5b	-0.017989328
211	0xbcb2d1b2	-0.021828506
212	0xbd205eb0	-0.0391528
213	0x3cf18f40	0.029487252
214	0xba892844	-0.0010464271
215	0x3ca50bb6	0.020147186
216	0xbce7606c	-0.02824422
217	0x3d1112cf	0.035418328
218	0xbc495edf	-0.012290685
219	0xbba0c193	-0.0049058883
220	0x3d097c3c	0.033565745
221	0x3d0ba19a	0.034089662
222	0x3c4b47e8	0.0124072805
223	0xbcdb14f7	-0.026743395
224	0x3c1eb132	0.009685801
225	0x3c5001a2	0.012695702
226	0x3d283930	0.041070163
227	0x3c75487b	0.014970894
228	0x3cd87670	0.026423663
229	0x3cc40708	0.023929134
230	0xbca85e61	-0.020552816
231	0xbca8a3f0	-0.020585984
232	0x3c0bab9a	0.0085248
233	0xbce9b294	-0.028527535
234	0x3d2fd393	0.042926382
235	0xbced2eb8	-0.028952941
236	0x3cf2049d	0.029543215
237	0xbd18d811	-0.037315432
238	0xbc12ab7d	-0.008952019
239	0xbd2176f1	-0.039420072
240	0x3cd96ae0	0.02654022
241	0xbcaeb40a	-0.021326084
242	0x3c9e88f8	0.019352421
243	0x3d1ac1d0	0.03778249
244	0xbd176ab6	-0.036967
245	0xbc65a0ca	-0.014015386
246	0xbb098307	-0.002098264
247	0xbbdd381d	-0.006751074
248	0x3cc94290	0.024567872
249	0xbc7284ee	-0.014802201
250	0x3cef7f09	0.02923538
251	0xbbbd608d	-0.005779332
252	0xbcdca284	-0.026932962
253	0x3caa4a6b	0.020787438
254	0xbd0d28e9	-0.034462843
255	0xbc4ddde7	-0.012565113

layer1.0.bias f4 [256]
0	0xbccad503	-0.024759775
1	0x3c1b8de7	0.009494281
2	0xba84d2db	-0.0010133641
3	0xbca3548b	-0.019937774
4	0xbc923e64	-0.017852016
5	0xbd040938	-0.032235354
6	0x3d1afe98	0.037840456
7	0x3c0e3a19	0.008680844
8	0x3c53acb8	0.012919597
9	0x3c8449ed	0.016148532
10	0xbd08fd1b	-0.033444505
11	0xbd2043fd	-0.03912734
12	0xbcb663f1	-0.022264453
13	0x3d075b6e	0.03304618
14	0xbc12b973	-0.008955347
15	0xbcc81462	-0.024423782
16	0x3d2e1bcb	0.042506974
17	0xbd0705f2	-0.032964654
18	0x3c62ea85	0.013849859
19	0xbc9fd3d6	-0.019510191
20	0x3ceea212	0.029130016
21	0x3c8522ee	0.016252007
22	0xbd161ba8	-0.03664747
23	0x3d0c0fd7	0.034194794
24	0xbc323dba	-0.010878975
25	0xbc206af3	-0.009791124
26	0x3d136c5a	0.035992004
27	0x3d0dd8d2	0.034630604
28	0x3ba50ea4	0.0050371457
29	0xbd1186c3	-0.03552891
30	0x3ce32933	0.027729606
31	0x3c9b48a3	0.018955534
32	0x3cc4c1cb	0.024018189
33	0x3a5b5fe1	0.0008368474
34	0xbb8042da	-0.0039142193
35	0xbcaeacca	-0.021322627
36	0x3cc39aa2	0.023877446
37	0x3d166247	0.03671482
38	0x3c27929f	0.010227828
39	0x3c897c1c	0.016782813
40	0x3d188f73	0.03724618
41	0xbcae508f	-0.021278648
42	0xb9b7c9cf	-0.0003505484
43	0xbc2ba0d2	-0.010475354
44	0xbb9cd26f	-0.004785828
45	0xba17fceb	-0.00057978806
46	0x3d05a348	0.03262642
47	0x3c9add78	0.018904433
48	0xbc156b9a	-0.0091198925
49	0x3d019f5a	0.03164611
50	0xbcbc3cd7	-0.02297823
51	0xbc799abc	-0.015234645
52	0xbd2bb90b	-0.041924518
53	0x3bad4938	0.0052882694
54	0xbc6685de	-0.014070002
55	0xbcc7951a	-0.02436309
56	0x3cec9153	0.02887789
57	0xbd172004	-0.036895767
58	0xbc9dad6e	-0.019247737
59	0x3c064b74	0.0081967
60	0x3c1d56d4	0.009603221
61	0x3d0c9082	0.0343175
62	0x3c1873ba	0.009304935
63	0x3bf38552	0.0074316645
64	0xbc590fb5	-0.013248374
65	0x3ca7304f	0.020408778
66	0x3cdf171b	0.027232697
67	0xbac88fcd	-0.0015301645
68	0xbc63e20a	-0.013908872
69	0xbcd6471b	-0.026156953
70	0x3c3b3b06	0.0114276465
71	0x3cb54c67	0.022131158
72	0xbcf219cc	-0.029553317
73	0xbd14b833	-0.03630848
74	0xbcf695d2	-0.030100737
75	0x3d1021d7	0.035188522
76	0xbd27217a	-0.04080341
77	0x3c3aefe3	0.0114097325
78	0x3ceb9a3e	0.028760072
79	0xbcd01eec	-0.02540537
80	0x3be34255	0.0069353976
81	0xbcda3f32	-0.026641462
82	0xbc0d9709	-0.008641967
83	0x3b62a830	0.003458511
84	0xbd0ea417	-0.034824457
85	0x3d1403fe	0.03613662
86	0x3cc6826d	0.024232114
87	0xbd0565b3	-0.03256769
88	0xbbe95500	-0.0071207285
89	0xbb29c248	-0.0025903154
90	0xbd05691a	-0.032570936
91	0xbd1fa11f	-0.038972016
92	0x3c8f13ff	0.01746559
93	0xbcc80ac0	-0.024419188
94	0x3d1c7da4	0.038205758
95	0xbd22d636	-0.03975507
96	0xbce31d76	-0.027724009
97	0xbcf05552	-0.029337559
98	0x3befe9e0	0.0073215812
99	0xbc03c28e	-0.008041991
100	0x3b00c3a9	0.0019647873
101	0x3cd966b8	0.026538238
102	0x3bd6d70c	0.0065563973
103	0xbcb44d66	-0.022009563
104	0x3c1e85a2	0.009675415
105	0x3be713a1	0.0070519005
106	0x3c976ec7	0.01848544
107	0xbc88dc63	-0.016706651
108	0xbcc0e960	-0.023548782
109	0x3af73487	0.0018860259
110	0x3ce6b95a	0.028164554
111	0x3c9042ff	0.017610071
112	0xbbe01dd8	-0.006839495
113	0xbcd41c33	-0.025892353
114	0x3d2a6a18	0.041605085
115	0x3d1c761f	0.038198587
116	0x3d1bb941	0.03801847
117	0x3c8640f6	0.016388398
118	0xbc835c14	-0.016035117
119	0xbcb4fd61	-0.022093477
120	0x3c125a36	0.008932641
121	0x3cec2e87	0.02883078
122	0x3cd02004	0.025405891
123	0xbbd04048	-0.006355319
124	0xbd18a51b	-0.03726683
125	0xbd1bfb21	-0.038081292
126	0x3cdedfbe	0.027206298
127	0x3cfe0b78	0.031011328
128	0x3ca9a57c	0.020708792
129	0xbc3baf4d	-0.011455369
130	0xbd1b14b0	-0.037861526
131	0x3cfa1611	0.0305281
132	0x3d0b5d74	0.03402467
133	0x3d006e64	0.031355277
134	0xbc2019de	-0.009771792
135	0xbcfcbb25	-0.030850956
136	0xbd2e2659	-0.04251704
137	0xbc871634	-0.01649008
138	0xbcdf3f79	-0.027251946
139	0xbce4f7ee	-0.027950253
140	0xbd250807	-0.04029086
141	0x3c3337a0	0.010938555
142	0xbd0778e4	-0.033074275
143	0x3cc06449	0.02348532
144	0xbd1acea7	-0.037794735
145	0xbc9389d4	-0.018010058
146	0x3d1729bc	0.036905035
147	0x3c8a0582	0.01684833
148	0xbb63ddbb	-0.0034769613
149	0x3d126fc8	0.035751134
150	0x3ccfda7e	0.02537274
151	0xbce99448	-0.028513089
152	0xbcee7e97	-0.029113097
153	0x3cac58fe	0.021038529
154	0xbce16fd9	-0.027519153
155	0xbd0c8231	-0.034303848
156	0xbd106c47	-0.03525951
157	0x3c8f7288	0.017510667
158	0xbca90c43	-0.02063573
159	0xbcac71cb	-0.021050354
160	0x3caf0c34	0.021368124
161	0x3c8993f1	0.016794177
162	0xbcc540ac	-0.02407869
163	0x3ce209d7	0.027592583
164	0x3c0b7cce	0.0085136425
165	0xbb2c3a43	-0.0026279844
166	0xbcf5c47c	-0.030000918
167	0xbbfddd74	-0.0077473465
168	0x39e69dcd	0.0004398659
169	0x3cf2e3e5	0.029649684
170	0x3c93ea6d	0.018056119
171	0x3d167112	0.036728926
172	0x3cdf2660	0.027239978
173	0xbb819cdd	-0.003955467
174	0xbd196859	-0.03745303
175	0xbc4973e4	-0.012295697
176	0xbc32fac7	-0.010924048
177	0x3ce019a6	0.02735598
178	0xbc3a3012	-0.011364
179	0x3c005474	0.007832635
180	0xbcf056da	-0.029338289
181	0x3d0aae43	0.033857595
182	0xbc96bc97	-0.018400474
183	0xbc973f76	-0.018462878
184	0x3c04ba70	0.008101091
185	0x3cd430d6	0.025902193
186	0x3bd96e45	0.0066354596
187	0x3cdf7839	0.027279006
188	0xb9459e14	-0.00018846273
189	0x3ce57283	0.028008705
190	0xbd2d56c5	-0.042319078
191	0x3d2e1290	0.04249817
192	0x3d14f8e2	0.036370166
193	0x3c887ed8	0.016662046
194	0x3c8186ad	0.015811289
195	0xbcda740c	-0.026666664
196	0xbc675834	-0.01412015
197	0xbc4014dc	-0.011723723
198	0xbc491425	-0.012272869
199	0x3cf9f65a	0.030512977
200	0xbd261c5e	-0.040554397
201	0xbb0193c7	-0.001977192
202	0xbd001017	-0.031265344
203	0x3d21d847	0.0395129
204	0xbd16fa27	-0.036859658
205	0x3cf7f1f5	0.030266741
206	0xbd08ce39	-0.033399794
207	0xbd09b34f	-0.033618268
208	0xbc98b282	-0.018639807
209	0xbd25b096	-0.04045161
210	0xbbb1cfc0	-0.005426377
211	0x3d1cfd12	0.038327284
212	0x3cc14063	0.023590272
213	0xbc9c6858	-0.019092724
214	0x3cbb477a	0.022861231
215	0xbc4d301d	-0.012523678
216	0x3c2f065c	0.010682669
217	0xbcf804b2	-0.030275676
218	0xbd06492d	-0.03278463
219	0xbc9d5036	-0.019203287
220	0x3c44a961	0.012003274
221	0xbd0f7dc6	-0.035032056
222	0x3cad6fc9	0.021171467
223	0x3c7aae7c	0.015300389
224	0xbcb3056f	-0.021853177
225	0x3bff59bd	0.00779268
226	0x3c62c1c3	0.013840142
227	0xbc80107f	-0.015632866
228	0x3d08f0e2	0.03343285
229	0xbb42e5e9	-0.0029739088
230	0xbcbb8260	-0.022889316
231	0x3cbd845b	0.023134401
232	0x3b9686bd	0.004593699
233	0xbce9dd10	-0.028547794
234	0xbc8b79ff	-0.017025946
235	0x3c8d443b	0.017244449
236	0xbd20e6c9	-0.039282594
237	0xbc70e35d	-0.014702645
238	0x3d18e620	0.03732884
239	0x3b20bb37	0.0024525651
240	0x3ce22112	0.02760366
241	0xbbaef86f	-0.005339674
242	0xbcdfbbda	-0.027311254
243	0xbd081345	-0.0332215
244	0xbad69833	-0.0016372263
245	0x3cf8d9bb	0.03037726
246	0xbcb8d9b3	-0.022564745
247	0xbc8d3310	-0.017236263
248	0xbcdbe687	-0.026843322
249	0xbcb34be9	-0.021886783
250	0xbb1c9003	-0.0023889549
251	0x3d119bb5	0.035548884
252	0xbd1242b0	-0.03570813
253	0xbd12e9af	-0.03586739
254	0xbd03fd41	-0.032223944
255	0x3c8fcc5a	0.017553497

layer2.0.weight f4 [84, 256]
0	0x3ba2fd2b	0.0049740276
1	0xbd576e47	-0.052595403
2	0xbb414dbb	-0.0029495794
3	0x3d1bafd4	0.03800948
4	0xbc74549e	-0.014912752
5	0xbb9c63c4	-0.004772635
6	0xbcc5fb90	-0.024167806
7	0x3d165b25	0.036708016
8	0x3d285c90	0.0411039
9	0x3d3e16c9	0.04640845
10	0x3d5324f8	0.051548928
11	0xbd4c73d8	-0.049915165
12	0x3ce52d7f	0.027975796
13	0xbd2f6ea2	-0.042830117
14	0x3d5455e2	0.051839717
15	0x3bd96131	0.0066339006
16	0xbcd2adce	-0.025717642
17	0xbd0d22ae	-0.0344569
18	0xbd5d3625	-0.054006714
19	0xbd14ebe1	-0.036357764
20	0x3d0f6dca	0.035016812
21	0xba7d2c16	-0.00096577534
22	0xbca6b1d4	-0.020348467
23	0x3d226eae	0.039656334
24	0xbd020e54	-0.031751946
25	0x3d4f9b26	0.05068507
26	0x3ca4b835	0.020107368
27	0x3d525d35	0.05135842
28	0xbca33b49	-0.01992573
29	0xbbbd0590	-0.0057684854
30	0xbb8e6557	-0.0043455767
31	0xbd14ac25	-0.036296982
32	0x3ce1db11	0.02757028
33	0xbd205d5c	-0.039151534
34	0xbcbbe119	-0.022934483
35	0xbc8fa7de	-0.0175361
36	0xbccf7a9a	-0.025327016
37	0x3cfc6e84	0.030814417
38	0xbd5942fc	-0.053042397
39	0x3d1582d5	0.036501724
40	0x3a8a314d	0.0010543257
41	0x3d4e8ff3	0.05043025
42	0x3d2395e0	0.039937854
43	0xbc7d150d	-0.015446913
44	0xbd021875	-0.031761605
45	0xbc0d7562	-0.008633943
46	0xbd26a021	-0.040680055
47	0x391b1360	0.0001478917
48	0x3b966870	0.0045900866
49	0xbc3a2126	-0.011360442
50	0xbd5e7e07	-0.054319408
51	0x3d403789	0.046927962
52	0x3c88cd34	0.016699411
53	0x3b1c27f8	0.0023827534
54	0x3d78890c	0.060677573
55	0x3d554b3c	0.052073702
56	0x3d50b3e6	0.050952815
57	0xbcf66048	-0.030075207
58	0xbcc1a4f5	-0.023638228
59	0xbc980195	-0.018555442
60	0x39a91060	0.00032246392
61	0x3d242f6e	0.040084295
62	0xbd48f698	-0.049063295
63	0xbc048088	-0.008087285
64	0x3d7cf320	0.0617553
65	0xbd72827c	-0.05920647
66	0xbd62d7fb	-0.055381756
67	0xbae6a7b4	-0.0017597587
68	0x3d08c8f0	0.033394754
69	0x3d3740ee	0.044739656
70	0x3c424704	0.011857752
71	0x3bfd70b3	0.007734382
72	0xbcc39e7d	-0.023879284
73	0x3d65f63d	0.056143034
74	0xbc4b6054	-0.012413103
75	0x3d8182f7	0.06323808
76	0xbd0c4eb2	-0.034254737
77	0x3c00b82a	0.007856408
78	0x3d0aeebe	0.03391909
79	0x3d4eaeb2	0.05045957
80	0x3c76cf70	0.015064105
81	0x3c94cb4e	0.01816335
82	0x3d357f5e	0.04431092
83	0xbc4bab78	-0.012431018
84	0x3d2c30fa	0.042038895
85	0xbd19727e	-0.037462704
86	0x3d532c32	0.05155582
87	0xbcceeeb7	-0.025260312
88	0xbd048939	-0.03235743
89	0x3d7fbb2d	0.062434364
90	0x3d47294c	0.04862337
91	0x3d07e6d5	0.033179123
92	0xbcab4860	-0.020908535
93	0xbc9750c6	-0.018471133
94	0x3d6bcb8e	0.05756717
95	0xbb8789eb	-0.004136314
96	0xbd5d5934	-0.05404015
97	0xbd2396d3	-0.03993876
98	0x3c3df7fd	0.01159477
99	0x3d0b6425	0.034031052
100	0xbd673101	-0.05644322
101	0xbd59498f	-0.053048667
102	0x3d252393	0.04031713
103	0x3a9cae76	0.0011953849
104	0xbd24d987	-0.040246513
105	0xbc3f9341	-0.011692823
106	0x3d6db789	0.05803636
107	0xbd402f26	-0.046919964
108	0xbc732eca	-0.014842698
109	0x3d6a0289	0.057131324
110	0xbcef35b7	-0.029200418
111	0xbd204500	-0.039128304
112	0xbd3cf496	-0.046131693
113	0x3c1f3ef0	0.009719595
114	0xbcd1af97	-0.025596423
115	0xbd1fa8ea	-0.03897945
116	0x3cc7f32d	0.024407947
117	0xbc150bc6	-0.009097045
118	0xbd0af59b	-0.033925634
119	0xba369501	-0.00069649523
120	0x3ce0c9de	0.027440008
121	0xbd8086c4	-0.062757045
122	0x3d0b3450	0.033985436
123	0x3ca20378	0.019777045
124	0x3d376bce	0.044780545
125	0x3d3c3b42	0.04595495
126	0x3cc1d983	0.023663288
127	0x3b5c1331	0.0033580775
128	0xbd1a6e91	-0.0377031
129	0x38df8fc7	0.00010660249
130	0x3ab273d9	0.0013614848
131	0xbd29beb3	-0.04144163
132	0xbceec9ee	-0.029149022
133	0xbd4828c1	-0.04886699
134	0x3b04de36	0.002027405
135	0x3d13560f	0.035970744
136	0x3d2bde3b	0.041959982
137	0x3c81ebf0	0.015859574
138	0x3c9ef596	0.019404214
139	0xbcd88a8b	-0.02643325
140	0xbc8c7363	-0.017144864
141	0xbd458182	-0.04821921
142	0xbd2241e7	-0.03961363
143	0x3d44d454	0.048054054
144	0x3b446433	0.002996695
145	0xbd48fe29	-0.04907051
146	0x3d1c9720	0.03823006
147	0xbcbac778	-0.022800192
148	0xbd2fb8c1	-0.042900804
149	0xbd31454e	-0.043278985
150	0xbd0129cc	-0.031534
151	0x3ccd60e6	0.025070619
152	0xbc8c7eec	-0.017150365
153	0xbd21d448	-0.039509088
154	0xbd5828f2	-0.052773423
155	0xbd000fa6	-0.031264924
156	0x3d47c8aa	0.048775353
157	0x3c16dca6	0.00920788
158	0xbd64df2a	-0.05587689
159	0xbcbf353c	-0.023340814
160	0x3c7e4b11	0.015520827
161	0x3d30b18d	0.043138076
162	0xbca9fe80	-0.020751238
163	0x3c48b916	0.012251159
164	0xbd2311f4	-0.039812043
165	0x3cf91edc	0.030410223
166	0xbd25b8a9	-0.04045931
167	0xbb4956c3	-0.003072188
168	0x3c14124a	0.009037564
169	0xbd6dc737	-0.058051314
170	0xbbe86c15	-0.0070929625
171	0x3ccfc345	0.025361666
172	0xbd4e77a7	-0.050407078
173	0x3cdfdd95	0.027327338
174	0xbb4f9290	-0.0031673051
175	0x3d4e7673	0.05040593
176	0xbd1b1e44	-0.03787066
177	0x3d55d467	0.052204516
178	0x3cfdd3af	0.030984728
179	0x3c11573b	0.008870895
180	0xbc513ab5	-0.0127703445
181	0x3d839861	0.06425548
182	0x3ce13b6a	0.027494151
183	0x3abd8723	0.001445983
184	0x3d2eeb71	0.042705003
185	0x3d7195ba	0.05898068
186	0xbd3ff088	-0.046860248
187	0x3d0a3c67	0.03374901
188	0xbb6863c5	-0.0035459858
189	0x3cc13c0e	0.023588207
190	0x3d389886	0.045067333
191	0x3c95dca3	0.018293684
192	0xbbd69bc5	-0.006549331
193	0xbd484690	-0.04889542
194	0xbd6c6c70	-0.0577206
195	0x39568a7d	0.00020460221
196	0x3d4688af	0.048470195
197	0x3d7248cd	0.05915146
198	0xbd0a669e	-0.03378927
199	0x3d56844b	0.05237226
200	0xbd73d037	-0.05952474
201	0xbd44fcc4	-0.04809262
202	0x3c1de33b	0.0096366955
203	0xbae2b294	-0.0017295652
204	0xbd690798	-0.056892008
205	0x3ba0399c	0.00488968
206	0xbd01a013	-0.0316468
207	0xbcaad36c	-0.020852767
208	0xbc373107	-0.011181123
209	0xbd64809f	-0.055786725
210	0xbc84f569	-0.016230302
211	0x3d64afda	0.055831768
212	0x3b6f9bf7	0.0036561468
213	0xbbb9dc82	-0.0056720385
214	0xbcf55e44	-0.029952176
215	0x3d6d8c0b	0.057994884
216	0x3cf735a6	0.030176949
217	0xbd3bba5e	-0.04583203
218	0xba9562b1	-0.001139721
219	0xbd106b21	-0.035258416
220	0xbd46303b	-0.04838584
221	0xbbbf6728	-0.0058411546
222	0xbd05a9b0	-0.03263253
223	0xbd704164	-0.05865611
224	0xbd1253eb	-0.03572456
225	0xbd5032bc	-0.050829634
226	0xbd0ddf7e	-0.034636967
227	0xbd1ac530	-0.03778571
228	0xbb204c6b	-0.002445961
229	0xbc7bfae3	-0.01537964
230	0xbc2fbc33	-0.0107260225
231	0x3bfd027d	0.007721244
232	0x3c565cb8	0.013083629
233	0xbd697ac4	-0.057001844
234	0xbd24c094	-0.04022272
235	0xbce6d807	-0.028179182
236	0x3d4977d0	0.049186528
237	0xbd2145cb	-0.0393732
238	0x3d2233c1	0.039600138
239	0xbbed717e	-0.0072461953
240	0x3ca0502b	0.019569477
241	0xbd6c3d0c	-0.057675406
242	0xbcf9f7b5	-0.030513624
243	0xbcd2a0c6	-0.025711428
244	0x3d0b5373	0.03401513
245	0xbcd03c58	-0.0254194
246	0x3c5cd770	0.013479099
247	0x3d45ebe0	0.04832065
248	0x3d0dec29	0.034649048
249	0x3d79e73f	0.06101155
250	0x3c794d54	0.01521619
251	0x3d25d9c0	0.040490866
252	0x3d606c59	0.05479083
253	0xbd699893	-0.05703027
254	0xbc96bb32	-0.018399809
255	0x3cd1634b	0.025560042

layer2.0.bias f4 [84]
0	0x3cba2df8	0.022726998
1	0x3d42cbe6	0.047557734
2	0xbd177a69	-0.036981974
3	0x3cf98c1c	0.030462317
4	0xbd048e2f	-0.03236216
5	0x3d214bdc	0.039378986
6	0x3d736ed3	0.059431862
7	0x3cf04e49	0.029334204
8	0xbcd3f39d	-0.025873
9	0xbd0ded0b	-0.03464989
10	0xbd6bd7ec	-0.057578966
11	0xbc45d15c	-0.012073841
12	0xbc767494	-0.015042443
13	0x3cfcd898	0.030864999
14	0xbd5b33b1	-0.053516094
15	0x3a1ca32e	0.00059752434
16	0xbaf1db47	-0.001845219
17	0x3aaee9dd	0.0013344843
18	0x3d4e1c38	0.05031988
19	0x3c9e2c85	0.019308338
20	0xbca8454c	-0.020540856
21	0xbc6b0592	-0.01434459
22	0xbd792bfc	-0.060832962
23	0xbd2c7144	-0.042100206
24	0x3acead20	0.0015768148
25	0xbcd77526	-0.026300978
26	0x3d68ebf6	0.056865655
27	0x3d1544b8	0.03644249
28	0xbbe59925	-0.0070067816
29	0xbd7368e0	-0.05942619
30	0xbd39ea32	-0.04538936
31	0x3d71a66a	0.058996595
32	0x3d0b9359	0.03407607
33	0xbcf88bb7	-0.030340059
34	0xbb988805	-0.0046548867
35	0xbce1d601	-0.027567865
36	0xbcbe833c	-0.023255937
37	0xbcf64bd4	-0.030065455
38	0x3cb49279	0.0220425
39	0xbbc8be3d	-0.006126194
40	0xbd051600	-0.032491684
41	0xbd7b1109	-0.061295543
42	0xbd0f8ffc	-0.035049424
43	0xbd4a5f37	-0.04940721
44	0x3d4c1b00	0.049830437
45	0x3cff3d4c	0.031157158
46	0xbd628e3e	-0.055311434
47	0x3ce970f4	0.028496243
48	0x3cc79ae4	0.02436585
49	0xbd7f43dc	-0.062320575
50	0xbce8d418	-0.028421447
51	0x3d042fa6	0.032272004
52	0xbcfad759	-0.030620264
53	0x3d00aef5	0.031416852
54	0xbd4e8751	-0.050422017
55	0xbd512eca	-0.051070012
56	0x3cca44cd	0.02469101
57	0xbced37f8	-0.028957352
58	0xbd3ea656	-0.04654535
59	0xbd0dd1aa	-0.03462378
60	0x3c7c6005	0.015403752
61	0xbc65bb65	-0.014021729
62	0xbd434efa	-0.04768274
63	0xbaedc496	-0.0018140252
64	0x3ccc774f	0.024959235
65	0x3d4b5793	0.049644064
66	0xbc2eb8c3	-0.010664168
67	0xbcc09498	-0.023508355
68	0x3d3ecc88	0.046581775
69	0xbd6693a8	-0.05629316
70	0x3cf6f0c1	0.030144097
71	0x3d507e89	0.050901923
72	0xbc8e9624	-0.017405577
73	0x3d45caa5	0.04828896
74	0x3c4a03bd	0.012329993
75	0x3d64d355	0.055865604
76	0xbd19b623	-0.037527215
77	0x3ca929ee	0.020649876
78	0x3bb56a50	0.005536355
79	0xbd0d62f5	-0.0345182
80	0x3d538d4d	0.051648427
81	0x3ca9ad42	0.020712499
82	0xbd74695a	-0.059670784
83	0x3ca57e46	0.020201813

layer3.0.weight f4 [8, 84]
0	0xbdb54d58	-0.08852643
1	0x3d23052e	0.03979986
2	0xbcc6d009	-0.02426912
3	0x3dcbef05	0.09957699
4	0x3d75d004	0.060012832
5	0xbd84884c	-0.06471309
6	0xbd2e2b31	-0.04252166
7	0x3cac1b3a	0.021009076
8	0xbda07850	-0.07835448
9	0x3c605942	0.013693156
10	0xbdbe70f2	-0.09298886
11	0xbd62169d	-0.055197347
12	0x3d8a38cb	0.06749114
13	0xbd2d194f	-0.042260464
14	0x3d46eee6	0.048567675
15	0xbd9952f8	-0.07486528
16	0xbdd40b5e	-0.103537306
17	0x3dc2f0c6	0.0951858
18	0xbdacb58f	-0.08433067
19	0x3bc32f22	0.0059565464
20	0x3b7ebc40	0.003886953
21	0x3dcac087	0.09900003
22	0xbdc6bc94	-0.09703937
23	0xbc875f60	-0.01652497
24	0xbd109114	-0.035294607
25	0xbd6f2532	-0.05838508
26	0xbdb6014d	-0.08886967
27	0xbd81a427	-0.06330138
28	0xbdaa3c28	-0.08312255
29	0xbd915c7c	-0.07097718
30	0x3d05b967	0.032647517
31	0xbc8da638	-0.017291173
32	0xbd834435	-0.06409494
33	0xbc4b89d3	-0.012422997
34	0x3cfbd5a7	0.030741526
35	0x3d856293	0.06512942
36	0xbd453582	-0.048146732
37	0xbd2995a9	-0.041402493
38	0x3c16d468	0.009205915
39	0x3d6b1c8b	0.057400268
40	0xbd3c0480	-0.04590273
41	0x3cadf672	0.021235678
42	0xbd8d62f2	-0.06903638
43	0x3b80c0a0	0.0039292127
44	0x3ccff3fd	0.025384897
45	0x3da2ac3c	0.07943007
46	0x3de15daf	0.11004197
47	0xbb65f144	-0.0035086432
48	0xbd564af6	-0.052317582
49	0xbc39bb94	-0.011336226
50	0x3ba5dd31	0.0050617685
51	0xbd82700d	-0.06369028
52	0xbd4dbcf0	-0.050229013
53	0x3d024600	0.03180504
54	0xbcd8a380	-0.02644515
55	0xbd764c2c	-0.060131237
56	0x3c6b6e85	0.014369612
57	0xbdaceea3	-0.08443954
58	0xbd9ed515	-0.07755486
59	0xbc0c86a5	-0.008577024
60	0x39408107	0.00018358613
61	0xbc43b073	-0.011943924
62	0xbc8f4521	-0.017489018
63	0x3c6db913	0.014509457
64	0xbd18eb3f	-0.037333723
65	0x3be8ea02	0.007107974
66	0xbd05d40d	-0.03267293
67	0x3d1f160a	0.038839377
68	0xbda1c161	-0.07898212
69	0xbdb59395	-0.0886604
70	0xbd571d64	-0.052518263
71	0xbd1c018b	-0.03808741
72	0x3dca589e	0.09880184
73	0x3bb62742	0.005558879
74	0x3de168b7	0.11006301
75	0xbd7638f9	-0.060112927
76	0x3ca0e78a	0.019641656
77	0x3da0a3f9	0.07843775
78	0xbc796d76	-0.015223851
79	0xbc5ec43a	-0.013596589
80	0xbd797aeb	-0.06090824
81	0xbd9dc2ed	-0.07703195
82	0xbc331f18	-0.010932706
83	0xbb8c4f50	-0.0042819157
84	0x3ddcc751	0.10780204
85	0xbc2beb99	-0.010493183
86	0xbc194cd7	-0.009356699
87	0x3db70711	0.08936895
88	0xbbb03fa7	-0.0053786817
89	0x3dac871f	0.0842421
90	0x3dc97cd5	0.09838263
91	0xbcce3967	-0.025173856
92	0xbdca86d4	-0.09888998
93	0x3d5e50bd	0.054276217
94	0xbd671d14	-0.056424215
95	0xbda08517	-0.07837885
96	0xbccac86d	-0.024753774
97	0x3dcef63e	0.10105561
98	0x3b6d91c0	0.0036250204
99	0x3dd24569	0.10267145
100	0xbc220878	-0.009889714
101	0xbd9d6844	-0.07685903
102	0x3c7697ee	0.015050871
103	0x3dba0e37	0.090847425
104	0xbc9c45ac	-0.01907619
105	0xbbf6d229	-0.0075323773
106	0xbdb552cb	-0.08853682
107	0xbd9a2866	-0.07527237
108	0x3ddaceaa	0.10683949
109	0xbd739392	-0.059466906
110	0xbdd4f2ab	-0.10397848
111	0x3b269ee0	0.0025424287
112	0xbdc1a7e0	-0.09455848
113	0x3ceecf44	0.029151566
114	0x3d140d7c	0.036145672
115	0xbd391250	-0.04518348
116	0xbd0939d7	-0.033502426
117	0xbd69f961	-0.057122592
118	0xbdbb994f	-0.09160101
119	0xbd840d06	-0.064477965
120	0x3d91ecc5	0.07125238
121	0xbc08fc1e	-0.008360891
122	0xbd0127fd	-0.031532276
123	0x3da9f156	0.08297984
124	0xbc8325c6	-0.016009223
125	0x3dd6dace	0.104909524
126	0x3d711097	0.058853712
127	0x3d635925	0.055504937
128	0xbd1514a9	-0.036396656
129	0x3cf58625	0.029971192
130	0x3d771d76	0.06033083
131	0xbd98e139	-0.07464833
132	0xbd5b8ff6	-0.05360409
133	0x3d834af7	0.06410783
134	0xbc7220b4	-0.014778305
135	0xba86ff56	-0.0010299485
136	0x3db610cd	0.08889923
137	0xbddffc3a	-0.1093678
138	0xbdd69e79	-0.10479445
139	0xbdb1e655	-0.086865105
140	0x3d08c24d	0.033388425
141	0x3ba2663d	0.0049560354
142	0x3d04b1e6	0.03239622
143	0xbdcce4bf	-0.10004567
144	0xbdad5959	-0.08464307
145	0x3d662950	0.056191742
146	0xbd936d6a	-0.071986035
147	0xbd0701b4	-0.03296061
148	0xbd40fd03	-0.04711629
149	0x3d8cf7f4	0.06883231
150	0xbd30ecfb	-0.043194752
151	0x3dd3450e	0.103159055
152	0xbc57125f	-0.013126939
153	0xbd2f6838	-0.042824
154	0xbdbf8837	-0.09352153
155	0x3dbe66db	0.09296962
156	0x3c926698	0.017871186
157	0x3d4ef670	0.05052799
158	0x3cde86fc	0.027163975
159	0x3d616a78	0.055033177
160	0x3c4db0ec	0.0125543885
161	0xbd26c5e1	-0.040716056
162	0xbdd26b23	-0.10274341
163	0x3d9d8129	0.07690651
164	0x3be1a97b	0.0068866587
165	0xbd9ece99	-0.07754249
166	0xbddcc104	-0.10779002
167	0xbc81c5ec	-0.015841447
168	0xbd26f4ec	-0.04076092
169	0xbd84ff9c	-0.06494066
170	0xbc799166	-0.01523242
171	0xbdb465c4	-0.08808473
172	0xbd803bde	-0.06261419
173	0xbd03976d	-0.032126833
174	0x3d5d0beb	0.053966444
175	0x3db9575c	0.090498656
176	0xbd4c6997	-0.049905386
177	0xbd73921a	-0.059465505
178	0xbd9088f4	-0.07057372
179	0x3cda1372	0.0266206
180	0x3cde32de	0.027123865
181	0xbd0ff4e5	-0.03514566
182	0x3cf5b599	0.02999382
183	0x3a3d97f4	0.00072324206
184	0x3c9d16bc	0.01917588
185	0xbc63bf87	-0.013900644
186	0x3d7ab12b	0.061204117
187	0xbc8cdfda	-0.017196584
188	0xbcf26a48	-0.029591694
189	0x3ce3f0ec	0.027824841
190	0x3db2ae2d	0.08724628
191	0x3dc5f488	0.09665781
192	0x3dd68b40	0.104757786
193	0x3ba619bd	0.005068986
194	0xbd2697af	-0.040672
195	0x3d1efecb	0.03881721
196	0xbc987154	-0.018608727
197	0x3ddc7d79	0.107661195
198	0x3cb31f97	0.02186565
199	0x3d5483a6	0.051883362
200	0x3d8c87e1	0.06861854
201	0xbd6bbe0f	-0.0575543
202	0x3ca07bef	0.019590346
203	0xbd361112	-0.044449873
204	0xbd5e05a5	-0.0542046
205	0x3d78dde9	0.060758505
206	0x3d2bcd1b	0.04194365
207	0xbb06e254	-0.002058168
208	0x3d84c33a	0.06482549
209	0xbdd7f30f	-0.105444066
210	0xbdb750a7	-0.0895093
211	0x3cf9377f	0.03042197
212	0x3ddc6169	0.10760767
213	0x3da01ac6	0.07817607
214	0x3dcd4f68	0.10024911
215	0xbcb8f44e	-0.022577431
216	0x3b76c1e3	0.0037652187
217	0x3dc29b30	0.09502256
218	0xbdc3cb18	-0.095602214
219	0xbd7fdb02	-0.06246472
220	0xbdb25d73	-0.0870923
221	0x3d85dec8	0.06536633
222	0xbd6938a3	-0.05693878
223	0x3ac8c783	0.0015318248
224	0xbd036745	-0.032080907
225	0x3ae00186	0.0017090298
226	0x3dbe90f6	0.09304993
227	0xbdcc6989	-0.09981067
228	0x3d7d1f99	0.061797712
229	0xbc111530	-0.008855149
230	0x3b9addd5	0.0047261515
231	0x3d814499	0.06311912
232	0xbdd106f0	-0.10206401
233	0x3d685a31	0.05672664
234	0x3db39230	0.087681174
235	0x3dd9161e	0.10599922
236	0x3d2fe59c	0.042943582
237	0x3dcae778	0.099074304
238	0x3dbf6ea1	0.09347273
239	0xbdb107cd	-0.08644066
240	0x3c3b259e	0.011422543
241	0xbb93d68d	-0.0045116604
242	0x3b336e6c	0.002737905
243	0xbdcf427a	-0.10120101
244	0xbd14f781	-0.03636885
245	0xbdc33678	-0.095318735
246	0xbd201bb1	-0.03908891
247	0xbd8c266f	-0.06843268
248	0x3d14a6a0	0.03629172
249	0x3d1aef1e	0.037825696
250	0xbd74016e	-0.059571676
251	0x3dccbede	0.099973425
252	0xbc9b36cd	-0.01894703
253	0xbc3607f6	-0.0111102965
254	0xbdc5e950	-0.096636415
255	0x3d35f50a	0.04442314

layer3.0.bias f4 [8]
0	0xbd3a7338	-0.045520037
1	0xbd3ca6ac	-0.04605739
2	0xbdb13ed0	-0.08654559
3	0xbd431e4a	-0.047636308
4	0x3c12e456	0.008965572
5	0x3d81e937	0.0634331
6	0xbd903cba	-0.07042833
7	0xb8d2f637	-0.000100594414
