DigitalRecognition-master/model_params/GDUT_net_all_15.pt (torch, 665623 bytes, 6 tensors)

layer1.0.weight f4 [256, 560]
00000000: e032 fe3c c01f fb3c 8c06 27bc e6ab 1a3d
00000010: a290 0b3d 60dc 06bb 3030 083d 926e 34bc
00000020: d0ed b8bb c2e1 15bd 4fe9 e2bc 4279 1abd
00000030: 6054 daba 68a3 f83b 89de 26bd 92d2 1cbd
00000040: 40d3 68ba 1162 b4bc 2026 e53b 4909 89bc
00000050: c4ea b73c e421 473c 1012 bf3b 2802 d43b
00000060: 56ab c4bc 1988 15bd 1781 9bbc 8bda 2cbd
00000070: e0a8 8cbc 2878 113d ea3e 13bd 1aa2 8c3c
00000080: 74d4 ed3c c042 c8ba 8c26 fbbc e506 c7bc
00000090: 38e0 073c 94d4 723c 4362 02bd 591c c0bc
000000a0: 9814 fcbc 427b 75bc 90fc e5bb 701e cf3c
000000b0: 0c4f db3c a03e ea3c 800e 893b 1e8b 78bc
000000c0: eaef 0cbd c3db ccbc 20c3 c53c 3085 ca3b
000000d0: 8a29 55bc 9066 473b 796d 10bd b0dc 363b
000000e0: 0eb2 21bd d013 d7bb 406b 02bc 0879 623c
000000f0: 0602 92bc b43f 0cbd 566e 1b3d 60c6 1abc
00000100: f982 83bc 18c1 d93c 48b6 eabb 1765 0dbd
00000110: 24b5 9ebc 3a6b a4bc e025 37bb 7011 23bd
00000120: f1ad cdbc 72ab 183d 99f3 18bd 9c51 783c
00000130: 7482 073c d8e2 d83c 8c8a 263d 71d8 9dbc
00000140: 9ad2 90bc 00d3 d6bb ccdb 823c 5c3c b83c
00000150: ccbe 71bc 529d c7bc 5861 eb3c 40a7 fabb
00000160: 4418 413c ed37 99bc 4a75 213d 0ef8 e7bc
00000170: 5052 acbb 56e2 0dbd 5e5f 1c3d bce8 aabc
00000180: a0fd a4bb 0842 ed3c 0000 8b36 08bb 273c
00000190: 8836 db3c 868d 20bd f8af 32bc 4ced 983c
000001a0: 06b8 77bc c21e 9b3c 104a 153b 1a32 183d
000001b0: a472 133d 92a3 263d 4033 973b 1c85 833c
000001c0: 66e2 09bd c8d8 29bc 1949 19bd 0473 e4bc
000001d0: c4dc 973c f638 0dbd 660f 233d 8c99 093d
000001e0: 5ae0 163d 2011 d2ba 8ccb a83c 4a80 083d
000001f0: 704e d5bb 0646 203d 2044 913a f81b d4bb
00000200: 0413 0cbd 8c1a 213d 44c5 fb3c a03b e93b
00000210: 30e2 033d 6482 f4bc 5826 55bc 6e52 71bc
00000220: 68e3 eb3b b3e1 bebc 8cdf c4bc 48e4 b83b
00000230: 8420 46bc 98a3 043d e448 ee3c 864b 083d
00000240: 48d0 f2bb 746a be3c b038 5ebb a07c 92bb
00000250: 2091 41bc 5017 ddbc 036b b5bc c8ed 6b3c
00000260: e0b8 13bd 2cc3 113c 04d9 1fbd 1029 aabb
00000270: 5c07 3abc c38a 8dbc bcd9 26bc 4ef4 0f3d
00000280: 3022 b43c 4c84 6d3c 68c2 11bc b0d3 91bc
00000290: 00a7 aa3c b4f8 0ebd a719 aebc 300b c43c
000002a0: 6a2e 0abd a81f 5a3c 08e2 c13c f878 2b3c
000002b0: 0ba0 c4bc f237 e1bc 6418 573c b890 773c
000002c0: 6ad3 083d f8da 16bc 6858 b43b d44a 283d
000002d0: 8c8d f4bc 6097 30bb 9812 e93c 7202 b0bc
000002e0: c0cc f83c e05c 38bc 6ad7 1abd deac f5bc
000002f0: 0e6b 19bd 38f3 0c3d 465d 913c 00c4 9fb8
00000300: 92f1 0a3d 7438 b0bc fd65 81bc d01c aa3c
00000310: 4099 523c c147 0abd 6c36 41bc 21ce 2cbd
00000320: d43d e23c 326a c8bc e8cf cc3c ec25 be3c
00000330: 643f e2bc b701 83bc 74fc c73c 2478 293c
00000340: 1411 aa3c b0a3 123c 00fd 59bb 403d 473c
00000350: c0c0 473c 45a9 b8bc 4883 d9bb 040c b63c
00000360: 5c94 02bc d6b9 e4bc e0c3 29bd c683 01bd
00000370: 665a 98bc 44b5 643c 690a 0bbd b0a0 c5bc
00000380: f855 12bc 600a f6bc 18be df3c 48cf 8abc
00000390: 8a68 7cbc e407 153d d08e e6bb c40e 1e3c
000003a0: a0a5 2b3c a0c3 243d 1458 7c3c f0bc 013d
000003b0: ba31 a7bc 1c2a e03c cbbc f4bc 224c adbc
000003c0: 0c32 07bd 02ae c5bc eee3 b1bc 4e5a 08bd
000003d0: 1a6c 08bd ef8c 14bd f66b 1c3d 25a9 1cbd
000003e0: e667 49bc a83a d9bb ace7 f1bc 0493 cdbc
000003f0: 80a0 bf3c 948b d33c 4ea8 efbc e01d 8d3b
0.031030118 0.030654788 -0.010194432 0.03776159 0.03407348 -0.002057813 0.03324908 -0.01101269
-0.005643584 -0.036592253 -0.02769914 -0.037713297 -0.0016657226 0.007587839 -0.04073957 -0.038286753
-0.00088815764 -0.022019418 0.0069930702 -0.01672806 0.022450812 0.012154076 0.0058310106 0.0064699836
-0.02400748 -0.036506746 -0.018982453 -0.042200606 -0.01717037 0.03551498 -0.03594867 0.01716714
0.02903197 -0.0015278682 -0.030658029 -0.02429528 0.008293204 0.01482119 -0.03183199 -0.023451017
-0.030771539 -0.014983 -0.007018633 0.025283068 0.02677109 0.028594315 0.0041826367 -0.015169887
-0.034408487 -0.025007134 0.024140894 0.006180428 -0.013010392 0.0030426122 -0.03526065 0.0027902536
-0.039476447 -0.006563641 -0.007960141 0.013822801 -0.01782323 -0.03424044 0.03794702 -0.00944671
-0.016053664 0.026581332 -0.007162843 -0.034520235 -0.019373484 -0.02007066 -0.002794616 -0.03981155
-0.025107356 0.037272878 -0.037341688 0.015156176 0.008270849 0.026475355 0.040659472 -0.019268246
-0.017678548 -0.006555915 0.015973948 0.02248972 -0.014754962 -0.024367008 0.02873294 -0.0076493323
0.0117855705 -0.018703425 0.039418496 -0.028316524 -0.005258836 -0.03463968 0.038176887 -0.02086293
-0.0050351173 0.02896215 4.142523e-06 0.010237463 0.026759401 -0.039197467 -0.010906212 0.01866784
-0.015119558 0.018935565 0.002277974 0.037157156 0.035998 0.040683337 0.004614264 0.016054682
-0.033663176 -0.010366626 -0.037423227 -0.027886875 0.018537886 -0.03447815 0.039809607 0.0335937
0.036835052 -0.0016026832 0.020604871 0.03332547 -0.0065095946 0.03912928 0.0011082925 -0.0064730607
-0.034197822 0.039331958 0.030733712 0.0071177036 0.03219813 -0.029847331 -0.01300963 -0.014729125
0.00719874 -0.023300981 -0.024032377 0.0056424476 -0.012092713 0.032382578 0.029087491 0.03327515
-0.007410083 0.02324412 -0.00339083 -0.004470423 -0.011814386 -0.026988655 -0.022145754 0.014399953
-0.036064982 0.00889663 -0.03902532 -0.0051928833 -0.011354294 -0.01727808 -0.010183748 0.035145096
0.021988958 0.014496874 -0.008896448 -0.017801136 0.020831585 -0.03490515 -0.021252466 0.023931116
-0.03373567 0.0133132115 0.02366735 0.010465853 -0.024002096 -0.027492497 0.013128374 0.015110187
0.033404745 -0.00920748 0.005503703 0.041086987 -0.029852651 -0.0026945695 0.028451249 -0.021485541
0.03037107 -0.011252612 -0.03780309 -0.029989656 -0.03745561 0.03441164 0.017744672 -7.618219e-05
0.033921786 -0.021511294 -0.015795702 0.020765692 0.01285392 -0.033759836 -0.01179276 -0.042188767
0.027617373 -0.0244647 0.025001481 0.023211442 -0.027618118 -0.015992029 0.024412371 0.010343585
0.020760097 0.008950159 -0.0033262372 0.012160599 0.012191951 -0.022541652 -0.0066379644 0.022222526
-0.007969942 -0.027920645 -0.041446567 -0.03161981 -0.018597793 0.013959233 -0.033945475 -0.024124473
-0.008931629 -0.030034244 0.027312323 -0.016944543 -0.015405783 0.03638448 -0.0070360675 0.009647075
0.0104765 0.040225625 0.015401859 0.031674325 -0.020409454 0.02736383 -0.02987518 -0.021154467
-0.033006713 -0.024130825 -0.02171513 -0.033289246 -0.03330622 -0.036267217 0.038188897 -0.038247246
-0.012292838 -0.006629307 -0.029529415 -0.025094517 0.023391962 0.025823392 -0.029255059 0.00430654

layer1.0.bias f4 [256]
00000000: 9c94 24bc f16a d93c 90bf 983c b367 fb3b
00000010: c857 283d f709 51bc c8d6 78ba 4e18 c1bc
00000020: 0030 e3bc f82a 31bc fe8a 21bd 7321 6b3c
00000030: 8ecb 1cbd 4f18 f13b bbad 673c 516e 1bbc
00000040: 76a5 933c 5f07 1a3d cf65 303c ce10 f8bc
00000050: fba2 1dbd 27f8 91bc 4ac4 e43c 5d81 ebbc
00000060: 7e47 0bbc 9b4b 55bc 844a c03c c761 6cbc
00000070: 63f4 33bc d628 243d 0a94 98bc 93f3 263d
00000080: fcda a4bc 6552 45bb 0fa6 79bc dcd6 973c
00000090: f648 283c 325e 093d 687e f33c b3da 14bd
000000a0: b27e dfbc 6fac 0bbd 1c14 9fbc ef65 c8ba
000000b0: ea7d f9bb 0572 ccbb 82c1 97bb 3e22 17bc
000000c0: ba30 fdbc cd64 2bbd fe70 b1bb 88ba dc3c
000000d0: 6434 e63c ac7b e7bc 1803 15bc 85b8 3b3c
000000e0: fbf0 d63b 6a94 07bb dba8 a039 e9b2 aabb
000000f0: ccee db3c 17b5 24bc 55aa 83bc 4b39 963c
00000100: 15c0 233d fa8a 263d 74b2 d03b 7f4c d43c
00000110: 8076 76bc 221d 993c faa5 bcbb a390 89bc
00000120: 9487 8bbc 3bb3 2a3c 7f6e d8bc 2e67 47bb
00000130: c51b a63c ad6a 243d bd45 81bc 979e 2a3d
00000140: e6e9 183d 684a 613c 5510 9bbc bc5c 163c
00000150: e1c5 e3bc fae0 72bc 9d6d f93c 072d 3f3c
00000160: da6b 10bd c367 fe3c cd84 86bb 9d57 e3bc
00000170: d43c cdbc bf49 f8bc a11e ac3c 4539 f23b
00000180: 9f8c b53c 32b2 24ba 67b8 21bd f559 a03c
00000190: 3083 e4bc 752c 913c ce8c f53b a8b2 08bc
000001a0: 085c 973c f279 503b 66cd 7cbc 31ac 02bd
000001b0: d138 f73c fdfb 96bc 79d3 41bb 4dd5 c1bc
000001c0: 89fc e83b 20a1 7f3c 17f7 b6bc f0a3 c33c
000001d0: fc38 9b3c 6a09 c43b 377a 803a 4a99 be3c
000001e0: 961d 8bbc cd92 69bc c5a0 1fbc 1353 183d
000001f0: 469e cd3c 12b0 3e3b 83f7 15bd 5383 9e3c
00000200: 7c09 0a3c bb5c 3bbc fb63 483c 1b8f 213b
00000210: 5d3e a3bc 7f48 a83b acf9 cd3c 4550 9dbc
00000220: f2b8 bbbc 4010 07bd 0e72 5a3b affc bb3c
00000230: c5a9 24bd 3d27 36bc beee 213c f757 9c3c
00000240: ea09 ab3c 1616 0e3d b84d f03c 822a 38bc
00000250: e0e6 243d bab4 423c 4430 ecbc 3821 e03c
00000260: e252 16bd 8a35 47bc d6df 9ebc a9ed 0e3d
00000270: 1269 90bc 2c74 c73c e6a0 fabc ed17 7e3c
00000280: e8d1 0d3d 1f87 ba3c 5aed 52bb 6406 fa3c
00000290: 5ebe fdbc fef2 8bbc c92d e53c 35dd 2b3d
000002a0: 77f0 df3c 0aae c6bc 55d3 dbba d886 6fbc
000002b0: 5870 063d 8fd3 123d 0ad7 9b3c 29f4 16bc
000002c0: 6f6e 15bd 4d57 a83c e614 3fbc 4a98 8f3c
000002d0: b85d 27bd f589 af3b d39b f1bc c865 1dbd
000002e0: 338f be3c 3206 dcbc 2bf1 90bb 11f7 17bd
000002f0: cb29 e0bb ddd9 9b3c 3088 c03b 9981 143d
00000300: 39ca 213d fdcf c8bc e078 263c b55d 6a3b
00000310: dbe3 863a c151 293d 319f 323b ae2f 8abc
00000320: 7220 30bc 6d90 633b 171f 9e3c 420d 113c
00000330: 14d8 94bc b615 4cbb 6bb8 be3b b5ba 283d
00000340: acb4 c73a 7c02 c6bc de7a dd3c 40ad 82bc
00000350: 56c4 1ebd 0971 0a3d 1803 293d 0077 903c
00000360: cb22 db3c 4869 8e3c c045 20bd c16b b8bb
00000370: f1e4 57bc bad8 e6bc 2fa3 01bd 45c6 8cbc
00000380: 22b1 14bc 522b 74bc 83b2 76bb 99e6 d53b
00000390: 993e d2bc 7efd 1d3d dfd6 1a3d 3759 2bbd
000003a0: b1e1 a9bc e17b 74bc 2f4e 0b3d 178e 47bc
000003b0: 17b5 de3c b0d1 8a3c e901 c2bc da8a bebb
000003c0: 494b e3bc ae8d a3bc 15de 8ebc a0cf a4bc
000003d0: 92b0 a1bb d86d 863c 1b82 4a3c f3a3 0cbd
000003e0: fcb8 113d d772 9fba 2796 90bc fef1 9b3c
000003f0: 6de0 283d 9b90 243a 2073 133d c2fa 1d3d
-0.010045197 0.026540251 0.018646032 0.007672274 0.04109934 -0.012758723 -0.0009492454 -0.02357116
-0.02773285 -0.010813467 -0.039439194 0.014351237 -0.038280062 0.007357634 0.014140542 -0.009486751
0.018023234 0.037604686 0.010766461 -0.03028145 -0.03848551 -0.017818524 0.02792563 -0.028748209
-0.008500932 -0.013018514 0.023473032 -0.014427609 -0.010983559 0.040078007 -0.018625278 0.040759634
-0.020123951 -0.0030108925 -0.015237345 0.01853507 0.0102713015 0.033537097 0.029723361 -0.03634138
-0.027282093 -0.034099992 -0.019418769 -0.0015289168 -0.007613887 -0.006239178 -0.004631222 -0.009224473
-0.030907024 -0.041844178 -0.005415081 0.026944414 0.028101154 -0.028257214 -0.009094976 0.011457567
0.006559489 -0.0020687827 0.00030643385 -0.005209316 0.026847266 -0.010052941 -0.016072432 0.018337866
0.039978106 0.040659882 0.0063689295 0.025915382 -0.015042901 0.01869065 -0.0057570906 -0.016792601
-0.017032422 0.010418708 -0.026419876 -0.003042649 0.020276913 0.040140796 -0.015780324 0.04165515
0.037332438 0.01375065 -0.018928686 0.009177383 -0.027804317 -0.014824146 0.030447775 0.01166845
-0.035259105 0.031055337 -0.0041051866 -0.027751738 -0.02505342 -0.030308602 0.021010699 0.007392081
0.02216178 -0.00062826567 -0.0394825 0.019574145 -0.027894586 0.017721394 0.007493592 -0.008343376
0.018476501 0.0031810966 -0.01542983 -0.031902496 0.03017846 -0.018430704 -0.002957551 -0.02366128
0.0071101827 0.01560238 -0.022334618 0.023881882 0.01894807 0.0059825676 0.0009802048 0.023266453
-0.016981881 -0.014256191 -0.00974292 0.0371886 0.025099885 0.0029096645 -0.036613 0.01934973
0.008425113 -0.011435683 0.012230868 0.0024651948 -0.019927198 0.0051355953 0.025143467 -0.019203315
-0.022915337 -0.03297448 0.0033332142 0.022947637 -0.040200967 -0.011117754 0.009883581 0.019084914
0.02087875 0.03468903 0.029333934 -0.011240603 0.040259242 0.011883909 -0.028831609 0.02735959
-0.036700137 -0.012158761 -0.019393843 0.03489462 -0.017628226 0.024347387 -0.0305943 0.015508634
0.03462401 0.022769509 -0.003218493 0.030520625 -0.030974563 -0.017083641 0.027975934 0.041959006
0.027336342 -0.02425291 -0.0016771356 -0.014619552 0.032821983 0.03584629 0.019023437 -0.009213486
-0.03648227 0.02054944 -0.011662697 0.017528672 -0.04086086 0.005357022 -0.029493248 -0.038427144
0.023261642 -0.026858423 -0.0044232807 -0.037100855 -0.0068409196 0.019024784 0.00587561 0.036256406
0.039499495 -0.024513239 0.010160655 0.003576142 0.0010291295 0.041337732 0.002725553 -0.016868439
-0.010749923 0.0034723536 0.019301934 0.008853259 -0.01816944 -0.003114087 0.005820324 0.041193683
0.001523634 -0.024171107 0.027036127 -0.015951753 -0.03876146 0.033799205 0.041262716 0.017634869
0.026749989 0.017384186 -0.03912902 -0.0056280796 -0.0131771425 -0.028179515 -0.031649765 -0.017184386
-0.009075435 -0.0149029065 -0.0037643022 0.0065277335 -0.025664615 0.038571827 0.037802573 -0.04183313
-0.0207375 -0.014922113 0.03401011 -0.012179873 0.02718596 0.01694569 -0.023682551 -0.0058148922
-0.02774586 -0.01996502 -0.017439881 -0.020118535 -0.004934379 0.0164098 0.012360121 -0.03433604
0.035576805 -0.0012164962 -0.017649723 0.01903629 0.041229654 0.00062776514 0.035998464 0.03856922

layer2.0.weight f4 [84, 256]
00000000: b463 ffbc 1eb6 af3c e9ba 123d bd55 a73c
00000010: ab10 7bbd 6f56 58bb ce12 4f3d 7347 1abd
00000020: ca4e 103d f426 4b3c 92a4 f3bc 4d45 203d
00000030: 0ad2 0d3d 4b6f 33bd f629 583d 1a6d 22bc
00000040: d0b9 2d3c be69 02bd abda 37bc dcd1 8e3c
00000050: 4151 67bd 6e8b d03a 09e3 da3b eb19 b23c
00000060: 4b13 38bd f68d aebb 6d8b 0a3c 296f 02bd
00000070: ba8b 703d f99d 083d 60b3 0b3d cb7b 80bc
00000080: ef6c 79bd 2346 98bc fab7 1fbd 036e 31bc
00000090: 9e45 f3bc bc27 b7bb f995 afbc 1e97 46bd
000000a0: 2d80 0ebd c18f a5bc cd4b 7d3d 363e 393d
000000b0: 38af c6bc e1cd 083d 24fd 46bd 968b 323d
000000c0: 78b4 1c3d a98c 083d 6942 2a3d d795 c1bb
000000d0: 7e84 09bd 432a 0cbd b231 25bd 46be 4fbd
000000e0: eab9 463d dcd2 d33c b4a9 b63b 7758 2a3d
000000f0: a2e6 9f3c 0304 bd3c 9163 62bd 231c 23bb
00000100: 6a59 82bc 3809 5cbd d3f2 d93c af2a c13c
00000110: 90e3 143d ed5f 91bc a0c8 043d 0a21 bc3c
00000120: 1544 cfbc a272 71bd 5e9c 32bd 8fd0 42bd
00000130: 7262 e73b c83e 563c c547 663d 8459 ce3c
00000140: e0ed 2cbd 7750 6d3d 0bec 63bd 84b1 d53c
00000150: f886 b53c f7f7 15bc 4de6 183d 4c56 5e3b
00000160: 7b41 35bd d9c0 7a3d 1ec0 473d 54f4 543d
00000170: 00d9 7abc 4a42 48bd ac9e 4e3d 80ef 22bd
00000180: 4db3 273d 9c38 24bd ae2d 7cbd a82e 473d
00000190: 4439 5dbd cc48 0ebb 225e 783d 8787 edbb
000001a0: fb1c 17bd 45f6 00bd b500 9c3c b1d9 6fbd
000001b0: 1f60 66bd 4ba5 093d 749e 573c 351f 5b3d
000001c0: ca01 66bd 0777 5a3d e71e 323d 7c36 143d
000001d0: 5e3d 693d 2e7e 2438 c0c8 18bb d3c2 683d
000001e0: dc73 c6bc 10e0 a43c e172 68bc a300 dfbc
000001f0: 4e1a 81bd 6f0c 523d 259c 6f3c 9075 22bc
00000200: 12d0 c3bc cf8b 72bc 28c7 5139 5ebd 643b
00000210: 3c75 3b3d 77d0 043c e26d 0c3d 1e74 623d
00000220: 9486 32bd edd5 03bc 38e6 f4bc ed71 8b3c
00000230: 5d30 7b3d 11af 1bbd 0cf4 2fbd 2fa6 85bc
00000240: f450 32bd daca 603d 7c9d 543d f563 403c
00000250: 90b8 703d ce2b 833c cf09 173d 1bac fb3a
00000260: 4fd1 2c3c b24a aabc bc80 ecbc 2650 37bd
00000270: e524 4dbd d6ed 54bc f433 e93c 0703 47bd
00000280: d24f 2f3b 3d2f 0ebd a6e2 2fbd 04e4 65bc
00000290: 8a67 d0bc 29ef 2ebd c3c7 06bd 0470 2fbd
000002a0: fe41 6e3c 9359 25bd 2a25 7bbc 88f7 1cbd
000002b0: 13aa b2bc c1dd 54bd d57a 2cbd 9167 3a3d
000002c0: 8ef8 943c 6324 223c 4a5c 0b3d b688 e9bc
000002d0: 4090 2c3d 99b1 8ebb 3623 1fbd 9fd6 373d
000002e0: 21fc d2bc 575a bbba ab57 94bc 533a f3bc
000002f0: 77a2 27bc e777 6cbd e776 46bd 3817 1ebd
00000300: 3ae8 08bd 9c56 d0bc 9ee5 63bd f947 0abc
00000310: 6d37 453b f098 57bd a487 6bbb 6e0a 113d
00000320: 3dfd d93c 1cd6 663d eb57 c33b ac54 34bd
00000330: 2599 1dbd 040e 0c3d e14a f63c a6a4 68bc
00000340: 64bb 14bd 4ee4 b8bc 3afe 703d 96b6 07bd
00000350: 67a6 143d 1a74 6a3d ab4f 723d d7e6 603c
00000360: 2d50 8e3c e8c2 6d3d c6d8 3a3d c4ea e13c
00000370: 9f5f f0bc 2a67 00bc 5e52 173d 8133 4dbd
00000380: 56ac 243d a421 573d 9e1f 26bc 593e dd3c
00000390: f9db 63bb 24cb b03c 77f3 8d3c 1edf 053d
000003a0: 16fc f43c b8e2 7fbd 6f46 47bd 77e3 22bd
000003b0: 6001 333d b6e4 26bc e96f 883c e059 453c
000003c0: 3611 1b3d 7f3f af3b 3cc3 523d a9a7 53bd
000003d0: 3562 2ebd 8a25 b0bc c6a5 89bc f6ef 23bd
000003e0: ad24 76bd 1b06 513d 8d29 49bd 1e8e c63c
000003f0: 7872 223d 3bea 86bc 60aa 0fbc 6e27 c5bc
-0.031175472 0.021449145 0.035822783 0.020426625 -0.061295193 -0.0033010503 0.050555043 -0.037665796
0.03523139 0.012399424 -0.02974156 0.03912859 0.034624137 -0.04380731 0.052774392 -0.009913707
0.010603383 -0.031839125 -0.011221568 0.017434053 -0.056473974 0.0015910694 0.0066798967 0.021740874
-0.044940274 -0.0053269817 0.008456093 -0.03184429 0.058727004 0.03335378 0.034106612 -0.01568403
-0.060894903 -0.018588131 -0.038993813 -0.0108294515 -0.029696282 -0.0055894535 -0.021433817 -0.04848396
-0.034790207 -0.020210149 0.061839867 0.045225345 -0.024253473 0.033399466 -0.048581257 0.04359015
0.038258046 0.03333727 0.04156724 -0.005907755 -0.03357362 -0.03421999 -0.040330596 -0.05071857
0.048517145 0.025857382 0.0055744294 0.041588273 0.019519154 0.023073202 -0.055270735 -0.0024888597
-0.015911777 -0.05371973 0.026605045 0.023579923 0.036349833 -0.017745936 0.032417893 0.022964973
-0.025301019 -0.058947213 -0.043606155 -0.04756218 0.007061296 0.013076492 0.05622079 0.025189169
-0.042219043 0.057938065 -0.05564503 0.026085623 0.022159085 -0.009153358 0.037329007 0.0033925949
-0.0442519 0.06121907 0.0487672 0.051990822 -0.015310526 -0.048891343 0.05044429 -0.039779186
0.04094248 -0.04009305 -0.061567 0.04862848 -0.05400969 -0.002171087 0.060636647 -0.007248822
-0.036892872 -0.03148486 0.019043306 -0.058557216 -0.056244012 0.0336049 0.013160337 0.05349656
-0.05615405 0.05333617 0.043486502 0.036184773 0.05694329 3.921816e-05 -0.0023313016 0.056826424
-0.024225168 0.020126373 -0.0141875455 -0.027221983 -0.06303845 0.05128139 0.01462463 -0.009915724
-0.023902927 -0.014803841 0.00020005985 0.003490291 0.0457661 0.0081063425 0.03428448 0.05528652
-0.043585375 -0.008046609 -0.029894933 0.017022097 0.06132542 -0.038008753 -0.04295735 -0.016314594
-0.043534234 0.054880954 0.051908 0.011742582 0.058769763 0.016012099 0.03687459 0.0019201072
0.01054795 -0.02078757 -0.02886998 -0.04475417 -0.050084013 -0.012996158 0.028467156 -0.04858687
0.0026750457 -0.03471302 -0.04294076 -0.014031414 -0.025439996 -0.04270855 -0.03290535 -0.042831436
0.014542101 -0.040368628 -0.015328685 -0.038322 -0.021809613 -0.051969294 -0.04210933 0.045508925
0.018184926 0.009896371 0.03402356 -0.028507572 0.042129755 -0.0043546674 -0.03885194 0.044882413
-0.02575499 -0.0014293891 -0.01810821 -0.029690897 -0.010231606 -0.057731535 -0.048453238 -0.038596362
-0.033424594 -0.025431924 -0.055638902 -0.008440011 0.003009285 -0.052636087 -0.0035939002 0.035410337
0.026610011 0.056356534 0.0059614084 -0.044026062 -0.038476128 0.034193054 0.030065002 -0.0141994115
-0.036311522 -0.022569802 0.0588362 -0.033133112 0.036291506 0.05723963 0.05915801 0.0137269115
0.017372215 0.058047205 0.045616888 0.027577765 -0.02934247 -0.007837096 0.036943786 -0.050097946
0.040203415 0.052522317 -0.010139374 0.027007269 -0.0034768565 0.02158124 0.017328007 0.032683484
0.02990536 -0.062472075 -0.048651155 -0.03976771 0.043702483 -0.010186365 0.016654925 0.012045354
0.03785821 0.0053481455 0.05145572 -0.051673565 -0.042574126 -0.021502275 -0.01680268 -0.040023766
-0.06009357 0.051031213 -0.04911189 0.024237689 0.039659947 -0.016469112 -0.008768648 -0.024066653

layer2.0.bias f4 [84]
00000000: cb4d a7bc a2b7 9e3b f13e 633b 22cd 0b3d
00000010: 9ec7 673d 1d12 fc3c 6705 72bd 8b8f 6f3d
00000020: efd0 133d 8535 8ebc 80bd f93c 5e30 28bd
00000030: ad2c 6c3d 89a9 db3c f89f 1f3d 719f 4a3d
00000040: 4881 a3bc 2fff 69bd 2872 4bbd 004a 3e3c
00000050: f2f4 083b 2981 4cbc 6b78 7c3d 964e 1f3c
00000060: 2b33 8cbc dbfa 1d3d 0ebb b8bc 7447 09bc
00000070: a5e7 8b3c 755e cf3a 4f1b 103c 769c f9bc
00000080: 2c9a 123d eb35 adbc 5318 a4bc 1c3e efbc
00000090: 7eec 46bd 84ae bebb dfad 913c f9c9 61bd
000000a0: 503b f53c 2e96 b0bc 851f 15bd 1927 1dbd
000000b0: 6ebe 163d d7e0 1cbd ff77 903c dc1b 72bc
000000c0: bc81 213d 389a 563c b004 e0bc 28e5 5abd
000000d0: fb07 20bd 5eaf b53c 38fb 61bd 56ee 403d
000000e0: 8143 cabb 74de 5c3c aca9 28bd 1dd2 d5bc
000000f0: b80e 7cbd fe3a 373d a985 1bbd 5546 b33c
00000100: 69d0 5fbd 1910 003c 864a cdbb 5c9e 263c
00000110: 57e5 293d 57c9 0dbd 6c24 f5bc 180c 613d
00000120: 59f7 c5bc 80e8 79bb 2ebb 47bc 049b 1dbd
00000130: 9404 283c 0cd9 40bd 2b02 2a3d ae2b 953c
00000140: 4a9e 523d 7c40 7fbc d79b ef3c 538c 67bd
-0.020422837 0.004843668 0.0034674967 0.034131177 0.056586854 0.030770356 -0.059087183 0.058486503
0.036087926 -0.017359504 0.030485868 -0.04106175 0.057659794 0.02681424 0.038970917 0.04946846
-0.019959107 -0.057128128 -0.049669415 0.011614323 0.0020897952 -0.012481966 0.061638277 0.009723326
-0.017114243 0.038569313 -0.022550132 -0.008378852 0.01707823 0.0015820997 0.008795573 -0.030470114
0.03579156 -0.021143874 -0.02003113 -0.02920442 -0.04856538 -0.0058191437 0.017783104 -0.055124257
0.029935509 -0.021555986 -0.036407012 -0.038367365 0.0368027 -0.03830036 0.017635344 -0.01477715
0.039430365 0.013098292 -0.027345985 -0.053441197 -0.03907011 0.022178348 -0.05517122 0.047102295
-0.006172598 0.013480771 -0.041177437 -0.026101166 -0.061537474 0.044733994 -0.037969265 0.021884123
-0.054642115 0.007816338 -0.0062649874 0.010169592 0.04147848 -0.03461584 -0.029924594 0.054943174
-0.024165796 -0.0038132966 -0.012190623 -0.038477913 0.010254998 -0.047081992 0.041505974 0.018209305
0.051420487 -0.015579339 0.029249115 -0.056530308

layer3.0.weight f4 [8, 84]
00000000: cc44 b1bd 8a1b cebd 722a dabc abc5 843d
00000010: 5bb1 b03d b232 ad3d 6213 903c 4ae2 b4bd
00000020: cfec debd 9070 82bc b30b 813d 2f46 80bd
00000030: 4406 cbbd 9693 a53d f407 773d 14ae 13bd
00000040: 45cc 95bd e381 903d 1e1b aebd a769 ccbc
00000050: 2ba0 aebd 1245 23bd 72e5 213d 9c30 c23d
00000060: 2ba5 bf3c a360 cabc 00a8 983c 0478 df3c
00000070: 8b6e 88bd 76ff b03d dc83 ee3c 7b8f e7bc
00000080: e718 adbc 0d77 f03c 728a 6abd 3a92 173d
00000090: 9089 e23a 3877 943d fff7 e0bc 3125 2c3d
000000a0: ba49 f7bc 7d25 9dbb 783b b9bd 6a6b cdbd
000000b0: 57f6 2cbd b0b8 cfbd 5c8c 13bc 80d2 64bd
000000c0: 3bcc 41bc 03d9 b73d 7597 86bd 7d99 963c
000000d0: a109 eebc 98c7 4cbb 21f4 8dbb 159b 963d
000000e0: 0a11 c1bc 84a1 363d 74a8 d73d d521 d43d
000000f0: 7c58 1bbd 6d39 aa3d ce9b 88bd 755e babb
00000100: b445 80bd d12c 07bd 00ff 9dbc 210b b33d
00000110: 468d 18bc 6591 92bd a0a7 06bd 1b2b 57bd
00000120: 4bea 1d3c 8dc0 7fbc 8f7e 1ebd 4070 d9bc
00000130: 0380 693d adae 843d ec43 a83d f4e4 e33c
00000140: f76b d9bd e1c2 073d 6530 713d 9663 71bd
00000150: 93e6 d73c 07bc 19bd 95f5 b23d fd31 9dbc
00000160: b4e7 d2bc 8e8e e33c 2a9a 243d 0848 333c
00000170: 9450 b7bd 505f bc3d b99a 263d 7c1b db3d
00000180: 9f67 103d 5f0f 823c cf33 64bd fce3 a13b
00000190: fe6c d13c daa6 bdbd dd48 633d 46d7 1bbd
000001a0: 8f61 b6bc cb8f 4ebd 5612 0cbd 6e9f 10bd
000001b0: 6b11 9ebd cfe6 d5bc 9049 8cbd 9d24 1e3d
000001c0: a0a8 3b3c 78ef 80bd 9864 d03d 3c39 953c
000001d0: 9d72 fbbc 3218 46bd bab5 5f3d e9f5 bebd
000001e0: fdf2 a3bc da2e 7cbd 7ed9 bcbc cdbf 4a3d
000001f0: 213c c13d 28c6 893d b020 acbb b926 a63d
00000200: af33 f7bc ebf9 e1bd eda4 4c3d db01 cbbd
00000210: 5f6e aebc 8591 963d 5304 083d 1198 8bba
00000220: d84f b53d d491 0e3d f7b4 ffbb 4cd8 e7bc
00000230: 6db8 a03c 2d72 09bc e1b1 c53b cf79 3d3c
00000240: 8b38 ad3d 0487 033d 38e1 693d 7b68 913c
00000250: 9c54 21bc 5ca3 f83c be18 cebd 00c5 a23d
00000260: bb96 40bd dffe 1a3c 61cb ba3d 3dfa 92bd
00000270: 6174 a43d dc61 bbbd 36df 90bd 5f64 7cbd
00000280: 99e1 303d 078c b13c 0022 c7bd 22e0 973d
00000290: ccb6 a8bd 56dd 893b 70f0 1dbd 77c7 893d
000002a0: 9c06 9dbd 0fc0 cabd 82e8 d93d 6d8b 96bd
000002b0: cdaf e0bc eb31 383d 38c4 123d 5414 d1bd
000002c0: 8a1b 853c 2fb6 66bc a860 053d 9172 08bd
000002d0: 7271 62bc 82bd babd 04e0 9b3d 3f3d 81bd
000002e0: 4137 b43d c6f0 89bc 709e 20bd c73d 4ebd
000002f0: 6ef8 053d d302 c33d b947 d1bd 05b4 c33d
00000300: 0dc5 393d d24c 4d3d 54d4 31bd 6a03 043d
00000310: 7daf aabd 4928 a6bd 5924 763b 3e8f a23d
00000320: 9eff 51bd 861d b93c 7542 893d 5c92 fc3c
00000330: 8839 cbbd 4de4 943d 9057 95bc 5d92 33bc
00000340: 3962 81bd 1950 9abc 4764 d43d 06ba 9f3d
00000350: 84ac d03d 13bd 5abd 4104 17bd 0c74 91bd
00000360: fe01 4f3d 6499 923d 6473 90bc fe00 d93a
00000370: 8f83 a13d 2782 c43d cb7e a13d 6eaa 90bd
00000380: c099 f9bc 3d39 d7bd 3d9d e2bc 1e1b 323c
00000390: 0b71 8a3d 1ee4 343d 93e5 4cbd 9e1a a8bd
000003a0: 4eb3 9e3d 94b1 83bd e1f0 b93d e959 cb3d
000003b0: 7a4a d0bd c4f4 74bd a115 cf3d ff67 9b3c
000003c0: d6d8 423d 8560 1dbd 1a12 5b3d 852f eb3c
000003d0: 702c d83d 537f 62bc e291 43bd 3ccf 0dbd
000003e0: ca63 f7bc 452d a93d 0f7f e9bc 3860 7b3d
000003f0: cb52 b5bc 1394 613c 003e 48bd 70d8 4ebd
-0.086557 -0.100638464 -0.026631568 0.06483015 0.08627578 0.08456935 0.017587367 -0.08832224
-0.108850114 -0.015922815 0.063010596 -0.062633865 -0.099133044 0.080847904 0.06031032 -0.036054686
-0.07314352 0.07056024 -0.08501266 -0.024952723 -0.08526643 -0.039860792 0.039525457 0.09481928
0.023394188 -0.024704283 0.018634796 0.027278908 -0.066617094 0.08642475 0.02911561 -0.028266659
-0.021130038 0.029353643 -0.057260938 0.037004687 0.0017283428 0.07249302 -0.027462004 0.042027656
-0.030186523 -0.0047957287 -0.09044546 -0.10030253 -0.042227115 -0.10142648 -0.009005632 -0.05586481
-0.0118284775 0.089769386 -0.06571857 0.018383736 -0.029057326 -0.0031246897 -0.004332081 0.07353798
-0.023567695 0.044587627 0.10530177 0.103580154 -0.037926182 0.08311734 -0.066703424 -0.0056875297
-0.06263295 -0.033001725 -0.019286633 0.08742357 -0.009311026 -0.07156638 -0.032874703 -0.052531343
0.009638379 -0.0156098725 -0.038694914 -0.026542783 0.057006847 0.06478629 0.0821608 0.027819134
-0.10616296 0.033144835 0.058884043 -0.058932863 0.026355064 -0.037532832 0.08738247 -0.019188875
-0.02574525 0.027777936 0.040186085 0.010942467 -0.08950916 0.09197867 0.0406749 0.106986016
0.03525507 0.01587647 -0.05571347 0.004940508 0.025564667 -0.0926034 0.05548941 -0.038047098
-0.022263316 -0.0504301 -0.034197174 -0.035308294 -0.07718166 -0.026111035 -0.068499684 0.038609136
0.011453778 -0.06295675 0.10175437 0.018215768 -0.0306943 -0.04836292 0.054616667 -0.093242474
-0.020013327 -0.06156812 -0.023052927 0.04949932 0.09435297 0.067272484 -0.00525292 0.081128545
-0.030176012 -0.11033996 0.049961973 -0.09912463 -0.021292863 0.073519744 0.03320725 -0.0010650178
0.088531196 0.03480704 -0.007803555 -0.02830138 0.019619191 -0.008389038 0.0060331677 0.011564686
0.0845805 0.032111183 0.05709955 0.017750015 -0.009846833 0.030351333 -0.10063313 0.07947731
-0.047018748 0.00946018 0.09120823 -0.071766354 0.0803001 -0.091495246 -0.07073824 -0.06161916
0.043183897 0.021673216 -0.09723282 0.07415797 -0.08237991 0.0042072935 -0.038559377 0.06727498
-0.07667276 -0.098999135 0.106400505 -0.07350812 -0.027427578 0.04496948 0.03583166 -0.102089554
0.016248483 -0.014081522 0.03256288 -0.033312384 -0.013820993 -0.09118177 0.07611087 -0.0631051
0.08799601 -0.016838443 -0.039213598 -0.050351884 0.032707624 0.09522023 -0.10218758 0.095558204
0.045353938 0.05012209 -0.043415383 0.03222982 -0.08334253 -0.081131525 0.0037558286 0.079374775
-0.051269166 0.022597086 0.06702129 0.030831508 -0.099230826 0.072701074 -0.01823023 -0.010960189
-0.063175626 -0.018837022 0.10370689 0.07799153 0.10189155 -0.05340297 -0.03686929 -0.07102212
0.05053901 0.07158163 -0.017633148 0.0016556082 0.07886421 0.09595137 0.07885512 -0.07063757
-0.030468822 -0.10508964 -0.027662868 0.010870723 0.067598425 0.044162862 -0.050023627 -0.08208202
0.077490434 -0.06430355 0.09079147 0.099292584 -0.10170455 -0.05980374 0.10111547 0.018970488
0.047570072 -0.038422126 0.05348406 0.028709183 0.10555351 -0.013824302 -0.047746547 -0.034621462
-0.03019895 0.082605876 -0.02850297 0.06137106 -0.022134205 0.013768214 -0.048887253 -0.05049938

layer3.0.bias f4 [8]
00000000: 89c4 95bd 4eb5 873c e33e a3bc c859 c43d
00000010: 942e 61bc 8c67 bebd 7ffb cc3c 776d 513d
-0.07312877 0.016565945 -0.019927448 0.09587437 -0.013744015 -0.09297094 0.025022266 0.051129784
